amazon/20230719-160915/commm.pt (torch, 253910 bytes, 15 tensors)

encoder.learnable_skip f4 [2, 2]
000000 7d 89 7f 3f 00 00 80 3f 12 8b 7f 3f 2e 8b 7f 3f
       0.99819165 1.0 0.9982158 0.99821746

encoder.pre_mp.0.weight f4 [64, 5]
000000 44 55 b5 bb 4f b5 73 3e c7 55 bb be 29 68 a7 be
       -0.005533846 0.23799632 -0.3658888 -0.32696655
000010 03 28 2e be 76 72 f9 3d 30 38 0a bc f7 ee b5 3e
       -0.17007451 0.12180035 -0.008436248 0.35533878
000020 cb 6f 1f bd ad be f3 3d ee 37 08 be 4f 8f b6 bd
       -0.038924973 0.11901603 -0.13302585 -0.08914053
000030 e0 bb d9 be 2b a4 96 be 32 bf 3a be 8a dd 81 3c
       -0.4252615 -0.29422125 -0.18236998 0.015852708
000040 78 c3 36 3e 85 a0 88 3e 99 36 9c be 18 46 49 be
       0.17848003 0.26684967 -0.30510405 -0.19655645
000050 15 4b 28 3e eb 30 bd 3e f5 30 ba bd 11 34 ac 3e
       0.16434892 0.36951384 -0.09091369 0.33633474
000060 5e 95 90 bd 11 cf 3b 3d d1 18 cf 3e 9b 49 d4 be
       -0.070597395 0.04585177 0.4044862 -0.41462407
000070 cc ba 8f be d0 04 e7 bd 8b d4 34 be 9d 1c c5 3e
       -0.28072202 -0.11280215 -0.17659204 0.38498393
000080 cb 6f 93 be ee e6 50 be 94 01 9f be 58 a8 d5 be
       -0.2879623 -0.20400593 -0.31055892 -0.4173
000090 60 9f 86 be c0 aa c5 3e 55 51 4e 3e 88 dc 5f 3e
       -0.26293468 0.38606834 0.20148213 0.2186147
0000a0 ec da ae 3c c8 42 6c be 30 f8 9e 3d 74 cd d4 be
       0.021344624 -0.2307235 0.07762182 -0.41562998
0000b0 2c 74 a4 be 9d c4 69 be 73 8b 91 3e d4 1a 85 3e
       -0.32119882 -0.22828908 0.28426704 0.2599703
0000c0 c9 62 4d be 79 7e 96 bc 1a 46 91 3e e9 04 e4 3e
       -0.20057215 -0.018370854 0.28373796 0.44534996
0000d0 21 62 34 3e cd 34 71 3d 02 cf 98 3e d2 57 87 be
       0.17615558 0.058888245 0.29845434 -0.2643419
0000e0 44 48 a6 3d 60 2f b0 be 7c 60 9d be 1e e4 69 be
       0.08119252 -0.34411144 -0.30737674 -0.22840926
0000f0 cb 7a 51 3e fe f5 35 3e fb a7 88 be c8 ba 08 3e
       0.20456998 0.1776962 -0.2669066 0.13352501
000100 60 76 79 3e 89 eb 5f bd aa d8 9b 3c 6a 41 d0 3d
       0.24361563 -0.054667983 0.019024212 0.10168727
000110 92 0c 8d 3e 00 dd da 3e 61 ae af be 9f 91 25 be
       0.27548653 0.42746735 -0.34312728 -0.16168831
000120 fb e5 31 3e 40 a7 bc 3e c1 34 c6 3e b3 c4 c8 3e
       0.17372887 0.36846352 0.38712123 0.3921257
000130 8d 66 b2 3d 8a fa c5 be 09 33 31 3d a7 22 8e be
       0.08710966 -0.3866771 0.04326156 -0.27760813
000140 f4 29 d4 be 78 5a ca 3e f0 52 ad 3e 4f 6e e4 be
       -0.41438258 0.39522147 0.3385234 -0.4461541
000150 8f 9d a9 3d e0 11 96 bd 04 36 99 bd cf b9 53 be
       0.08282005 -0.07327628 -0.07481006 -0.20676349
000160 db 0a 2e 3e c4 a9 88 be 3a d6 29 3e 28 89 65 3e
       0.16996329 -0.2669202 0.16585627 0.22415602
000170 cb 97 a4 3e c8 39 2d 3e 76 b8 e1 be 87 68 93 be
       0.3214706 0.16916573 -0.44086045 -0.28790686
000180 44 5b 66 3e 95 6d c3 3d 2b 1d b2 be 42 01 83 be
       0.22495753 0.095423855 -0.34787878 -0.25586897
000190 d0 5b d8 3e be 33 99 3e e0 73 45 be ca 1f e2 bd
       0.42257547 0.2992229 -0.19282484 -0.110412195
0001a0 17 03 d9 be f1 d6 c6 bb dd 65 ad be be a8 af be
       -0.4238517 -0.0060681035 -0.33866778 -0.34308428
0001b0 5b 06 ba bc 8e 6a 8d 3d 62 93 39 be 06 35 87 3e
       -0.022708109 0.06905089 -0.18122628 0.2640764
0001c0 85 5f 8c be a3 b9 ce 3e 3e e1 9b 3e 31 7f c1 be
       -0.27416626 0.40376005 0.30445284 -0.37792352
0001d0 4a b8 e7 bd 97 bd ac 3c 8c c6 89 3d d3 13 dd 3d
       -0.11314447 0.021086497 0.06727323 0.10794797
0001e0 76 3d 36 3e e3 66 e7 3c a6 83 61 be 01 a3 56 3e
       0.17796883 0.028247302 -0.22022876 0.20960619
0001f0 bb ab dc be f9 f0 86 be 4c 35 e9 bd c1 14 5d be
       -0.4309977 -0.26355723 -0.11387119 -0.21589948
000200 d4 2a 1e be e0 a9 ba be 5c 19 be bd 2f 3a bf 3d
       -0.15446025 -0.3645773 -0.09282181 0.093372695
000210 b1 a8 95 be 9f ca c2 bc df 93 a3 3e 9d c8 33 bd
       -0.29230264 -0.023778258 0.31948754 -0.04389249
000220 8d 66 2b 3c 90 89 21 bd 34 d6 ba 3d 8d 95 91 3e
       0.010461462 -0.03943783 0.09122887 0.2843441
000230 32 06 da 3e 5d 9c 90 3e fa 95 d8 3e 6f 97 09 bd
       0.42582852 0.28244296 0.42301923 -0.033591684
000240 43 67 ce be b4 c2 56 be 3b dd 9c 3e 3e a4 a4 bb
       -0.40313157 -0.20972711 0.30637535 -0.005024462
000250 8b c7 65 be 55 8b b0 be 26 9b d5 be 35 4d c0 be
       -0.22439401 -0.34481302 -0.4171993 -0.37558904
000260 9c 77 b9 bd 4c 33 79 3e 79 32 76 3e f1 ce db be
       -0.09056017 0.24335974 0.24042691 -0.4293132
000270 8d bf 8d 3e ae a7 b2 be 55 8b bd bd 7e da 37 be
       0.27685204 -0.34893554 -0.09255091 -0.17954442
000280 8a d4 b3 bd 4d fc b0 bd 72 59 cd be 83 9f c5 be
       -0.08780773 -0.086418726 -0.40107304 -0.3859826
000290 f7 02 8f bd c5 1a 01 3c b1 0c 52 be 94 28 2c 3e
       -0.069829874 0.0078799175 -0.20512654 0.16812354
0002a0 96 5a cd be ae c6 ef bc 7d 4b c8 3e 32 40 39 be
       -0.40108174 -0.029269543 0.39120093 -0.18090895
0002b0 f4 ad cf 3e a0 55 26 3e 16 0f ce be d8 32 91 3e
       0.40562403 0.16243601 -0.40245885 0.28359103
0002c0 2d 7a 49 bd 04 ac 4e be b2 f5 b5 3e 1d 2b ba be
       -0.04918878 -0.20182806 0.35539013 -0.36361018
0002d0 34 f2 4c 3d 20 9e be bd e0 74 a2 3e 8a 77 fb 3d
       0.05003567 -0.09307504 0.31729794 0.1227866
0002e0 27 f0 59 3e 45 d4 23 3e 63 82 df bd 45 8b c4 bd
       0.21283017 0.15998943 -0.10913541 -0.09596876
0002f0 fd a8 bd be 59 32 76 3e 1e b8 b4 3e ca bf 9b 3e
       -0.3704299 0.24042644 0.3529672 0.3041976
000300 1e 6f a0 be 73 37 b4 3c 4a 58 a0 be 37 c6 79 be
       -0.31334776 0.021999096 -0.3131736 -0.24392019
000310 4f a4 84 be 3d 6f 1a 3e b7 78 89 be 09 aa 40 bc
       -0.25906608 0.15081497 -0.2684991 -0.01175929
000320 96 e1 89 3c 19 99 94 3e 8b ef ab be eb 32 9c be
       0.0168312 0.29023054 -0.33581194 -0.30507597
000330 6e d5 83 be c0 50 a1 3e a4 4f 26 be f3 16 c0 3e
       -0.2574877 0.3150692 -0.16241318 0.3751751
000340 db 86 23 3e 65 9a 5f 3d ea 21 ae bb d4 0a b1 bd
       0.15969412 0.0545906 -0.0053141015 -0.086446434
000350 8f 9c 6c 3d ba 37 ce bd 1c 81 cf ba 5b d0 70 3d
       0.057766493 -0.10069223 -0.0015831324 0.058792453
000360 55 17 b4 be 43 04 6e be 57 e1 b9 3e c3 d0 b8 be
       -0.3517405 -0.23243813 0.36304733 -0.36096773
000370 a6 be 07 bd fa 97 e1 3e 65 86 27 3e 1c 5e 70 3c
       -0.0331408 0.4406126 0.16359861 0.014670875
000380 5c 64 c5 be c1 cb 64 3e 2d 22 a2 be f1 31 04 be
       -0.3855313 0.22343351 -0.316667 -0.12909676
000390 10 d5 1b be fa 02 8c bd ab 10 08 3b 74 0c bd 3e
       -0.15217996 -0.06836505 0.0020761888 0.36923563
0003a0 02 6f 63 3d 30 9e cd 3e 80 08 8c 3e c4 e1 91 be
       0.055525787 0.4015975 0.27350235 -0.28492558
0003b0 62 5f 4f 3e 03 b0 a0 be 4c cf 3f be b6 07 09 3e
       0.2025123 -0.31384286 -0.18731421 0.13381848
0003c0 2a e2 16 3e 93 ad aa 3e f4 ad 15 be f4 6f f7 38
       0.14734712 0.33335552 -0.14617139 0.00011798731
0003d0 2f da 69 3e 4e 6a de be dd 88 a6 3e b0 b9 bc be
       0.22837137 -0.4344048 0.32526293 -0.36860418
0003e0 e0 1b b2 3b 6e 9d 9b bd 2f 33 73 be d7 b5 78 3d
       0.005435452 -0.07598387 -0.23749994 0.06072029
0003f0 c0 63 be 3e 91 cd 03 be 91 e4 86 be f4 8c 27 be
       0.37185478 -0.12871386 -0.26346257 -0.16362363

encoder.pre_mp.0.bias f4 [64]
000000 4c 05 22 3d a9 23 5d 3d 18 17 b5 be 20 7c 13 3d
       0.039555833 0.053989086 -0.35369182 0.036007047
000010 34 93 9d 3e 41 17 cf 3e e3 c0 87 3e 1b da 6d 3d
       0.3077637 0.4044743 0.26514348 0.05806933
000020 48 1e 58 3e 41 0f 61 be f7 93 bc be 65 6f c4 be
       0.21105301 -0.21978475 -0.36831638 -0.38366237
000030 f5 4a e3 3e 6a 72 90 3e 28 fc 9e be 3c c4 35 3e
       0.44393125 0.2821229 -0.31051755 0.17750639
000040 e8 af ab 3e 8d d4 e3 3e 67 3a c7 3e 1e 44 b0 3e
       0.33532643 0.444981 0.38911745 0.3442697
000050 5c d3 d5 bd b8 bb 22 be 0b 04 bb 3e 2b 74 80 3e
       -0.10440704 -0.15891922 0.36526522 0.2508863
000060 38 0f 8b be 84 0d cd 3e 50 e6 5a 3e 38 83 77 3e
       -0.27160048 0.40049374 0.2137692 0.2417115
000070 1a a3 90 be d8 05 01 3e f6 72 21 be 66 e2 b1 3e
       -0.28249437 0.12599885 -0.1576651 0.3474304
000080 29 60 a1 bd cb 24 30 3e e2 e4 a6 3d c3 8e 42 3e
       -0.07879669 0.17201535 0.08149125 0.18999772
000090 cd b8 1d be d8 2e 5d 3e 46 15 9f be af 2c ca 3d
       -0.15402527 0.215999 -0.31070918 0.09871804
0000a0 3f e6 99 be b6 f0 e2 be 37 dc b6 be b4 df b3 3e
       -0.30058476 -0.44324273 -0.35714886 0.3513161
0000b0 76 79 78 3e f5 dc d5 3e 9d e1 b8 3e fd 5c cb be
       0.24265084 0.4177014 0.3610963 -0.39719382
0000c0 1d 36 9c be 5b 13 90 bd 70 b2 93 be 6f 11 9e 3e
       -0.30510035 -0.07034942 -0.28847075 0.30872676
0000d0 a0 00 ac be 4b 57 5d be 7c 41 dc be f6 f5 80 be
       -0.33594227 -0.21615331 -0.4301871 -0.25187653
0000e0 17 73 bb 3e 54 4c ba 3e 59 16 a5 3e ee d6 af 3e
       0.36611244 0.3638636 0.32243612 0.34343666
0000f0 02 20 cb 3e 40 b7 e7 bd af 2d 4b 3e 5f 75 cb 3e
       0.39672858 -0.11314249 0.19841646 0.39737985

encoder.convs.0.bias f4 [64]
000000 e2 1e f5 ba f4 c7 b0 ba 93 4c 8c 3a 2a 4e e2 ba
       -0.001870122 -0.0013487325 0.0010703973 -0.0017265726
000010 37 06 09 3b 3e 8d 2d 3b f7 4f 08 3b e1 e1 fe 3a
       0.0020908245 0.0026481892 0.0020799616 0.0019445979
000020 ba 19 01 3b 5a 91 ef ba 00 00 00 00 dc e6 f7 ba
       0.0019699172 -0.0018277571 0.0 -0.0018913406
000030 a3 44 24 bb 4a f5 78 3a 2d b1 04 bb 00 00 00 00
       -0.0025065325 0.0009497 -0.0020247207 0.0
000040 2f 03 09 bb c1 3f 08 bb 5a 87 2f 3b 00 00 00 00
       -0.0020906439 -0.0020789953 0.0026783557 0.0
000050 19 d5 de ba 69 d1 15 bb 25 66 f4 ba d8 95 06 bb
       -0.0017000764 -0.0022860414 -0.0018646164 -0.0020536091
000060 3f d9 f7 ba 2c 96 fe ba 00 00 00 00 48 11 a3 ba
       -0.0018909349 -0.0019423417 0.0 -0.0012441063
000070 00 00 00 00 c7 d8 f7 3a a8 5d a1 3a 00 00 00 00
       0.0 0.0018909209 0.0012311237 0.0
000080 00 00 00 00 53 0a e6 ba 47 03 bc 3a d2 9f d8 37
       0.0 -0.0017550684 0.0014344238 2.5823629e-05
000090 bb 94 d7 ba 87 37 fb 3a d6 8b 50 3a ec 7b be ba
       -0.0016447523 0.0019166329 0.00079554075 -0.0014532781
0000a0 75 f1 11 3b 58 e3 ad 3a 82 61 f3 ba 77 9b b5 ba
       0.0022269164 0.0013266606 -0.0018568488 -0.0013855536
0000b0 5f b7 7b b9 9b 2d ff ba b6 80 12 3b 59 15 c2 3a
       -0.00024005536 -0.0019468548 0.002235455 0.0014807387
0000c0 00 00 00 00 27 a5 08 3b dd 49 c0 ba 02 d5 02 3b
       0.0 0.0020850392 -0.001467045 0.0019963388
0000d0 65 27 d2 3a e8 dc 04 bb 5e ec da 3a 95 9e fb ba
       0.0016033469 -0.0020273272 0.0016702523 -0.0019197041
0000e0 00 00 00 00 79 38 97 b7 00 00 00 00 9e 5c 16 3a
       0.0 -1.80269e-05 0.0 0.0005735847
0000f0 ed c4 00 bb 6c 32 47 3a f5 63 07 bb ec a0 f5 ba
       -0.0019648627 0.0007598761 -0.0020658944 -0.0018739975

encoder.convs.0.lin.weight f4 [64, 64]
000000 6b 96 0c 3b f4 bc 33 be 03 ed fe bd c7 2b b5 bd
       0.002145196 -0.17552549 -0.1244755 -0.088462405
000010 48 03 ae 3c a2 4c a7 3d 75 20 2d bd 09 62 af bd
       0.021241799 0.081689134 -0.04226728 -0.085636206
000020 9e ad be 3d 3d 9a 55 be 18 e0 1c 3e 65 3f bf bc
       0.093104586 -0.20859618 0.1531986 -0.023345659
000030 0b 5c 18 3e 9b aa 25 3e a3 be cc 3c 0e 6a 88 3d
       0.14878862 0.16178362 0.024993246 0.06660853
000040 09 91 fe bd f6 ea 1c 3e 35 b8 ff 3d 22 e7 12 bd
       -0.12430007 0.15324005 0.124863066 -0.035864957
000050 80 79 af 3d 9e e5 28 bc 29 51 2b 3e 73 b2 b2 3d
       0.08568096 -0.010308651 0.16730179 0.08725443
000060 f5 84 23 3e 96 74 4b be 0c 1a 56 3e a6 6a a1 3d
       0.15968688 -0.19868693 0.20908374 0.0788167
000070 3c 74 db 3d ab 17 3e 3d 82 77 13 3e c7 cd 4e 3e
       0.10715529 0.04640929 0.14401057 0.20195685
000080 89 f8 8e bc f9 d7 37 be b6 75 4a 3e e9 d3 42 bd
       -0.017452495 -0.17953481 0.19771466 -0.047565375
000090 c8 01 d2 bd 96 8d 06 3e 95 38 fb 3d c5 da dd 3c
       -0.10254246 0.13139948 0.122666515 0.027081857
0000a0 90 8b 41 bc 15 f8 21 bd 12 31 4d 3e 82 20 05 3e
       -0.011813059 -0.03954323 0.2003825 0.13000682
0000b0 69 25 02 3e 88 6f 0b 3e 85 d1 eb bd c1 c9 40 3d
       0.12709583 0.13616765 -0.11514572 0.047067408
0000c0 d6 da 3d be 79 a4 fe 3d 38 d4 59 be 7c 84 5f be
       -0.1854051 0.124337144 -0.21272361 -0.21827883
0000d0 8e 34 59 be 06 9f 0a 3e 98 a6 c7 3c b2 4e 1a 3b
       -0.21211454 0.13537225 0.02437143 0.0023545441
0000e0 14 4f 05 3d d1 a4 ab bd a6 75 8a bd 42 3f 17 be
       0.032546118 -0.083810456 -0.06760721 -0.14770225
0000f0 2e 3d 60 bd b3 7a 06 be fa 31 7b 3b 37 46 2c 3e
       -0.054745845 -0.13132744 0.003832935 0.1682366
000100 74 bd 39 be 41 ee de 3d 0a cb 25 be 6b 87 bc bd
       -0.18138677 0.10885287 -0.16190735 -0.092055164
000110 48 60 2a 3d f0 95 10 3d cb ab 33 3e ef 58 ea 3a
       0.041595727 0.03529924 0.17546003 0.0017879287
000120 79 0a ad bd b2 3a b4 bd 59 28 05 3c 25 72 26 be
       -0.08449263 -0.08800258 0.008127295 -0.1625448
000130 95 06 2f be f0 27 bc bd 23 6e fb 3b 4c f4 17 be
       -0.17092355 -0.09187305 0.0076730414 -0.14839286
000140 56 88 ff bd 37 a4 1c 3e f6 a6 4b 3e 37 93 8e bd
       -0.12477176 0.15297018 0.1988791 -0.06961673
000150 6c 4f 3f be 27 8f ad bd be df b1 3d b5 af 8d 3d
       -0.18682641 -0.0847457 0.086852536 0.06918279
000160 3c b6 88 bd ce 29 45 be 3e 00 88 bd bb 81 48 bd
       -0.066753834 -0.19254228 -0.06640671 -0.048951846
000170 d6 20 01 3e 4a 6e e0 bd 19 6a 07 3e c4 d5 e6 3c
       0.12610182 -0.10958536 0.13224067 0.028178103
000180 7d 71 1e bd 38 6e 47 be ef 9f 5a 3e eb 69 25 bd
       -0.03868245 -0.19475639 0.21350072 -0.040384214
000190 38 b4 0d 3e f3 e5 e8 bd 43 59 57 be c7 78 32 be
       0.13838279 -0.11371984 -0.21030144 -0.17428885
0001a0 d3 9d e3 bd 59 96 89 bd d8 18 f0 bc 62 39 37 3e
       -0.11114087 -0.0671813 -0.029308721 0.17892984
0001b0 69 1d 4e be ee df d9 3d a4 4e 3b 3e 17 60 17 3b
       -0.20128407 0.10638414 0.18291718 0.0023098045
0001c0 6e b5 08 be d0 58 a9 3b e3 ee 57 3d d0 b6 c0 3d
       -0.1335046 0.005168058 0.052718055 0.09409869
0001d0 6a cb 82 bd 3c e3 93 bd 24 cd d0 bd da 47 55 be
       -0.063864544 -0.07221076 -0.101953775 -0.2082819
0001e0 78 ea 98 3d 0d 03 29 be 7f 8c d7 bd ba 16 7d bb
       0.07466596 -0.1650507 -0.105248444 -0.0038618282
0001f0 32 7d 29 3e 5b 41 47 3e 83 4c 22 be 7e 18 3f 3e
       0.16551664 0.19458525 -0.158495 0.18661687
000200 27 ce 47 3e 67 e0 31 3e b3 83 ab 3c 2d 48 33 3e
       0.19512235 0.17370759 0.020936823 0.17508002
000210 40 90 d9 3d ee ec 1d be 6b 5f e7 bd 6e a1 3b 3b
       0.10623217 -0.15422413 -0.112974964 0.0028630155
000220 bd ea 1b be cc dd 92 bd 31 a0 31 3e 1c c4 d1 3d
       -0.15226264 -0.07171211 0.17346264 0.10242483
000230 8e 24 42 3e ab 84 b0 38 f4 74 e4 bd 39 e6 13 3e
       0.18959257 8.417045e-05 -0.111551195 0.14443292
000240 60 f6 8b 3c 39 bc 19 3d ba a7 b9 bd 54 76 b8 3d
       0.017085254 0.03753302 -0.090651944 0.09006944
000250 48 7b 22 be a3 d2 2f 3e b1 e2 42 3e 45 da a1 3d
       -0.1586734 0.17170195 0.19031788 0.0790296
000260 23 b7 2b 3e 35 b7 07 3e 7a 2e a7 bd 40 80 3f be
       0.1676908 0.13253482 -0.081631616 -0.18701267
000270 4e 57 e2 3c 8c 62 0c 3e 04 f2 be bc 97 67 9e 3c
       0.02762952 0.13709468 -0.023308761 0.019336505
000280 a6 99 25 3e 6c 7a b9 3d 7c 87 24 3e 6b 6d 06 3d
       0.16171893 0.09056553 0.16067308 0.032819193
000290 40 6b bd 3c a0 74 4f bd 60 37 0f bd 2c 46 e9 bd
       0.02312243 -0.05064833 -0.03496492 -0.11390337
0002a0 8f 92 15 3e 87 10 49 3e e7 65 a2 3d 85 b8 e9 3b
       0.14606689 0.19635211 0.079295926 0.007132592
0002b0 e7 12 90 bd 77 c6 59 be ad f0 20 bd a3 2e 1e be
       -0.07034855 -0.21267115 -0.039292026 -0.15447478
0002c0 58 bb 24 be 0b da 2a bd 73 74 32 bd 32 70 37 3d
       -0.16087091 -0.04171185 -0.043568086 0.044784732
0002d0 9a dd 21 be 06 25 1e 3e 41 e4 4a be d8 33 cf bd
       -0.1580719 0.15443811 -0.19813634 -0.1011731
0002e0 0d dc a6 bd af 3e 6c 3c 50 81 b9 3d 8d 3c 65 bd
       -0.0814744 0.014419242 0.090578675 -0.05596595
0002f0 82 b9 0e 3d e7 b6 56 bd 6c 4a ac bd 1a 36 f1 bc
       0.034844883 -0.052420523 -0.08412632 -0.029444743
000300 85 a0 39 3d 69 1e 59 be 76 8b 18 be 9f fb 2e 3e
       0.0453191 -0.21203007 -0.1489695 0.17088173
000310 33 f6 c4 3d a6 0b f6 bb 28 50 0c 3c b8 a8 e6 3c
       0.09617271 -0.007508713 0.008564033 0.028156623
000320 ed 14 47 3d 9d 97 15 be e5 aa 6a bd 52 b4 49 be
       0.04860394 -0.14608617 -0.057291884 -0.19697693
000330 20 11 30 be d8 ee 2d bd 0a 68 f8 bc f7 2a 2f 3e
       -0.17194033 -0.042464107 -0.030323047 0.17106234
000340 f8 b0 11 3d 86 db 16 bd 6e 1d fd bb e6 1d f4 3d
       0.03556916 -0.036830448 -0.0077244556 0.11919765
000350 34 c7 82 bd 82 b5 1e bd 0c fa 38 bd 86 8b 34 be
       -0.06385651 -0.038747318 -0.04516034 -0.17631349
000360 85 b8 e9 bc 4b b7 4e be 2e df f1 bd 9f e2 0e be
       -0.028530369 -0.20187108 -0.11810146 -0.13953637
000370 2d ec 26 3e e1 71 4a be 8b d7 53 3e 85 b9 a2 3d
       0.16301031 -0.19770004 0.20687692 0.07945541
000380 2a 0e 14 be e0 ea 35 3e 2b 7f 4a bd cb 8a 3d be
       -0.14458528 0.17765379 -0.049437683 -0.18509977
000390 70 37 02 bd 67 9d d7 3d 73 ca 55 be 44 fc 92 bc
       -0.03179115 0.10528069 -0.2087801 -0.017942555
0003a0 9f f3 b7 3d a6 44 a9 bd 42 ac af 3c 6c 51 b1 bd
       0.08982014 -0.08265047 0.021444444 -0.08658108
0003b0 5a 82 16 be 19 dc 2b 3e c4 30 1f be 4d f3 54 ba
       -0.14698163 0.1678318 -0.15545946 -0.0008123413
0003c0 18 37 97 3d 08 43 f4 bd f2 a0 d9 3d 7f e1 39 be
       0.07383555 -0.11926848 0.10626401 -0.18152426
0003d0 26 7f 55 3e 43 cf c1 3d 1b f6 ec bc b5 a7 36 be
       0.20849285 0.0946336 -0.028925946 -0.17837413
0003e0 33 2a a2 3b 6c bf 99 3d ba 5b f4 bd 6f 83 ed bc
       0.004948878 0.07507214 -0.11931558 -0.028993336
0003f0 e8 b5 5e be d3 76 5f be 97 c4 ce bc 9f bd 37 3e
       -0.21749079 -0.21822672 -0.025240226 0.17943428

encoder.convs.1.bias f4 [64]
000000 36 fb 0b bb 4f 6a f3 b9 08 48 cc 37 8d 00 fa ba
       -0.002135945 -0.00046427778 2.4352237e-05 -0.001907365
000010 b9 b7 e2 ba 38 39 25 3b ee cd 06 bb b9 f9 12 bb
       -0.0017297185 0.0025211107 -0.002056952 -0.0022426678
000020 b0 1a aa ba 42 ae 07 3b ec ff f9 ba 53 89 04 bb
       -0.0012977924 0.002070323 -0.0019073463 -0.0020223453
000030 5a 22 d4 ba d5 6f 06 3b 2c 7a d8 ba 5c 4f 00 bb
       -0.0016184554 0.0020513434 -0.0016515902 -0.0019578552
000040 f3 c3 17 3b f3 ff f4 3a a1 1d da 3a 23 66 62 3a
       0.0023157566 0.0018692001 0.001664091 0.00086364354
000050 70 da 49 3a 99 0f 03 3b 00 00 00 00 a1 d3 e3 ba
       0.0007700091 0.001999831 0.0 -0.0017381796
000060 e5 23 00 bb c8 e5 e8 ba c6 84 5c 3a 4d 42 05 3b
       -0.0019552645 -0.0017768675 0.0008412119 0.0020333708
000070 b9 a9 08 3b fa 05 f9 ba 33 07 03 3b 1e b7 03 3b
       0.0020853116 -0.0018998974 0.0019993305 0.002009816
000080 a0 29 84 b6 ab 3a ea ba 0b e7 01 3b d3 5b e0 ba
       -3.9387523e-06 -0.0017870268 0.001982155 -0.001711721
000090 8a 15 1c 3b 00 00 00 00 8d d7 0d 3b 2a 9b 0c 3b
       0.002381655 0.0 0.002164337 0.002145479
0000a0 07 b0 dc 38 79 50 08 3b ee e3 06 bb 00 00 00 00
       0.00010523205 0.0020799919 -0.0020582634 0.0
0000b0 ac 8b 19 3b 3b c4 e9 ba 11 9d ec 3a 17 06 05 bb
       0.0023429198 -0.001783497 0.001805218 -0.002029782
0000c0 3f 8e 02 3b 59 82 18 3b e7 36 da ba 2f 9b f6 ba
       0.001992121 0.0023271053 -0.0016648442 -0.0018814559
0000d0 01 dd 07 3b f2 80 aa ba 17 57 08 bb 36 43 1a bb
       0.0020731094 -0.0013008399 -0.0020803863 -0.0023538596
0000e0 f3 dd 17 3b 22 4f ef ba e2 ab 0a 3b 17 f5 d4 3a
       0.0023173064 -0.0018257836 0.002115958 0.0016247359
0000f0 bb e0 d9 38 20 c4 bc ba d8 e9 56 ba 03 0e 01 bb
       0.00010389226 -0.0014401712 -0.00081982976 -0.001969219

encoder.convs.1.lin.weight f4 [64, 128]
000000 ff de e0 bc fb 4d c2 bd c6 35 89 bd 0c a0 a7 bd
       -0.027450083 -0.0948753 -0.066997096 -0.081848234
000010 c8 48 22 3e 47 7c 54 bc 8b 0b 0f 3e 4a 48 f9 bd
       0.15848076 -0.012969083 0.13969247 -0.12171991
000020 e6 a4 aa 3d e3 d7 25 be f6 84 76 bd ff 48 96 bd
       0.08332233 -0.16195635 -0.060185395 -0.07338142
000030 01 d7 2a be 21 b7 07 be 1e d7 ee bd 05 e7 06 bd
       -0.1668358 -0.13253452 -0.11662124 -0.03293516
000040 2f 0b 78 bd f2 34 29 be 78 fd d8 3c 14 71 98 3d
       -0.06055754 -0.16524103 0.02648805 0.07443443
000050 01 38 e7 3c 20 bc 0b 3e cb de 8e bc 2c 54 0e 3e
       0.028224947 0.13645983 -0.01744022 0.13899297
000060 c8 26 19 bc 70 6c 77 bc 7b 3b 4a bc f7 8c 95 bd
       -0.009347625 -0.015101537 -0.012343283 -0.073022775
000070 20 fe 8f bd 9f b2 25 3d 4b 99 c1 bd 48 3b 71 3d
       -0.07030892 0.04045355 -0.094530664 0.058894426
000080 2c da 12 be a7 7b c1 bc 3e 8c bf bc 85 25 a6 bd
       -0.14341038 -0.023618532 -0.023382302 -0.08112625
000090 71 87 03 3e 19 d9 14 be 82 3c a8 3d fe 59 20 be
       0.12844636 -0.14535941 0.08214666 -0.1565933
0000a0 6b 2a d2 3d 66 57 2d 3e 75 84 20 bd 29 71 30 bc
       0.10261997 0.16927871 -0.03918882 -0.010769167
0000b0 f5 99 f0 bb 11 54 cc 3d 23 78 0c 3c af c6 32 bd
       -0.007342572 0.09976972 0.008573565 -0.04364651
0000c0 68 c3 1d 3e ab cc 08 3e df f7 1e bc 69 8e b4 bd
       0.15406573 0.13359325 -0.009702652 -0.08816225
0000d0 d4 24 d4 3d d1 23 9c bd ea ba c8 bd 58 4b e5 bd
       0.10358587 -0.07624019 -0.09801276 -0.11196011
0000e0 31 54 62 3c fa 83 9e bd 40 86 ee 3d 8e 81 f8 3d
       0.013814018 -0.07740016 0.116467 0.121340856
0000f0 2d e5 9e bd bb 01 8b bd 78 06 01 3e e4 bd b4 bd
       -0.077585556 -0.067874394 0.12600124 -0.08825281
000100 f3 05 e1 3d a1 9f 51 bc 3b 0a 00 3e b3 84 b3 3d
       0.10987463 -0.012794406 0.12503903 0.08765545
000110 ce 29 03 be 54 9b 03 be 11 90 9a 3d 69 c0 b4 bd
       -0.12808916 -0.12852222 0.0754701 -0.08825762
000120 66 3f 44 3c 1f 10 03 3d 9c 53 12 be 55 4a 40 bc
       0.011978006 0.031997796 -0.14289707 -0.011736472
000130 88 2b f6 3d d2 0d 9b 3b b6 bd e2 bd 41 e2 1d 3e
       0.12020022 0.004731872 -0.11071341 0.1541834
000140 b3 07 1a 3e 7c b6 24 3d a6 82 e1 bd aa dc 9b 3d
       0.15042 0.040213093 -0.11011247 0.07610448
000150 82 d5 44 3d 7e 89 da bd fb 47 05 be 2a 88 9a bd
       0.04805518 -0.10670756 -0.1301574 -0.075455025
000160 fa 12 29 3e 92 bb 8a 3c 80 4f 28 bb fa 4d a3 3d
       0.16511145 0.016935144 -0.0025682151 0.07973857
000170 3a 68 cb bd 4c a2 6d bd 1c 42 e9 3c eb d3 1d 3e
       -0.09931989 -0.058016106 0.028473906 0.15412872
000180 00 62 4a bc 3a ce 18 3d 45 5d 19 be 1d 9b 2b be
       -0.012352467 0.037306048 -0.14976986 -0.1675839
000190 9e 1c 0f 3d 38 e8 81 bb 3c 41 0d 3e af a2 1c 3d
       0.0349394 -0.00396445 0.13794416 0.038241085
0001a0 c3 75 20 3e 46 e4 12 bd af 20 4e bd e9 cd 8c bc
       0.15669923 -0.03586223 -0.05032414 -0.01718803
0001b0 22 92 ab bd a5 11 19 3c 07 bf 17 be 1d 11 8f 3c
       -0.08377482 0.009342586 -0.14818965 0.017464215
0001c0 20 c5 45 bc 80 a4 60 3d e2 5f 2d 3e 81 f1 79 3d
       -0.012070924 0.05484438 0.16931108 0.06102133
0001d0 c7 64 df 3c 21 a9 f0 bd cf 39 81 bd 4f 40 92 bd
       0.027269734 -0.11751009 -0.06309854 -0.07141172
0001e0 37 fd 18 be fd 11 bd 3d bf fb 2b 3e 03 e1 ea 3d
       -0.14940344 0.092319466 0.16795252 0.11468699
0001f0 37 5f 0c 3e 0d d4 ca bd ec d7 98 bd 4c ba 6b bd
       0.13708197 -0.09903727 -0.07463059 -0.057550713
000200 61 18 a4 bd 37 46 0e be ab 61 15 be 33 5d 11 bc
       -0.080124624 -0.13893972 -0.14588039 -0.008872318
000210 10 9c d7 bd 14 bf 08 be 30 23 30 3e 44 f2 28 be
       -0.105278134 -0.1335414 0.17200923 -0.16498667
000220 ce 61 61 bd 98 c6 e8 3d 78 40 ba bd 4d 19 a7 3d
       -0.055024914 0.11366004 -0.09094328 0.081591226
000230 ac 01 02 be b4 43 9f ba 8e 1f 85 3d be 0a 63 bd
       -0.1269595 -0.0012150914 0.06500159 -0.055430166
000240 83 6d 01 be aa 0b 0c 3d 07 ce f5 bc 18 8a 1d 3e
       -0.12639432 0.03419081 -0.030005468 0.1538471
000250 70 11 e2 bc ee 51 0c 3e 4f 8b 9a bd 9c 1e 8c bd
       -0.027596205 0.13703129 -0.07546102 -0.06841776
000260 18 11 35 38 01 12 ca 3d a5 88 26 3e b7 77 aa 3d
       4.3169683e-05 0.09866715 0.16263063 0.08323615
000270 89 b7 a3 bd bc db 3e 3c b4 68 f1 3d 78 ed 0f 3e
       -0.07993991 0.011649068 0.11787549 0.14055431
000280 ab 7b 01 3e 4a 2f 76 3d 9d 9b ae bc c5 ac f8 3d
       0.12644832 0.060103692 -0.021314437 0.12142328
000290 64 a3 74 3d 44 fe 1b be 86 c5 30 3e b0 68 4c bc
       0.059726134 -0.15233713 0.17262849 -0.012476131
0002a0 9c b3 2c 3e d0 84 d7 3d 94 fa 2e bc 1a 2e 1a be
       0.1686539 0.10523379 -0.01067986 -0.15056649
0002b0 5d d4 2d be 32 aa ac bd 6c dd 95 3d d0 cf 57 3c
       -0.16975541 -0.084309 0.073176235 0.013172105
0002c0 59 17 8a 3c 45 09 14 be 69 5f c6 3d 3c 70 31 bd
       0.016856836 -0.14456661 0.09686167 -0.043319926
0002d0 99 0f bd 3d 39 e9 12 be 42 54 65 3b d0 6a b6 3d
       0.09231491 -0.1434678 0.0034992849 0.089070916
0002e0 54 91 58 3d f0 95 33 be 78 db 17 3e 79 35 07 be
       0.05287297 -0.17537665 0.14829814 -0.13203992
0002f0 7a 44 27 be 4d 12 fa bd 14 08 2b be 1d 22 85 3d
       -0.16334715 -0.12210522 -0.167023 0.06500647
000300 34 f4 07 3e f7 8f 11 3e 8b 94 7c 3d a0 45 42 bd
       0.1327675 0.14215074 0.0616651 -0.04742968
000310 04 d9 18 3d e8 54 60 3d de 70 33 be 00 10 8f ba
       0.037316337 0.054768473 -0.17523524 -0.0010914803
000320 58 00 33 3d 95 0f 12 3e fa e9 d9 3d d1 3a 4e bd
       0.0437015 0.14263757 0.106403306 -0.05034906
000330 40 84 03 bc 5e 9b e6 3d 27 66 24 3e 52 70 b9 bd
       -0.008027136 0.11260103 0.16054593 -0.090546265
000340 17 74 33 3e 2f b0 fb bc 67 8b a2 bd 80 96 81 ba
       0.17524754 -0.03072366 -0.07936745 -0.0009886771
000350 f7 e4 0d 3e 8d bd ce bd 60 5f ca 3b 2b 52 d1 bd
       0.13856874 -0.10094748 0.0061759204 -0.102207504
000360 a0 3a a0 bb cd e8 fb 3d 7e 32 b3 bd 46 b1 a2 bd
       -0.004889801 0.123002626 -0.08749865 -0.079439685
000370 94 da 48 3d aa 71 aa 3d 20 e6 5d bc 3c bb 26 bd
       0.049036577 0.08322461 -0.013543636 -0.040705904
000380 b0 64 37 bc bc 2e 5a 3d 2e af 20 3e 4c 39 a2 3d
       -0.011193439 0.053267226 0.15691826 0.07921085
000390 e3 30 e7 3c 04 80 6e 3d 10 f7 58 3d 3e 3f 10 bc
       0.028221553 0.058227554 0.052969992 -0.008804141
0003a0 2b 57 f3 bd 33 24 ac bd 24 c7 7d 3d a0 37 7e 3d
       -0.1188186 -0.08405342 0.061957493 0.062064767
0003b0 08 1c b9 bd 69 a9 c8 bd c5 16 cb 3d 00 f1 02 bd
       -0.0903855 -0.097979374 0.09916452 -0.031968117
0003c0 e2 81 dc 3d 28 aa 40 3d e1 b1 0a 3d 8b ee a7 bc
       0.10766961 0.047037274 0.033861045 -0.020499488
0003d0 0a 7a 9e bd 97 3e 35 3d 77 f8 e2 bd 85 c3 9f bd
       -0.07738121 0.044249143 -0.11082547 -0.07800964
0003e0 58 72 02 be 24 87 08 ba d0 f1 c3 bd 1b 7b 86 bd
       -0.12738931 -0.0005208126 -0.095676064 -0.06566449
0003f0 d0 0c 6c bd c6 74 9f 3d 82 96 c8 3d 28 c6 f3 3d
       -0.057629406 0.07785945 0.09794332 0.1190303

encoder.post_mp.0.weight f4 [64, 192]
000000 42 91 ea 3b 8e 70 61 bc 12 40 22 3d 56 60 80 bb
       0.0071584294 -0.013759745 0.039611883 -0.003917734
000010 fd 8d 0f 3d 8d f7 d3 bc c1 9a 02 bd 92 e0 9a 3c
       0.03504752 -0.025874877 -0.031885866 0.018905912
000020 78 f5 2c bb 54 c7 77 bd 27 61 53 3d 42 c1 8b bd
       -0.0026391428 -0.06049283 0.051606324 -0.068239704
000030 c5 63 60 3d 46 e0 67 bd ac fb 74 bd c6 25 2f 3d
       0.054782648 -0.05661037 -0.059810326 0.042760633
000040 1d 6e 07 3d b3 86 2f 3d bf 93 0b bd d8 5f 4b bc
       0.033063997 0.04285307 -0.03407645 -0.012412988
000050 d3 0e 77 3b ef fe ee 3c 47 d7 92 bb 80 e1 94 bd
       0.0037698045 0.029174296 -0.0044812295 -0.07269573
000060 53 28 8c bc 8e fc 42 3d f4 98 bc bb 37 39 82 ba
       -0.017109072 0.047604136 -0.005755538 -0.0009935264
000070 8b cc 02 3d 3f 9f 42 bc 12 a3 46 3d 47 2b 03 bd
       0.03193335 -0.011878788 0.04849536 -0.032023694
000080 e5 9d e7 3b 9f 7f 24 3c d5 2b 80 3d 41 dc 9d bb
       0.007068383 0.010040193 0.0625836 -0.004817516
000090 e0 05 26 bd 74 47 82 bc 80 02 cb bb 6d 3f 83 bc
       -0.040532947 -0.015903212 -0.0061953664 -0.016021455
0000a0 3d 22 33 bc c3 76 97 bc 1d 97 0d 3d 58 99 90 bd
       -0.010933456 -0.018489247 0.03456794 -0.07060498
0000b0 74 ae cb 3c 3c 40 46 bd 31 9f 87 3d 40 3b 04 3b
       0.02486346 -0.048401102 0.0662216 0.0020176917
0000c0 8d b7 0e 3c 31 6b 5b bd 86 a9 74 bc af f2 39 3d
       0.008710754 -0.053569023 -0.014932996 0.045397457
0000d0 2f 6a 17 3d af e6 3e bd 65 95 74 3d 18 8c 12 bc
       0.0369665 -0.046606716 0.059712786 -0.008944534
0000e0 05 26 6a 3d 3c 73 5c 3b 3c b9 f2 bc ee 46 12 3c
       0.057165165 0.003363802 -0.029629342 0.008928044
0000f0 5e 34 21 3d a8 4b 8a bd be 8e 19 bd c7 79 48 3d
       0.039356582 -0.067527115 -0.037489645 0.04894426
000100 b2 27 9b 3b 54 bb 1d bd 60 a2 f4 bb 25 4f 18 3d
       0.0047349567 -0.03850873 -0.0074656457 0.037184853
000110 3a 4b 3a 39 69 4b 75 bd 9d 14 94 bd a4 2a 7c 3d
       0.00017766366 -0.05988637 -0.07230494 0.061564103
000120 35 04 b4 bc bf b0 63 bd 84 ef 32 bc 53 68 e5 3c
       -0.021974662 -0.05558848 -0.010921363 0.028003847
000130 30 b2 5a 3d 80 3d 3d bd a5 56 1e 3d 34 5e ef bc
       0.05339259 -0.04620123 0.03865685 -0.029219724
000140 b3 f5 59 3c 4b bb 00 bc 06 e9 60 bd e0 50 60 bc
       0.013303208 -0.007857154 -0.05490973 -0.013691157
000150 40 86 88 bd e4 fb 83 bd 9c 47 03 bd 90 40 e5 bc
       -0.06666231 -0.06444529 -0.032050714 -0.027984887
000160 b8 83 34 bd 2d 52 b9 3c 28 76 4b bc 33 a9 6a 3d
       -0.04407093 0.022622192 -0.012418307 0.057290267
000170 5c 52 6e 3d dd 51 10 bc f7 dd 72 bc 80 cc 5d ba
       0.058184013 -0.00880858 -0.014823428 -0.0008460954
000180 60 28 2e bb 16 d6 88 3c 7d d3 0b bc 97 ff 7a 3d
       -0.0026574358 0.016703647 -0.008534309 0.061278906
000190 d5 4e 31 3c d4 d9 73 3c c8 f5 73 bd 39 1d 8f bd
       0.010822018 0.014883477 -0.059560567 -0.06987996
0001a0 46 12 0a 3b 38 65 3d 3d 79 1d b8 bc 17 0e a1 3c
       0.002106802 0.046239108 -0.022474991 0.019660039
0001b0 a1 8b 8b bd 90 cd 33 3c 0d 09 92 bc 98 f9 fc bc
       -0.068137415 0.010974303 -0.017826581 -0.030880734
0001c0 2e e3 0c bd 1b c6 e5 bb f7 4f 16 3d a4 ed 7e 3d
       -0.034396343 -0.0070121414 0.036697354 0.06223835
0001d0 83 3c 68 bd 65 be 87 3c 38 f3 8d bd 0f 26 9a 3c
       -0.056698333 0.01657028 -0.06931156 0.018816976
0001e0 dc b5 46 3d 4e 35 fd 3b b0 e2 30 3d 76 84 7c bd
       0.04851328 0.0077273017 0.043184936 -0.061649762
0001f0 de 55 9d 3c ac 3c 1e bd af 1c 37 3c b4 1f d3 3a
       0.019205984 -0.03863208 0.011176272 0.0016107471
000200 35 c6 36 3d 84 8e 09 3b da 34 00 3d 0a 3c 2e 3d
       0.04462262 0.0020989487 0.031300403 0.042537726
000210 3a 0a 87 bc 20 be 5d bd a4 1b b1 bb a5 50 e4 3c
       -0.016484369 -0.054136395 -0.0054049063 0.027870486
000220 43 6c 8a bd 01 3a 2c bd af 1d 0b 3d 10 71 51 bd
       -0.067589305 -0.042047504 0.033963855 -0.051133215
000230 35 0c 81 3d a9 b4 45 bd 34 30 67 3d 29 bf 6a bd
       0.063011564 -0.048267994 0.056442454 -0.05731121
000240 d0 9b 8e 3b 10 de 7a bb 0b 4c d6 3c 8c c8 04 3c
       0.0043520704 -0.0038279332 0.026159307 0.008104455
000250 cb f1 79 3d 4d 90 8d bc 3a 3f 84 3d e6 de a6 bc
       0.061021607 -0.017280722 0.06457372 -0.020369958
000260 2b 23 77 bd e7 71 52 3d fb 55 55 3c 69 a5 84 3c
       -0.060336273 0.051378157 0.013020988 0.016192155
000270 c3 72 a4 3c 3b e6 2b 3d 4f 92 0d 3d 9c b3 b8 3c
       0.020074254 0.04196761 0.03456336 0.022546582
000280 04 9c 10 3c bb 50 68 3b 3a 0f 19 3d 3a 7b 83 3d
       0.0088262595 0.003544851 0.037368037 0.06419988
000290 7d 47 b1 bc f2 3d 84 bd 87 ee 78 3c a9 82 12 3d
       -0.021640534 -0.06457128 0.015193588 0.03576914
0002a0 24 62 56 bd 46 fb 49 bd 52 50 71 bd c0 d7 68 bb
       -0.052339688 -0.0493119 -0.05891449 -0.0035528988
0002b0 c2 29 32 bd d8 78 aa 3c e4 22 09 3d e7 13 10 bd
       -0.043496855 0.020809576 0.03348054 -0.03517523
0002c0 d4 97 40 bd a6 f3 8d bd d7 a4 48 bd 24 16 4b 3c
       -0.047019795 -0.06931238 -0.04898533 0.012395415
0002d0 33 ca 9d bb bc fd ea bc 57 76 96 bb 27 89 ec bc
       -0.004815364 -0.028685443 -0.004591744 -0.028873993
0002e0 8a d2 97 bd e0 e9 6c bd 65 ee a6 bc fc da 88 bd
       -0.07413204 -0.057840228 -0.020377347 -0.06682393
0002f0 e7 61 22 3d f9 c3 15 bd c4 4c 4d bd 69 c1 dc bb
       0.03964415 -0.036563847 -0.050122038 -0.0067369235
000300 06 0d 80 bd bc 44 5d 3d 45 77 2e 3d 83 5d 65 3c
       -0.06252484 0.05402063 0.042594213 0.013999346
000310 64 ca 55 bd 97 ea 27 3d 75 8f 61 bd f2 2b 74 3d
       -0.052194968 0.040995207 -0.055068452 0.059612222
000320 b1 82 61 bc 2c df c7 bb 51 bb 87 bd 7c 19 b1 3c
       -0.013764069 -0.006099602 -0.06627525 0.021618597
000330 20 5b 83 bc a3 a0 31 bc 61 7d cd bc f6 9f e1 bc
       -0.016034663 -0.010841521 -0.0250842 -0.027542096
000340 60 c5 39 3c 54 80 a4 3c f2 3a 5a 3d 78 12 10 bc
       0.011338562 0.020080723 0.05327887 -0.008793466
000350 f1 6f 26 3d 35 f7 93 bd 49 82 98 3c e5 0c 9d 3b
       0.0406341 -0.072248854 0.018616812 0.004792797
000360 50 9e ab bc 63 d8 e9 3c 44 57 2d b9 e8 1d b0 bb
       -0.020949513 0.028545564 -0.00016531075 -0.005374659
000370 b2 49 86 3d 37 33 82 bd 53 a6 3b bd ad 2b d4 bc
       0.06557025 -0.06357425 -0.045812916 -0.025899732
000380 e4 0d 7a 3d 76 51 ad bc cb fb 50 3c 7f bc 4c bc
       0.061048403 -0.021157008 0.012755345 -0.012496113
000390 c7 52 42 3d 83 3f 45 3d 28 95 51 bd 1e 33 0a 3c
       0.047442224 0.048156273 -0.051167637 0.008435039
0003a0 22 d6 91 bd 4d bf 08 bd 98 61 64 bd d5 2d a3 bc
       -0.07120921 -0.033385564 -0.055757135 -0.019919315
0003b0 4f 04 09 3b da e7 bd bc 95 e8 d5 bc 2e 4f ce bc
       0.002090711 -0.023181845 -0.02611188 -0.02518424
0003c0 7c 85 0f 3c 42 2a 7a bd 3a 64 67 3d a6 0b 00 bd
       0.0087598525 -0.061075456 0.056492068 -0.03126111
0003d0 01 b2 68 bb 02 ec 67 bd cf 25 87 bd 11 3e 40 bd
       -0.003550649 -0.05662156 -0.06599008 -0.04693419
0003e0 8c a3 6e bd cd 26 8d bd 44 77 51 3d 04 f4 92 3d
       -0.05826144 -0.06892166 0.05113913 0.071754485
0003f0 05 6b 29 bd 5c 8f 80 3d 8d 2b 2d 3c 19 0e 90 3d
       -0.041361827 0.06277344 0.010569465 0.07033939

encoder.post_mp.0.bias f4 [64]
000000 c7 ba 7b 3d c4 e5 e2 bc 28 bb 45 bd 7b 52 82 3d
       0.06145742 -0.027697451 -0.04827419 0.06363388
000010 b4 61 6d bd 57 22 65 bd c5 16 24 3d 19 1e 37 3d
       -0.057954505 -0.055940952 0.040060777 0.044706438
000020 43 f9 03 3d 78 7d 1b bc 95 be eb bb 29 b6 61 bd
       0.032220136 -0.009490363 -0.00719435 -0.055105362
000030 2c 85 c0 bc ff da 67 bd 95 85 8b 3d 8d ac 78 ba
       -0.023501001 -0.056605335 0.06812588 -0.0009486161
000040 6d d5 aa 3a 4d 92 b6 3c 95 e6 2f 3c 0b 54 d3 bc
       0.0013033577 0.022286559 0.010736127 -0.02579691
000050 4d 79 d1 bc 79 e2 8f bd b9 d1 ba bc 82 90 79 bc
       -0.025570536 -0.07025618 -0.022805082 -0.015232207
000060 2d ea e7 bb 92 50 86 bb c6 c8 cf 3c 34 23 93 bd
       -0.0070774765 -0.00409896 0.02536429 -0.07184449
000070 53 ef 8a bd 7d a6 3b bd a1 f6 be 3c 0d 66 50 3d
       -0.06783929 -0.045813072 0.023310961 0.050878573
000080 2d ce 80 bd c3 64 08 bd f7 c1 77 bc f3 3a c0 bc
       -0.06289325 -0.03329922 -0.015121928 -0.02346561
000090 8c ef c5 b9 0c 47 d7 bc 96 a7 23 bd ea 44 19 3c
       -0.00037753244 -0.026278995 -0.039954744 0.009354809
0000a0 03 68 b2 bc f7 4c 6c 3d 7d 60 31 3d 66 de 9c bc
       -0.021778112 0.057690587 0.04330491 -0.019149017
0000b0 a1 5e 2e bd 53 dd 82 3d ff 6d 26 3c cb 67 f4 bc
       -0.042570714 0.063898705 0.010158061 -0.029834649
0000c0 e3 dd e0 3c 10 a1 2b bb 6b 0e 24 3d ca 0f 4c 3c
       0.027449554 -0.002618853 0.040052813 0.012454936
0000d0 f0 77 85 3d 42 47 f5 3c ed c3 f5 bc 2a af 60 bc
       0.06517017 0.029941205 -0.030000651 -0.013713637
0000e0 d9 60 20 3d 28 69 3a bd 24 1d 13 bd bd 2b da bc
       0.03915486 -0.04551044 -0.035916463 -0.026632184
0000f0 ba bf 81 3d e1 1f 72 3c 77 ec 9f 3c 61 a5 5d bd
       0.06335397 0.014778108 0.019521935 -0.054112796

encoder.post_mp.3.weight f4 [64, 64]
000000 35 b4 ec bd ff f1 8e bd ba cc 84 bd a0 f3 bb 3d
       -0.11557809 -0.06979751 -0.06484361 0.09177327
000010 3f 13 bd 3c 1c 5e d2 3d 87 e9 92 bd 4a 5e 82 bc
       0.023080466 0.10271856 -0.07173448 -0.015914101
000020 85 5a 86 bd 50 50 64 3d 01 19 9b bd 49 55 3b 3d
       -0.06560234 0.055740654 -0.075731285 0.04573563
000030 ba 28 1a 3d b2 4e e2 bd 84 12 d2 bc f1 f7 e7 3c
       0.037636496 -0.11050166 -0.025643595 0.02831647
000040 e0 59 f8 3d 2a c3 f9 bd ce 98 aa bd b1 07 ef 3d
       0.12126517 -0.12195428 -0.083299264 0.11671389
000050 b8 92 d2 bd 1d b7 fb bc 70 0b b1 3d 79 fc 94 3d
       -0.10281891 -0.030726964 0.0864476 0.07274718
000060 ec 21 9d 3c 15 bc 30 3d c9 a9 34 bd 91 f6 9d bd
       0.019181214 0.04314812 -0.044107232 -0.077130444
000070 7b 38 10 bb 1d 51 fa bd d6 54 b5 3d b4 11 56 3d
       -0.0022006321 -0.122225024 0.08854072 0.052262977
000080 e2 21 dc 3d 2f 1d 49 bd ea ec 7c bd cb 77 6a 3c
       0.1074865 -0.049100097 -0.061749376 0.014310787
000090 9a 89 d6 bd 39 b6 b9 3d c5 f3 80 3c 1b 38 4f 3d
       -0.10475464 0.09067959 0.015741238 0.050590616
0000a0 e8 19 a2 bd 8b c0 8f 3d ac 53 da bd 19 25 cc bd
       -0.079150975 0.070191465 -0.106604904 -0.09968013
0000b0 e7 69 ac bd bb d5 30 3d 0f 74 04 bd e5 2e 7f 3d
       -0.08418637 0.04317258 -0.032337245 0.06230058
0000c0 d4 74 72 3c 7d d3 ac bc 21 a1 08 3d 57 28 62 bd
       0.014798362 -0.02109694 0.03335679 -0.055214252
0000d0 76 ae c8 bc 5c aa c4 3d d5 7a e9 3d 69 87 5c 3d
       -0.024497252 0.09602806 0.114003815 0.053840075
0000e0 cc 73 6e bc f8 f7 a9 bd d6 fb 7e bb 95 2c f3 bd
       -0.014553975 -0.082992494 -0.003890743 -0.11873738
0000f0 d5 6c c6 3d 22 10 a2 bc d2 ad ca 3c e7 f0 f7 bc
       0.09688727 -0.019783083 0.024741087 -0.030266238
000100 1b c4 14 3d a7 99 94 3d 22 98 14 bd 68 2b b7 3d
       0.036319833 0.07255869 -0.036277898 0.08943826
000110 6f 22 ce bd 96 e9 79 3d 50 0b ab 3d 02 78 81 3d
       -0.100651614 0.06101378 0.08351767 0.06321718
000120 26 8e a9 3d b4 5a d6 bd 37 4d fb bc 09 01 95 3d
       0.08279066 -0.10466519 -0.030676467 0.07275588
000130 30 61 87 3d ad 28 f8 bd c8 5f 26 bd ff 8c 84 3a
       0.06610334 -0.12117133 -0.040618688 0.0010112821
000140 1b d9 ad ba 79 d4 00 bd 99 94 d9 bd 4c 59 10 3d
       -0.0013263555 -0.03145263 -0.10624046 0.03524141
000150 ff 86 ed 3d fe 6f 9a 3c 39 5e 8a 3d 39 4e b5 bd
       0.11598014 0.01885223 0.06756253 -0.088528104
000160 36 a8 01 be f7 68 ad bd 73 d7 10 bc 90 c1 e3 bd
       -0.12661824 -0.08467286 -0.00884043 -0.111209035
000170 f9 3b ef 3d 14 59 6c 3c 1a ed 3c 3d 1c 63 89 bc
       0.11681361 0.014425535 0.046124555 -0.016770892
000180 22 33 f8 3d ca 22 7e bd f0 3e 5b bd 1e b2 4e 3d
       0.12119128 -0.062044896 -0.05352682 0.050462835
000190 40 9b 09 3c 73 2c 49 bd 70 7c f9 bd c2 24 9d 3d
       0.008398831 -0.049114656 -0.12181938 0.076730266
0001a0 90 75 5c bd 84 fd bd 3d 26 ee e8 bd a3 90 61 3d
       -0.053823054 0.0927687 -0.11373548 0.055069577
0001b0 20 8b e8 3d 33 c3 eb 3d 75 35 d4 bd 4e 44 a5 bd
       0.11354661 0.11511841 -0.103617586 -0.08069669
0001c0 a9 48 b4 3d 08 48 7a bc 55 3f b7 3b 96 9d d0 b9
       0.08802921 -0.015275963 0.0055922666 -0.00039790262
0001d0 7d b3 34 bd db 9f 1d 3d 60 5d 1a bd 91 f6 9f 3d
       -0.044116486 0.03848253 -0.037686706 0.07810701
0001e0 1e dd d0 bd 4e 26 cb 3d 66 d9 00 bc 96 eb e9 bc
       -0.10198425 0.099194154 -0.007864332 -0.028554719
0001f0 04 0b eb 3d 4f f5 63 3d e8 e7 97 3d 9c 01 d2 3d
       0.114767104 0.055653866 0.074172795 0.10254213
000200 4e 16 9d 3d a3 13 35 3d f2 02 cf bc cc 9b af bb
       0.0767027 0.04420818 -0.02526996 -0.0053591486
000210 08 b7 3e bd a6 e3 b5 bc dd e4 ad 3d 57 ff 00 be
       -0.04656127 -0.022203278 0.08490918 -0.12597404
000220 3b 8f bf bd b0 2f 9f bc 03 ab 95 3d c0 4e 5e 3d
       -0.09353491 -0.019431919 0.073080085 0.05427432
000230 f5 2c b4 3c c1 5a e3 ba 04 fe dd bd 04 57 3e bd
       0.021994093 -0.0017345772 -0.10839465 -0.046469703
000240 92 b1 cf 3d 53 11 17 3d b9 92 af bc 75 34 b7 3b
       0.10141291 0.036881756 -0.021432268 0.00559097
000250 ad 02 df 3d 5d 94 b3 bc 0e 22 9e bc 3f a6 9c 3d
       0.10889182 -0.021921331 -0.019303348 0.076488964
000260 d9 0e e2 bd 89 1a 1f 3d ea c0 94 3d f6 38 b3 3d
       -0.11037988 0.038843665 0.07263358 0.08751099
000270 43 01 54 bd 3f 09 e1 bd 81 bb e7 3d 92 30 f3 3d
       -0.051759016 -0.10988092 0.113150604 0.118744984
000280 26 ea d8 bd 25 63 f6 3d e3 13 9c bd 71 6d 92 3d
       -0.10591535 0.12030629 -0.076209806 0.071497805
000290 37 77 26 bb fc 6d 02 bd 42 55 a4 3d cf 81 19 bc
       -0.0025400647 -0.03184317 0.08024074 -0.009369328
0002a0 bd cd ae bd b8 49 cb bd 97 68 97 3d 9d 4f f9 3c
       -0.08535335 -0.0992617 0.07392996 0.03043347
0002b0 b3 aa 93 bd d8 12 88 3d cc de c2 bd 87 5b f0 3d
       -0.07210293 0.06644219 -0.095151514 0.117362075
0002c0 71 5f ec 3c e2 89 bb 3d 9b 31 41 bd 73 f6 bd 3d
       0.028854104 0.091571584 -0.047166448 0.09275522
0002d0 a8 1e 63 3d a9 52 c4 3d 24 54 a0 bd ce 94 f0 bd
       0.055449158 0.09586079 -0.078285486 -0.11747132
0002e0 5a d9 6c 3d 88 5f 93 3c 7e b4 85 bc 22 c5 55 bd
       0.05782447 0.017989889 -0.016321417 -0.052189954
0002f0 14 33 83 3d b9 e2 01 3d 03 28 6d 3d e9 6b 98 3b
       0.06406227 0.03171036 0.057899486 0.004651536
000300 40 00 6f 3d db 32 bf 3d d3 a3 e8 bd f8 c2 46 ba
       0.058349848 0.09335872 -0.11359372 -0.0007582153
000310 6c 01 db bd 9d d5 b2 3d 6d fe 09 bd 64 c9 f6 3c
       -0.106936306 0.0873215 -0.033689905 0.030125327
000320 f3 f6 89 3d c1 47 82 bd 52 05 a0 3d 12 9a 90 bd
       0.06736555 -0.06361342 0.07813515 -0.070606366
000330 f5 07 e1 3d 1f 4b 3f bd e6 35 ab bc 0c 16 d3 3d
       0.10987846 -0.0467025 -0.020899724 0.103069395
000340 de fd 70 bd 19 e8 1a bd b4 f8 6f 3d 06 8a 85 bd
       -0.058835857 -0.037819 0.05858679 -0.065204665
000350 d8 75 cb 3d a5 20 4d 3d c2 9f d2 3c c2 a3 73 3c
       0.09934586 0.05007996 0.025710944 0.014870586
000360 dd b4 c9 bd dd 4d c1 bc cd 87 0f 3d 29 46 51 bd
       -0.0984895 -0.023596698 0.03504162 -0.0510923
000370 08 4e 65 bd 53 3f ca bb c4 10 be bd eb 88 45 3d
       -0.05598262 -0.0061720996 -0.092805415 0.04822628
000380 c5 cf ce bd ab 5a b0 bd 8c d6 7e 3c c1 65 8d bc
       -0.10098223 -0.086110435 0.015554082 -0.017260434
000390 55 f3 9b bd 44 e2 49 3d e8 c9 e0 bd fc 51 a3 3d
       -0.07614771 0.04928805 -0.109760106 0.07974622
0003a0 2a a0 d9 3d 76 c7 bd 3d 54 bb d1 3d 6b 99 64 bc
       0.10626252 0.0926656 0.10240808 -0.013952593
0003b0 48 67 5b 3d ef 05 de bd 08 27 7d 3d 5f b4 ad bd
       0.053565294 -0.108409755 0.0618048 -0.08481669
0003c0 db 63 84 bd 56 83 d2 bd ef e4 e9 3a 58 26 e2 3d
       -0.064643584 -0.102789566 0.0017844717 0.1104247
0003d0 0c 9a ce bb 21 bd d4 3c d2 59 ae bc ef f1 8a 3c
       -0.006304985 0.02596909 -0.021283064 0.016961066
0003e0 99 ae ee 3d d9 70 58 bb 24 b6 1d 3d 7a 90 56 3c
       0.116543956 -0.0033026247 0.03850378 0.013095969
0003f0 c0 fa 0c bd 14 e5 ac bd b0 a3 de 3b 7f 52 82 3c
       -0.03441882 -0.08442131 0.0067944154 0.015908478

encoder.post_mp.3.bias f4 [64]
000000 6c dc b8 3d bc 4a 66 bd 13 09 ca 3d ba b6 f3 bd
       0.09026417 -0.056223616 0.09865012 -0.11900087
000010 59 6a 80 3c d7 95 e7 3d 1a 32 c7 3d 58 78 b2 bd
       0.01567571 0.113078766 0.09726353 -0.0871436
000020 f5 d3 19 3d 4b 39 cf 3d 24 8a 47 bd 85 4c 98 3d
       0.037555654 0.1011835 -0.048715726 0.0743647
000030 cd 7d c8 bd 52 65 4a bd 41 97 ea bd 50 5a 8c 3c
       -0.097896196 -0.049413033 -0.11454631 0.017132908
000040 a2 ab eb 3c 9a da bd 3d 0d 25 98 3d 20 be 18 3d
       0.028768364 0.092702106 0.07428942 0.037290692
000050 0b 01 9d 3d cf 9c d1 bc 31 bc d7 3c ab 28 8e 3d
       0.076662146 -0.025587467 0.026334854 0.069413505
000060 32 94 19 bd be 28 e4 3d 1a 68 39 3d 5f ce 8b bd
       -0.037494846 0.111405835 0.045265295 -0.068264715
000070 f8 40 e7 3d b8 d6 fd 3c 34 d1 a6 bd 79 77 7a 3d
       0.11291689 0.030986175 -0.08145371 0.061149094
000080 f0 a0 8a 3c 17 7a 42 bd 67 aa 5d 3c d6 61 9f bd
       0.016922444 -0.047479715 0.013529397 -0.077823326
000090 75 ee cf bd 70 b2 76 bd fe 57 ba 3d f3 5b 23 3d
       -0.10152904 -0.060228765 0.090988144 0.03988261
0000a0 ae af 5d bd 0a f0 dd bd be e0 ce bd 8d 64 01 be
       -0.05412262 -0.108367994 -0.1010146 -0.12636013
0000b0 f5 f5 8a bd 75 bb cc 3d ff 21 81 3d fd 2b f7 bd
       -0.06785194 0.09996692 0.06305312 -0.12068937
0000c0 50 89 53 bd d2 49 b3 bd e2 57 a0 3d 6b f2 21 bd
       -0.051644623 -0.087543145 0.07829262 -0.03953783
0000d0 d1 cc 6d 3d e2 2f 8f bd 32 a7 04 3b 75 26 f4 3d
       0.058056656 -0.06991555 0.0020241258 0.119213976
0000e0 02 89 9d bd 0f 0f 00 be f2 a0 04 3c 74 75 56 3d
       -0.07692148 -0.12505744 0.008095013 0.052358106
0000f0 10 45 fd 3d d9 58 08 bd 08 fe 18 3d 80 cb a6 bd
       0.12366688 -0.033287857 0.037351638 -0.08144283
