amazon/20230627-013811/commr.pt (torch, 28709 bytes, 10 tensors)

fc1.weight f4 [32, 65]
000000 24 14 dd 3d b2 f6 02 be 59 8e ad bb 5f 60 d9 bc
       0.10794857 -0.1278942 -0.00529651 -0.026535211
000010 a3 b8 dc 3c b0 5d 20 be d0 2e 71 be e1 04 8b 3e
       0.02694351 -0.15660739 -0.23553014 0.2715216
000020 6c 2f bf 3d c2 ca ea bd 9e 63 81 3c 38 7f e5 3d
       0.09335217 -0.11464454 0.015794571 0.11205906
000030 95 86 46 bd cf 64 0b 3e e5 ae 12 3c fc 31 5c 3d
       -0.04846819 0.13612674 0.008952831 0.053758606
000040 58 3f 28 3d 78 a0 e4 bc df 91 ed bd be 2a b3 bd
       0.041076034 -0.027908549 -0.11600088 -0.08748387
000050 58 8e 04 be d4 98 d7 3d ee 5b de bd d7 de 8e 3b
       -0.12944925 0.105271965 -0.10857378 0.0043600607
000060 ef b4 07 be 51 0a 24 3e b9 ab 84 be 05 71 87 3d
       -0.13252614 0.1601956 -0.25912264 0.06613354
000070 68 eb 87 3d 64 0a 9f 3d 70 9d 04 3e 66 c4 8d bd
       0.06636697 0.07765654 0.12950683 -0.06922226
000080 25 38 22 3e 61 f0 58 3e f0 1a 29 bd 3a c7 9e 3d
       0.1584173 0.21185447 -0.041285455 0.07752843
000090 9a 47 80 bd 37 21 fb bd 25 26 90 bd 02 63 9c be
       -0.06263657 -0.122621946 -0.070385255 -0.30544287
0000a0 65 59 ba bc 56 97 e8 bc 35 46 4f be 88 b8 06 be
       -0.022747705 -0.028392475 -0.20241626 -0.1315633
0000b0 77 07 6f 3d 3d d1 41 be f7 9a 80 3d 4a f4 47 3e
       0.05835673 -0.18927474 0.06279557 0.19526783
0000c0 f3 c3 5b 3d a2 9f 8d bd 18 b6 b3 3c 9d 6a 39 be
       0.05365367 -0.06915213 0.021937415 -0.18107076
0000d0 0d 7f b9 bb 6f f1 8f bd 12 21 b3 3d e3 cf 98 3d
       -0.0056608976 -0.07028472 0.08746542 0.07461526
0000e0 56 4c 90 3b 58 72 5c 3c 2f 47 7c 3d e8 87 bf bd
       0.004403631 0.013454996 0.061591323 -0.09352094
0000f0 94 9e 80 3d 4f 13 6f 3d a7 7a b7 3d 65 95 bf 3c
       0.062802464 0.058368023 0.08958941 0.023386667
000100 e6 b2 8e 3c 2a 9c 53 3e a9 1a 01 3d 50 51 a7 3d
       0.01741929 0.2066504 0.031519566 0.08169806
000110 04 4b 04 bc 38 82 c2 bb 2a c6 4f bd 8c f2 78 bd
       -0.008074526 -0.0059359334 -0.050726093 -0.060778186
000120 eb 96 14 3e 11 c6 c8 3d a2 9d d5 bd d9 20 9e bd
       0.14510696 0.09803403 -0.10430457 -0.07721109
000130 dc f3 23 3e 1f b3 df bc 90 b9 8f 3e 84 b2 4c 3e
       0.16010994 -0.027307091 0.2807126 0.19989973
000140 14 09 ef bd d4 eb a9 3d 5c e4 31 3e 21 cc e2 bd
       -0.116716534 0.08296934 0.17372268 -0.11074091
000150 7b a0 d8 bd 35 55 c8 3d 65 2c 1b 3c 18 c5 a6 bd
       -0.10577484 0.09781877 0.009471034 -0.081430614
000160 b7 b0 0b be 29 ca 1c be 70 55 13 3e 89 e7 7c bd
       -0.1364163 -0.15311493 0.1438806 -0.061744247
000170 4b e9 53 3c 08 e7 b6 3d 11 e5 95 bd 7a b3 32 3e
       0.012934039 0.089307845 -0.073190816 0.17451277
000180 da 16 07 bd 72 7d 81 3d 47 c1 44 3e a3 b3 9b bd
       -0.032980777 0.06322755 0.19214354 -0.07602622
000190 2d cc 92 3d 5f 7c 29 be 6a 59 8a bc 58 00 4f b9
       0.0716785 -0.1655135 -0.01688834 -0.00019741186
0001a0 dd 5a 0d be 37 20 97 3c bc 39 89 bc 0c f1 d1 bd
       -0.13804193 0.018447978 -0.016751163 -0.10251054
0001b0 83 df 82 be 29 62 1c bc 7a 0f 27 be 9c 87 6e bc
       -0.2556115 -0.009544888 -0.16314498 -0.014558699
0001c0 a7 04 8c 3e 75 a8 17 3e 21 13 af bd a4 26 09 3e
       0.273473 0.14810355 -0.085485704 0.13393646
0001d0 81 8f b5 bd d5 a5 f7 3d 7c ae a5 bd e9 a2 86 3d
       -0.08865262 0.12092177 -0.08089921 0.065740414
0001e0 c4 5b 5c bd 26 98 3c bd 33 95 2a 3d da eb 98 bd
       -0.053798452 -0.046043538 0.041646194 -0.0746686
0001f0 d0 40 8c bc 92 78 df bc 45 3d e5 3c 01 1b 80 bd
       -0.017120749 -0.027279172 0.027983317 -0.062551506
000200 fe 66 bb bd b5 d3 d7 3d 13 19 f8 3d e1 9d 88 3c
       -0.091505036 0.10538427 0.121141575 0.016676845
000210 4b 08 22 bc a8 95 bb bd fe c6 7b bd 37 56 46 bd
       -0.0098896725 -0.09159404 -0.06146907 -0.048422065
000220 26 ac eb bd 4c 26 3a 3e 40 11 42 3c 70 26 b8 3c
       -0.11507444 0.18178672 0.011844933 0.022479266
000230 aa 09 b9 3d 94 b5 27 3d 74 c5 5b 3d a4 67 25 3e
       0.090350464 0.04094465 0.053655103 0.16152817
000240 ed 31 1a 3e ce 67 0f be 84 5e c9 3d 40 4c 7b 3c
       0.15058108 -0.14004442 0.098324805 0.015338004
000250 bf 86 e2 3d 66 06 df bd 6c 02 9e 3b 40 21 b3 3c
       0.11060857 -0.10889892 0.004822066 0.02186644
000260 cf 3b 8a 3c d0 66 2f be 08 77 26 be c6 6c c9 3d
       0.016874222 -0.17129064 -0.16256344 0.098352
000270 1e 63 44 be 93 c5 4f 3d b3 f6 f5 bd 73 22 c8 bd
       -0.19178435 0.05072553 -0.12009945 -0.09772196
000280 6a c3 26 bd f3 18 8c bd c3 fb 1b 3e 76 23 ce 3b
       -0.040713705 -0.06840696 0.15232758 0.0062908484
000290 aa 10 1e bd 2a da 17 3d f0 4e 41 be b0 22 0d be
       -0.03859011 0.03707329 -0.18877769 -0.13782763
0002a0 7f 6c ee 3b e4 0b 81 be 63 c2 e1 3d 2a d0 02 be
       0.0072761173 -0.25204384 0.110234044 -0.12774721
0002b0 96 a7 0c be 31 0b 70 be 00 12 7c 3d 6c 29 45 be
       -0.13735804 -0.23441769 0.061540604 -0.19254082
0002c0 2b 68 ab bc 00 5a e1 3d bc 7b b9 3c 6f 9a 4a 3c
       -0.020923695 0.11003494 0.022642009 0.012365921
0002d0 e1 8c 20 3e dd d4 5a be c6 32 8c 3d 2d d5 69 bd
       0.15678741 -0.21370263 0.06845622 -0.057088066
0002e0 4a 34 c6 3d fd 09 04 bd 51 41 34 bd 77 29 95 3d
       0.09677942 -0.032236088 -0.044007603 0.072832994
0002f0 d2 40 14 bd 1e eb 16 be 72 14 cb bc c4 dd 06 be
       -0.03619463 -0.14738128 -0.024790023 -0.13170534
000300 78 17 ff 3d bc e4 7f bc f7 eb 2e 3c e6 6c 68 3e
       0.12455648 -0.015618499 0.010676376 0.22697791
000310 f5 8d 14 3c d9 e5 fc 3b 47 32 97 bc 29 a1 93 bd
       0.009067048 0.0077178297 -0.018456591 -0.07208473
000320 cf 30 00 be ff a4 46 be d2 24 87 3e 18 e4 71 3d
       -0.12518619 -0.19398879 0.2639528 0.059055418
000330 c3 3c e9 bd b7 03 7d 3d 56 39 83 3d 80 fc ef 3d
       -0.113885425 0.06177112 0.0640742 0.117180824
000340 a0 b5 5b 3e 0e b5 86 3d 20 0c 9f 3d ec d8 8c bd
       0.21456003 0.06577502 0.077659845 -0.06877312
000350 0a c1 bc 3d de 95 c8 3d 35 60 00 be b9 5f 01 be
       0.09216507 0.0979421 -0.125367 -0.12634172
000360 0f 70 09 3e 06 0f 21 be 20 63 25 be 4c c9 14 bd
       0.13421653 -0.15728387 -0.16151094 -0.036324784
000370 ba 3c 2b 3e 00 f5 a2 bd e1 db 8d 3c 77 24 6c 3d
       0.16722384 -0.07956886 0.01731676 0.057651963
000380 f0 fc a3 bd c8 b3 73 3d b1 3b 15 3d 43 11 e6 3d
       -0.080072284 0.059497625 0.03643388 0.11233761
000390 ee eb 60 3c 46 43 de bd 9f 57 38 3d 21 59 51 be
       0.013728125 -0.10852675 0.045005437 -0.20444156
0003a0 7c 0f 7d bd 86 ab 03 3c 62 ff a5 bd 8f 98 f3 bd
       -0.061782345 0.0080365 -0.08105351 -0.118943326
0003b0 aa 41 4f bd 4e df 0d be d9 be 5f bd 5a 22 ed 3b
       -0.05059973 -0.13854715 -0.054625366 0.007236761
0003c0 4b 53 6e be a4 20 fb 3d ea 64 4d 3e 78 9a 86 bc
       -0.23273961 0.12262085 0.20058027 -0.016431078
0003d0 a2 fa db bb 61 d5 01 3e 91 2b 81 bc b8 03 fc bc
       -0.0067132274 0.12679054 -0.015767844 -0.030763492
0003e0 ab da 71 bd fa e5 95 3b 0c 12 d8 3d 11 fb 00 bd
       -0.05904643 0.0045745345 0.10550317 -0.031489436
0003f0 64 89 aa bd a6 60 1f bd 23 58 bb bd 67 6a 54 bd
       -0.083269864 -0.03891053 -0.0914767 -0.051859286

fc1.bias f4 [32]
000000 7c b6 ae bb b9 7d 25 bd ad 35 07 3d 4c 71 fc ba
       -0.0053318124 -0.0404031 0.033010174 -0.0019259839
000010 0d cb 87 3c fa b6 2c 3c 39 23 7c 3c 83 24 cf 3b
       0.016576314 0.010541672 0.015389257 0.006321491
000020 73 a6 01 bd 13 2b 1e bd 0b 5e a2 3c 92 8c d2 ba
       -0.03165288 -0.038615298 0.019820234 -0.0016063622
000030 57 e6 bd bd 9f 68 82 3d 55 1b 11 bd de c1 12 3c
       -0.092724495 0.06367611 -0.035426456 0.008957354
000040 4e 58 91 bc 1e 95 b8 3b 73 14 94 bc 80 5c 09 3d
       -0.017742302 0.0056330105 -0.018076157 0.03353548
000050 ca c7 72 3d 09 37 01 3d e1 24 06 bd ee 25 47 bd
       0.059272565 0.031546626 -0.032750014 -0.048620157
000060 4b c5 54 3c d1 07 e9 3b 40 33 8c 3d ba e0 20 3d
       0.012986491 0.0071115275 0.06845713 0.039276816
000070 7e 39 8f 3d c4 8d 5d 3d fd 6e 02 bb 46 74 2f bc
       0.06993388 0.054090276 -0.001990258 -0.010708874

fc2.weight f4 [32, 32]
000000 a0 13 80 3e 4a 7e a3 3e 08 fc 71 3d 63 4c 80 3e
       0.25014973 0.31932288 0.059078246 0.25058278
000010 d7 57 9d be 21 28 6f 3e 88 e2 ff 3c e6 b2 a6 3e
       -0.3073108 0.23355152 0.031235948 0.32558364
000020 6f 23 24 be 28 6e ac 3b 56 dd b0 be 0c f8 7d be
       -0.16029142 0.005262155 -0.34543866 -0.24801654
000030 f7 43 7d be f1 45 29 3e ef 73 86 3e 11 af 33 be
       -0.24732958 0.16530587 0.26260325 -0.17547251
000040 e9 5f 24 3e ed 40 0b 3e 0f ec 5f 3e 3a bf b3 3e
       0.16052212 0.13598986 0.21867393 0.35106832
000050 1b 7a bf bd 9f f8 af be 76 57 b0 be dd 82 c5 3e
       -0.09349462 -0.3436937 -0.34441727 0.38576403
000060 4f b4 89 3d 5e 6b 56 bd b3 be 8e be f1 49 1c 3e
       0.06723844 -0.052348487 -0.27879867 0.15262581
000070 5a ee b3 bc 9f 43 d1 bd cd dd 93 be 45 e7 88 be
       -0.02196424 -0.10217976 -0.28880158 -0.26738945
000080 85 eb 07 bd 42 2f 48 be ce e6 17 be 5a 7b 93 be
       -0.033183593 -0.19549277 -0.14834139 -0.28805047
000090 8f b4 08 3e 28 3c 6a be 6e 56 8d 3e 94 f0 28 be
       0.13350128 -0.2287451 0.27605003 -0.16498023
0000a0 ee fd 9a 3e 1e 62 5f be cc c8 b0 3e 0c 65 14 bc
       0.30271858 -0.21814772 0.34528196 -0.009057295
0000b0 e3 ee 78 3e 94 aa 95 be 35 66 6c be 29 01 86 3e
       0.24309878 -0.29231703 -0.23085864 0.2617276
0000c0 d8 e9 2f be d9 d4 d1 bd 72 10 8c be cb d2 6d be
       -0.17179048 -0.102456756 -0.27356297 -0.23224942
0000d0 06 3c 28 3e 67 71 0d 3e 63 c6 41 3e e2 5a 5f be
       0.16429147 0.13812791 0.18923335 -0.21812013
0000e0 5d c9 07 be 12 26 28 3d 50 ad bb 3e 00 d9 43 be
       -0.13260408 0.04105193 0.36655664 -0.19125748
0000f0 09 47 83 3e b9 65 dc b9 f1 03 9d 3e 10 47 90 3e
       0.25640133 -0.0004203746 0.3066707 0.28179216
000100 86 cc 26 be 01 d4 ac be c6 2a af be f5 9d d5 bc
       -0.16288957 -0.33755496 -0.3421232 -0.026076296
000110 88 bf 88 3e 9b 39 0f be 9a d4 53 3e 78 cf b1 b9
       0.26708627 -0.13986818 0.2068657 -0.00033914647
000120 60 77 3e 3e ed 39 d9 bc d5 a9 ac 3e 89 c0 77 3e
       0.18600225 -0.026516879 0.33723322 0.2419454
000130 5f 3c be 3e 7a a4 77 be f3 12 73 be c8 be 0e 3e
       0.37155434 -0.24183837 -0.23737697 0.13939965
000140 57 79 aa bc 9b be 6b be af 41 3c be 11 fe bc bd
       -0.020809812 -0.23021929 -0.18384431 -0.09228147
000150 99 08 a5 3e 2b ce 8b 3c 28 0b 8a 3e 49 19 4d be
       0.32233122 0.017066082 0.26961637 -0.20029177
000160 89 13 85 bd 4f 16 92 3d e3 69 b3 3e a4 8c 23 be
       -0.06497867 0.07133161 0.35041723 -0.15971619
000170 17 83 80 3e 1c db 6f 3e 54 43 4c 3e 7c b3 bd 3c
       0.25100014 0.23423427 0.19947559 0.023156874
000180 b8 27 1d 3e fc 7b 2b 3e dd 4f e7 3d 27 2e 2a 3e
       0.15347183 0.16746515 0.112945296 0.16619168
000190 a9 e7 10 be f9 d9 24 3e 1a dd 9a be 94 c0 a4 3e
       -0.14150871 0.16098775 -0.30246812 0.32178175
0001a0 bd 80 f1 bd f9 11 d3 3d fa c4 b5 bd d4 65 5b bd
       -0.11792133 0.103061624 -0.08875461 -0.053563908
0001b0 95 ea 1f be 0d 7f a0 3b 99 7c 6f 3e 9f 93 9b be
       -0.1561683 0.004897958 0.23387374 -0.30386063
0001c0 e4 dd 8b 3e 6c 1b ae 3e b5 b4 ae 3e ee 27 6e 3e
       0.27317727 0.34005296 0.34122244 0.2325742
0001d0 d9 37 94 be ed 6e 3f bd 33 6d ad bd 2f f2 5b 3e
       -0.28948858 -0.046736646 -0.08468094 0.21479104
0001e0 5f 85 b0 3d 0b 12 35 be c1 54 82 be fe 55 5e 3e
       0.086191885 -0.17682664 -0.25455287 0.21712491
0001f0 50 1c 6d be ac 78 12 be 8a 83 89 bd ef 72 70 be
       -0.23155332 -0.14303845 -0.06714542 -0.23481344
000200 3f 21 a8 be f6 5e 33 ba b5 25 c8 bb 9e aa d6 bd
       -0.32837865 -0.00068424584 -0.0061080107 -0.104817614
000210 37 0e e0 bc fd aa 8b bd e7 68 26 3e 67 1e f9 bd
       -0.027350528 -0.06819723 0.16250955 -0.12164002
000220 8c 49 a4 3e be 01 83 be da d0 a9 3e 19 d5 87 3e
       0.32087362 -0.25587267 0.33167154 0.26529768
000230 61 6d 91 3d 7a d0 8d be ce bf 8f be 0e 2d 4c 3e
       0.071009405 -0.27698117 -0.28076023 0.19939062
000240 dd 43 13 be 40 75 8c be 20 d8 89 bd 96 d0 93 be
       -0.14381357 -0.27433205 -0.06730676 -0.28870076
000250 e1 df 8f 3e d0 81 84 3e 71 77 b6 3e 2f f5 46 be
       0.28100494 0.2588029 0.35638002 -0.19429468
000260 c4 7b 14 be 32 ea ae 3d 09 29 95 3e cf 6f 0e bd
       -0.14500338 0.08540763 0.2913287 -0.034774598
000270 50 ad 55 3d 4d 81 a3 3d d7 1b b4 3e 6e 7e 79 3e
       0.052167237 0.079836465 0.3517749 0.24364635
000280 5d 2c 05 bd e5 95 58 be ea 5c 11 be 81 68 9a be
       -0.03251301 -0.2115093 -0.141956 -0.30157855
000290 b9 60 c0 3d e5 16 c6 bd dc 7a 07 3e f4 01 81 bd
       0.093934484 -0.096723355 0.13230461 -0.06299201
0002a0 c0 83 ad 3e 49 d1 b9 be b3 a6 a6 3e 5d 71 21 3e
       0.3388958 -0.36292484 0.32549056 0.15765901
0002b0 26 1c c6 3e ae 69 d7 bd 07 3d 25 be a0 28 87 3e
       0.3869335 -0.10518204 -0.16136561 0.26398182
0002c0 09 a3 8c be 45 a8 dd bd 4e 6c 78 be e5 c7 a3 be
       -0.27468136 -0.108231105 -0.24260065 -0.31988445
0002d0 b3 a7 3a 3e fc ae 48 3d fb 37 4e 3e f9 af 3b be
       0.18228035 0.048995003 0.20138542 -0.18328847
0002e0 d2 1d a4 be 54 a2 31 3e ed a7 c2 3e b3 e7 a5 bd
       -0.32054 0.1734708 0.38018742 -0.08100834
0002f0 99 74 78 3d ef ef 9c 3e 15 be 7e 3e a2 65 24 3e
       0.06065807 0.30651805 0.24877198 0.16054395
000300 58 a5 7b 3d 10 a1 be 3e 26 61 09 3e 9d 72 af 3e
       0.06143698 0.37232256 0.13415965 0.3426713
000310 37 27 76 bd 0b 30 38 3e 9b 56 2e be 39 66 89 3e
       -0.060095992 0.17987077 -0.17025225 0.26835802
000320 a3 89 88 be bc 13 b8 3d c7 72 a0 be 17 7e e0 bc
       -0.26667508 0.08988139 -0.31337568 -0.027403874
000330 3f 4a d9 bd f1 ba 8e 3d 4c 7e bb 3e 7c 9d d6 be
       -0.106098644 0.0696925 0.36619794 -0.41917026
000340 2e 47 07 3e a6 30 2c 3e 36 e5 4d 3e 3b 45 7e 3e
       0.13210747 0.16815433 0.20106968 0.24831097
000350 bb ee 42 be 60 44 31 be d7 ea 64 be 4f bc c9 3e
       -0.19036381 -0.17311239 -0.2235521 0.3940148
000360 9e 78 90 3e 2c e2 17 be f8 4f 4d be 43 a3 07 3e
       0.28217024 -0.14832371 -0.20050037 0.13245873
000370 56 dc 19 be bd 63 9b be 1a 19 eb bd 55 74 90 bd
       -0.15025458 -0.30349532 -0.11479397 -0.070534386
000380 00 a9 6d 3e 51 e7 4a 3e c2 f6 8f 3e fe c8 4f 3c
       0.23209 0.19814803 0.2811795 0.012682198
000390 24 c7 93 be 5f 1b 3b bd 4e 62 5e be 46 d5 08 3e
       -0.2886287 -0.0456804 -0.21717188 0.13362607
0003a0 c7 fa d6 bd 1b 43 23 3c 8e 1c ba be 15 70 8a be
       -0.10497051 0.00996473 -0.3634991 -0.27038637
0003b0 13 21 9b be a9 8a 9d 3e 4c b8 a7 3e 72 30 9f be
       -0.3029867 0.30769852 0.32757795 -0.31091648
0003c0 77 ba 8c 3e 32 df 71 3e 17 b2 c5 3e ba 1d 29 3e
       0.2748601 0.23620299 0.38612434 0.16515246
0003d0 b1 f6 6c be 0a 26 c7 be 12 93 62 be 5e c6 ca 3e
       -0.2314098 -0.3889621 -0.22126415 0.39604467
0003e0 9f ca b5 3d c1 61 2a bd 82 67 c4 be c4 1f da 3c
       0.088765375 -0.04159713 -0.3836022 0.026626475
0003f0 c7 04 11 be 4b c2 9f be db 12 a6 be 0a 59 02 bd
       -0.14161979 -0.3120292 -0.3243626 -0.031823196

fc2.bias f4 [32]
000000 26 20 8e bd 7d 3d 55 bd f8 05 91 3c 44 c0 54 bd
       -0.069397256 -0.052060593 0.017703041 -0.05194117
000010 68 02 10 bd c5 10 79 3c 5a 22 68 3c f4 b4 82 bd
       -0.035158545 0.015201752 0.014168346 -0.0638217
000020 71 09 b8 bc 3c b5 1d bd 4d da 1b 3d 0a 3e b5 3d
       -0.02246544 -0.038502917 0.038049985 0.08849724
000030 f0 03 6e bb a2 73 ac 3b a8 a8 6d 3c 50 f6 f9 bc
       -0.0036318265 0.005262808 0.014505543 -0.030512959
000040 e8 f5 1e 3d d0 ee 82 3d 3a 39 ab bd db 13 42 bd
       0.038808733 0.06393206 -0.083605245 -0.047382217
000050 15 e4 e9 bc e0 77 b8 3a 83 28 02 3d 1a 83 09 bd
       -0.02855114 0.0014073811 0.031776916 -0.033572294
000060 1b 5f 3b 3d fe 52 22 bc f1 6e c7 bc ff 24 4e 3d
       0.045744997 -0.009907482 -0.024344893 0.05032825
000070 ce b9 95 bb 59 0c 31 bc fd c2 c1 3d 09 71 a5 ba
       -0.004569269 -0.010806167 0.09461019 -0.0012622188

fc3.weight f4 [1, 32]
000000 7e cb a0 3e 65 94 ad be e7 f7 c3 be 1e e4 ad 3e
       0.31405252 -0.3390228 -0.38275072 0.33963102
000010 bf 59 d1 be 05 78 9a be 88 e7 7d 3e 32 dd 8e 3e
       -0.40888783 -0.30169693 0.24795353 0.27903134
000020 51 1a b8 3e fc 44 a1 3e 8a 5a b9 be 7d 66 ad be
       0.35957578 0.31497943 -0.36201888 -0.33867255
000030 7a 58 b3 3e ba 4e ad be b1 82 98 3e 4e ca ac be
       0.3502844 -0.33849126 0.2978721 -0.33748096
000040 72 69 ca be 13 7b c1 3e cc e3 ab be f8 7f a0 be
       -0.39533573 0.3778921 -0.33572233 -0.31347632
000050 63 bb 8b 3e 8b f7 a4 3e 25 57 af be 61 cc 9c be
       0.27291402 0.3222011 -0.34246174 -0.3062468
000060 fb 61 c5 be 16 b4 92 3e 46 ef 88 3e d7 24 ae be
       -0.38551316 0.2865302 0.2674505 -0.34012482
000070 42 95 b2 3e ce 28 8a 3e f3 20 c1 be 2e ea 92 be
       0.348795 0.26984257 -0.3772045 -0.2869429

fc1.weight f4 [32, 65]
000000 88 0e f8 bd 46 f8 15 be 0d f8 d7 bc 79 6c 99 3c
       -0.121121466 -0.1464549 -0.026363397 0.018728482
000010 92 39 0e be 98 c2 29 be b6 b4 30 3d 94 b0 c6 bc
       -0.13889149 -0.16578138 0.04314109 -0.02425412
000020 c5 64 a4 bc 59 98 08 bd 4c 04 79 be 08 c2 21 3e
       -0.020067582 -0.033348415 -0.24318045 0.15796673
000030 1b 35 98 3d 83 e4 10 3e be 7b 9f bd 19 7e 66 3e
       0.07432004 0.1414967 -0.07787274 0.2250904
000040 fb 90 57 bd 76 95 78 3d ac 1d 7f bd 78 52 19 be
       -0.0526285 0.060689412 -0.062284157 -0.14972866
000050 7a aa df bd d5 9f 29 be 09 bd 92 bd 8b 0d 49 bc
       -0.10921188 -0.16564877 -0.07164962 -0.012271295
000060 27 98 79 bc 3f f8 63 be ad 73 3e be e9 af 18 3e
       -0.01523403 -0.22262667 -0.18598814 0.14910854
000070 d4 d7 58 3e 41 d2 b5 bd 80 36 a7 3b 02 a9 aa bd
       0.21176082 -0.088779934 0.0051029325 -0.08333017
000080 45 0c 1e 3e 25 a8 83 bd 36 98 b0 3c 61 67 10 3e
       0.15434368 -0.064285554 0.021556955 0.14101936
000090 2d 3d 99 3d 62 75 80 bd 16 c2 da bd 57 7b 07 3e
       0.074823715 -0.06272389 -0.1068155 0.13230644
0000a0 80 81 02 3e 68 4f 82 bd 4c 31 c5 bd 34 f3 e4 bd
       0.12744713 -0.06362802 -0.09628543 -0.111792
0000b0 ac 3b 7a 3d 18 18 a0 bd b5 e0 4b bd 02 d9 c5 3d
       0.061092064 -0.078170955 -0.049774844 0.096605316
0000c0 d0 06 f0 bd b8 04 9b 3d 2c ae de bd 27 ce 6f bc
       -0.117200494 0.075692594 -0.108730644 -0.014636553
0000d0 ae cf f3 bd 83 e8 74 3d 67 d4 3e 3d 21 10 2f 3e
       -0.11904846 0.059792053 0.04658928 0.17095996
0000e0 a7 46 66 3e 61 3c 2a 3c da fb 59 bd 22 c9 75 3d
       0.22487889 0.010390372 -0.0532187 0.06000627
0000f0 4f 66 e1 3d d6 7d 74 3d 2d af 68 bd 3f 32 1c be
       0.11005842 0.05969032 -0.056807686 -0.15253542
000100 f2 a8 36 3e c8 ca e7 bc 17 0f 20 3d 77 fd ec bd
       0.17837885 -0.028294936 0.03907689 -0.11571782
000110 64 95 02 3d af 3f 40 3e b8 9e 00 3b 81 a9 93 3d
       0.03188075 0.18774293 0.0019625854 0.07210065
000120 27 26 61 3d 38 9f 47 bd 1e 03 2b 3e 9c 52 8e 3e
       0.054968026 -0.048735827 0.16700408 0.277974
000130 74 41 fa bd 11 67 50 bc 40 0e 4c bd 41 92 94 bd
       -0.122195154 -0.012719885 -0.049818277 -0.07254458
000140 dd f1 3e be 62 5f 08 be 24 6b f0 bd e8 63 c1 bd
       -0.18646951 -0.13317636 -0.117391855 -0.09442884
000150 73 28 15 3e b3 ca 00 3e 7c 43 f2 3d ee e7 22 3a
       0.14566211 0.12577324 0.11829278 0.000621437
000160 bc 5d 05 3e 7d a1 2a be 93 20 3a 3d dc 4e 5d 3e
       0.13024038 -0.16663165 0.04544122 0.21612114
000170 2b ae 00 be 66 19 86 bc 60 6f ae 3d 5d 7d f8 bd
       -0.1256644 -0.016369533 0.08517337 -0.12133286
000180 48 c3 37 bd ea 72 a6 3c a5 17 0f 3d 37 58 14 be
       -0.04486397 0.020318467 0.03493466 -0.14486776
000190 a7 2a 89 bd c6 7d e6 bd 6c 5f 84 3d e2 b0 8d 3d
       -0.066975884 -0.11254458 0.06463513 0.06918503
0001a0 3f 4c d4 bd b6 91 ab bd 6c 7b 68 3d 85 b7 ad 3d
       -0.10366105 -0.083774015 0.05675833 0.08482269
0001b0 39 01 1a bd e4 36 90 bd cc 2b 0d 3e 63 7a 96 3d
       -0.037598822 -0.070417196 0.13786238 0.07347562
0001c0 66 86 19 be c3 4e 03 bd 5a 92 4f be a0 19 06 bd
       -0.14992675 -0.032057535 -0.20270672 -0.03273928
0001d0 d2 8d f6 bd 4b fe 4b 3d 83 28 aa bd 4e 18 bd bd
       -0.12038769 0.04980306 -0.08308508 -0.092331514
0001e0 fb ac 0f be e7 05 60 bd 70 89 cb bd 3d 08 96 3c
       -0.1403083 -0.05469313 -0.099383235 0.018314475
0001f0 11 02 6b bc 81 86 a9 bc dd 75 13 3d 5c 2f 8e 3d
       -0.014343754 -0.02069402 0.036001075 0.06942627
000200 27 f4 d9 3d ce 2e 62 bc ee 55 22 3e ad 40 de 3c
       0.106422715 -0.013805104 0.15853092 0.02713045
000210 12 06 cc bd c0 48 37 be 82 8e f1 3c fb 20 02 3e
       -0.09962095 -0.17898846 0.029486898 0.12707894
000220 0f 51 4c bd 5d 9d c1 3a 5e b7 58 3d c0 4f 18 3e
       -0.04988199 0.0014771629 0.052909248 0.14874172
000230 b1 bd 38 3e 9a 9b 14 ba bc 57 1d bd 36 48 7c bc
       0.18041112 -0.00056689384 -0.03841375 -0.015398076
000240 ca 7c 82 3d 3b 94 12 be 7f 23 46 bd ed e6 07 be
       0.06371458 -0.14314358 -0.048373695 -0.13271685
000250 cb 7f ba bb 39 c6 1b 3e d4 36 d2 3d 39 f1 b7 3c
       -0.0056915036 0.15212335 0.10264364 0.022453891
000260 14 b2 b1 bd cf eb e6 bc 3f e4 11 be 5c 56 5a 3e
       -0.08676544 -0.028188614 -0.14247225 0.21322006
000270 fe 4f 53 3b 14 48 2a be 39 4a 6b be 26 b0 36 3e
       0.0032243724 -0.16629058 -0.22977532 0.17840633
000280 b5 c5 06 be 49 76 7d 3d 5c 6a 70 bd 4f fb 0e 3e
       -0.13161357 0.061880384 -0.058695182 0.13963054
000290 cd 2d 2c be f6 3b 7e 3d 3f 11 1a be 82 af 0a 3e
       -0.16814347 0.062068902 -0.15045641 0.13543513
0002a0 74 67 fa bc 2a 03 2b bd 46 05 95 3d 7f 4f cc bd
       -0.030566908 -0.041751064 0.072763965 -0.099761
0002b0 df 10 e9 bd 53 f3 4c bb 22 c7 5f 3d 0f 7c 04 3e
       -0.11380171 -0.0031272962 0.054633267 0.1293795
0002c0 01 66 cb bc 21 af 82 be f9 7c a2 bd 60 fb 2d bd
       -0.024828913 -0.25524238 -0.07933993 -0.042476058
0002d0 ad f8 30 3e 95 ea 1c be 69 e0 54 3e d1 9d 37 be
       0.17282362 -0.15323861 0.2078873 -0.17931296
0002e0 dc 6d e7 3d fd 6a 14 be a1 5f 48 be 2e 49 bd bd
       0.11300251 -0.14493938 -0.1956773 -0.092424735
0002f0 83 91 2b 3e 80 a6 66 be 76 15 15 bd a4 0d 08 be
       0.16754727 -0.22524452 -0.03639742 -0.13286453
000300 40 4b cc bc 8e 34 eb 3d 12 8c 2e 3a 8e 8f 2b 3d
       -0.024938226 0.114846334 0.00066584453 0.04188495
000310 8e 9c 0f 3e 9e 8b f6 bd da 94 ce bd ac 19 d0 3d
       0.14024565 -0.120383486 -0.10086985 0.101611465
000320 a8 92 94 3d e0 f8 d2 3d 1a 3e d3 3d d8 89 f4 3d
       0.07254535 0.103013754 0.10314579 0.11940354
000330 ff 48 7d 3d 67 43 7b 3d c4 5d 42 3d f6 00 e0 bd
       0.061837193 0.061343577 0.047452703 -0.10937683
000340 f3 a5 a0 bc 8c a2 b8 bd 91 3d 5b bc b1 26 98 3d
       -0.01961038 -0.09015378 -0.013381378 0.07429255
000350 76 0d 1c bd 72 ef 8a bd d9 d4 7d 3d 47 59 03 3d
       -0.038098775 -0.06783952 0.061970565 0.032067563
000360 3c 4c 16 3e 5d 3b a2 bc 9d af 90 bd 2e 49 e6 bd
       0.14677519 -0.019803697 -0.070647456 -0.11244427
000370 73 2f da 3c 39 2f 0a 3c d1 23 b4 3c 87 0d 00 be
       0.026633954 0.00843411 0.021989735 -0.1250516
000380 d2 f1 99 3d 7e 0e c3 bd 06 29 9a 3d 3e 93 30 3c
       0.07516827 -0.095242485 0.07527356 0.010777293
000390 8b 23 f4 bb 10 c9 44 3c 6a ed 01 be 36 89 05 be
       -0.007450526 0.012010828 -0.12688223 -0.13040623
0003a0 32 bf ac 3c 87 38 e2 bd fc 33 4b be db 0c c5 3d
       0.021087263 -0.11045938 -0.19844049 0.096215926
0003b0 71 da 82 bd 56 1b e5 bc 48 f3 9b 3d 20 0c 04 be
       -0.06389321 -0.027967136 0.076147616 -0.1289525
0003c0 42 66 02 3e 86 98 82 3d 72 9a 7f be ae 31 1b 3e
       0.12734321 0.06376748 -0.2496126 0.1515567
0003d0 8d 26 8c bd f7 db 56 3d cd e8 40 3c a5 3b a7 bc
       -0.068432905 0.05245587 0.011774254 -0.020414183
0003e0 89 b1 de 3c f2 82 df 3b d6 35 aa bd b2 32 80 be
       0.027184265 0.00682103 -0.0831105 -0.25038677
0003f0 5d fa df 3c f6 a0 99 3c 29 32 4d 3c d2 38 38 be
       0.027341062 0.01875351 0.012524166 -0.17990425

fc1.bias f4 [32]
000000 75 4d 43 3c b8 d0 ce 3d 47 06 db 3d ee 17 bf 3d
       0.011920323 0.10098404 0.10694557 0.09330736
000010 7f 67 25 be 71 b1 f6 3d 85 3c 5c 3d 56 83 d9 bc
       -0.16152762 0.12045563 0.053768653 -0.026551884
000020 4d fa ec 3c ac ad 85 3c 18 bf ce 3d aa 40 e3 bd
       0.028927946 0.016318165 0.10095042 -0.11096318
000030 af 9e 86 ba d1 be f8 bd c5 a6 b4 bd b4 0f 0c 3e
       -0.001027068 -0.1214577 -0.08820871 0.13677865
000040 f0 f5 3c be dc 48 be 3d 3e 19 fc bd 15 b4 2f bd
       -0.18453193 0.092912406 -0.12309502 -0.04289635
000050 27 58 f4 bd 23 73 ca bd d8 e8 65 bc 04 36 05 3e
       -0.11930876 -0.09885242 -0.014032565 0.13008887
000060 4c 75 0c 3e f6 a1 1c bd f2 80 dd bd 6e bb ef 3c
       0.1371662 -0.038240395 -0.1081561 0.029264178
000070 5d df aa bd f7 e3 65 bc 03 fd 1c be c9 e3 d3 bd
       -0.083433844 -0.014031402 -0.15330891 -0.10346181

fc2.weight f4 [32, 32]
000000 22 f4 f9 3d 0b ae f9 bd 62 4a 8e be 38 df 46 3c
       0.12204768 -0.12191399 -0.27791125 0.01213818
000010 1a 0b 80 bb e7 85 d8 3c d5 82 66 bd d5 af 67 bd
       -0.0039075734 0.026431037 -0.056277115 -0.05656417
000020 73 38 1e be 96 e1 e8 bc a2 9b 8c be 53 d6 40 3e
       -0.15451221 -0.02842788 -0.27462488 0.18831758
000030 6d 17 81 be fc 57 42 3e 00 e4 81 3e ed 91 79 bd
       -0.25213185 0.18978876 0.25369263 -0.06093018
000040 76 63 6a 3e 01 f5 46 bc c6 cd 3b 3e 10 78 7f 3e
       0.22889504 -0.012143374 0.18340215 0.24948144
000050 10 da fe 3d 3a 32 1d 3e 19 81 2e be 0c 12 6f be
       0.12443936 0.15351191 -0.17041434 -0.23346728
000060 11 6a 7e be 7b 8d 6d bb a1 71 d8 3c 29 e1 22 bd
       -0.24845149 -0.003624766 0.02642137 -0.03976551
000070 1e a4 73 3e f2 97 5c be d4 8f 64 bc 3a 22 14 3e
       0.23793074 -0.21542338 -0.013950307 0.14466181
000080 1d 36 07 bd c6 6c 91 3e b3 d2 15 3e 61 91 f3 bb
       -0.03301059 0.284033 0.14631157 -0.007433102
000090 d6 b6 21 be 16 30 43 bd 5c 24 47 3e 5d 6f 39 be
       -0.15792403 -0.04765328 0.19447464 -0.18108888
0000a0 6b 12 8d 3d 8b 96 90 3e 3e 3d f7 3c 7e f1 0a 3d
       0.068882786 0.28239855 0.03018057 0.03392171
0000b0 f0 58 bb 3c f9 f1 4e 3d 60 ad 9c be 83 6d ad 3c
       0.022869557 0.05052373 -0.30601025 0.021170383
0000c0 0b 24 61 be fc 0a 6f 3b b8 ca 55 bc 8f 26 89 be
       -0.21986406 0.0036475053 -0.01304882 -0.2678723
0000d0 89 08 2d be 7e 27 ac bc 9b 47 8a 3e 70 e8 20 3e
       -0.16897787 -0.021014925 0.27007756 0.15713668
0000e0 19 83 8b 3e c9 39 62 3e aa e3 98 be 19 f5 42 3c
       0.27248457 0.22092356 -0.29861194 0.011899256
0000f0 e3 48 f7 bd 4c 3e 0a bc 98 15 92 be b7 20 57 be
       -0.12074449 -0.008437704 -0.285321 -0.21008573
000100 89 bd 30 3e 00 41 16 bd 5f 12 05 be 28 05 da bc
       0.17259802 -0.036683083 -0.1299529 -0.026613787
000110 d0 be 74 bd e3 ec e2 bd e9 60 b0 3c 0a 8f 6d bd
       -0.059752285 -0.11080339 0.021530585 -0.05799774
000120 02 07 40 3d ab d3 3f be 7c b1 a8 bd 9c f9 7c bd
       0.046881683 -0.18733089 -0.082369775 -0.061761484
000130 3b 13 b6 bd 16 72 87 3e 64 66 e9 3c bd ae 33 be
       -0.08890387 0.26454228 0.028491206 -0.17547126
000140 d8 54 48 3d ee 12 0d be 23 ef 2d ba 7e 3b b9 3d
       0.04890904 -0.13776752 -0.00066350604 0.0904455
000150 a0 41 49 3e 19 73 17 3d 7f e2 80 be 1f 1a 19 be
       0.1965394 0.036975 -0.25172803 -0.1495137
000160 00 c3 8a be 33 3e b8 bd 7f 9c ae 3c ae 38 86 be
       -0.27101898 -0.089962386 0.021314858 -0.26215118
000170 3c b2 4a 3d b0 d5 2a be 63 fb 0d bd ee c5 93 3a
       0.049486384 -0.16683078 -0.03466357 0.0011274198
000180 be 38 22 3e 03 9a 8b 3d ce f2 74 bd 5a 5e 7f be
       0.15841958 0.06816485 -0.05980187 -0.24938336
000190 5d 05 36 3e 21 3b 07 be f4 ab 08 be e3 b0 34 3e
       0.17775483 -0.1320615 -0.13346845 0.17645602
0001a0 a4 74 be bc de 66 b9 bd 46 63 8f 3d d9 d2 62 3e
       -0.023248978 -0.090528235 0.07001357 0.22150744
0001b0 8f b7 45 be cc 03 23 bd 93 7b c4 bc 91 af 57 be
       -0.19308303 -0.039798543 -0.023984706 -0.21063067
0001c0 73 30 27 3e 86 8e 8d be 95 10 94 3e a6 15 72 3e
       0.16327076 -0.276478 0.289189 0.2364107
0001d0 ed 1d 40 3e e7 48 95 3d 82 c4 21 be 3f cb 2e be
       0.18761416 0.07289296 -0.15797618 -0.1706972
0001e0 23 6d 45 be ff c3 7b be c2 19 34 3d 77 e8 82 be
       -0.19279914 -0.24586485 0.043969877 -0.25567982
0001f0 33 a9 4a 3e da ab 08 bd 1c d0 97 3d 4e 92 ae 3d
       0.19791107 -0.033367015 0.074127406 0.08523999
000200 4f 3f f3 bd 45 c6 1e 3e 94 9e 67 3e 93 2e 6b 3e
       -0.118773095 0.15505321 0.22619087 0.22966985
000210 e1 9b 71 bc 32 b6 3c 3d 0e b5 55 bd 73 ad 56 be
       -0.014746637 0.046072192 -0.05217462 -0.20964603
000220 1e b9 8f 3e ae c7 95 3e c3 b7 d0 3d 6b d8 93 be
       0.2807092 0.29253906 0.101913 -0.2887605
000230 17 03 8a 3e 95 6e c7 bd 5c ad 15 bd c8 c9 5b 3e
       0.26955482 -0.09737889 -0.03654228 0.21463692
000240 32 0a 84 be f7 d7 58 3e 25 ef 31 be 07 83 6c be
       -0.25789028 0.21176134 -0.17376383 -0.23096858
000250 9f fc 09 bd 8f 0e d5 bd 52 ee 80 3c 6d 0c 76 bd
       -0.033688184 -0.104031675 0.01573864 -0.060070444
000260 8e ac 41 3c 50 7a 06 3e 28 e9 dc bd bc 1f 72 3e
       0.011820925 0.13132596 -0.107866585 0.23644918
000270 3f 38 00 be 75 25 5c 3b f6 e1 8b be f4 03 50 3c
       -0.12521456 0.0033591662 -0.27320832 0.012696255
000280 a8 12 0f be a1 1b d5 3d 8e e6 a8 3d 9c 58 d2 bd
       -0.1397196 0.104056604 0.082471 -0.10270807
000290 82 ab 67 be d0 a0 05 3d c8 54 c4 bd 41 e0 62 be
       -0.22624019 0.032624066 -0.09586483 -0.22155859
0002a0 56 39 83 3e 7c e7 3d 3e 7d dc c1 3d 85 50 79 be
       0.2562968 0.18545336 0.09465883 -0.24347122
0002b0 89 29 7c 3e 40 90 20 bc 20 a1 40 be ad 53 56 3d
       0.2462522 -0.009800017 -0.18811464 0.052325893
0002c0 99 7a 5d be d4 ef 8d 3e db 47 f3 bd e5 d2 43 be
       -0.21628799 0.27722037 -0.1187894 -0.19123419
0002d0 b2 0a 8e be 62 cb 9b bd d9 37 85 3e 00 60 cd 3c
       -0.27742535 -0.076071516 0.2601917 0.02507019
0002e0 b8 17 a9 3d fa 6f ec bc 37 32 09 be ed 24 ad 3c
       0.08256477 -0.028861988 -0.13398062 0.021135772
0002f0 ce f3 9f bd a4 f7 87 3d 21 f0 75 be 49 ac 09 be
       -0.07810174 0.066390306 -0.24017383 -0.13444628
000300 7d 4f 1e 3e d6 cc 87 be 49 93 59 bd 51 54 0f bd
       0.1546001 -0.26523465 -0.053118978 -0.03499252
000310 7e 36 26 3d 93 2a 3f bd 47 21 71 3d 1b 7b 74 3e
       0.04057931 -0.04667146 0.058869626 0.23875086
000320 ea bc a6 bd f1 fb 2f bc a9 6a 90 3c 05 0d 69 3e
       -0.08141501 -0.01074122 0.017628985 0.22758873
000330 ef 14 29 be ac 01 2a bb a9 38 18 3e 69 53 8e be
       -0.16511892 -0.0025940938 0.14865364 -0.27798012
000340 81 22 12 bd 56 45 3a bc 37 b5 5a 3e 40 99 26 3e
       -0.035677437 -0.01136907 0.2135819 0.16269398
000350 5f d5 dc 3d 47 b9 0f 3e e6 46 00 be 06 65 06 3d
       0.10782885 0.14035521 -0.12527046 0.032811187
000360 26 5c 68 bc 28 9b 25 bd f0 49 42 3e d9 2d 4f 3d
       -0.014182126 -0.04043117 0.18973517 0.050580833
000370 72 24 67 3e 01 51 84 be f4 83 2d 3d 71 f3 ab 3c
       0.22572497 -0.2584305 0.04236217 0.020990105
000380 3f e1 f5 bc 0b bd 8b bc 82 c0 d2 bc 5a 42 10 3e
       -0.030014632 -0.017057916 -0.02572656 0.14087811
000390 1a 24 27 be a3 37 83 3e 06 db c2 bd 29 a3 02 be
       -0.16322365 0.25628385 -0.09514432 -0.12757553
0003a0 18 5d 50 3e 90 2f 9b 3c 57 f6 72 3d 78 55 1d be
       0.20348012 0.018943578 0.05931696 -0.15364635
0003b0 4f 7b fe 3c 06 0f 8c be a2 69 29 be 26 1a 15 3e
       0.031064657 -0.27355212 -0.16544202 0.14560756
0003c0 e2 20 5b be d6 d9 56 3e 35 e7 28 bc 45 14 31 bb
       -0.21399263 0.20981535 -0.01030903 -0.0027020138
0003d0 44 ad bb bd db 96 b9 3d db 5e 1b 3d 2d 03 82 3e
       -0.09163907 0.090619765 0.037932258 0.25393048
0003e0 91 34 04 3c 90 a2 05 3e ae a3 0d bc 91 81 90 3e
       0.008069173 0.13050294 -0.008644981 0.2822385
0003f0 fc d1 0d be b4 b4 84 3d 1a 65 41 be b4 24 64 be
       -0.13849634 0.06479779 -0.18886223 -0.22279626

fc2.bias f4 [32]
000000 84 89 68 3d 8d 22 db 3d 2b ef c9 bd 79 46 67 bd
       0.05677177 0.106999494 -0.09860071 -0.056463692
000010 41 ff 8f 3d 07 58 6b 3d 16 8e ec 3c 2b 79 4a 3c
       0.07031108 0.057456996 0.028876346 0.01235799
000020 dc f4 9c bd 65 f3 34 3c cb 0c 92 bd 87 03 6d ba
       -0.07663891 0.011044358 -0.07131346 -0.0009041358
000030 b8 c2 49 3d b3 52 02 3e 08 ad 78 bb 90 a5 89 bd
       0.049257964 0.1272686 -0.0037944932 -0.06721032
000040 20 a4 08 3e 70 0b 61 3d e0 92 06 3d 28 ab 98 bc
       0.13343859 0.05494255 0.032854915 -0.018636301
000050 f3 d7 2b 3d 5a 13 13 3d a5 77 3f bd b8 71 cb bd
       0.041953992 0.035907127 -0.04674496 -0.099337995
000060 6b e4 1b ba 8b 6f 82 bc 6f eb 52 3d 9c 2e 11 be
       -0.00059468177 -0.015922328 0.05149406 -0.14177936
000070 8f d9 bb 3b 4e 36 93 3d 0e d4 28 bd 5e dd 90 3d
       0.005732722 0.07188092 -0.041217856 0.070734724

fc3.weight f4 [1, 32]
000000 b0 60 9f be 66 8a 45 3e 21 35 55 be 92 ed 80 be
       -0.31128454 0.19291076 -0.20821048 -0.25181252
000010 93 db 25 3e e5 a2 0d 3e dd a4 80 be 4a c6 6b 3e
       0.16197042 0.1383167 -0.2512578 0.2302486
000020 6c f4 93 3e 81 07 23 be 1c ec 2e be 9a b2 7e be
       0.28897417 -0.15920831 -0.17082256 -0.24872819
000030 43 ca 39 be d5 a3 27 3e 9a 62 71 be 31 4b 9d be
       -0.18143563 0.1637109 -0.2357277 -0.3072143
000040 df a0 23 3c 9e 18 80 be d4 2a 38 3e 5a 3e 89 3e
       0.009987085 -0.2501878 0.17985088 0.26805383
000050 0c cc 60 3e f5 1f 8f 3e 24 ea 37 3e c2 00 13 be
       0.21952838 0.2795407 0.17960411 -0.14355758
000060 ac 4d 44 3e 3b 93 8d 3e 73 57 2f be 2c df 88 be
       0.19170254 0.2765139 -0.17123203 -0.26732767
000070 99 09 82 3e ff 92 19 3e 6a 2c 3f 3e f9 2a 94 be
       0.25397947 0.14997481 0.18669286 -0.28939036
