amazon/20230802-185100/commr_eval_best.pt (torch, 29553 bytes, 10 tensors)

fc1.weight f4 [32, 65]
0	0x3d0e0870	0.034676015
1	0xbccf1dc3	-0.025282746
2	0xbdc35657	-0.095379524
3	0x3ba632f2	0.005071991
4	0xbd8d8a2e	-0.06911121
5	0x3da3433c	0.07971808
6	0xbcc1a33a	-0.023637403
7	0xbd26eeb4	-0.04075499
8	0xbdd0949a	-0.101845935
9	0xbe06937b	-0.13142197
10	0x3d1c69fe	0.03818702
11	0x3d85a270	0.06525123
12	0x3ca13c1b	0.01968198
13	0xbe3f848f	-0.18702911
14	0x3daa5b3d	0.083181836
15	0x3cda722c	0.02666577
16	0xbe362f28	-0.17791426
17	0xbc54399b	-0.012953187
18	0x3bb685c4	0.0055701453
19	0xbd86bac3	-0.06578591
20	0xbe5f178a	-0.21786323
21	0xbe004216	-0.1252521
22	0xbd847b8e	-0.06468879
23	0xbc99f407	-0.01879312
24	0xbda98f74	-0.08279315
25	0x3d0404d2	0.03223116
26	0x3db3df7d	0.087828614
27	0x3d196d3a	0.037457682
28	0xbd2970c2	-0.0413673
29	0x3bfda9f7	0.0077412087
30	0xbd6993d1	-0.057025734
31	0xbd624b8c	-0.05524783
32	0xbd74b44d	-0.05974226
33	0x3bd58eb0	0.006517254
34	0xbc826703	-0.01591826
35	0x3d10ef13	0.03538425
36	0xbca13207	-0.019677175
37	0xbe0e3cc4	-0.13890368
38	0xbda5e111	-0.08099569
39	0x3d03bbcc	0.03216152
40	0x3d9ef470	0.077614665
41	0xbdef2e62	-0.11678769
42	0x3d2626f8	0.040564507
43	0x3d27fd63	0.041013133
44	0x3e44a385	0.19203003
45	0x3d60a437	0.054844107
46	0xbd2a0f0b	-0.041518252
47	0x3d83576d	0.064131595
48	0x3e0e9228	0.13922942
49	0x3e37a276	0.17933068
50	0x3c3c1366	0.011479234
51	0x3dd303a1	0.103034265
52	0xba7b7d5b	-0.00095935696
53	0x3d7e8c6c	0.062145635
54	0xbe2f1ca3	-0.17100768
55	0xbc9fbae5	-0.019498298
56	0xbe257be5	-0.16160543
57	0xbe1f6d5a	-0.15569058
58	0xbd0674f8	-0.032826394
59	0xbcdbc720	-0.026828349
60	0x3deca9fd	0.1155586
61	0xbd4ad4e8	-0.04951945
62	0xbd8ee2a8	-0.06976825
63	0x3e000a5d	0.12503953
64	0x3e495131	0.19659878
65	0xbe81e780	-0.25371933
66	0xbe4ff524	-0.20308357
67	0x3dc3f14f	0.0956751
68	0xbe1ff32b	-0.15620105
69	0x3dc4a431	0.096016295
70	0xbd840a38	-0.064472616
71	0xbe0c7fee	-0.13720676
72	0x3e1f7656	0.15572485
73	0x3dc7f8da	0.097642615
74	0x3d1cb53f	0.038258787
75	0x3d92e2e3	0.071721815
76	0xbdde5b68	-0.10857278
77	0xbd285410	-0.041095793
78	0x3a78ab59	0.0009485982
79	0xbd993bde	-0.07482122
80	0x3dd01304	0.10159877
81	0x3b8d7490	0.004316874
82	0xba379c65	-0.00070042006
83	0xbd4fe531	-0.050755683
84	0x3dda6bb4	0.10665074
85	0x3dd8352b	0.10557016
86	0x3dc058a3	0.09391906
87	0x3bb8067a	0.0056160064
88	0x3d57186b	0.05251352
89	0x3d8d9202	0.069126144
90	0xbda6ebce	-0.08150445
91	0xbe14900a	-0.14508072
92	0xbdcea518	-0.10090083
93	0xbddde5f7	-0.10834878
94	0xbd1a5218	-0.037675947
95	0x3db9d53b	0.090738736
96	0xbd612379	-0.05496547
97	0x3d18aa76	0.03727194
98	0xbd9ae010	-0.07562268
99	0xbcb264dd	-0.021776611
100	0xbdb11e60	-0.08648372
101	0xbdabf551	-0.083964
102	0xbb51ba48	-0.0032001901
103	0xbdea16bd	-0.11430118
104	0x3e0e2895	0.13882668
105	0xbd6dff7e	-0.058104984
106	0x3cf7efc5	0.030265698
107	0xbe14bd40	-0.14525318
108	0xbdf4bb86	-0.1194983
109	0xbdf72818	-0.12068194
110	0x3b6954f7	0.0035603622
111	0x3d80be2f	0.06286275
112	0xbd80d7d1	-0.06291164
113	0xbda6edb0	-0.08150804
114	0xbda848e0	-0.08217025
115	0xbd37299e	-0.044717424
116	0xbdcb9e1d	-0.09942267
117	0x3d8c4690	0.06849396
118	0xbce30ef8	-0.027717099
119	0xbd9d27fd	-0.07673643
120	0xbd62d52f	-0.05537909
121	0x3d891067	0.066925816
122	0x3d2303fc	0.03979872
123	0x3e0cdb38	0.137555
124	0xbd7f3a0f	-0.06231123
125	0x3bd84833	0.0066004037
126	0x3d986916	0.074419186
127	0xbdf5e8e2	-0.120073095
128	0x3c8be1f5	0.017075518
129	0xbe3b0389	-0.18263067
130	0xbd6ed35d	-0.05830704
131	0xbe41054f	-0.18849681
132	0x3dcbd469	0.099526234
133	0xbe19da3b	-0.15024655
134	0x3dae9099	0.085236736
135	0xbdda352a	-0.106546715
136	0xbd848aff	-0.06471824
137	0x3dadf943	0.084948085
138	0xbd982dd2	-0.074306145
139	0x3e1e7f90	0.15478349
140	0xbde0ce4c	-0.10976848
141	0xbdc39cf1	-0.095514186
142	0xbddcac1b	-0.10775014
143	0xbd68786e	-0.056755476
144	0x3db03088	0.086030066
145	0xbd80db16	-0.06291787
146	0xbce4bb7a	-0.027921427
147	0xbd0659fd	-0.032800663
148	0xbbaf76d1	-0.00535474
149	0xbdc4a801	-0.09602357
150	0x3d81cc72	0.06337823
151	0x3ca1605d	0.01969927
152	0x3dba56cc	0.090985864
153	0xbdc71d9d	-0.09722445
154	0x3c8a90b0	0.016914696
155	0xbdfa7479	-0.12229247
156	0xbca96a6a	-0.020680625
157	0xbde13fb2	-0.10998477
158	0xbdc9f60d	-0.098613836
159	0xbde776f7	-0.113019876
160	0xbddadff5	-0.10687248
161	0x3e040cba	0.1289548
162	0x3d57007c	0.052490696
163	0xbe42b155	-0.1901296
164	0xbd677fb3	-0.056518268
165	0xbd4ec014	-0.05047615
166	0xbd3976ca	-0.0452793
167	0x3d941834	0.07231179
168	0xbd43d8df	-0.047814246
169	0x3da354e9	0.0797518
170	0xbd2adbb6	-0.04171344
171	0xbd8e0f76	-0.06936543
172	0xbd95b9cc	-0.073108286
173	0xbe0b0d6e	-0.13579342
174	0xbc7c7ebe	-0.015411077
175	0x3c01e1d1	0.007927374
176	0xbd3cbeb2	-0.0460803
177	0x3c96ce4b	0.018408915
178	0x3ce11a2f	0.027478306
179	0xbd391fed	-0.045196462
180	0x3cd81397	0.026376529
181	0xbd973f9e	-0.07385181
182	0x3c8ca417	0.017168088
183	0xbd10955a	-0.035298683
184	0x3d2dbe94	0.042418078
185	0xbca477f4	-0.02007673
186	0xba9fcbb6	-0.0012191448
187	0x3c8923ca	0.016740698
188	0x3dfc816c	0.12329373
189	0x3bf8df50	0.0075949803
190	0x3d899cba	0.06719346
191	0x3cecfe9e	0.028930005
192	0x3deb27fc	0.11482236
193	0xbe22d9ad	-0.15903349
194	0xbda59565	-0.08085135
195	0xbd0cc307	-0.03436568
196	0xbe123719	-0.1427883
197	0xbdbc735b	-0.0920169
198	0x3d29cba6	0.04145398
199	0xbce0f5d7	-0.027460976
200	0x3c6eac86	0.0145675
201	0x3cc3d03a	0.023903001
202	0x3e682da3	0.22673659
203	0x3ddcdaec	0.107839435
204	0x3df5095e	0.11964677
205	0x3dbe0e22	0.09280039
206	0xbd99f508	-0.07517439
207	0xbd708ad9	-0.058726165
208	0x3df8b6db	0.12144252
209	0x3d9bc3b9	0.076056905
210	0xbb90eee5	-0.0044230097
211	0x3ba665f8	0.0050780736
212	0xbc4a30db	-0.01234075
213	0xbcedce9d	-0.029029185
214	0x3c478bd2	0.012179332
215	0x3deb2562	0.114817396
216	0x3e1ab36b	0.15107505
217	0xbcbf396e	-0.023342814
218	0x3cead9dd	0.028668338
219	0x3da95ce1	0.08269668
220	0x3ddc2c16	0.10750596
221	0xbe03dd6f	-0.12877439
222	0xbe2382d6	-0.15967879
223	0x3dced957	0.10100048
224	0x3d1d7f6a	0.03845159
225	0xbd5dbdfa	-0.054136254
226	0x3db78f09	0.08962829
227	0x3de7aba0	0.11312032
228	0xbc1d4730	-0.009599492
229	0xbd44eaee	-0.04807561
230	0xbd8c8f0c	-0.068632215
231	0xbe222a7d	-0.1583652
232	0x3e5b1f01	0.21398546
233	0xbcd481eb	-0.025940856
234	0xbca486b1	-0.020083757
235	0x3d335b1f	0.04378807
236	0x3cf5b606	0.029994022
237	0xbd542a90	-0.051798403
238	0x3dc82d2f	0.09774243
239	0xbe6fc281	-0.23414041
240	0x3c97fde4	0.018553682
241	0xbdce7728	-0.10081321
242	0x3a06764c	0.0005129322
243	0xbdd6cd0c	-0.10488328
244	0xbe00750c	-0.1254465
245	0xbd095324	-0.033526555
246	0x3d5238e5	0.05132379
247	0xbc36b388	-0.011151202
248	0x3d057078	0.03257796
249	0x3d9fcf01	0.07803155
250	0xbd6b18ba	-0.057396628
251	0x3e3b5873	0.1829546
252	0xbcf630cd	-0.030052567
253	0x3e844b76	0.25838822
254	0xbe0a5111	-0.13507487
255	0xb9f86d58	-0.00047383714

fc1.bias f4 [32]
0	0x3c82933a	0.015939344
1	0x3d44e7f0	0.048072755
2	0xbc26fe42	-0.010192456
3	0x3d71f046	0.059067033
4	0xbd12757e	-0.03575658
5	0xbd60ec71	-0.054912988
6	0xbcf41896	-0.02979688
7	0x3d438128	0.047730595
8	0x3d937266	0.07199554
9	0x3d8c5abf	0.06853246
10	0xbc56799b	-0.013090516
11	0xba8b3103	-0.0010619465
12	0xbd983f70	-0.07433975
13	0xbd922de1	-0.07137657
14	0x3d6d0966	0.05787029
15	0x3c8cca47	0.017186297
16	0xbd9dfe86	-0.07714562
17	0x3e071bb5	0.13194163
18	0xbd66f243	-0.056383383
19	0x3dd76839	0.10517926
20	0x3dfad1f5	0.122470774
21	0x3d0c586b	0.03426401
22	0x3d88b36b	0.06674846
23	0xbda369e8	-0.079791844
24	0xbd8e4a13	-0.06947722
25	0xbccd0135	-0.02502499
26	0xbcbd4560	-0.02310437
27	0xbd7d82e6	-0.061892413
28	0x3d8ed3d3	0.06973996
29	0xbd2a8bc0	-0.041637182
30	0xbc54c4c2	-0.012986364
31	0xbcce3b76	-0.025174838

fc2.weight f4 [32, 32]
0	0xbdc4ec3f	-0.09615373
1	0x3e9bdd0b	0.3044208
2	0x3e46ebd2	0.19425896
3	0xbc330433	-0.010926294
4	0x3bc91463	0.0061364635
5	0x3d915aff	0.07097434
6	0xbe67da39	-0.22641839
7	0x3e6e47d4	0.23269588
8	0xbdece64b	-0.115673624
9	0x3da058ee	0.07829462
10	0xbd1a0e05	-0.037611026
11	0xbd338855	-0.04383119
12	0xbc563273	-0.0130735515
13	0xbde8a047	-0.113586955
14	0x3e7b5fdd	0.24548288
15	0xbde9e032	-0.11419715
16	0xbdcd5e70	-0.10027778
17	0xbcfc58b1	-0.03080401
18	0x3e0f0c01	0.13969423
19	0xbd04ea0a	-0.03244976
20	0x3e912f37	0.28356335
21	0xbc1f5028	-0.009723701
22	0xbd039bd0	-0.032131016
23	0xbdc2e68f	-0.09516632
24	0x3db4c239	0.088261075
25	0xbe63e607	-0.22255717
26	0x3d887f88	0.0666495
27	0xbe516d77	-0.20451914
28	0x3e0d2c4d	0.1378643
29	0xbcaebc61	-0.02133006
30	0x3d4cc510	0.04999262
31	0x3e84ca34	0.2593552
32	0xbe587318	-0.21137655
33	0x3d9bbdb6	0.07604544
34	0x3c76cb3a	0.015063101
35	0x3d8c76a2	0.06858565
36	0x3d9d0fc4	0.07669023
37	0xbd94f9e4	-0.07274225
38	0xbd2214a5	-0.03957047
39	0xbd2a1051	-0.041519467
40	0x3dba6029	0.09100372
41	0x3e07b5b3	0.13252907
42	0xbdf302f8	-0.118658006
43	0xbe7c349a	-0.24629441
44	0x3e0d19c7	0.13779365
45	0x3d8fd270	0.0702256
46	0x3de8bdbf	0.11364316
47	0xbe8c9f2d	-0.2746519
48	0xbe995005	-0.29943863
49	0x3e81632b	0.25270972
50	0x3e965bbe	0.2936687
51	0x3d34a47e	0.044102184
52	0x3e884628	0.26616025
53	0x3de97e35	0.11401025
54	0xbe0b671d	-0.13613553
55	0x3da1b003	0.078949
56	0x3dcbe1f9	0.0995521
57	0x3cf2b833	0.029628849
58	0x3e4b4d66	0.19853744
59	0xbe21b1ec	-0.15790528
60	0x3e0f006a	0.13965002
61	0xbe0872b9	-0.13325013
62	0x3e4d4ce0	0.20048857
63	0x3e05032e	0.12989494
64	0x3e36fe65	0.17870481
65	0xbe052d56	-0.13005576
66	0x3c339e2a	0.010963002
67	0xbeb5e897	-0.35529014
68	0xbdf5907e	-0.1199045
69	0x3e09faf7	0.13474642
70	0x3e57811f	0.2104535
71	0xbe81dce0	-0.25363827
72	0x3e53fd4d	0.20702095
73	0xbe42865b	-0.18996565
74	0x3ea2d057	0.31799576
75	0x3e824abf	0.25447652
76	0xbdb77d5a	-0.08959456
77	0xbdb44ecb	-0.08804091
78	0xbe1bbe9e	-0.15209433
79	0x3deaf892	0.11473192
80	0x3e0cf9b5	0.1376713
81	0xbdeab552	-0.11460365
82	0xbe5fb417	-0.21846043
83	0xbd768ecf	-0.060194787
84	0xbeb3b25f	-0.35097024
85	0x3e5d345f	0.21602009
86	0x3e7f9bf7	0.2496184
87	0xbb51edd3	-0.0032032623
88	0x3e25ced9	0.16192187
89	0x3e38da4e	0.18052027
90	0xbd0030fc	-0.031296715
91	0xbda76ffd	-0.08175657
92	0xbe4f2cf2	-0.20231989
93	0x3b8cdbad	0.0042986483
94	0x3c63f51e	0.013913421
95	0xbd9f8280	-0.07788563
96	0x3e90532d	0.28188458
97	0xbe062e0c	-0.13103503
98	0xbe2ae45d	-0.16688676
99	0xbb9a7923	-0.0047141477
100	0xbc15d65e	-0.009145347
101	0x3e37dbd9	0.17954959
102	0x3cd10487	0.025514854
103	0xbe2fc973	-0.1716669
104	0x3d2a7bfd	0.04162215
105	0xbe2be1db	-0.16785376
106	0x3e1f9294	0.15583259
107	0x3dd522f8	0.104070604
108	0x3d9999d4	0.075000435
109	0xbd9074cb	-0.070535265
110	0xbe9d1bdd	-0.3068532
111	0x3e8f9b94	0.28048384
112	0x3eb0783c	0.34466732
113	0xbdbf1336	-0.09329836
114	0xbed21a93	-0.410359
115	0xbdd24495	-0.10266987
116	0xbe293be3	-0.16526751
117	0x3e190949	0.14944948
118	0x3e8b99b8	0.27265716
119	0x3d3d226f	0.046175417
120	0x3e6992f2	0.22809961
121	0x3e79d302	0.243969
122	0xbe43f926	-0.19138011
123	0xbce2dcb9	-0.02769314
124	0xbeaea4c4	-0.3411008
125	0x3dffabd8	0.124839485
126	0xbdf1b7dd	-0.11802647
127	0xbe92f58c	-0.28702962
128	0xbcfaf1d6	-0.030632894
129	0x3ca92618	0.020648047
130	0x3e276f84	0.16351134
131	0x3e59a3dc	0.21253914
132	0x3e87d977	0.265331
133	0xbdb05e3f	-0.08611726
134	0xbd39703b	-0.045273047
135	0x3caf5eea	0.021407563
136	0x3b7edf6b	0.0038890492
137	0x3e909f5e	0.28246588
138	0xbe8fd2b0	-0.2809043
139	0xbe2ba5f9	-0.16762532
140	0x3e4a196f	0.19736265
141	0x3d6997ac	0.05702941
142	0x3e8d63ad	0.2761511
143	0xbe030823	-0.12796073
144	0xbda027e5	-0.07820109
145	0xbcff7c2a	-0.031187136
146	0x3de892f1	0.11356152
147	0x3dcfde2b	0.10149797
148	0x3e017002	0.12640384
149	0x3d770d9b	0.06031571
150	0xbc740277	-0.014893166
151	0xbe7e68bb	-0.24844639
152	0x3d71e9f1	0.059060995
153	0xbda1f91b	-0.07908841
154	0x3e51e970	0.20499206
155	0x3b932825	0.0044908696
156	0x3e7794e0	0.24177885
157	0xbd24e846	-0.040260576
158	0xbcd83e02	-0.026396755
159	0x3e8e56f4	0.27800715
160	0xbdfcfeca	-0.12353285
161	0xbce2a39e	-0.02766591
162	0xbc06074d	-0.008180452
163	0xbd597e49	-0.05309895
164	0x3d205334	0.03914185
165	0x3d39f030	0.045395076
166	0xbe808408	-0.25100732
167	0x3d56e598	0.05246505
168	0x3da2a8ab	0.07942327
169	0x3e417a4b	0.18894307
170	0xbe8b66be	-0.27226824
171	0x3de38d41	0.111109264
172	0x3c8e8ea1	0.017401995
173	0xbd9694e2	-0.07352616
174	0xbe06a545	-0.13148983
175	0x3d7840ae	0.06060856
176	0xbe31a7de	-0.17349193
177	0x3e81445d	0.2524747
178	0x3ea8339e	0.3285188
179	0x3e40a378	0.18812358
180	0x3e2a7de2	0.16649583
181	0x3d74e5b5	0.05978938
182	0xbddab0b8	-0.10678238
183	0xbe1f80de	-0.15576503
184	0xbdfca653	-0.12336411
185	0x3de25c42	0.11052753
186	0x3e1a08d5	0.15042432
187	0xbe826582	-0.2546807
188	0x3e93e95e	0.28888983
189	0xbe33c169	-0.17554249
190	0x3bd45cd4	0.0064807925
191	0x3dabcaeb	0.08388313
192	0xbe3334f2	-0.17500666
193	0x3e310b4f	0.1728947
194	0x3e204aa0	0.15653467
195	0x3e5e7f4b	0.21728246
196	0x3e28310b	0.16424958
197	0xbd5591cf	-0.052141007
198	0xbd16c795	-0.03681143
199	0x3e5d1e7d	0.21593662
200	0xbccb404a	-0.024810929
201	0x3d910595	0.07081143
202	0xbe289ac2	-0.16465285
203	0xbe70d9a1	-0.23520519
204	0x3e6e0d66	0.23247299
205	0x3de2ec65	0.11080245
206	0x3e0e3b96	0.13889918
207	0xbdbf464d	-0.09339581
208	0xbd7832a4	-0.06059517
209	0xbd478bb3	-0.048717212
210	0x3db32adf	0.087484114
211	0xbd142ad6	-0.036173664
212	0x3db3fae0	0.08788085
213	0xbe0a9ef1	-0.13537194
214	0xbc85b4cd	-0.016321564
215	0xbe82fe4f	-0.25584647
216	0xbe584c58	-0.21122873
217	0xbe495128	-0.19659865
218	0xbc061281	-0.008183123
219	0x3ceefba2	0.029172722
220	0x3ea9d2e7	0.33168718
221	0xbe422d30	-0.1896255
222	0x3e62ff32	0.22167662
223	0x3e568f79	0.20953168
224	0x3ea10f79	0.31457117
225	0xbe3098a3	-0.17245726
226	0xbdafe440	-0.08588457
227	0xbe9c8fa5	-0.30578342
228	0xbde2b34f	-0.11069357
229	0x3e813917	0.2523887
230	0x3c029075	0.007969012
231	0x3dbdbe07	0.092647605
232	0xbd92bf2d	-0.0716537
233	0xbe8d659a	-0.27616578
234	0x3e5d147b	0.21589844
235	0xbd97f8da	-0.074205115
236	0xbe19eafc	-0.15031046
237	0x3e04e4bf	0.12977885
238	0xbdf1be38	-0.118038595
239	0x3c9fd19f	0.019509135
240	0x3e50817f	0.20361899
241	0xbe76b003	-0.2409058
242	0xbea99531	-0.33121637
243	0xbd83dc1a	-0.064384654
244	0xbdbd2a6e	-0.092366084
245	0x3e273d86	0.16332063
246	0xbc24019d	-0.01001015
247	0xbda7ffaa	-0.08203061
248	0x3dcef297	0.10104864
249	0x3df560b9	0.11981339
250	0x3bfa5eaa	0.0076406794
251	0x3e0987b8	0.13430679
252	0xbe6d582c	-0.23178166
253	0xbc426f54	-0.011867363
254	0xbd59cce5	-0.05317392
255	0xbea216ba	-0.31657964

fc2.bias f4 [32]
0	0xbda3482d	-0.07972751
1	0xbd59d9c4	-0.053186193
2	0xbd85e89d	-0.06538508
3	0xbda33c16	-0.07970445
4	0x3e1ad97b	0.15122025
5	0xbd07b7b8	-0.033134192
6	0x3e007bec	0.12547272
7	0xbde8060e	-0.1132928
8	0xbce42290	-0.027848512
9	0x3dbdc7f0	0.09266651
10	0xbdcf5bf6	-0.10124962
11	0xbc47d3e3	-0.012196514
12	0x3e0211cd	0.12702103
13	0x3d52e2d3	0.051485848
14	0x3d4a97a9	0.04946104
15	0xbd68e131	-0.056855384
16	0xbe1dc41a	-0.15406838
17	0x3dc3be63	0.09557798
18	0xbe1b2ffc	-0.15155023
19	0xbd8901ac	-0.06689772
20	0x3d9c2fd2	0.076263085
21	0xbcb818df	-0.022472797
22	0x3d5f6ae3	0.054545294
23	0x3d962ade	0.07332395
24	0xbc49657f	-0.012292265
25	0xbdc02af4	-0.09383193
26	0x3c34ed3a	0.011042887
27	0xbdd46eeb	-0.103727184
28	0x3dd56df8	0.104213655
29	0xbe091eae	-0.1339061
30	0xbddb3c0a	-0.10704811
31	0x3dfebab0	0.124379516

fc3.weight f4 [1, 32]
0	0xbeb0bf4e	-0.34520954
1	0xbe8a9b52	-0.27071625
2	0x3e90a5e2	0.2825156
3	0x3ecd1a58	0.4005916
4	0xbeb5c63c	-0.35502803
5	0xbe7641f7	-0.24048601
6	0xbedac5db	-0.42729077
7	0x3e8109ee	0.25202888
8	0x3e9800d7	0.2968814
9	0xbebfdae6	-0.37471694
10	0x3ed424f2	0.41434437
11	0x3e94fa46	0.29097193
12	0xbeed8fc1	-0.46398738
13	0xbe586fa8	-0.21136343
14	0xbd2b9a7c	-0.041895375
15	0xbed73a38	-0.42036605
16	0xbe3c8d89	-0.18413366
17	0x3e9ee1b3	0.3103157
18	0x3e39acd5	0.18132336
19	0x3eb7d204	0.35902417
20	0xbe7ec5f8	-0.24880207
21	0x3e7599e0	0.2398448
22	0xbeb146bd	-0.34624282
23	0xbecd1e5b	-0.40062222
24	0xbe7b4d71	-0.2454126
25	0x3ea22b85	0.31673828
26	0x3eab0428	0.33401608
27	0x3ea7a8b1	0.3274589
28	0xbea7be30	-0.3276229
29	0x3ed13b49	0.40865543
30	0xbe8b128b	-0.27162585
31	0xbeaf79a6	-0.34272498

fc1.weight f4 [32, 65]
0	0xbd9241b7	-0.0714144
1	0xbd46afee	-0.048507623
2	0x3c70cf35	0.0146978395
3	0xbde8082d	-0.113296844
4	0xbdb56495	-0.08857075
5	0x3b7e0896	0.0038762442
6	0xbbab0cea	-0.0052200453
7	0xbd5e7929	-0.054314766
8	0xbda331b8	-0.079684675
9	0x3e1f93cd	0.15583725
10	0x3d4ec4ae	0.050480537
11	0xbca91853	-0.020641482
12	0x3d92541d	0.071449496
13	0xbd910195	-0.0708038
14	0x3dd581e8	0.10425168
15	0xbdca1ec6	-0.09869151
16	0xbbe21e6b	-0.0069005988
17	0x3df27ec5	0.118405856
18	0xbda95aa1	-0.08269239
19	0x3c27dbcf	0.010245278
20	0xbdb660ec	-0.08905205
21	0x3cfe3998	0.031033322
22	0x3e829857	0.2550685
23	0xbd960255	-0.073246635
24	0xbe4a0f83	-0.1973248
25	0xbcc20388	-0.023683324
26	0x3d127572	0.035756536
27	0x3cc5f091	0.024162563
28	0xbd8d1992	-0.06889643
29	0xbc68461c	-0.014176872
30	0xbde7c267	-0.11316376
31	0xbd773d39	-0.06036112
32	0x3c5c0de8	0.01343105
33	0xbe1222db	-0.14271109
34	0xbc98523f	-0.018593905
35	0xbdc691a5	-0.09695748
36	0x3d01b16f	0.031663354
37	0x3dff0652	0.124523774
38	0x3d203bd8	0.03911957
39	0xbc8f8382	-0.017518762
40	0x399fba1a	0.000304655
41	0xbb3fcb34	-0.0029265406
42	0x3d35f9ea	0.04442779
43	0x3b3482f0	0.0027543865
44	0xbd855d20	-0.06511903
45	0xbe39d7f7	-0.1814879
46	0x3d2b9627	0.041891243
47	0xbe0f979d	-0.1402268
48	0xbcb1b5cc	-0.021693133
49	0xbd2e4ca6	-0.042553566
50	0x3e0c2d12	0.13689068
51	0x3d01daaa	0.031702675
52	0xbd4fb4f3	-0.050709676
53	0xbd824323	-0.063604616
54	0x3d9a9de3	0.07549646
55	0x3b1063c2	0.0022032117
56	0x3dd3153e	0.10306786
57	0x3e27a14f	0.16370128
58	0x3be80068	0.0070801266
59	0x3c876150	0.016525894
60	0x3cfc7def	0.030821769
61	0xbdcff126	-0.10153417
62	0x3bb6fa07	0.005584005
63	0xbe540100	-0.20703506
64	0xbe1f8e75	-0.15581687
65	0xbdd599ce	-0.104297265
66	0xbdb03291	-0.08603395
67	0x3e0e2094	0.13879615
68	0xbce59d93	-0.028029239
69	0x3c52525f	0.012837022
70	0x3e0ea014	0.13928252
71	0xbcadd435	-0.021219352
72	0xbddb4d02	-0.107080474
73	0x3def88fb	0.11696049
74	0xbd9bebe9	-0.07613356
75	0x3d1261a7	0.03573766
76	0xbd1e491a	-0.038643934
77	0xbd1c7fb0	-0.03820771
78	0xbe356f4a	-0.17718235
79	0x3dcd1891	0.10014451
80	0xbd0e3782	-0.034720905
81	0xbc914068	-0.017730907
82	0xbbefc5f6	-0.0073173
83	0xbc5bf3fc	-0.01342487
84	0x3d4d72d4	0.050158337
85	0x3d9bdd3b	0.07610556
86	0xbbd4b721	-0.006491557
87	0x3dfec093	0.12439074
88	0x3d1d02a7	0.038332608
89	0xbd9e2bc8	-0.07723194
90	0x3dad73fd	0.08469389
91	0xbc0811e4	-0.008305047
92	0x3dbb8562	0.091563
93	0x3c4b1423	0.012394938
94	0x3cb81b69	0.022474008
95	0xbca72dc3	-0.020407563
96	0xbe0d51d0	-0.1380074
97	0xbe286694	-0.1644538
98	0xbda10a81	-0.078633316
99	0xbda7639e	-0.08173297
100	0xbd7813b8	-0.06056568
101	0xbda52e03	-0.08065417
102	0xbd06a9a6	-0.032876633
103	0x3d970aea	0.073751286
104	0xbdf2e103	-0.11859324
105	0xbdaf2192	-0.08551325
106	0x3e117358	0.14204156
107	0x3d21d149	0.03950623
108	0x3e0377e5	0.12838705
109	0xbd47dfd7	-0.048797455
110	0x3d6cd2a6	0.057818078
111	0x3d28919b	0.041154485
112	0x3d96dd28	0.07366401
113	0xbda8e382	-0.08246519
114	0xbd81e4ea	-0.0634249
115	0xbdd80cd1	-0.105493195
116	0xbe343de1	-0.1760173
117	0x3df52aa1	0.119710214
118	0xbe64c0a0	-0.22339106
119	0x3d37096f	0.04468673
120	0x3e0ea245	0.13929088
121	0x3df73961	0.12071491
122	0x3dfe38f8	0.1241321
123	0x3e1823e7	0.14857446
124	0xbdb3bd70	-0.08776367
125	0x3d8a6d15	0.06759087
126	0xbb879436	-0.004137541
127	0x3d14393c	0.036187395
128	0xbdfa7b11	-0.12230504
129	0xbe26a082	-0.16272166
130	0xbd2aa713	-0.04166324
131	0xbd74c6ba	-0.059759833
132	0x3e048e5c	0.12944931
133	0xbd940df5	-0.072292246
134	0xbdf69932	-0.120409384
135	0xbd217734	-0.03942032
136	0xbcefd1ea	-0.0292749
137	0x3dec9f8a	0.11553867
138	0xbdf3f4f7	-0.11911958
139	0xbd733d26	-0.059384488
140	0xbe0dedbc	-0.1386022
141	0x3cd587f0	0.026065797
142	0xbd4e88de	-0.050423495
143	0xbd81deff	-0.06341361
144	0x3c875c41	0.016523482
145	0x3cda70ee	0.026665177
146	0xbcf1ef01	-0.029532911
147	0x3e0df1b0	0.13861728
148	0xbd9c4440	-0.07630205
149	0x3d81efa2	0.063445345
150	0xbd2fe360	-0.04294145
151	0x3c9cde9e	0.01914912
152	0x3e869294	0.26283705
153	0xbddf042d	-0.10889468
154	0xbe4bf00a	-0.19915786
155	0x3dae375a	0.08506651
156	0x3d882e43	0.06649449
157	0x3cefc7a2	0.029269997
158	0xbddc1e7a	-0.107480004
159	0xbdb784b5	-0.08960859
160	0xbdc46b0f	-0.09590732
161	0x3c9c0cbf	0.019049047
162	0x3dce8d80	0.10085583
163	0xbd862a7f	-0.06551074
164	0x3e1314be	0.14363381
165	0xbe3eb943	-0.18625359
166	0x3dd5e0b2	0.10443248
167	0xbcb8b011	-0.022544893
168	0xbd9b7637	-0.07590907
169	0xbe347745	-0.17623623
170	0x3d8c7f67	0.068602376
171	0xbd9ba32e	-0.075994834
172	0x3d26de08	0.04073909
173	0xbd680424	-0.056644574
174	0xbe306dcb	-0.17229383
175	0x3cb0d7e9	0.021587329
176	0x3d52a713	0.051428866
177	0xbd50ccb1	-0.05097646
178	0x3d709275	0.058733422
179	0xbd6b7ea2	-0.057493813
180	0x3ab0c1b6	0.0013485465
181	0xbd524255	-0.05133279
182	0x3d3c420c	0.045961425
183	0xbd6d602d	-0.05795305
184	0x3e00832c	0.12550038
185	0x3e5c9c61	0.21544029
186	0xbbd5651f	-0.0065122987
187	0xbd861a4a	-0.06547983
188	0x3e1c0a23	0.15238242
189	0xbdecc34c	-0.115606874
190	0x3d8643f6	0.06555931
191	0xbe02ff15	-0.12792619
192	0x3e2c7403	0.1684113
193	0xbd109212	-0.035295554
194	0xbdc40b55	-0.09572474
195	0xbe020730	-0.12698054
196	0xbe0fc37e	-0.14039418
197	0x3d913393	0.07089915
198	0x3d52a4b0	0.05142659
199	0xbd99245e	-0.074776396
200	0xbd7c1fb8	-0.061553687
201	0x3c4313d7	0.011906586
202	0xbd69e7b7	-0.057105746
203	0xbde430db	-0.11142131
204	0x3e009569	0.12556995
205	0xbd229ecb	-0.039702218
206	0xbd98dca3	-0.07463958
207	0xbbb03a6a	-0.0053780572
208	0xbd3de8d4	-0.04636462
209	0x3d5ef69f	0.054434415
210	0xbe0d0360	-0.13770819
211	0x3e1f0fa1	0.15533306
212	0xbcefa181	-0.029251816
213	0xbd7f65fc	-0.06235312
214	0xbceff6d6	-0.029292505
215	0xbde9effb	-0.11422726
216	0xbe1bfed7	-0.15233932
217	0x3e923bb9	0.2856119
218	0xbd8adfa7	-0.067809395
219	0xbe053c2c	-0.13011235
220	0x3e4070a5	0.1879297
221	0xbe036ec4	-0.12835222
222	0x3cd774ee	0.026300874
223	0xbc30f9e7	-0.010801769
224	0xbdd437f8	-0.10362238
225	0x3dec2c3f	0.11531877
226	0x3babc96f	0.0052425186
227	0xbbc8b0c4	-0.0061245877
228	0x3d8bcba6	0.06825952
229	0xbdc62248	-0.096745074
230	0x3b4cd141	0.0031252655
231	0xbc472172	-0.01215397
232	0x3cf5ce3b	0.030005565
233	0xbe11504f	-0.14190792
234	0xbd3408e4	-0.04395379
235	0xbd88c1d6	-0.06677596
236	0x3e298151	0.16553237
237	0xbde0d8d6	-0.10978858
238	0xbbf47666	-0.0074604033
239	0xbd73abec	-0.05949013
240	0xbd3eec7a	-0.04661224
241	0x3d03deb3	0.032194804
242	0x3d7fae19	0.06242189
243	0xbcd16535	-0.025560955
244	0xbae7dd99	-0.0017689943
245	0xbdafcb2e	-0.08583675
246	0xbddc2d32	-0.10750808
247	0x3bd4ccd4	0.006494144
248	0xbc63caae	-0.013903303
249	0x3d7f37f4	0.06230922
250	0x3df41cda	0.119195655
251	0x3d1ef7ce	0.038810544
252	0x3e09533f	0.13410662
253	0x3d0e3ed7	0.034727897
254	0xbd4f5f83	-0.050628196
255	0xbde1a55d	-0.11017869

fc1.bias f4 [32]
0	0xbdeaff07	-0.11474424
1	0x3d8350bf	0.064118855
2	0xbbdd6e9b	-0.00675757
3	0xbdcd0926	-0.100115106
4	0xbde4f600	-0.11179733
5	0xbe1d909d	-0.15387197
6	0x3d99d400	0.07511139
7	0xbcd1f70e	-0.0256305
8	0x3c401fd3	0.0117263375
9	0xbd559298	-0.052141756
10	0x3d3c16f1	0.045920316
11	0xbdc275d2	-0.09495129
12	0xbd26cfec	-0.040725634
13	0xbd72b750	-0.05925685
14	0x3d3aa9af	0.04557198
15	0xbc996782	-0.018726114
16	0xbd6851e2	-0.056718715
17	0x3db83f65	0.089964665
18	0xbd93f0d5	-0.072236694
19	0x3dc38a76	0.09547894
20	0x3ccb25d6	0.024798315
21	0xbe09bdca	-0.13451305
22	0xbb8ae859	-0.004239124
23	0x3d3af1c5	0.045640726
24	0xbe1de592	-0.15419605
25	0x3e67fd22	0.22655156
26	0xbdc4a472	-0.09601678
27	0x3d1cd594	0.03828962
28	0x3d97c79a	0.07411118
29	0x3bab1a7f	0.0052216644
30	0x3d334440	0.04376626
31	0x3cd61079	0.026130902

fc2.weight f4 [32, 32]
0	0x3e15e19f	0.14636849
1	0x3e8f6014	0.2800299
2	0x3e0a7cfb	0.13524239
3	0x3e3945d5	0.18093045
4	0x3d375992	0.044763155
5	0xbe380fcf	-0.1797478
6	0xbe72e067	-0.23718415
7	0xbd73dc8e	-0.05953651
8	0x3d8efc26	0.06981687
9	0x3a9cc299	0.001195985
10	0xbc730286	-0.014832145
11	0xbe4927b7	-0.19644056
12	0xbe6230f5	-0.22088988
13	0x3e156870	0.14590621
14	0x3e95476d	0.29156056
15	0xbc0fd145	-0.008777921
16	0xbdb263b8	-0.08710426
17	0xbe5517dc	-0.20809883
18	0xbd6b07b5	-0.057380397
19	0xbb749e31	-0.0037325735
20	0x3d842d88	0.06453997
21	0x3d2b9cdf	0.04189765
22	0x3d959ec5	0.073056735
23	0x3e8badf2	0.27281147
24	0xbe9d3522	-0.307046
25	0x3e99ff43	0.30077562
26	0xbe04d088	-0.12970173
27	0x3eaf3db3	0.3422676
28	0xbe5bcd30	-0.21464992
29	0xbb890f60	-0.004182741
30	0xbccf07f7	-0.025272353
31	0xbd469be1	-0.0484885
32	0x3e60cfa3	0.21954207
33	0xbabd6240	-0.0014448836
34	0x3d8907be	0.0669093
35	0x3e481c20	0.19541979
36	0x3e81c3d6	0.25344723
37	0x3cfe1154	0.031014122
38	0x3c6ffc4d	0.014647556
39	0xbaab95d0	-0.0013090912
40	0xbc90509e	-0.017616566
41	0xbe022eba	-0.12713137
42	0xbde9003b	-0.11376997
43	0xbe8c6dfe	-0.27427667
44	0xbe836d60	-0.25669384
45	0x3c206f54	0.009792168
46	0x3e89d030	0.26916647
47	0xbdc5f92f	-0.096666686
48	0xbdde4b38	-0.108541906
49	0xbda87871	-0.082260974
50	0xbddb58cf	-0.10710298
51	0x3e2095de	0.1568217
52	0xbcb2464b	-0.021762034
53	0xbd3e0d6a	-0.04639951
54	0x3e6a9e77	0.22912012
55	0x3d367e5a	0.044554092
56	0xbe3b2df1	-0.18279244
57	0x3d79f563	0.061025035
58	0xbdb636e8	-0.08897191
59	0x3ea24b87	0.31698248
60	0xbe424585	-0.18971832
61	0x3cdc35d5	0.026881138
62	0x3d62b2ee	0.055346422
63	0x3da650d8	0.081208885
64	0xbccc3e5e	-0.024932083
65	0x3def0465	0.1167076
66	0x3e4024ef	0.18764089
67	0x3d8d2db2	0.06893481
68	0xbd28d4b7	-0.041218486
69	0xbdb50d50	-0.0884043
70	0xbe843249	-0.25819615
71	0xbe07daba	-0.13267031
72	0x3d0b38dd	0.033989776
73	0xbe3ad9b3	-0.18247108
74	0xbe59a24c	-0.21253318
75	0xbe19afa1	-0.15008403
76	0xbe845a65	-0.25850216
77	0x3cccbdc8	0.024992839
78	0x3e780b6d	0.24223109
79	0x3c2fcfca	0.010730693
80	0xbd22a4e2	-0.039708026
81	0xbe91bde1	-0.2846518
82	0x3db26891	0.08711351
83	0x3e01ae12	0.12664059
84	0xbe3d477f	-0.18484305
85	0x3e29c33d	0.16578384
86	0x3e33dd60	0.17564917
87	0x3df2f413	0.1186296
88	0xbd0523e5	-0.032504935
89	0x3ea36653	0.31914005
90	0xbe20cf97	-0.15704189
91	0x3ba51328	0.005037684
92	0xbe5670dc	-0.2094149
93	0xbd1ed9ac	-0.038781807
94	0x3e195b8c	0.14976329
95	0xbd82a369	-0.06378824
96	0x3e8bf7ca	0.27337486
97	0x3e5a2b0f	0.21305488
98	0x3e43c6b0	0.19118762
99	0x3de42a6e	0.11140905
100	0x3c846afd	0.016164297
101	0xbdd509ee	-0.104022846
102	0xbe48487b	-0.19558899
103	0xbe84f214	-0.2596594
104	0x3cc06de9	0.02348991
105	0xbe11d5de	-0.1424174
106	0xbd81abb2	-0.063315764
107	0xbd448ad2	-0.047983952
108	0xbe1f8d83	-0.15581326
109	0x3d5637c9	0.052299295
110	0x3e4b5279	0.1985568
111	0xbe0b1019	-0.1358036
112	0xbce52538	-0.027971849
113	0x3c6adc10	0.014334694
114	0x3de5b237	0.112156324
115	0x3d8d4181	0.068972595
116	0xbe57b340	-0.21064472
117	0x3cf7c9f1	0.03024766
118	0x3e5d0638	0.21584404
119	0x3e936d8f	0.28794524
120	0xbe5963f4	-0.21229535
121	0x3d105223	0.03523458
122	0x3db785f2	0.08961095
123	0x3e4019a6	0.18759784
124	0x3d15bbda	0.036556102
125	0x3e480047	0.19531356
126	0xbd2eceb1	-0.042677585
127	0x3e298f05	0.16558464
128	0x3d4d94f7	0.050190892
129	0x3d1a810f	0.037720736
130	0x3e626291	0.22107913
131	0x3dcfa0e9	0.10138113
132	0xbbcaa9ae	-0.006184778
133	0xbe4aad43	-0.19792657
134	0xbe6f59e6	-0.23374137
135	0xbdd03c68	-0.101677716
136	0x3e4f02fa	0.20215979
137	0x3cdbef85	0.02684761
138	0xbdc12692	-0.09431185
139	0xbe7526fa	-0.2394065
140	0xbe4110bf	-0.18854044
141	0x3e2fb5ed	0.17159243
142	0x3e239b5e	0.15977237
143	0xbe42883e	-0.18997285
144	0xbdcd8ecb	-0.10037001
145	0xbe9c92a7	-0.30580637
146	0xbcef47c4	-0.029209025
147	0x3dc0dc84	0.0941706
148	0xbe266132	-0.16248015
149	0xbbad31d9	-0.0052854833
150	0x3e906e18	0.28208995
151	0x3e646277	0.22303186
152	0xbe3f0f1a	-0.18658105
153	0x3d5ac570	0.053410947
154	0x3be36022	0.00693895
155	0x3e93f1bd	0.2889537
156	0xbe2627fd	-0.16226192
157	0x3cab3bd6	0.020902555
158	0xbd0b842d	-0.0340616
159	0x3e831b7a	0.256069
160	0x3db17efe	0.086668
161	0x3d3e8e8d	0.046522666
162	0x3cc8e4e8	0.024523214
163	0x3dfbac99	0.1228878
164	0x3e48b1d5	0.19599088
165	0xbe083db7	-0.13304792
166	0xbe264c3e	-0.16240022
167	0xbe7474f9	-0.23872747
168	0x3dee9740	0.116499424
169	0xbe11a0d7	-0.14221512
170	0xbd433a30	-0.047662914
171	0xbe3bc52d	-0.18336935
172	0xbe6754ac	-0.22590894
173	0x3ce946f0	0.028476208
174	0x3e93a2b3	0.28835067
175	0xbeb1baf5	-0.3471295
176	0xbc8f05a0	-0.017458737
177	0xbdc2854d	-0.09498081
178	0x3b5a9fd1	0.0033359418
179	0x3e869cca	0.26291496
180	0x3b612d0a	0.003435912
181	0x3e7a0c33	0.24418716
182	0x3e0aa3dd	0.13539071
183	0x3e843c76	0.25827378
184	0xbdeb64b8	-0.1149382
185	0x3eb75bf8	0.35812354
186	0xbe234ccb	-0.15947263
187	0x3dc5c6be	0.09657048
188	0xbd9051b5	-0.070468344
189	0xbd8423e3	-0.06452157
190	0xbd2280fb	-0.039673787
191	0x3e4ea3ba	0.20179644
192	0x3e28ec22	0.16496328
193	0x3e2f0f5a	0.170957
194	0x3deda940	0.116045475
195	0x3e242944	0.16031367
196	0x3d9a587a	0.07536407
197	0x3d854b68	0.06508523
198	0xbc00e6dd	-0.007867542
199	0xbdac646b	-0.08417591
200	0x3e6029a7	0.21890889
201	0x3dbc2495	0.09186665
202	0xbcc0a46e	-0.023515906
203	0xbe78bb28	-0.24290144
204	0xbe02c274	-0.1276949
205	0xbd0c6a4b	-0.034281056
206	0x3e894773	0.26812324
207	0xbe917cca	-0.2841552
208	0xbe51c800	-0.2048645
209	0xbd8d215b	-0.06891128
210	0xbd3e08d9	-0.046395157
211	0x3e96c9f4	0.29450953
212	0xbe324e93	-0.17412786
213	0x3daaaeda	0.083341315
214	0x3e5ed348	0.21760285
215	0x3ceb19cd	0.028698826
216	0xbe8031c7	-0.25037977
217	0x3dc1805c	0.09448311
218	0xbe1027ca	-0.14077678
219	0x3bb1f8a7	0.005431253
220	0xbdda375e	-0.10655092
221	0x3e09a082	0.13440135
222	0xbd01760e	-0.031606726
223	0x3e28b34e	0.1647465
224	0x3e5685ce	0.2094948
225	0x3e687972	0.22702578
226	0x3defc167	0.117068104
227	0x3e8f5fc1	0.28002742
228	0x3cc6480e	0.02420428
229	0x3dd5278f	0.10407936
230	0xbe65dfc5	-0.22448643
231	0xbd7882df	-0.060671683
232	0x3e779854	0.24179202
233	0x3e0aeb03	0.13566212
234	0xbe098149	-0.13428225
235	0xbe266efc	-0.16253275
236	0xbe2348f3	-0.15945797
237	0xbca9396c	-0.020657264
238	0x3e1850b3	0.14874534
239	0xbdfaafb2	-0.122405425
240	0x3da99f78	0.082823694
241	0xbd6569f3	-0.056009244
242	0xbdc9e4e0	-0.098581076
243	0x3e609fab	0.21935908
244	0xbde03a21	-0.10948587
245	0x3e13c98a	0.1443235
246	0x3e61ec83	0.22062878
247	0x3e6702d0	0.22559667
248	0xbd69bb1c	-0.057063207
249	0xbb336fe9	-0.0027379936
250	0x3daad5c8	0.08341557
251	0x3e6918ed	0.22763415
252	0xbdf60a67	-0.12013703
253	0x3e20f771	0.15719391
254	0x3e74e1d3	0.2391427
255	0xbc586d81	-0.0132097015

fc2.bias f4 [32]
0	0xbd2ff474	-0.042957738
1	0xbdca45b5	-0.09876577
2	0xbd6f2912	-0.058388777
3	0x3c69a7c7	0.014261193
4	0xbe07821f	-0.13233231
5	0xbdf7af12	-0.12093939
6	0xbdf59f76	-0.119933054
7	0xbe1fe4f5	-0.15614684
8	0x3dd2b7e5	0.10288981
9	0xbe076a6c	-0.1322419
10	0xbcf40c40	-0.029790998
11	0xbd0beb16	-0.034159742
12	0xbe227771	-0.15865876
13	0x3e47d352	0.19514206
14	0xbdc269bf	-0.09492826
15	0x3d9858c3	0.07438805
16	0xbd9ab8d7	-0.07554787
17	0xbd966ef3	-0.07345381
18	0x3ca7366a	0.020411689
19	0x3da9f6f7	0.08299058
20	0xbdf2900b	-0.1184388
21	0x3e27ecae	0.1639888
22	0x3dc71a0a	0.097217634
23	0x3c1267a2	0.008935841
24	0x3d33aab7	0.04386398
25	0xbdba1035	-0.090851225
26	0xbcaf4cbf	-0.0213989
27	0x3d44e157	0.048066463
28	0xbdcedc85	-0.101006545
29	0xbe05db3c	-0.13071913
30	0xbcc21f5f	-0.0236966
31	0xbe1778a9	-0.14792122

fc3.weight f4 [1, 32]
0	0x3e9151b6	0.28382653
1	0x3ea171a8	0.31532025
2	0x3e933047	0.2874777
3	0x3ebbd0d9	0.36682776
4	0x3e8b040b	0.27151522
5	0x3e661d3c	0.2247209
6	0x3e90a420	0.28250217
7	0x3eb26ecf	0.34850165
8	0xbe7eac7b	-0.24870484
9	0xbebcf90b	-0.36908755
10	0x3ea8f3f8	0.32998633
11	0x3e802544	0.2502843
12	0x3e91cfc9	0.2847884
13	0xbebfb2a9	-0.37440994
14	0xbeae1cfc	-0.34006488
15	0xbe8233f9	-0.25430277
16	0xbec52925	-0.38507953
17	0x3e72f724	0.23727089
18	0x3e64d0a3	0.22345214
19	0x3ebb4744	0.3657781
20	0xbeb4e837	-0.35333416
21	0xbebc174f	-0.36736533
22	0x3e9d0624	0.30668747
23	0x3e88b5d9	0.2670124
24	0xbebf5179	-0.37366846
25	0xbe8f9b5e	-0.28048223
26	0x3eaca136	0.33716744
27	0xbebfeb87	-0.3748438
28	0x3e4f24d7	0.20228897
29	0xbec968bc	-0.39337718
30	0x3eaa2bbd	0.33236495
31	0x3e7f5471	0.24934556
