amazon/20230802-185100/commr.pt (torch, 28709 bytes, 10 tensors)

fc1.weight f4 [32, 65]
000000 e4 09 2d 3d 1b c1 99 bb 8f b2 eb bd 49 ab 73 bc
       0.04224576 -0.0046922094 -0.11508667 -0.0148723805
000010 c1 85 5c bd 7b 8f a9 3d 93 65 b9 bc 88 33 0a bd
       -0.053838495 0.0827932 -0.022631442 -0.03374055
000020 14 a4 ed bd 93 1e 25 be 00 61 09 3d 24 2d 9f 3d
       -0.11603561 -0.16124944 0.033539772 0.07772282
000030 db 2d cd 3b 02 0d 46 be 54 7c 9d 3d 1e 77 1c 3d
       0.00626157 -0.193409 0.07689729 0.038199537
000040 33 fe 3c be fe 5d f5 bc 4f f4 1d 3d 1f 4e 22 bd
       -0.18456344 -0.029952046 0.03856307 -0.039625283
000050 b6 68 73 be c6 90 00 be a1 35 46 bd 8c 47 45 bd
       -0.23770413 -0.12555227 -0.04839099 -0.048163936
000060 44 b9 86 bd b6 f9 46 3d 28 eb d0 3d 17 b9 91 3c
       -0.06578305 0.048577987 0.102011025 0.017788453
000070 98 b0 1b bd 72 ae d8 3c f6 4e 2c bd f6 ad 21 bd
       -0.03801021 0.02645037 -0.04206749 -0.039472543
000080 9f 13 46 bd 54 41 d7 bc aa f9 b3 bb e9 1c 39 3d
       -0.048358556 -0.026276268 -0.0054924088 0.045193586
000090 b1 6f 1b bd 8c 9d 25 be c3 1f a5 bd a6 36 1c 3d
       -0.037948314 -0.1617338 -0.08062699 0.038138054
0000a0 e6 bd a9 3d 40 30 e4 bd 54 e7 6e 3d 0d 8b 14 3d
       0.082881734 -0.111420155 0.05832608 0.03626542
0000b0 0e eb 5a 3e 18 6d 3d 3d ed 31 b8 bc 82 c9 84 3d
       0.21378729 0.046246618 -0.022484744 0.06483747
0000c0 da 63 01 3e bb c9 4b 3e 48 22 c0 3b 5a 09 c5 3d
       0.12635747 0.19901173 0.0058634616 0.09620924
0000d0 e7 d5 89 bc d2 32 70 3d ea 8a 26 be 0e 12 0e bd
       -0.01682563 0.058642216 -0.16263929 -0.034685187
0000e0 d5 ed 1f be c9 1b 16 be e8 87 9c bc 2b a7 06 bd
       -0.1561807 -0.14659037 -0.019107774 -0.032874268
0000f0 16 67 f2 3d 07 46 1d bd 98 74 82 bd 71 a3 07 3e
       0.11836068 -0.03839686 -0.06369895 0.13245942
000100 96 0b 59 3e 0f 20 87 be 34 33 5a be 33 38 c9 3d
       0.21195826 -0.26391646 -0.21308595 0.09825172
000110 8a db 1b be da 6a cd 3d 52 d6 9a bd 88 bd 13 be
       -0.15220466 0.10030146 -0.075604096 -0.14427769
000120 fd ec 14 3e f7 a0 df 3d d4 b7 5f 3d bd f9 6b 3d
       0.14543529 0.109193735 0.05461867 0.057611216
000130 09 bb cc bd 6d 9f 34 bd a1 e5 39 3c 7f 38 be bd
       -0.099966116 -0.044097353 0.011346252 -0.092881195
000140 59 c2 c9 3d 02 6c 46 3b 6c cd 50 3c 3d e7 84 bd
       0.09851522 0.003027678 0.012744289 -0.06489418
000150 7c 88 de 3d 40 eb ec 3d 05 20 b7 3d 90 a1 b8 bc
       0.10865876 0.11568308 0.08941654 -0.022537977
000160 7a b2 6b 3d af 43 61 3d aa ce b8 bd 95 3f 20 be
       0.057543255 0.05499619 -0.09023793 -0.15649255
000170 32 f1 af bd 4d 3a de bd ce 5b 74 bd 7d 52 b3 3d
       -0.08590926 -0.10850964 -0.059657864 0.08755968
000180 a4 61 84 bd f9 6a 0f 3d 90 52 86 bd 54 07 3e bd
       -0.06463936 0.035014126 -0.06558716 -0.046393707
000190 7c 0b bc bd 7e 54 b1 bd b1 18 be bb af 23 ec bd
       -0.09181878 -0.08658694 -0.0058012833 -0.115302436
0001a0 82 34 0f 3e 78 98 5f bd 32 93 06 3d 76 e7 25 be
       0.13984874 -0.054588765 0.03285522 -0.16201577
0001b0 0f 93 03 be 8a d4 fd bd 85 8c 61 3c 4a 4b 4a 3d
       -0.12849067 -0.12394054 0.013766413 0.049388207
0001c0 83 21 ad bd 65 f4 a2 bd 7e 97 b0 bd 2c 6a e6 bc
       -0.084536575 -0.07956771 -0.08622645 -0.028126799
0001d0 e5 6d a5 bd ac 75 8b 3d 74 12 da bc 5c d6 a8 bd
       -0.08077601 0.068095535 -0.026620127 -0.08244011
0001e0 24 5d 72 bd c4 0d 89 3d 15 ca 15 3d 7e c8 0d 3e
       -0.059170857 0.06692079 0.036569674 0.13846013
0001f0 58 e4 5f bd c8 d0 24 bb b0 ba a3 3d dc e7 f5 bd
       -0.054661125 -0.0025148857 0.07994592 -0.12007114
000200 23 6e 8a 3c e3 e1 54 be 13 9e 84 bd 5d 33 4f be
       0.01689822 -0.20789294 -0.06475463 -0.20234437
000210 41 69 eb 3d 5e 06 0b be d8 bd 96 3d 76 30 d1 bd
       0.11494685 -0.13576648 0.073604286 -0.10214321
000220 2c 79 90 bd 1f 7d 9b 3d 1f 29 89 bd 64 00 2d 3e
       -0.07054362 0.07592224 -0.06697296 0.1689468
000230 f5 86 ec bd 9c ce ca bd 8b c9 c3 bd 89 05 37 bd
       -0.115491785 -0.09902689 -0.09559926 -0.044683013
000240 e4 fd 94 3d c0 0e 83 bd 9d de 2b bd a2 67 73 bc
       0.07274988 -0.06399298 -0.041960347 -0.014856251
000250 4a 4f 99 bc 56 1e dd bd 1d 92 9f 3d bf e9 9e 3c
       -0.018714566 -0.10796802 0.07791541 0.019398568
000260 49 5e 9e 3d 08 47 a8 bd eb 46 e3 3b d4 3f 10 be
       0.07732827 -0.08216673 0.0069359443 -0.14086848
000270 6d fb 18 bd 58 cd ba bd a1 e9 db bd 49 b4 00 be
       -0.037349153 -0.091211975 -0.107379206 -0.12568773
000280 41 3f d6 bd 3c bb f5 3d 23 3c 43 3d 96 8d 32 be
       -0.104612835 0.11998603 0.047664773 -0.17436823
000290 b6 1b 86 bd ce 34 8a bd 6c bc fc bc da 76 91 3d
       -0.06548254 -0.06748353 -0.030851565 0.07102747
0002a0 0d 5a 5d bd b7 09 8d 3d 80 e8 42 bd 9a 25 9c bd
       -0.054040957 0.068866186 -0.04758501 -0.076243594
0002b0 08 98 b8 bd c8 22 02 be 0c 59 cb bc 62 30 95 3c
       -0.09013373 -0.1270858 -0.024822734 0.018211547
0002c0 c8 79 81 bd 14 e3 52 3c 00 21 dd 3c 15 51 5b bd
       -0.06322056 0.012871522 0.026993275 -0.053544123
0002d0 4a 01 c5 3c f1 68 5e bd 7e f9 81 3c fc d9 b0 bc
       0.024048466 -0.0542993 0.015866037 -0.021588318
0002e0 83 17 d8 3c c3 60 41 bc 0c 47 7d bb a1 5d 8f 3b
       0.026378399 -0.011802855 -0.0038647084 0.004375175
0002f0 ca 74 e3 3d fb e3 e2 3c 27 7a 8c 3d 8f 4d 22 3d
       0.1110626 0.0276966 0.06859236 0.039624747
000300 99 07 d5 3d c8 5c 30 be 7b 64 c9 bd 58 29 2b bd
       0.1040184 -0.17222893 -0.09833618 -0.041787475
000310 42 9b 2c be 05 b0 9b bd 32 bf 72 3d c6 2b 20 bd
       -0.16856101 -0.076019324 0.05926437 -0.039104246
000320 ca 11 b7 3b 05 ae ea 3c f5 5b 62 3e 11 75 fa 3d
       0.0055868374 0.028647432 0.22105391 0.1222936
000330 b1 4d 1c 3e c5 d7 c2 3d ed 25 bd bd 1a ce 4b bd
       0.15264012 0.09513811 -0.092357494 -0.0497571
000340 c4 76 01 3e 36 c2 9f 3d bd 17 9d bc a8 63 b2 3c
       0.12642962 0.07800715 -0.019176358 0.021776035
000350 71 b9 9a 3b b6 2c 8e bd b9 ae 5d bc dc 4e 00 3e
       0.0047218134 -0.06942122 -0.013530427 0.12530082
000360 22 a2 14 3e f3 b0 4a bd fa 76 52 3d 16 13 91 3d
       0.14514974 -0.04948516 0.051382996 0.070837185
000370 05 09 bd 3d 9f 19 15 be 56 6b 10 be ca 1e c8 3d
       0.09230236 -0.14560555 -0.14103445 0.097714975
000380 bc e1 04 3c 21 66 92 bd 2a c1 91 3d b2 13 c5 3d
       0.00811046 -0.07148386 0.07116921 0.09622897
000390 97 37 ef 3c 6d 01 66 bd 92 ea 9a bd 48 a8 0b be
       0.029201312 -0.056153703 -0.07564272 -0.13638413
0003a0 dd 3b 78 3e 3f 64 c1 bc 3e 2e e0 bc eb e3 17 3d
       0.24241586 -0.023607371 -0.0273658 0.037082594
0003b0 1f a4 ac 3c 7c 82 99 bd ad 86 ce 3d cb f3 80 be
       0.021074353 -0.07495591 0.10084281 -0.25186
0003c0 85 60 e2 3c 5a bf fa bd 8f 7a 88 bb 9e de bf bd
       0.027633915 -0.12243529 -0.0041650007 -0.09368633
0003d0 b3 fa 15 be 3d 8a db bc e7 bc 6b 3d 9c 06 23 3c
       -0.14646415 -0.026799316 0.0575532 0.009950306
0003e0 00 77 ee 3c b2 db 91 3d d5 c1 34 bd 1f df 36 3e
       0.029109478 0.07121982 -0.044130165 0.17858551
0003f0 0f 20 18 bd 9c cf 79 3e 60 11 08 be 76 a7 89 bb
       -0.03713995 0.24395603 -0.13287878 -0.004200871

fc1.bias f4 [32]
000000 9e 5d 16 3d d3 93 cc 3c 55 7f e4 bc 9e 3d 0c 3d
       0.036710374 0.024972832 -0.027892748 0.03423845
000010 bb e4 55 bd cc 8b c0 bc 01 e9 de bc e9 c3 0c 3d
       -0.052220087 -0.02350416 -0.027210714 0.034366522
000020 5a d4 b6 3d d6 5f 4f 3d 7e 99 99 bb d5 59 cd 3c
       0.089272216 0.050628506 -0.004687487 0.02506725
000030 83 fc d6 bd b4 14 8c bd 29 2f e6 3c 26 5c 47 3d
       -0.104973815 -0.06839886 0.02809866 0.048671864
000040 d5 b7 4d bd 22 9b fc 3d d2 f8 85 bd 21 20 b9 3d
       -0.050224144 0.12334277 -0.06541599 0.09039331
000050 e8 bf c9 3d 0c 13 8f 3d 75 d2 ae 3d 8c 6d 70 bd
       0.09851056 0.06986055 0.08536235 -0.058698222
000060 2c 07 47 bd f4 18 f1 bb f6 34 4d bd 31 33 60 bd
       -0.048590824 -0.007357711 -0.050099336 -0.05473632
000070 39 77 2b 3d 74 3e 06 bc c0 dc 06 bd 3c 25 12 bd
       0.041861746 -0.008193601 -0.032925367 -0.03568004

fc2.weight f4 [32, 32]
000000 9f ed f0 bd 00 3c a7 3e 7e bb 58 3e c4 04 49 bb
       -0.117640726 0.32662964 0.21165273 -0.0030673007
000010 8d 9f d5 3c a8 8e 6d 3d d1 32 52 be 28 2d 66 3e
       0.026077056 0.057997376 -0.20527197 0.22478163
000020 c9 4d d6 bd 64 06 de 3d 78 0c b0 bc 15 8f 8c bd
       -0.10464055 0.10841063 -0.02149032 -0.06863228
000030 2d f0 9b 3b e6 eb c2 bd e7 59 82 3e 68 18 bd bd
       0.004758856 -0.0951765 0.25459215 -0.09233171
000040 7b d0 f1 bd 03 12 53 bd c2 9e ff 3d 47 6a 3d bd
       -0.118073426 -0.05153085 0.124814525 -0.046243932
000050 5e 8e 81 3e b9 ec 8e bc f5 aa 67 bd e8 e0 cb bd
       0.2530393 -0.017446863 -0.05655952 -0.09955007
000060 26 bb bb 3d 6d bb 7c be 6f 7a b0 3d 0a 3a 44 be
       0.09166555 -0.24680872 0.08617102 -0.19162765
000070 97 de 22 3e 5a a4 ea bc 5f c5 9c 3d 73 c3 7a 3e
       0.15905224 -0.028642822 0.07654833 0.2448862
000080 e5 bb 77 be dd 39 cf 3d c6 cb 0c 3d 2e b0 af 3d
       -0.2419277 0.101184584 0.03437402 0.085785255
000090 c6 07 cc 3d fd 6a c2 bd 28 7f af bc 20 88 4e bd
       0.0996242 -0.09493063 -0.021422938 -0.050422788
0000a0 b0 e3 b9 3d 22 ab 2c 3e f1 96 d9 bd d2 b5 8e be
       0.09076631 0.16862157 -0.10624493 -0.27873093
0000b0 3e 75 2a 3e 58 e0 bc 3d cd d9 01 3e 13 fd 86 be
       0.16646287 0.09222478 0.1268074 -0.26364955
0000c0 53 d3 a4 be 10 af 71 3e e1 42 90 3e 9a d7 fa 3c
       -0.32192478 0.23601937 0.28176025 0.030620385
0000d0 01 45 7d 3e de 12 cc 3d 54 eb 26 be fc 73 91 3d
       0.24733354 0.09964536 -0.16300708 0.071022004
0000e0 78 20 c1 3d e2 dd 42 3b ad e0 62 3e 97 94 16 be
       0.09430021 0.0029734303 0.2215602 -0.1470512
0000f0 03 47 2c 3e bc 60 19 be af 08 6d 3e 87 63 f9 3d
       0.16823964 -0.14978307 0.23147844 0.121771865
000100 eb 31 5e 3e 4c b2 20 be d0 55 30 bc 9c 21 c1 be
       0.2169873 -0.15693015 -0.010762647 -0.37720954
000110 c2 0a 16 be a3 eb 2c 3e 93 99 41 3e 75 2c 79 be
       -0.14652541 0.16886763 0.1890624 -0.24333365
000120 ba 57 53 3e f3 12 6d be e9 49 9d 3e 86 ca 95 3e
       0.20638934 -0.2315176 0.3072045 0.29256076
000130 ac ff 04 be 02 70 e5 bd 8e 86 32 be 7c b4 df 3d
       -0.12988156 -0.112030044 -0.17434141 0.109230965
000140 4b c9 25 3e f9 c1 c8 bd 65 31 50 be fe 4f 28 bd
       0.16190068 -0.09802622 -0.20331343 -0.04109191
000150 f6 fe ac be e3 58 76 3e bb 65 8e 3e 49 e8 4b 3c
       -0.3378827 0.24057345 0.2781199 0.012445518
000160 fa ff 30 3e 78 12 56 3e e4 79 6c bd 05 30 cf bd
       0.17285147 0.20905483 -0.05773343 -0.10116581
000170 b0 83 77 be 16 ba 04 3d 36 d2 b1 bc a4 fa 81 bd
       -0.24171329 0.032404028 -0.021706682 -0.06346634
000180 3f e1 9c 3e b1 4c 10 be d8 de 2b be 76 98 85 bc
       0.306406 -0.14091755 -0.16784227 -0.01630805
000190 d6 08 82 bc e5 b7 48 3e f2 9b a8 3c 7c d0 33 be
       -0.015873354 0.196014 0.020582173 -0.17559999
0001a0 c5 22 63 3d 4c 3f 50 be fd 12 22 3e 65 98 09 3e
       0.05545308 -0.20336646 0.15827556 0.1343704
0001b0 47 e9 44 3d 9e 28 9e bd f2 d7 9d be 39 22 90 3e
       0.048074033 -0.07722591 -0.30828816 0.2815111
0001c0 10 9c b3 3e 6e ca bb bd 86 ef d5 be eb 3d db bd
       0.35080004 -0.0916947 -0.41784304 -0.10705169
0001d0 81 e6 26 be f6 c2 25 3e c3 f4 90 3e 63 71 4e 3d
       -0.16298868 0.16187653 0.28311738 0.050401103
0001e0 55 72 63 3e 15 fb 83 3e 75 75 49 be c0 73 b8 bc
       0.22211583 0.25777498 -0.19673713 -0.022516131
0001f0 55 a1 bd be 2d d3 10 3e 31 66 0f be a9 74 98 be
       -0.3703715 0.14143057 -0.14003827 -0.29776505
000200 3d e9 5f bd 61 02 15 3d c4 fc 31 3e f8 99 65 3e
       -0.054665793 0.03637922 0.17381579 0.22422016
000210 c2 95 8f 3e b0 ed da bd aa cf 08 bd e3 70 99 3c
       0.28043944 -0.106898665 -0.03340117 0.018730586
000220 f0 1a b6 3a 20 e5 9f 3e ec 3f 8e be ae e0 44 be
       0.0013893526 0.31229496 -0.27783144 -0.19226333
000230 d5 d5 63 3e 4a e8 93 3d 13 38 92 3e 26 38 f9 bd
       0.22249539 0.0722204 0.28558406 -0.121689126
000240 15 ac ba bd 2e b6 28 bd 02 f8 e1 3d f5 c1 c3 3d
       -0.09114853 -0.041189365 0.11033632 0.09558479
000250 95 40 f0 3d 85 2f 41 3d e2 57 04 bd c3 0e 83 be
       0.11731068 0.04716446 -0.032310374 -0.255972
000260 5c 67 6f 3d c3 69 c7 bd fa 38 5f 3e 3e e6 24 3c
       0.05844818 -0.09736969 0.21799079 0.01006466
000270 a2 36 89 3e 9a 67 65 bd 47 e4 32 bb d1 ea 8d 3e
       0.26799494 -0.056007005 -0.0027296708 0.27718213
000280 cb 8a e3 bd f4 ba 32 bd 5b ef 00 bd f2 90 97 bd
       -0.11110457 -0.043635324 -0.031478267 -0.07400693
000290 c9 de ab 3c 5c e3 8a 3d 1b f5 7d be be bd 9f 3d
       0.020980256 0.067816466 -0.24800532 0.07799862
0002a0 9f 12 b3 3d 62 b7 34 3e 7c 83 95 be 93 e1 fc 3d
       0.08743786 0.1764808 -0.29201877 0.12347712
0002b0 6f be 8d ba 79 20 c1 bd 76 88 1b be ee a6 7e 3d
       -0.00108142 -0.09430022 -0.15188774 0.062170915
0002c0 f5 04 1f be 1b 3a 8b 3e c0 34 aa 3e 51 75 53 3e
       -0.15529235 0.27192768 0.3324337 0.20650221
0002d0 0c a8 21 3e 38 5a 99 3d 48 03 bd bd e5 0d 14 be
       0.15786761 0.07487911 -0.092291415 -0.14458425
0002e0 da 07 c8 bd 81 35 06 3e 41 3f ff 3d aa 4f 87 be
       -0.097671226 0.13106348 0.124632366 -0.26427966
0002f0 d3 a3 8b 3e ab 9b 1d be 0a a1 09 bc 8f 1c c1 3d
       0.27273425 -0.15391414 -0.008400211 0.09429275
000300 d3 ec 43 be 0b 48 35 3e 23 2f 1c 3e 5e c9 64 3e
       -0.1913331 0.17703263 0.15252356 0.2234244
000310 d9 ad 2a 3e 5d 04 8d bd 16 90 25 bd 36 9a 64 3e
       0.1666788 -0.06885598 -0.040420614 0.22324452
000320 d2 c7 17 bd aa 7b c2 3d 70 91 32 be 31 c3 81 be
       -0.037055798 0.09496243 -0.17438293 -0.25344232
000330 c5 d3 82 3e 52 f6 e7 3d 0b ed 0f 3e 7d 03 c9 bd
       0.25552192 0.11326279 0.14055268 -0.098151185
000340 0e 98 7f bd bb dc 3d bd d5 2b cb 3d 3c a4 e0 bc
       -0.06240087 -0.046353083 0.0992047 -0.027422063
000350 fa 45 bc 3d 07 93 14 be d7 13 b0 bc 07 b2 85 be
       0.091930345 -0.14509211 -0.021493835 -0.26112387
000360 12 2d 51 be 04 22 50 be 90 9d 17 bc 0e 8f a5 3c
       -0.20427349 -0.20325476 -0.009253874 0.020209815
000370 39 65 b4 3e 20 57 51 be 34 57 70 3e 4e 58 64 3e
       0.35233477 -0.20443392 0.23470765 0.2229931
000380 c9 dc ae 3e fa f9 4a be 4d 5b db bd 4a 32 a4 be
       0.3415282 -0.19821921 -0.107107736 -0.32069618
000390 e7 69 0b be d2 81 89 3e ef e4 2c bc 80 8b cd 3d
       -0.13614617 0.26856858 -0.010552629 0.10036373
0003a0 f4 20 99 bd 0e 29 9c be b6 27 4f 3e 6e 90 4c bd
       -0.074769884 -0.30500072 0.20229992 -0.049942426
0003b0 61 06 30 be e9 d7 d8 3d bb c4 06 be 50 10 05 3c
       -0.17189933 0.105880566 -0.13160984 0.008121565
0003c0 d6 c4 68 3e fd 09 66 be b5 cf a2 be cf d3 4f bd
       0.22731337 -0.22464748 -0.31799093 -0.050739106
0003d0 44 e3 94 bd d4 d9 30 3e 3b 01 8b 3c 20 b8 9b bd
       -0.0726991 0.17270595 0.01696836 -0.076034784
0003e0 ed 1b e1 3d ff 6a 13 3e 7d a9 8a bc 77 09 f9 3d
       0.109916545 0.14396285 -0.016926521 0.121600084
0003f0 8d e8 82 be a0 96 e1 ba 73 51 a2 bd e5 b1 9c be
       -0.25568047 -0.0017211027 -0.079256915 -0.30604473

fc2.bias f4 [32]
000000 96 c7 dc bd dd 33 a6 bd 7e e9 03 bd d0 ac 89 bd
       -0.107802555 -0.08115361 -0.032205097 -0.067224145
000010 25 f5 fa 3d 75 64 d6 bc e1 bb dd 3d 93 20 a8 bd
       0.12253789 -0.026170949 0.10826851 -0.08209338
000020 79 b1 fa ba cc c0 98 3d a6 a5 8d bd 99 c3 e2 3b
       -0.0019126377 0.07458648 -0.069163606 0.0069202897
000030 d2 b7 e4 3d a7 d0 9e 3d 36 0c 42 3c 90 02 b0 bd
       0.111678734 0.07754641 0.011843732 -0.08594239
000040 56 95 3b be 7b 2f e2 3d 06 38 f0 bd c2 68 6c bd
       -0.18318686 0.110442124 -0.117294356 -0.057717092
000050 23 53 37 3d 63 e2 0e bb 5d ba f6 3c 7c a9 27 3d
       0.04475702 -0.0021802417 0.030118162 0.040933117
000060 dc c3 bf 3a 29 8d 94 bd d0 e3 f0 bb c6 20 f3 bd
       0.0014630514 -0.07253487 -0.007351376 -0.118714854
000070 d4 c8 a4 3d 09 db e0 bd 16 d4 04 be 6c 81 c1 3d
       0.080461174 -0.10979278 -0.1297153 0.094485134

fc3.weight f4 [1, 32]
000000 c2 bb aa be 7f 37 8a be f1 2f 92 3e 3f 63 cf 3e
       -0.33346373 -0.26995465 0.285522 0.40505406
000010 fc 36 b6 be d5 fd 72 be cb 75 dd be e4 ae 80 3e
       -0.35588825 -0.23729642 -0.4325393 0.2513343
000020 dc e6 9a 3e 9f 81 c2 be d6 84 d5 3e be 61 99 3e
       0.30254257 -0.37989518 0.41702908 0.29957384
000030 27 89 f0 be 00 d9 50 be 1b 54 d2 bc 62 79 d3 be
       -0.4697964 -0.20395279 -0.02567487 -0.41303545
000040 fb e7 34 be c4 05 9f 3e a6 cb 2b 3e cd 10 ba 3e
       -0.17666619 0.31059086 0.16776904 0.36340943
000050 53 f5 7e be 81 91 7d 3e 09 e4 b0 be 23 53 cb be
       -0.24898271 0.24762537 -0.34548977 -0.39711866
000060 66 34 6f be b3 c5 a3 3e 0f 79 a8 3e bb f0 a1 3e
       -0.23359832 0.3198677 0.3290486 0.31628975
000070 5b 6d ac be 1b a4 d3 3e 41 fe 8a be 29 95 b1 be
       -0.33677182 0.4133614 -0.27147105 -0.34684113

fc1.weight f4 [32, 65]
000000 c3 50 8f bd 5d 62 3c bd db c2 c1 3c 4d 67 e7 bd
       -0.06997826 -0.045992244 0.023652485 -0.11299
000010 1b 08 ae bd c7 93 4f 3c b2 06 20 bb e2 b6 2b bd
       -0.0849764 0.01266951 -0.0024418053 -0.041922458
000020 de 7b b5 bd 45 59 17 3e eb 91 36 3d ea d6 ba bc
       -0.088615164 0.14780147 0.044572752 -0.022807557
000030 c3 6e 9f 3d 52 b4 8f bd 21 c2 d7 3d 9d 8e be bd
       0.07784798 -0.07016815 0.10535074 -0.09304545
000040 66 b5 33 bc d6 bf f4 3d f0 d6 a8 bd 62 e2 39 3c
       -0.010968542 0.11950652 -0.08244121 0.011345478
000050 93 01 d2 bd f7 87 16 3d b3 50 80 3e 11 19 97 bd
       -0.102542065 0.03675076 0.2506157 -0.07377828
000060 e0 aa 54 be 49 d7 8a bc 75 5d 19 3d 1e 62 ee 3c
       -0.20768309 -0.01694836 0.037442643 0.02909952
000070 79 5c 75 bd 2a 07 59 bc c5 dc f5 bd ad 25 60 bd
       -0.059902642 -0.013246337 -0.12004999 -0.05472343
000080 51 15 40 3c 47 d7 1c be f5 18 cc bc 3d 41 c6 bd
       0.011723832 -0.15316497 -0.024914244 -0.09680412
000090 c7 40 1f 3d 27 58 fe 3d 4e 2d 1b 3d e9 7d 77 bc
       0.038880136 0.124191575 0.037885003 -0.015105703
0000a0 ff 11 78 3b fd d6 84 3b 1f a6 36 3d 28 14 12 3a
       0.0037852523 0.004053949 0.04459202 0.00055724615
0000b0 df 91 81 bd c4 04 37 be 3a 86 1f 3d c1 15 0c be
       -0.06326651 -0.17872912 0.038946368 -0.13680173
0000c0 1d 03 71 bc 3e 4c 2d bd 38 1b 08 3e 14 f5 a8 3c
       -0.014710215 -0.04230904 0.13291633 0.020624675
0000d0 3e ce 48 bd c3 8a 7c bd fc 40 8e 3d 30 b1 8f 3b
       -0.049024813 -0.06165577 0.069459885 0.004385136
0000e0 f7 d9 d5 3d 40 55 31 3e b5 b4 4d 3c 24 63 06 3c
       0.10441964 0.17317677 0.012555291 0.008202348
0000f0 9d c3 eb 3c 68 c1 c6 bd 87 46 95 3b 21 3e 5f be
       0.0287798 -0.09704858 0.0045555267 -0.21801044
000100 db 0d 20 be b4 98 cd bd 02 4e b3 bd ac bb 22 3e
       -0.15630285 -0.100388914 -0.08755113 0.15891904
000110 3d 2b c6 bc 28 6f 40 3c 70 0f 18 3e 1a 16 a0 bc
       -0.02419054 0.011745252 0.14849639 -0.019541789
000120 50 8a b5 bd 1f 90 cc 3d 38 8d af bd c6 89 d8 3c
       -0.08864272 0.099884264 -0.08571857 0.026432883
000130 b5 4b 3a bd 45 6b d8 bc 32 69 35 be 70 d4 c3 3d
       -0.045482356 -0.026418338 -0.1771591 0.095620036
000140 59 1c f9 bc a7 92 d3 bc 9b f0 af ba 5b af 84 bc
       -0.030409025 -0.025826765 -0.0013423146 -0.016196897
000150 ed 15 3c 3d 65 26 74 3d be 4d 85 ba 45 6a f0 3d
       0.045919348 0.05960693 -0.0010170264 0.11739019
000160 3d 45 1f 3d 7c a0 c1 bd 32 98 b4 3d 31 a8 5d bc
       0.03888439 -0.09454438 0.088180915 -0.0135288695
000170 75 ab c1 3d e4 d1 9d 3c 1e 99 a4 3c a2 e7 ee bc
       0.09456531 0.019265123 0.020092543 -0.029163186
000180 1f d5 05 be db 17 28 be aa 4b b3 bd b2 68 bd bd
       -0.1306958 -0.1641535 -0.08754666 -0.09248485
000190 64 00 8c bd 3b f3 89 bd 8f 5c f3 bc f9 9a 8e 3d
       -0.06836012 -0.06735846 -0.029707221 0.069631524
0001a0 16 2a 00 be 6f 9e a8 bd b6 cc 17 3e 11 2c 1b 3d
       -0.12516055 -0.08233344 0.14824185 0.037883822
0001b0 33 b7 fc 3d da 7a 39 bd 76 72 63 3d 2d b9 ef 3c
       0.1233963 -0.045283176 0.05552908 0.029263103
0001c0 44 4f 9e 3d c6 4b 9d bd 09 d1 88 bd 22 d0 ea bd
       0.077299625 -0.07680468 -0.06680495 -0.114654794
0001d0 45 56 3c be 6e 94 f3 3d 98 8a 5e be 72 e1 e6 3c
       -0.18392284 0.11893545 -0.21732557 0.028183673
0001e0 f4 97 11 3e ca 05 f6 3d db 20 06 3e 43 30 19 3e
       0.14218122 0.12012823 0.13098471 0.14959817
0001f0 ec 93 c2 bd 7a 56 80 3d 9d 69 ce 3b eb b6 04 3d
       -0.0950087 0.06266494 0.006299211 0.032401007
000200 f7 e4 15 be da f9 2b be c7 8a 22 bd ef cd 6c bd
       -0.14638124 -0.1679453 -0.03968313 -0.05781358
000210 57 26 11 3e 95 dd 92 bd d1 25 ec bd 10 54 d9 bc
       0.14174782 -0.0717117 -0.115306504 -0.026529342
000220 64 fb dc bc 27 9a 08 3e 3a bc 08 be ec 1c 8f bd
       -0.026975341 0.13340054 -0.13353053 -0.06987938
000230 dd 78 16 be 12 11 bd 3c 99 1f 2e bd 5a a5 82 bd
       -0.14694543 0.023079429 -0.042510603 -0.063791946
000240 55 70 8e 3c 1a 87 0d 3d eb ef 11 bd 41 8a 10 3e
       0.017387548 0.03455267 -0.035629194 0.1411524
000250 e2 8d 9c bd eb 08 83 3d 52 b1 81 bd 33 a1 d3 3c
       -0.076442495 0.06398185 -0.06332649 0.025833702
000260 ce 0f 83 3e 56 5a e2 bd b4 81 58 be 00 2b bd 3d
       0.25597996 -0.110523865 -0.21143228 0.09236717
000270 8c 0b 8b 3d 83 31 0c 3d dd 0f c3 bd 7c 18 b7 bd
       0.06789312 0.034226906 -0.0952451 -0.08940217
000280 8a d8 d8 bd be 35 cb 3c 68 da c7 3d 7a a1 a1 bd
       -0.105881765 0.0248059 0.097584546 -0.07892127
000290 b2 a6 09 3e 2f af 3e be b2 64 ea 3d 0f 37 ad bc
       0.13442495 -0.18621515 0.11444987 -0.021144418
0002a0 52 48 9e bd 60 b3 31 be 6b c1 96 3d 7d 6d 87 bd
       -0.07728638 -0.17353582 0.0736111 -0.0661268
0002b0 d5 b6 29 3d 3c 35 79 bd a3 7e 2c be c7 66 cb 3c
       0.041434128 -0.060841784 -0.16845183 0.024829281
0002c0 b5 45 42 3d bd da 3f bd e5 bc 8e 3d b3 23 70 bd
       0.04742976 -0.046839464 0.069696225 -0.058627795
0002d0 ab 80 5e bb 2a c8 84 bd cd 9b 4c 3d c1 ea 67 bd
       -0.0033951204 -0.06483491 0.04995327 -0.056620363
0002e0 c1 9c ed 3d 43 e2 5f 3e d7 f2 b1 bb 42 29 60 bd
       0.11602164 0.21863656 -0.00543056 -0.054726847
0002f0 b5 a1 22 3e 05 3e 01 be 9e a2 7d 3d 93 75 f7 bd
       0.15881999 -0.12621315 0.061922662 -0.120829724
000300 90 97 2a 3e 52 91 4e bd db 46 c9 bd 94 a7 00 be
       0.16659379 -0.050431557 -0.09827968 -0.12563926
000310 92 e4 0c be e3 7f a5 3d 1e 79 59 3d 65 7a 92 bd
       -0.13759068 0.08081033 0.053094022 -0.07152251
000320 a5 bb 54 bd f7 51 6d 3c 6f 37 36 bd 3f 4f f7 bd
       -0.051936764 0.014484874 -0.04448646 -0.12075662
000330 0b 64 f2 3d 1c 2b 38 bd 6d 12 9d bd da a0 11 3b
       0.11835488 -0.044962987 -0.0766953 0.002222112
000340 d4 67 3b bd f2 cd 65 3d fb 48 06 be 28 d6 1a 3e
       -0.045753315 0.056104608 -0.13113777 0.15120757
000350 3b 37 e3 bc 2e 86 7e bd 83 2d e7 bc f2 27 03 be
       -0.027736297 -0.062139682 -0.028219944 -0.12808207
000360 81 f6 15 be 52 fe 8f 3e eb e0 8c bd a9 c2 0e be
       -0.14644815 0.28123719 -0.06878837 -0.13941444
000370 40 dd 46 3e 08 51 01 be b5 33 00 3d ef 27 2e bb
       0.19420338 -0.12628567 0.03129931 -0.0026574095
000380 1c d2 d1 bd e9 01 e0 3d 86 22 32 3c f2 4a ef bb
       -0.10245153 0.10937864 0.010872489 -0.0073026353
000390 3b 5f 6e 3d 5d d1 d1 bd ea c2 34 3b 59 a6 9d bb
       0.058196288 -0.10245011 0.0027581998 -0.00481109
0003a0 4b dd f4 3c e5 5e 12 be 62 de 2d bd cd 1a 81 bd
       0.029890677 -0.14294012 -0.04244841 -0.0630394
0003b0 54 f1 30 3e 20 bb de bd d6 89 13 bc 00 2e 6d bd
       0.1727956 -0.10875535 -0.009005031 -0.057905197
0003c0 ae 8a 35 bd e9 ba e3 3c e0 a4 87 3d 65 d6 9c bc
       -0.04432171 0.027799087 0.06623244 -0.0191452
0003d0 6e 54 cc ba 84 a2 b9 bd da 04 ee bd 56 fa 03 3c
       -0.0015589127 -0.090642005 -0.11622019 0.00805529
0003e0 e9 ad 3f bc f2 f0 64 3d 5b ae f9 3d 87 36 22 3d
       -0.011699178 0.055893846 0.12191459 0.039602783
0003f0 ee b9 12 3e 89 c2 1f 3d 3a dd 6d bd e3 bf e4 bd
       0.14328739 0.039003883 -0.058072306 -0.11169412

fc1.bias f4 [32]
000000 13 0e e8 bd db 51 8b 3d 0f 8c 9c bb f4 49 ca bd
       -0.113308094 0.06802722 -0.0047774385 -0.09877387
000010 74 fa e8 bd ff 98 20 be b4 21 93 3d 99 da eb bc
       -0.11375895 -0.15683363 0.07184163 -0.028790759
000020 93 d8 54 3c 4e 7d 68 bd eb dc 37 3d 0c a8 b7 bd
       0.012991088 -0.056760125 0.04488842 -0.08967599
000030 77 72 30 bd 6e 0d 61 bd d3 cb 47 3d ff 6d 7f bc
       -0.043077912 -0.05494445 0.048778366 -0.01559019
000040 7c 85 69 bd 8c 13 b5 3d e7 02 92 bd 82 69 c3 3d
       -0.057012066 0.08841619 -0.0712946 0.095416084
000050 9f 63 c2 3c 48 e2 0a be 66 21 af ba 58 c6 44 3d
       0.023729144 -0.13562882 -0.0013361394 0.048040718
000060 73 3c 1d be 2f 09 5f 3e 20 d0 bc bd 4d a7 27 3d
       -0.15355091 0.21780847 -0.09219384 0.040931035
000070 1f 14 99 3d b7 d3 db 3b da 84 3b 3d 1e ae da 3c
       0.07474541 0.006708588 0.045780994 0.026694354

fc2.weight f4 [32, 32]
000000 55 92 1b 3e eb 9f 92 3e 02 e2 11 3e 6e bd 43 3e
       0.1519254 0.28637633 0.14246371 0.1911523
000010 31 29 34 3d 21 d2 3f be c0 ed 79 be 5a 56 84 bd
       0.043984596 -0.18732502 -0.244071 -0.06461783
000020 fe c1 92 3d 69 47 0a bb 54 80 b6 bc 0c 8b 5c be
       0.07165907 -0.0021099693 -0.022277988 -0.21537417
000030 08 e6 5e be 66 1d 17 3e 8f 9a 95 3e 56 29 a0 bc
       -0.21767437 0.14757308 0.2921948 -0.01955096
000040 90 b5 b4 bd 1d 20 5b be b4 f5 6a bd d7 3c c4 3b
       -0.08823693 -0.21398969 -0.057363227 0.005988698
000050 58 3f 86 3d 41 39 4d 3d 18 6c 96 3d b8 10 8e 3e
       0.065550506 0.05010343 0.07344836 0.2774713
000060 7a 5a a0 be 11 d6 9e 3e 5d ae 11 be 18 e0 b0 3e
       -0.31319028 0.31022695 -0.1422667 0.3454597
000070 49 6b 67 be 7c 9b 9a 3b ec 21 94 bc ad 06 30 bd
       -0.2259952 0.004718242 -0.018082581 -0.042975117
000080 8d f2 61 3e b6 86 9b 3b a5 f8 91 3d 98 32 4e 3e
       0.22065182 0.0047462834 0.07127503 0.20136487
000090 64 83 81 3e 79 b9 b4 3c 43 5e 4d 3c fe 13 a1 bb
       0.25295556 0.022061097 0.012534681 -0.0049157133
0000a0 33 6b 82 bc b5 4f 07 be 18 4f f1 bd 7e e8 93 be
       -0.015920257 -0.13214 -0.11782664 -0.28888315
0000b0 44 31 80 be 5b 44 1b 3c 8c dc 88 3e 39 55 d7 bd
       -0.25037587 0.009476746 0.26730764 -0.10514302
0000c0 dd bf db bd cc 1e b0 bd 56 6d e0 bd 2a d3 26 3e
       -0.107299544 -0.08599624 -0.10958354 0.1629149
0000d0 d6 29 a3 bc 57 5f 26 bd b0 29 6d 3e 59 32 3e 3d
       -0.01991741 -0.040618267 0.23160434 0.046434734
0000e0 0b 00 3f be 16 10 92 3d b5 92 cf bd 48 d4 a2 3e
       -0.1865236 0.071319744 -0.10135404 0.31802583
0000f0 ad cd 4a be 93 fb 03 3d 4c 27 73 3d 00 88 ae 3d
       -0.19805022 0.03222234 0.05936365 0.08522034
000100 68 e1 b3 bc 45 6f fc 3d e4 68 45 3e 81 35 9c 3d
       -0.021958068 0.123259105 0.19278294 0.076273926
000110 4b 59 28 bd 9a 1b c6 bd 59 3f 86 be d8 7c 0c be
       -0.04110078 -0.09673233 -0.26220205 -0.13719499
000120 0e 1d 16 3d 99 63 3f be 85 10 5f be 19 b7 29 be
       0.036648802 -0.18690337 -0.21783645 -0.16573752
000130 58 e2 81 be 48 5c d8 3c 6d 50 77 3e 17 8f 0c 3b
       -0.25368 0.02641119 0.24151774 0.0021447593
000140 a7 6b 21 bd 62 d0 93 be 01 3f af 3d a0 df 08 3e
       -0.039409306 -0.2886992 0.08556939 0.13366556
000150 e0 bb 3b be 93 56 30 3e 94 e6 35 3e a1 22 f8 3d
       -0.18333387 0.17220525 0.1776374 0.1211598
000160 f0 0d 18 bd b0 fe a7 3e f9 3d 2c be 66 21 d9 3b
       -0.037122667 0.328115 -0.16820516 0.006626296
000170 20 66 5f be 36 88 06 bd 48 31 1e 3e 27 fb 72 bd
       -0.21816301 -0.032844745 0.15448487 -0.05932155
000180 e0 41 8d 3e bf 78 60 3e 3c 0d 48 3e 68 f3 f2 3d
       0.2758932 0.21921061 0.19536299 0.11862832
000190 6e 32 65 3c 97 d3 e4 bd 9c 46 4c be 7d 1c 87 be
       0.013989074 -0.1117317 -0.1994881 -0.26388922
0001a0 d3 89 c8 3c 04 c4 13 be 05 a2 8b bd 5a 39 82 bd
       0.024479782 -0.14430243 -0.06818012 -0.06358595
0001b0 f5 45 1c be a9 99 5e 3d 0b b2 4b 3e 13 fd 13 be
       -0.15261061 0.05434576 0.19892137 -0.14452009
0001c0 64 8c ea bc 02 b3 1e 3c db 5b e2 3d 04 a9 9b 3d
       -0.028631397 0.0096862335 0.11052676 0.076005965
0001d0 4b d7 57 be 4c b2 18 3d ae 4f 5c 3e 60 b0 94 3e
       -0.21078221 0.037279412 0.2151477 0.29040813
0001e0 fb bb 5e be c3 8b 3c 3d f7 78 a1 3d de 79 41 3e
       -0.21751396 0.046031725 0.078844 0.18894145
0001f0 cd 4b e9 3c 16 44 4d 3e 8a 2a 1c bd 9e 30 2e 3e
       0.028478527 0.20045504 -0.038126506 0.17010733
000200 f0 9f 59 3d 1b 17 37 3d e0 a3 69 3e 50 2a e2 3d
       0.053131044 0.04469977 0.2281642 0.11043227
000210 74 31 1a bc 26 6e 53 be db 02 74 be 95 84 da bd
       -0.009411205 -0.20647487 -0.23829214 -0.10669819
000220 8b 56 50 3e 44 4c b1 3c 6f a1 ca bd fb 4c 85 be
       0.20345514 0.021642812 -0.09894072 -0.26035294
000230 2c 67 39 be 4e 34 2f 3e f3 3e 23 3e d8 76 4e be
       -0.18105763 0.17109796 0.15941982 -0.20162523
000240 51 db c8 bd 97 5c 9f be 17 07 fd bc 10 15 d3 3d
       -0.09807456 -0.31125328 -0.03088717 0.10306752
000250 a0 d2 22 be 36 17 1d 3b 5b 34 91 3e ab d5 68 3e
       -0.1590066 0.0023970134 0.28360257 0.22737758
000260 97 86 45 be a8 4b 86 3d a0 74 29 bc 81 bc 94 3e
       -0.19289623 0.06557399 -0.010342747 0.29050067
000270 13 87 32 be 4e f3 f5 3c d6 6f e6 bc 8d eb 85 3e
       -0.17434339 0.030023243 -0.0281295 0.26156273
000280 f3 22 ba 3d 3f 51 61 3d 01 36 01 3d 60 df 08 3e
       0.09088697 0.055009123 0.031545643 0.13366461
000290 21 37 47 3e f2 f0 10 be 6a bb 2b be 9b f9 7a be
       0.19454624 -0.14154413 -0.16770712 -0.2450928
0002a0 ff 3d f1 3d 83 76 16 be c3 7e 67 bd 01 d6 51 be
       0.11779403 -0.14693646 -0.056517374 -0.20491792
0002b0 c2 a0 61 be 0e 5e 00 3d 90 7c 92 3e 73 38 b8 be
       -0.2203398 0.031339698 0.2861066 -0.35980567
0002c0 a2 26 92 bc e4 fa cc bd ae 38 ca 3a 6b bc 8b 3e
       -0.017840687 -0.10008791 0.0015428269 0.2729219
0002d0 54 9a 93 3b 54 03 82 3e 7f 86 0b 3e 32 b7 85 3e
       0.0045044813 0.25393164 0.13625525 0.2611633
0002e0 b0 8b f7 bd f6 db bc 3e 60 26 33 be 5a cf c7 3d
       -0.1208719 0.36886567 -0.17495108 0.09756346
0002f0 96 13 ab bd 5c 94 61 bd 05 7f 07 bd 46 69 55 3e
       -0.08353345 -0.055073127 -0.03308012 0.2084094
000300 1a a2 2b 3e 6c 07 37 3e 4f 7c fb 3d 77 d2 2c 3e
       0.16761056 0.17873925 0.12279569 0.16877161
000310 a1 fd 98 3d 73 fe 64 3d 8b df 48 bc e7 f2 b7 bd
       0.07470251 0.055906724 -0.012260328 -0.08981877
000320 dd eb 62 3e a7 dd ae 3d 43 98 ea bc d1 2a 86 be
       0.22160287 0.085383706 -0.028637057 -0.2620454
000330 7d 15 f6 bd 34 45 0d bd 7f de 88 3e f7 9d 97 be
       -0.12015817 -0.034489825 0.2673225 -0.29612705
000340 44 82 4f be 06 62 98 bd 8d 87 44 bd 62 5b 9b 3e
       -0.20264536 -0.074405715 -0.047980834 0.30343157
000350 dd 69 2e be b2 58 ba 3d fb 1c 62 3e 85 9d 04 3d
       -0.17032571 0.090989485 0.22081368 0.032376785
000360 40 1f 83 be 32 6c d9 3d 0c 1c 20 be e5 2c fe 3b
       -0.2560978 0.1061634 -0.15635699 0.0077568167
000370 e2 56 f2 bd e8 6e 12 3e 00 6e d2 bc d9 a9 2e 3e
       -0.11832978 0.1430012 -0.025687218 0.17056979
000380 55 a0 57 3e a8 b5 6e 3e 27 77 f9 3d 9b 93 92 3e
       0.21057256 0.23311484 0.1218093 0.2862824
000390 ad 5d b0 3c a1 fc c2 3d a4 83 68 be 0b ff 83 bd
       0.021529043 0.095208414 -0.22706467 -0.0644513
0003a0 33 9d 79 3e 88 ae 06 3e 04 c6 0c be 9e d3 37 be
       0.24376373 0.13152516 -0.13747412 -0.1795182
0003b0 6c d2 1d be c0 ac a7 bc e3 2b 18 3e 79 72 07 be
       -0.15412301 -0.020468116 0.14860491 -0.13227262
0003c0 58 20 ab 3d 79 53 76 bd 1b e7 ce bd 1d bd 67 3e
       0.083557785 -0.0601382 -0.101026736 0.22630735
0003d0 33 de dc bd e0 34 19 3e b8 49 63 3e d5 a0 6a 3e
       -0.10784569 0.14961576 0.2219609 0.22912915
0003e0 84 c9 7f bd e2 d1 22 3c b2 e2 8f 3d 8c d6 6a 3e
       -0.06244804 0.009937735 0.070256606 0.22933406
0003f0 f0 e5 03 be 80 f8 26 3e f0 da 78 3e 73 60 18 bc
       -0.12880683 0.16305733 0.24302268 -0.009300339

fc2.bias f4 [32]
000000 6a ea 38 bd da 11 c9 bd c9 bc 74 bd c7 be 79 3c
       -0.04514543 -0.09817858 -0.059750352 0.015243239
000010 b3 37 04 be 41 d6 fd bd c4 de f3 bd 3c 49 1a be
       -0.12911873 -0.12394381 -0.119077235 -0.15066999
000020 69 83 d0 3d 6b 5f 03 be e0 16 ef bc cf df 02 bd
       0.101813145 -0.12829368 -0.029185712 -0.03195172
000030 ea 6b 1d be 3b 42 44 3e ba a7 c2 bd cf b0 92 3d
       -0.15373197 0.1916589 -0.095046476 0.0716263
000040 b2 11 96 bd db 44 98 bd 27 0d a9 3c 1e d1 a7 3d
       -0.07327594 -0.07435008 0.020636154 0.08194183
000050 93 e2 ed bd 73 a8 24 3e eb 1d be 3d 05 34 f7 3b
       -0.11615481 0.16079883 0.0928305 0.007544043
000060 9f 8c 2b 3d 3c 6d b1 bd e5 f0 b0 bc 7b 96 3a 3d
       0.041882154 -0.08663413 -0.021599242 0.045553666
000070 c2 cd cd bd b1 4a 01 be d2 8f f6 bc 06 35 14 be
       -0.10049011 -0.12626149 -0.030097876 -0.14473352

fc3.weight f4 [1, 32]
000000 79 5c 95 3e cd e2 a4 3e 3c fa 96 3e 65 8e be 3e
       0.29172114 0.32204285 0.2948779 0.37218013
000010 9d 4d 8e 3e 58 9e 6e 3e 0b 3a 94 3e 62 36 b5 3e
       0.2779359 0.23302591 0.28950533 0.35393053
000020 2a 68 83 be 95 91 c1 be 48 c3 ac 3e 9a 64 83 3e
       -0.25665408 -0.37806383 0.33742738 0.2566269
000030 3b bf 94 3e 65 da c2 be 2b 52 b1 be 9f 5e 85 be
       0.29052147 -0.38057247 -0.34633002 -0.26048753
000040 20 94 c8 be c7 24 7b 3e 6b c8 6a 3e 5a 3f bf 3e
       -0.3917551 0.24525748 0.22928016 0.3735302
000050 cd cc b7 be 23 9f bf be 55 9e a0 3e 1f 59 8d 3e
       -0.35898438 -0.374261 0.31370798 0.27607056
000060 e8 6f c2 be bf 40 93 be 96 3b b0 3e 95 1c c3 be
       -0.37976003 -0.28760335 0.3442046 -0.38107744
000070 db 35 57 3e 72 e0 cc be 76 31 af 3e 8a e8 82 3e
       0.21016638 -0.40014988 0.34217423 0.25568038
