amazon/20230719-175029/commr.pt (torch, 28709 bytes, 10 tensors)

fc1.weight f4 [32, 65]
0	0x3ddcc209	0.10779197
1	0xbdfff199	-0.12497253
2	0xbc868a29	-0.016423302
3	0xbd3a706f	-0.04551738
4	0x3d49b8b8	0.049248427
5	0xbdf1710d	-0.11789141
6	0xbe254a8f	-0.16141723
7	0x3be98823	0.0071268245
8	0x3d0baac0	0.034098387
9	0xbe16529e	-0.14679953
10	0xbde340dc	-0.11096355
11	0x3d7c54cd	0.06160431
12	0xbdf53d6e	-0.119746074
13	0x3c180c35	0.009280254
14	0xbe4317bf	-0.19052027
15	0x3d8dd0df	0.069246046
16	0xbae88e3e	-0.0017742587
17	0xbe1350e3	-0.14386325
18	0xbe086fc9	-0.13323893
19	0xbdb6f730	-0.08933866
20	0xbd7a8319	-0.06116018
21	0xbd4a14b1	-0.04933614
22	0xbdcd04d2	-0.10010685
23	0x3d93e4cb	0.07221373
24	0xbb0ea1c2	-0.0021763896
25	0x3e038081	0.12841989
26	0xbe236ee0	-0.15960264
27	0x3d386d7c	0.045026287
28	0x3d2ef0f4	0.04271026
29	0x3d52eee3	0.05149735
30	0x3d9477a8	0.07249385
31	0xbe0a4dbc	-0.13506216
32	0x3dab0f49	0.08352525
33	0x3d9ff823	0.07811
34	0xbdd8a64b	-0.10578593
35	0x3c8a9e72	0.016921256
36	0x3d67b4fd	0.05656909
37	0xbdc595c0	-0.09647703
38	0xbdd80952	-0.10548653
39	0xbd37677b	-0.04477642
40	0xbcadd9bf	-0.021221993
41	0xbbccfb5b	-0.00625555
42	0xbd9304cd	-0.0717865
43	0x3ccee16e	0.025253978
44	0x3d538a3d	0.051645506
45	0x3b8b3f23	0.00424947
46	0x3c4a4b0f	0.012346997
47	0x388b9fec	6.657824e-05
48	0xbdbb94f6	-0.091592714
49	0x3d4220a2	0.047394402
50	0x3c880a0a	0.01660635
51	0xbdb3371b	-0.08750745
52	0xbd46e241	-0.048555616
53	0xbcbe5d24	-0.023237772
54	0xbd8dcacb	-0.06923445
55	0x3d01d7bc	0.03169988
56	0xbc71ce41	-0.014758647
57	0xbbac7a74	-0.005263621
58	0x3e0e6de4	0.13909107
59	0xbd339c21	-0.043850068
60	0x3d7bba18	0.06145677
61	0x3d99e88f	0.0751506
62	0x3d84f2b7	0.06491607
63	0x3c1ceaa7	0.00957743
64	0xbd9f6322	-0.0778258
65	0x3e70237f	0.2345104
66	0x3db51ee9	0.08843786
67	0x3ddeebce	0.1088482
68	0xbd2f2aba	-0.042765357
69	0x3da97f1e	0.08276199
70	0x3d26c515	0.040715296
71	0x3dc01d08	0.09380537
72	0xbe10f243	-0.14154916
73	0x39f5ff04	0.00046920043
74	0xbd4cfac7	-0.050043847
75	0xbe0aaf64	-0.13543469
76	0x3d6b60a6	0.057465218
77	0xbdcaf32c	-0.099096626
78	0x3d91d66f	0.07120978
79	0x3b809047	0.003923449
80	0xbdff5c6e	-0.124688014
81	0x3d96f565	0.07371024
82	0x3d39e7d7	0.045387115
83	0xbd9a6ab7	-0.075398855
84	0xbde71e00	-0.11285019
85	0x3dfe538b	0.12418278
86	0xbda9a10a	-0.08282669
87	0x3c8f3f65	0.017486284
88	0xbcc89b30	-0.024488062
89	0xbe003fae	-0.12524292
90	0x3e24ad27	0.16081677
91	0x3df7a267	0.12091523
92	0xbda479c7	-0.0803104
93	0x3c958ee9	0.018256621
94	0xbdf6a96f	-0.12044036
95	0x3d6ec7b4	0.05829592
96	0xbd0d9790	-0.03456837
97	0xbd13b1db	-0.036058288
98	0x3d62f43a	0.055408694
99	0xbdda7923	-0.10667636
100	0x3cdafa65	0.026730726
101	0xbdc1dcf3	-0.09465971
102	0x3d82f53b	0.0639443
103	0x3ba49860	0.0050230473
104	0x3d186a0e	0.037210517
105	0x3d3a7cc7	0.045529153
106	0x3cf930cf	0.030418782
107	0x3d0cfc51	0.034420315
108	0xbd8af0fd	-0.06784246
109	0xbd90c93a	-0.07069631
110	0x3bb91e9f	0.0056494023
111	0xbdcd5592	-0.10026087
112	0xbc0d1e8a	-0.008613238
113	0x3dcec330	0.10095823
114	0xbda37f6c	-0.07983288
115	0x3dbb3221	0.09140421
116	0xbc0b31f5	-0.008495797
117	0x3dc3fe00	0.09569931
118	0xbd4dcad6	-0.050242268
119	0xbdbbc664	-0.091686994
120	0xbdffbecb	-0.12487563
121	0xbe228f08	-0.15874875
122	0x3daad8dc	0.08342144
123	0x3d1d1a94	0.038355425
124	0x3c854bf1	0.016271563
125	0xbda7b59a	-0.081889346
126	0xbd2804e5	-0.041020293
127	0xbdad7823	-0.0847018
128	0xbd76b8ee	-0.060234956
129	0x3b9502e4	0.0045474637
130	0xbdc8fbb1	-0.09813631
131	0x3d825d19	0.06365413
132	0x3d00cbef	0.031444486
133	0xbc277505	-0.010220771
134	0xbd88afd3	-0.06674161
135	0xbc48c9dc	-0.012255158
136	0xbd062c7c	-0.032757267
137	0xbc32f3e7	-0.010922409
138	0xba7570e2	-0.0009362829
139	0xbcbe4ddd	-0.023230487
140	0x3cde26d9	0.027118133
141	0x3d727357	0.059192028
142	0x39ac2c68	0.00032839482
143	0x3dec77bb	0.11546274
144	0x3de9986b	0.114060245
145	0xbdbc300a	-0.0918885
146	0x3dab02a6	0.083501145
147	0xbcb1571c	-0.021647982
148	0x3da6f9c8	0.08153111
149	0xbda83568	-0.082133114
150	0x3db49e57	0.088192634
151	0xbda0048f	-0.078133695
152	0x3dc9ca8d	0.098530866
153	0xbd6fff7a	-0.05859325
154	0xbcb4e40b	-0.022081396
155	0xbd86d135	-0.06582872
156	0xbd6255ff	-0.055257794
157	0x3dae34b3	0.08506145
158	0xbd8580c3	-0.065187
159	0xbd8cc7c4	-0.0687404
160	0xbde2e841	-0.11079455
161	0xbde41e2b	-0.111385666
162	0x3e1efce0	0.15526152
163	0xbdbd42fc	-0.09241292
164	0xbcf430a1	-0.029808344
165	0xbd0e84c8	-0.0347946
166	0xbcd13df9	-0.025542246
167	0xbdf82f18	-0.121183574
168	0xbc36821b	-0.011139418
169	0xbcc21129	-0.023689823
170	0x3dffae7d	0.12484453
171	0xbdceca75	-0.10097209
172	0x3d1726a2	0.036902077
173	0xbdbef527	-0.09324103
174	0x3d0d484d	0.03449278
175	0xbdb8ab3a	-0.09017034
176	0xbd861d1f	-0.06548523
177	0x3c46854e	0.012116743
178	0xbdbe1cfa	-0.092828706
179	0x3e037667	0.12838136
180	0x3dac9db6	0.084285185
181	0xbd559e16	-0.052152716
182	0x3d28dffe	0.04122924
183	0x3d0f0146	0.034913324
184	0x3d0ac51b	0.03387938
185	0xbd18d520	-0.037312627
186	0xba70f541	-0.0009191819
187	0x3d9140cf	0.070924394
188	0xbd85ea9c	-0.06538889
189	0xbd822d86	-0.06356339
190	0x3c90a9fb	0.017659178
191	0xbdc798e8	-0.097459614
192	0x3d753be6	0.059871577
193	0xbcbcad25	-0.02303178
194	0x3d30ff5c	0.04321228
195	0x3c560582	0.013062837
196	0x3dba6b6a	0.09102519
197	0x3d6221c1	0.05520797
198	0x3c9cb283	0.01912809
199	0xbc8c63ae	-0.017137375
200	0xbcc8874f	-0.024478583
201	0xbd2bb8bc	-0.041924223
202	0x3d56df51	0.052459065
203	0xbced9030	-0.028999418
204	0xbdade2c4	-0.08490518
205	0x3d15b3a0	0.036548257
206	0x3d038be5	0.032115836
207	0x3da903a5	0.08252648
208	0x3dadc5cb	0.08484992
209	0xbd6c8efd	-0.05775355
210	0x3e1b44cd	0.15162964
211	0xbd92a08c	-0.07159528
212	0x3d016dac	0.031598732
213	0x3e0eddd5	0.1395181
214	0xbda8524e	-0.082188234
215	0xbde69641	-0.112591274
216	0x3d1ca92f	0.038247284
217	0xbd46cc74	-0.048534825
218	0xbd183ae5	-0.03716554
219	0x3d156b02	0.036479004
220	0x3d78d32a	0.060748257
221	0x3d857c83	0.06517889
222	0xbcc5195c	-0.024059944
223	0x3dd15319	0.10220928
224	0xbdcbbb5b	-0.099478446
225	0xbdbb75c7	-0.091533236
226	0x3d2bb0c6	0.04191663
227	0x3d609437	0.05482885
228	0xbdf0c4cb	-0.11756285
229	0xbd88f5bc	-0.06687495
230	0x3b810f05	0.003938558
231	0xbde78f8d	-0.11306677
232	0xbb9096d4	-0.0044125114
233	0x3c1e3902	0.009657146
234	0x3e0f0751	0.13967635
235	0xbd9538ed	-0.07286248
236	0x3cecf533	0.028925514
237	0x3d940c39	0.07228894
238	0x3e098139	0.13428201
239	0xbd1d4c18	-0.038402647
240	0xbd974222	-0.07385661
241	0x3dbf5cb2	0.09343852
242	0x3d0dba39	0.034601424
243	0xbd39ff39	-0.045409415
244	0x3d6dc18d	0.058045913
245	0x3daeed03	0.085413
246	0x3e1f5e47	0.15563308
247	0xbd9d2938	-0.076738775
248	0x3c3f6e0a	0.01168395
249	0xbda43063	-0.080170415
250	0x3dc6be13	0.097042225
251	0xbd3e9c3c	-0.046535715
252	0xbc95ecbf	-0.018301366
253	0xbca542a8	-0.020173386
254	0xbd376da5	-0.0447823
255	0xbd90a696	-0.07063024

fc1.bias f4 [32]
0	0x3d60d206	0.054887794
1	0x3d4491be	0.047990553
2	0xbdf55f77	-0.11981099
3	0x3ce33738	0.027736291
4	0xbda27b75	-0.07933704
5	0x3dc5e272	0.09662332
6	0xbda9d197	-0.08291929
7	0x3e06d354	0.13166553
8	0xbe141454	-0.1446088
9	0xbc0e967e	-0.008702872
10	0xbd2cb20e	-0.042161994
11	0xbde9ff4a	-0.11425646
12	0xbe32a148	-0.17444336
13	0x3d05466c	0.032537863
14	0x3d3c6ded	0.04600327
15	0xbd5b2b40	-0.053508043
16	0x3d6f2de6	0.05839338
17	0x3e569c25	0.20958002
18	0xbc22c334	-0.009934235
19	0x3e046578	0.12929332
20	0xbd01930d	-0.03163438
21	0xbc1b5bae	-0.009482307
22	0x3db44447	0.08802085
23	0xbc0991c6	-0.0083965715
24	0x3e107332	0.14106444
25	0xbdcc2f44	-0.09969953
26	0x3ce3052c	0.027712427
27	0x3e07c06c	0.13256997
28	0x3da9ee99	0.08297462
29	0xbd6d5295	-0.057940084
30	0xbddff7a2	-0.10935904
31	0xbd6d65fc	-0.057958588

fc2.weight f4 [32, 32]
0	0x3e0552c1	0.1301985
1	0x3e625301	0.22101976
2	0xbe15d50d	-0.14632054
3	0x3dcef1fb	0.10104748
4	0xbe64fc5d	-0.22361894
5	0x3e4aa51b	0.19789545
6	0x3da3d4b8	0.07999557
7	0x3e8920d4	0.26782858
8	0xbd10aa21	-0.035318498
9	0xbe3f6d78	-0.18694103
10	0xbe6d32a2	-0.23163846
11	0xbe4fed79	-0.20305432
12	0xbdd8768a	-0.105694845
13	0x3d0f61b3	0.035005283
14	0x3dff195e	0.1245601
15	0xbd74e4c2	-0.059788473
16	0x3dd4c57c	0.1038923
17	0x3d43be81	0.0477891
18	0xbc3cef0d	-0.0115316035
19	0x3e8a3e29	0.2700055
20	0x3d26a3f1	0.04068369
21	0xbe50098e	-0.20316145
22	0xbdb769a4	-0.08955696
23	0x3e724dbb	0.23662464
24	0xbc90f482	-0.017694715
25	0x3d3bdf65	0.045867343
26	0xbda74f8f	-0.081694715
27	0x3d7079d7	0.058709946
28	0x3d8862d1	0.06659473
29	0xbd3c1af5	-0.045924146
30	0xbe1bf107	-0.15228663
31	0xbe30815a	-0.17236844
32	0x3ddc8039	0.10766644
33	0xbdd0013e	-0.10156487
34	0x3d81d97c	0.0634031
35	0xbe04f803	-0.12985234
36	0x3cd310d4	0.02576486
37	0xbe39cfc8	-0.18145669
38	0x3e6925f6	0.22768387
39	0xbdf452d9	-0.119298644
40	0x3e4c5eb4	0.19958001
41	0xbd10d133	-0.035355758
42	0x3e6267c7	0.221099
43	0xbd9f694b	-0.07783755
44	0x3dbfbd4c	0.093622774
45	0xbe2c6684	-0.16835982
46	0xbda5fd8c	-0.08105001
47	0x3e209eff	0.15685652
48	0xbdce4bd6	-0.10073058
49	0xbbdba2da	-0.006702763
50	0xbd1c289b	-0.038124662
51	0xbe17158e	-0.14754316
52	0x3c879efc	0.016555302
53	0xbc888611	-0.01666549
54	0xbdbe4245	-0.09289984
55	0xbd5d148b	-0.05397467
56	0xbd76b026	-0.060226582
57	0xbdbb12b9	-0.091344304
58	0x3e3a2c56	0.18180975
59	0xbdc1bbe9	-0.09459669
60	0x3e20b0a3	0.15692382
61	0xbd89b09a	-0.06723137
62	0x3e41b4f8	0.1891669
63	0x3e397cd6	0.18114027
64	0xbd5e5ce8	-0.05428782
65	0xbe75caac	-0.24003094
66	0xbe1f0bd8	-0.15531862
67	0x3e0ea2e9	0.13929333
68	0x3e42b49d	0.19014211
69	0xbddc86cd	-0.10767899
70	0x3e20697c	0.15665239
71	0x3d7376e7	0.059439566
72	0x3d75c623	0.06000341
73	0x3e2d3332	0.1691406
74	0x3e729e74	0.23693258
75	0x3e4ceb63	0.20011668
76	0x3e7b545f	0.24543904
77	0xbe0031da	-0.12519017
78	0xbdbd438d	-0.092414
79	0x3d0567cd	0.032569695
80	0x3ceff82e	0.029293146
81	0xbe06f4db	-0.13179342
82	0x3d4f3603	0.05058862
83	0xbcc72b52	-0.024312649
84	0x3e518e05	0.20464332
85	0xbddf58c8	-0.109056056
86	0x3cfe5e0e	0.031050708
87	0xbd84014b	-0.06445559
88	0x3ca10464	0.019655414
89	0xbcb68cf8	-0.022284016
90	0x3e301ad5	0.17197736
91	0xbd9fdc1b	-0.07805654
92	0x3e2ecf4f	0.1707127
93	0x3e3f4707	0.18679439
94	0x3d84cc0c	0.06484231
95	0xbd780f68	-0.060561568
96	0x3cd783d2	0.026307974
97	0x3dab8b0c	0.083761305
98	0xbdbcfa15	-0.09227387
99	0x3c02fd99	0.007995033
100	0xbd4ef951	-0.050530735
101	0x3de2187b	0.110398255
102	0xbe896238	-0.26832747
103	0x3e90eac1	0.28304103
104	0xbc9ebf11	-0.019378217
105	0xbd7855c0	-0.060628653
106	0x3caf06a5	0.021365473
107	0x3a81d94e	0.0009906681
108	0xbbd691ea	-0.006548156
109	0xbe0283db	-0.12745611
110	0x3dc0833f	0.09400033
111	0xbe551351	-0.2080815
112	0x3e5325bd	0.20619865
113	0x3e839265	0.25697628
114	0x3df3de8b	0.11907681
115	0x3e15f04f	0.14642452
116	0xbe1d8013	-0.15380888
117	0x3db60233	0.08887138
118	0x3e398fbe	0.1812124
119	0x3d8d0824	0.06886318
120	0x3cd0a760	0.025470436
121	0xbd64e408	-0.05588153
122	0xbda61cd3	-0.081109665
123	0x3e05d1ef	0.13068365
124	0xbe18a2e8	-0.14905894
125	0xbd99cb74	-0.07509509
126	0x3d14ba08	0.036310226
127	0xbe16a4c2	-0.14711288
128	0xbe4d6943	-0.20059685
129	0x3db6fdf2	0.08935155
130	0x3e3e7eea	0.18603101
131	0x3d4cc823	0.049995553
132	0xbdf95cb2	-0.12175883
133	0xbcc91a94	-0.024548806
134	0x3decfaf9	0.11571307
135	0xbd966327	-0.073431306
136	0x3e5b4601	0.21413423
137	0xbdb51d49	-0.08843476
138	0x3e6131c1	0.21991636
139	0x3e513e62	0.20433953
140	0xbd918583	-0.071055435
141	0xbe2426bf	-0.16030405
142	0xbe12054f	-0.14259838
143	0x3dd0f5bd	0.10203121
144	0xbd9f2e38	-0.077724874
145	0xbe351cf0	-0.1768682
146	0x3e1bfe90	0.15233827
147	0xbe5e15df	-0.2168803
148	0x3e17c90d	0.14822789
149	0x3df6d065	0.12051467
150	0x3dc31fd6	0.095275566
151	0xbd3d51ee	-0.046220712
152	0xbd9955b1	-0.074870475
153	0xbd19ebe8	-0.037578493
154	0x3df787b7	0.120864324
155	0x3d5308de	0.05152213
156	0xbd0e970a	-0.03481201
157	0x3c86161e	0.016367968
158	0x3e788d23	0.2427259
159	0x3e1d25ed	0.15346499
160	0x3ddebfa6	0.10876398
161	0xbdec7653	-0.11546006
162	0x3daae318	0.08344096
163	0xbdf6b9c8	-0.12047154
164	0xbc0ec942	-0.008714976
165	0xbd4d4e57	-0.05012354
166	0x3db6f3cf	0.089332215
167	0xbc915e95	-0.017745296
168	0x3e7150b3	0.2356594
169	0xbe2ceb34	-0.16886598
170	0x3e5079b3	0.20358925
171	0x3dbb843c	0.09156081
172	0x3e6be352	0.23035935
173	0x3ce71e3d	0.02821266
174	0x399ec9cb	0.00030286456
175	0x3e1de977	0.15421091
176	0xbe5454cf	-0.20735477
177	0xbc50d7e2	-0.012746783
178	0x3c886e66	0.016654205
179	0xbe676861	-0.22598411
180	0x3cffcab7	0.031224592
181	0xbde17e18	-0.110103786
182	0xbdc9f4df	-0.098611586
183	0xbc87479c	-0.016513638
184	0xbe7e8024	-0.2485357
185	0x3d1dfb16	0.038569532
186	0x3e425c0f	0.1898043
187	0x3c9a1077	0.01880668
188	0xbd1674a9	-0.03673235
189	0x3e751ac0	0.23935986
190	0x3e02711c	0.1273846
191	0x3d80926b	0.06277927
192	0xbd8f3de5	-0.06994227
193	0x3e821c3d	0.2541217
194	0xbdc48487	-0.0959559
195	0x3dd003af	0.101569526
196	0x3d40c8b8	0.04706642
197	0x3e221da4	0.1583162
198	0xbdd232ef	-0.10263621
199	0x3e48665d	0.19570298
200	0xbe175aab	-0.14780681
201	0xbe263946	-0.16232786
202	0xbe4a3169	-0.19745411
203	0x3cccaf1f	0.024985848
204	0x3d0277a6	0.031852387
205	0xbd39abe9	-0.045329962
206	0x3e1bfca0	0.15233088
207	0xbe8baea6	-0.27281684
208	0x3dabf360	0.083960295
209	0x3d242116	0.040070616
210	0xbe0f2512	-0.13978985
211	0x3e15c1dd	0.14624734
212	0xbcd40c43	-0.025884753
213	0xbb77869e	-0.0037769447
214	0x3dcdc203	0.100467704
215	0x3e51bd65	0.20482405
216	0x3e2ff51c	0.17183346
217	0xbca3a8b8	-0.019977912
218	0xbc64f416	-0.01397421
219	0x3c996db0	0.01872906
220	0xbd53419e	-0.05157625
221	0xbe7f7b84	-0.24949461
222	0x3d296777	0.041358437
223	0x3d058d8d	0.032605696
224	0x3dafcf01	0.08584405
225	0x3dc25527	0.09488898
226	0x3d2ffee0	0.042967677
227	0xbe270c8a	-0.16313377
228	0xbe4bde50	-0.19909024
229	0xbdcbd86f	-0.09953391
230	0xbe2b391f	-0.16721009
231	0x3d92abd2	0.071616784
232	0x3cadd7a4	0.02122099
233	0xbe3e8500	-0.18605423
234	0xbe6d9bc6	-0.23203954
235	0xbe5ecc59	-0.2175764
236	0xbe0fb038	-0.14032066
237	0x3e21600c	0.15759295
238	0x3e33d8da	0.17563191
239	0xbe44923f	-0.19196413
240	0x3e52b5e4	0.20577198
241	0x3e0a8349	0.13526644
242	0x3e164024	0.14672905
243	0x3d84975f	0.06474184
244	0xbd96f113	-0.073702
245	0xbe621a8d	-0.22080441
246	0x3d7da30f	0.061923083
247	0x3e64cbaa	0.22343317
248	0xbb431996	-0.002976989
249	0x3da7dbf7	0.08196252
250	0xbe2f99c8	-0.17148507
251	0xbdad1eda	-0.0845315
252	0xbd0199a8	-0.03164068
253	0xbe784a8f	-0.24247192
254	0xbe31de17	-0.17369877
255	0x3da1e171	0.07904328

fc2.bias f4 [32]
0	0xbd9e33c3	-0.077247165
1	0xbe43c67b	-0.19118683
2	0xbd62f447	-0.055408742
3	0x3c5aebb9	0.013361865
4	0xbe10d2ed	-0.14142962
5	0xbdbf345e	-0.0933616
6	0x3dc50528	0.09620124
7	0xbd9cf3a9	-0.07663662
8	0x3d6d2bf9	0.057903264
9	0x3d7f6e10	0.062360823
10	0xbcafe247	-0.021470202
11	0x3dab5340	0.08365488
12	0x3e0d3964	0.13791424
13	0xbdc526fb	-0.096265756
14	0x3ba29646	0.0049617616
15	0xbe0834d8	-0.13301408
16	0x3cb0dc56	0.02158944
17	0x3e354dc0	0.1770544
18	0xbe415280	-0.18879128
19	0xbe35f508	-0.17769253
20	0xbe10233c	-0.14075941
21	0x3cab8368	0.020936683
22	0x3d87971b	0.06620618
23	0xbe4a8efe	-0.1978111
24	0x3d0fa33c	0.03506778
25	0xbd390727	-0.045172837
26	0x3dad605a	0.08465643
27	0x3d5836fb	0.05278681
28	0xbba5d322	-0.0050605694
29	0x3d5d3fdf	0.05401599
30	0x3d390870	0.045174062
31	0xbd74fd78	-0.05981204

fc3.weight f4 [1, 32]
0	0x3e40c284	0.18824202
1	0xbe74bfe1	-0.23901321
2	0xbe75526a	-0.2395722
3	0x3e85cfb7	0.26135036
4	0xbe9725aa	-0.29520923
5	0xbe521d8e	-0.20519087
6	0x3dbdad4d	0.0926157
7	0x3e05d79e	0.13070533
8	0x3e61bc72	0.22044542
9	0x3e697204	0.227974
10	0xbe703732	-0.23458555
11	0xbe56e50e	-0.20985815
12	0x3e7265ce	0.23671648
13	0xbe87fe87	-0.26561376
14	0x3e239012	0.15972927
15	0xbe2d7c3a	-0.1694192
16	0xbe8bc191	-0.27296117
17	0x3e99a93d	0.3001193
18	0xbe880f7a	-0.26574308
19	0xbe797537	-0.2436112
20	0xbe045c88	-0.12925923
21	0x3d9de527	0.07709723
22	0xbe72ff1f	-0.23730133
23	0xbe29623e	-0.16541383
24	0xbe8cf21d	-0.27528468
25	0x3e1bf8a9	0.15231575
26	0x3e2a78d7	0.16647659
27	0xbe71e8c5	-0.23623951
28	0x3e751bdd	0.2393641
29	0x3e20b6c9	0.15694727
30	0xbe9b13cd	-0.30288544
31	0xbe2c0b6f	-0.16801237

fc1.weight f4 [32, 65]
0	0x3d75bd6b	0.059995096
1	0xbd7c40c9	-0.06158522
2	0xbbf098d0	-0.0073424354
3	0xbda4aa9a	-0.08040352
4	0x3cb0bd22	0.02157456
5	0x3c658a23	0.014009985
6	0x3d9e92d0	0.07742846
7	0xbe552582	-0.2081509
8	0xbd289aa4	-0.0411631
9	0x3d685dff	0.056730267
10	0xbe089bf2	-0.13340738
11	0xbd9443d4	-0.072395
12	0xbc7ddcf7	-0.015494577
13	0xbd54b540	-0.051930666
14	0xbddc9d68	-0.1077221
15	0x3d8b055c	0.067881316
16	0xba7502cd	-0.00093464256
17	0x3da1a1b7	0.07892173
18	0xbddffe0c	-0.109371275
19	0xbdb74b34	-0.08949891
20	0xbca10ca4	-0.019659348
21	0xbe6fded1	-0.23424841
22	0xbc41e610	-0.011834636
23	0xbc2c424c	-0.010513853
24	0xbddfe96c	-0.109331936
25	0x3ca5994a	0.020214695
26	0xbd6ffbfa	-0.058589913
27	0x3e046de0	0.12932539
28	0x3e24e2b3	0.16102104
29	0x3c790701	0.015199424
30	0x3e536d15	0.2064708
31	0xbe2aa96a	-0.16666189
32	0xbd65a2fb	-0.056063633
33	0x3b76bbb0	0.0037648492
34	0xbd87f5bb	-0.06638666
35	0xbc53de62	-0.012931438
36	0x3c91c154	0.017792381
37	0x3d850594	0.064952046
38	0xbc995ec5	-0.018721947
39	0x3da60464	0.08106306
40	0x3e1394e5	0.14412268
41	0xbe0faf24	-0.14031655
42	0xbe07c5fe	-0.13259122
43	0xbe419627	-0.18904935
44	0x3e3f28d1	0.18667914
45	0x3e28353c	0.16426557
46	0xbde977f7	-0.113998346
47	0xbd9560d0	-0.07293856
48	0xbe2d298c	-0.1691038
49	0xbd7d4e4b	-0.061842244
50	0x3d4b67df	0.049659606
51	0xbdd4fa4e	-0.10399304
52	0xbe407463	-0.18794398
53	0x3de7ddb8	0.11321586
54	0x3cd0d16d	0.025490487
55	0xbcc9ff31	-0.024657818
56	0xbd2e2692	-0.042517252
57	0x3d0e5dd9	0.03475747
58	0xbc7194c0	-0.014744937
59	0xbd1e08a5	-0.038582463
60	0x3da460e0	0.0802629
61	0xbe148a6e	-0.14505932
62	0xbcabe498	-0.020983025
63	0xbd132274	-0.03592153
64	0x3dff88a9	0.12477238
65	0xbdf588cc	-0.119889826
66	0x39d699f6	0.0004093197
67	0xbd545486	-0.05183842
68	0x3d46a62a	0.04849831
69	0x3ce66bfd	0.028127665
70	0x3c821c06	0.015882503
71	0xbd35876d	-0.044318605
72	0xbddae6a1	-0.1068852
73	0xbe031de7	-0.12804376
74	0x3d575595	0.05257185
75	0x3db5ada1	0.08871008
76	0xbe0a66d1	-0.13515784
77	0x3d8919c7	0.0669437
78	0x3d5cdf59	0.05392394
79	0xbe28424b	-0.16431539
80	0xbd3aba71	-0.04558796
81	0xbd751980	-0.05983877
82	0xbdc73ef7	-0.097288065
83	0xbe202467	-0.15638886
84	0xbd9f4218	-0.07776278
85	0x3d8ada65	0.06779937
86	0xbdb137e6	-0.0865324
87	0xbcf3255c	-0.0296809
88	0x3dc67944	0.09691098
89	0xbdbb3961	-0.091418035
90	0x3c065789	0.008199581
91	0x3d6294fe	0.05531787
92	0xbcf86806	-0.03032304
93	0x3e65dfbc	0.22448629
94	0xbdbb192f	-0.09135663
95	0x3d48d319	0.049029443
96	0xbe7050e4	-0.23468357
97	0xbd563766	-0.052298926
98	0xbd5c5f9d	-0.05380212
99	0xbc7a114e	-0.015262915
100	0xbd235600	-0.039876938
101	0x3ce73ac3	0.028226262
102	0xbcde4e59	-0.027136968
103	0x3dd48eb9	0.10378785
104	0x3d7a1f06	0.061064743
105	0xbd3f0fad	-0.04664581
106	0x3d2e5658	0.042562813
107	0x3d560584	0.052251354
108	0xbe08c37c	-0.13355821
109	0x3dd13d27	0.10216742
110	0x3dd1f2ed	0.102514125
111	0x3c32089a	0.010866309
112	0xbda35557	-0.07975262
113	0xbe1ebbf8	-0.15501392
114	0xbd2f57ee	-0.042808466
115	0xbdd6ec4e	-0.1049429
116	0xbca01978	-0.019543394
117	0xbdf069b3	-0.117389105
118	0x3d1680fa	0.036744095
119	0xbdae54cf	-0.0851227
120	0xbdcd1314	-0.100134045
121	0x3d7e24d5	0.062046845
122	0xbe006681	-0.12539102
123	0xbe1c5664	-0.1526733
124	0x3d864b17	0.06557291
125	0x3d774c51	0.060375515
126	0x3d2339b2	0.039849944
127	0xbc8eec1c	-0.01744657
128	0x3df644ca	0.12024839
129	0x3de69a3f	0.11259889
130	0x3deed959	0.116625495
131	0xbc334474	-0.010941613
132	0xbdd26e12	-0.102749005
133	0xbe16b757	-0.14718376
134	0xbde2017c	-0.11035439
135	0x3dd567ae	0.10420166
136	0xbe094bf0	-0.13407874
137	0xbd8857f1	-0.066573985
138	0x3d734453	0.05939133
139	0x3d85d603	0.0653496
140	0x3d6e1772	0.058127828
141	0xbd785f04	-0.06063749
142	0x3d8a50df	0.06753706
143	0x3d5e5cdb	0.054287773
144	0xbd87d21c	-0.06631872
145	0xbcf21aaf	-0.02955374
146	0xbc022d9a	-0.007945443
147	0xbe391e28	-0.1807791
148	0xbd1f5de6	-0.038907908
149	0xbd84d30a	-0.06485565
150	0x3d2e24ff	0.04251575
151	0xbe19f6a7	-0.15035497
152	0xbd9f0d67	-0.07766228
153	0xbd647c6b	-0.055782717
154	0xbdb7cdaf	-0.08974778
155	0x3e44accf	0.19206546
156	0xbe3830d9	-0.17987384
157	0xbda971c7	-0.082736544
158	0xbd8c3eba	-0.06847902
159	0x3de1a0db	0.11017009
160	0x3d261e1a	0.04055605
161	0xbdc51d60	-0.096247435
162	0xbda4a2a4	-0.08038834
163	0x3e07b662	0.13253167
164	0xbe495019	-0.19659461
165	0x3db96d7a	0.09054084
166	0xbd21f71d	-0.039542306
167	0x3de25425	0.110512055
168	0x3b0509a5	0.0020299938
169	0x3dad9b2d	0.08476863
170	0x3e13e951	0.14444472
171	0xbdc7b886	-0.09751992
172	0xbdf55ea0	-0.11980939
173	0xbdd0c4d9	-0.10193796
174	0x3e10be51	0.141351
175	0x3df4a2b7	0.11945098
176	0xbdbe0b10	-0.09279454
177	0xbe4e1066	-0.20123443
178	0xbe3ddd28	-0.18541396
179	0x3da21e6f	0.07915961
180	0x3d9f0776	0.07765095
181	0xbde15697	-0.11002844
182	0x3d88027b	0.06641098
183	0xbdd3bf83	-0.10339262
184	0x3e0add40	0.13560963
185	0xbe099e6e	-0.13439342
186	0xbe0d509b	-0.1380028
187	0xbdf8a5b1	-0.12140978
188	0x3d9a6625	0.07539014
189	0xbdc86cbe	-0.09786366
190	0x3a7b7673	0.00095925404
191	0xbdddc826	-0.10829191
192	0xbe1d38dc	-0.15353721
193	0x3dc2e1cd	0.09515724
194	0x3cde80c8	0.027161017
195	0x3cc767a9	0.024341421
196	0x3e0c5995	0.13706048
197	0xbdc48467	-0.09595566
198	0xbd3e92a1	-0.046526555
199	0xbc2dbc09	-0.010603913
200	0x3deadb94	0.114676625
201	0x3c8ed3c9	0.017434971
202	0xbd018511	-0.031621043
203	0x3d82316e	0.06357084
204	0xbb1355fb	-0.0022481668
205	0xbdf7a73a	-0.12092443
206	0xbd88ebdc	-0.066856116
207	0xbc62c3ea	-0.013840655
208	0x3d3f028a	0.04663328
209	0xbe3f3fff	-0.18676756
210	0x3da9d1b9	0.082919545
211	0x3ddb968b	0.10722073
212	0xbd0b34b4	-0.03398581
213	0xbdc750e7	-0.09732228
214	0xbe37ab9c	-0.17936558
215	0x3b830f0d	0.003999597
216	0xbd7ee029	-0.062225495
217	0xbbc6d295	-0.006067584
218	0xbe0ebad2	-0.13938454
219	0xbd85d634	-0.06534997
220	0xbced0396	-0.028932374
221	0xbdd2a378	-0.102850854
222	0x3d85d059	0.0653388
223	0x3d455f71	0.048186723
224	0xbc4a8ce9	-0.012362697
225	0x3dc46f2f	0.09591519
226	0xbd776d8c	-0.060407206
227	0xbdcca8cc	-0.09993133
228	0xbc9c86ad	-0.019107187
229	0x3d4e3d35	0.05035134
230	0xbe15c8c6	-0.1462737
231	0x3a86d9b5	0.001028827
232	0x3ae33902	0.0017335715
233	0xbd6039e1	-0.054742698
234	0xbdc7703f	-0.09738206
235	0x3e3d21eb	0.1846997
236	0xbd20d5a8	-0.03926626
237	0x372d9f2e	1.03486655e-05
238	0x3cb1081b	0.02161031
239	0xbba0b277	-0.004904087
240	0x3e8a3512	0.26993614
241	0xbd3fa04a	-0.046783723
242	0xbe3a8715	-0.18215592
243	0x3d86c09f	0.06579708
244	0x3d63796d	0.055535723
245	0x3c6ceb90	0.014460459
246	0x3da2f1e1	0.07956291
247	0xbe89d6f9	-0.26921824
248	0x3e40e163	0.18835978
249	0xbbab76e4	-0.0052326787
250	0xbde0854b	-0.109629236
251	0xbe673d26	-0.2258192
252	0x3cd9ab3f	0.026570914
253	0xbdb068a2	-0.08613707
254	0x3deddbb3	0.1161417
255	0xbdd8bb94	-0.10582653

fc1.bias f4 [32]
0	0x3e45ab70	0.1930368
1	0x3c19d5d8	0.009389363
2	0x3d8533b8	0.06504005
3	0x3d9b2a29	0.07576401
4	0xbe234734	-0.1594513
5	0xbdad44b5	-0.084603705
6	0x3db79b15	0.089651264
7	0x3db4d846	0.088303134
8	0xbdebb9a9	-0.11510021
9	0xbe4eb017	-0.2018436
10	0x3d00047c	0.031254277
11	0xbdbe2091	-0.09283555
12	0xbddd8d9b	-0.10818025
13	0xbcc20be7	-0.023687316
14	0xbdaded0c	-0.08492479
15	0x3d8c1fe4	0.0684202
16	0xbd66adf9	-0.056318257
17	0x3df9cc7b	0.12197205
18	0xbe1b7c58	-0.15184152
19	0x3d813a6c	0.06309971
20	0x3c5ff8bc	0.013670143
21	0xbd903350	-0.07041037
22	0xbdd8feb8	-0.10595459
23	0x3d5b23aa	0.05350081
24	0xbc55e339	-0.013054662
25	0xbd3a51cb	-0.04548816
26	0x3dbc236d	0.091864444
27	0xbd5fc803	-0.054634105
28	0xbce59987	-0.02802731
29	0xbe5a45d3	-0.21315698
30	0xbde69c17	-0.112602405
31	0xbd38bf9e	-0.045104615

fc2.weight f4 [32, 32]
0	0xbe0ab5fa	-0.13545981
1	0xbd9ac4ca	-0.07557066
2	0xbe863fc8	-0.26220536
3	0xbb198237	-0.0023423561
4	0x3db16dcc	0.0866352
5	0x3e93b363	0.288478
6	0x3d81d5b8	0.06339592
7	0xbe79652d	-0.24355002
8	0x3d5b9741	0.053611044
9	0x3e5f375f	0.21798466
10	0xbdc3d8aa	-0.0956281
11	0x3e4c6d00	0.19963455
12	0xbe8832db	-0.266013
13	0x3e2c22d9	0.16810168
14	0x3e6ede18	0.2332691
15	0xbdaaa429	-0.08332092
16	0x3d10c0bb	0.035340052
17	0x3e399564	0.18123394
18	0x3e6fb2cc	0.2340805
19	0x3cff12a5	0.03113682
20	0x3de3c0b3	0.11120739
21	0x3c3de535	0.011590292
22	0xbe291d4f	-0.16515087
23	0xbe61b078	-0.22039974
24	0x3b0f987e	0.002191096
25	0xbc900c85	-0.017584095
26	0xbeaa6cd8	-0.33286166
27	0xbc8c4c3a	-0.017126191
28	0x3e574a31	0.21024396
29	0x3da2b032	0.07943763
30	0xbe565bd0	-0.20933461
31	0x3dc568d5	0.09639136
32	0x3e947588	0.2899592
33	0x3e79d468	0.24397433
34	0x3e4b7845	0.19870098
35	0x3d686997	0.056741323
36	0xbe9af93e	-0.30268282
37	0xbec6f86f	-0.38861415
38	0x3d5feeaf	0.054670986
39	0x3d908610	0.070568204
40	0xbe4df405	-0.20112617
41	0xbd681b7e	-0.056666844
42	0xbe3c3a67	-0.18381654
43	0x3bc7c060	0.006095931
44	0x3d259377	0.040423837
45	0x3d7e232d	0.062045265
46	0xbea2ef2a	-0.31823093
47	0x3d8c9c0d	0.06865702
48	0x3ca8a72d	0.020587528
49	0xbe6142aa	-0.21998087
50	0xbdd944bf	-0.106088154
51	0xbc09e683	-0.008416775
52	0xbe29d370	-0.16584563
53	0x3e32b699	0.17452468
54	0x3e894642	0.26811415
55	0x3e1fb4c4	0.155963
56	0xbd52b76c	-0.051444456
57	0x3e8d35ae	0.27580017
58	0x3e23c70a	0.15993896
59	0x3c04abf4	0.008097637
60	0xbdf2c214	-0.11853424
61	0xbebd68b7	-0.36993954
62	0xbd878807	-0.06617742
63	0xbe330bb9	-0.1748494
64	0xbdc5bec9	-0.0965553
65	0x3c0f9775	0.0087641375
66	0xbe07cfae	-0.13262817
67	0xbd5f76b5	-0.054556567
68	0x3d032aa6	0.032023095
69	0x3e352cbd	0.17692848
70	0x3e137802	0.14401248
71	0xbe87a68f	-0.26494262
72	0x3e871bc4	0.2638837
73	0x3dc8e144	0.09808591
74	0x3dc83e64	0.09777525
75	0xbd5081d5	-0.050905067
76	0xbdcc5dca	-0.09978826
77	0x3e777c09	0.2416841
78	0x3b9323b7	0.0044903415
79	0xbe4772df	-0.19477414
80	0xbe199308	-0.14997494
81	0x3d6e5828	0.05818954
82	0x3d342d95	0.043988783
83	0xbe0b97a9	-0.13632073
84	0x3e3c2ca9	0.18376411
85	0xbdf21935	-0.11821214
86	0xbe7b36ff	-0.24532698
87	0xbe0f2c78	-0.13981807
88	0xbc099412	-0.008397119
89	0xbde0aed7	-0.10970848
90	0xbeac771b	-0.3368462
91	0xbe778d9c	-0.24175113
92	0x3cb86f5b	0.022514036
93	0x3e0f75da	0.140098
94	0xbe7000a1	-0.2343774
95	0xbd1dd6b6	-0.038534842
96	0xbddfab17	-0.10921305
97	0x3de2d5f9	0.11075968
98	0xbdae597f	-0.08513164
99	0xbe6a9850	-0.22909665
100	0x3e9282f5	0.28615537
101	0x3e1caeba	0.15301028
102	0xbbf7404a	-0.0075455057
103	0xbd2e81c3	-0.04260422
104	0x3e4a0842	0.19729713
105	0x3e386ce2	0.18010285
106	0x3e8019b9	0.25019625
107	0x3e6fec1c	0.23429912
108	0xbe4ebdd0	-0.20189595
109	0xbd700dc9	-0.058606897
110	0xbd2598f4	-0.04042907
111	0xbe6dcb30	-0.23222041
112	0xbd090263	-0.03344954
113	0xbda61d29	-0.081110306
114	0x3eaa63f5	0.33279386
115	0x3c7a70f3	0.015285718
116	0x3e334e54	0.17510349
117	0xbdbfd184	-0.09366134
118	0xbe1b3697	-0.15157543
119	0xbe21d571	-0.15804078
120	0x3d83f1f5	0.06442634
121	0xbe8732ff	-0.26406094
122	0xbeae38cb	-0.34027705
123	0xbe773405	-0.24140938
124	0x3e322fa0	0.1740098
125	0x3e8a559c	0.2701844
126	0xbdfad84a	-0.12248285
127	0x3d1ec098	0.03875789
128	0x3e4e5d1a	0.20152703
129	0x3de022f3	0.10944166
130	0x3e82d19a	0.25550538
131	0x3e830cb0	0.25595617
132	0xbe1dfa4f	-0.15427516
133	0xbe98ca8a	-0.29842025
134	0xbe4a0cd2	-0.19731453
135	0x3d486b7f	0.04893064
136	0x3bbce4ee	0.0057645952
137	0xbd303e37	-0.043028083
138	0xbde68298	-0.112553775
139	0xbe9f0a5b	-0.31062588
140	0x3e8f35cb	0.27970728
141	0xbd9fd384	-0.07804015
142	0xbd0fe050	-0.03512603
143	0x3e7ad436	0.24495015
144	0xbc92bd3c	-0.0179125
145	0xbcab3cbb	-0.020902982
146	0xbe769a9f	-0.24082421
147	0x3d102b04	0.035197273
148	0xbca2c31e	-0.01986843
149	0x3dcd0f8b	0.1001273
150	0x3b7e4b22	0.0038802107
151	0xbd6559df	-0.05599391
152	0xbe9cc1e1	-0.30616668
153	0x3e345c2c	0.17613286
154	0x3eb8fb93	0.36129436
155	0x3e62056d	0.22072382
156	0xbdeb7626	-0.114971444
157	0xbeb2c4b6	-0.34915704
158	0xbd4116b8	-0.047140807
159	0x3d808037	0.06274455
160	0xbe8c543e	-0.27408022
161	0xbda31d20	-0.079645395
162	0xbe62b16a	-0.2213799
163	0xbe94c8ba	-0.29059392
164	0x3e0e6ff6	0.13909897
165	0x3e0a05e9	0.13478817
166	0xbd9ce2cf	-0.07660448
167	0xbe7876b3	-0.2426403
168	0x3e9562b4	0.29176867
169	0x3e8c0d46	0.27353877
170	0x3da227ac	0.07917723
171	0x3d1deaf1	0.038554136
172	0x3c6b533f	0.014363109
173	0x3e557408	0.20845044
174	0x3d9d77fe	0.07688902
175	0xbe66c36a	-0.22535482
176	0xbe7bc9dc	-0.24588722
177	0x3e813d49	0.2524207
178	0x3e6f86bf	0.23391245
179	0xbe5641ff	-0.20923613
180	0xbca0babd	-0.019620294
181	0xbd95e60b	-0.07319268
182	0x3d274cb8	0.04084465
183	0xbe419012	-0.18902615
184	0x3e1b2585	0.15151031
185	0xbe859b64	-0.26095116
186	0xbe982223	-0.29713544
187	0xbe55c223	-0.20874839
188	0x3e2409ca	0.16019359
189	0x3e2e2743	0.17007165
190	0xbe4c01f1	-0.19922616
191	0x3ce52698	0.027972504
192	0xbde1f652	-0.1103331
193	0xbe568952	-0.20950821
194	0xbd5beb1c	-0.053691015
195	0xbd188689	-0.037237678
196	0x3dee1937	0.11625903
197	0x3e63d7a2	0.22250226
198	0x3e3ddb48	0.1854068
199	0x3cf74533	0.030184364
200	0x3e02ae29	0.1276175
201	0x3e7fba6f	0.24973463
202	0x3e49ae40	0.19695377
203	0x3e6c1f17	0.23058735
204	0xbe291173	-0.16510563
205	0xbce649ee	-0.028111424
206	0x3df1c55c	0.118052214
207	0xbe957b35	-0.29195562
208	0xbe6c5404	-0.23078924
209	0x3e370724	0.17873818
210	0x3e7f7540	0.24947071
211	0xbd640be6	-0.05567541
212	0x3dbae6d2	0.09126057
213	0xbc28f5ae	-0.010312481
214	0xbdeeeabf	-0.11665868
215	0x3d5cc9d1	0.053903405
216	0x3e739a1e	0.2378926
217	0xbd51d0fb	-0.05122469
218	0xbe20f204	-0.15717322
219	0x3d988328	0.07446891
220	0x3e4028a0	0.18765497
221	0x3d3452a8	0.04402414
222	0xbe1cfdcd	-0.15331192
223	0xbcc9ce3c	-0.024634473
224	0x3e793853	0.24337892
225	0xbd8f6a99	-0.07002754
226	0xbc8d3b79	-0.017240273
227	0x3dfa5480	0.12223148
228	0xbe83c93f	-0.25739476
229	0xbce0a93d	-0.02742445
230	0xbe5b9218	-0.21442449
231	0x3db0daf3	0.08635511
232	0xbc8e8949	-0.017399447
233	0xbe807c41	-0.25094798
234	0xbdf52311	-0.11969579
235	0xbe267f09	-0.16259398
236	0x3d0dd502	0.03462697
237	0xbe7b76b5	-0.24557002
238	0xbe13f8e8	-0.14450419
239	0x3e25cde3	0.16191821
240	0xbc88b518	-0.016687915
241	0x3c8bced8	0.017066404
242	0xbd64b554	-0.05583699
243	0x3e62a61f	0.22133683
244	0xbd92c60b	-0.0716668
245	0x3e7dc624	0.24782616
246	0x3cc7e916	0.024403136
247	0x3e6f4ad0	0.23368382
248	0xbe81db74	-0.25362742
249	0x3e119d15	0.14220078
250	0x3ebff7ec	0.37493837
251	0x3e83a3a9	0.257108
252	0xbdd8a59a	-0.10578461
253	0xbe7e420a	-0.2482988
254	0x3bfcdc4b	0.0077166907
255	0xbe2d59bf	-0.16928767

fc2.bias f4 [32]
0	0x3e2e7c43	0.1703959
1	0x3dfc7e98	0.12328833
2	0xbc9134e1	-0.01772541
3	0xbd2b260b	-0.041784327
4	0x3dc60671	0.09669197
5	0x3c6c8030	0.014434859
6	0x3e18fe1f	0.1494069
7	0xbda37a22	-0.07982279
8	0xbe3e9b97	-0.1861404
9	0x3d9d5eae	0.07684074
10	0x3d32792d	0.043572593
11	0x3d9d3b63	0.07677343
12	0x3d47b1c3	0.04875351
13	0x3ca5c9e4	0.02023787
14	0x3d0b5e32	0.03402538
15	0xbdb5a4b7	-0.088693075
16	0x3de7b514	0.11313835
17	0x3e253187	0.16132174
18	0xbbbb88c8	-0.0057230927
19	0xbdbd9288	-0.09256464
20	0xbd0fea63	-0.035135638
21	0xbd3378d6	-0.04381641
22	0xbdcc3f8c	-0.09973058
23	0xbdce6e45	-0.10079626
24	0xbd86b6dc	-0.065778464
25	0xbd412ab3	-0.04715986
26	0x3de02495	0.109444775
27	0xbddd23be	-0.10797833
28	0xbd50de85	-0.05099346
29	0x3d0ae88a	0.033913173
30	0xbe077ad7	-0.13230453
31	0x3e42f2e9	0.19037975

fc3.weight f4 [1, 32]
0	0xbea94ec1	-0.33067897
1	0x3e764597	0.24049984
2	0xbe97aaf5	-0.29622617
3	0xbea271c5	-0.31727424
4	0x3e68f134	0.22748262
5	0xbe551655	-0.208093
6	0xbe9be2a0	-0.3044634
7	0x3e972fda	0.29528695
8	0x3ea0e950	0.31428003
9	0xbe604218	-0.21900213
10	0x3e535d5c	0.20641083
11	0xbe8928dc	-0.26788986
12	0xbe7d9134	-0.24762422
13	0xbe4236fe	-0.1896629
14	0xbe780af0	-0.24222922
15	0xbeae536f	-0.3404803
16	0xbe7ef6f1	-0.24898888
17	0xbeab2fef	-0.33435008
18	0x3e3c0f2a	0.1836516
19	0x3e8a7893	0.27045116
20	0x3e86a987	0.26301214
21	0x3ea6b173	0.32557258
22	0x3e6ee690	0.2333014
23	0x3e2b7ddc	0.1674723
24	0x3e55270c	0.20815676
25	0x3e944bd1	0.28964093
26	0xbe47451a	-0.19459954
27	0xbe9e207c	-0.3088416
28	0x3e98823f	0.2978687
29	0x3e5a502e	0.21319649
30	0x3e71b057	0.23602425
31	0xbea7db1d	-0.32784358
