amazon/20230719-103810/commm.pt (torch, 253910 bytes, 15 tensors)

encoder.learnable_skip f4 [2, 2]
00000000: cf84 7f3f 0000 803f 8488 7f3f 348c 7f3f
0.99812025 1.0 0.9981768 0.9982331

encoder.pre_mp.0.weight f4 [64, 5]
00000000: b9dd b3bb e567 733e e953 bbbe c160 a7be
00000010: 571f 2ebe fcba f93d ca30 f4bb 01e7 b43e
00000020: 6bd1 27bd cdba ef3d fdcb 08be 24e1 b3bd
00000030: 81d2 d9be fab7 96be 70ed 3abe 85fa 7f3c
00000040: ecf9 363e 9087 883e 5124 9cbe 9b2b 49be
00000050: fc58 283e f3bf be3e 2461 bdbd b727 ab3e
00000060: b281 94bd eb19 3b3d 4203 cf3e ac2f d5be
00000070: 53de 90be 0ded eabd 30b4 34be 07ce c43e
00000080: 5565 93be efc2 50be 14f3 9ebe 7ab2 d5be
00000090: 3966 86be 8b8b c53e a5f9 4d3e 5c72 5f3e
000000a0: 533a af3c 84cf 6cbe b0b2 9e3d 16d8 d4be
000000b0: 6682 a4be 01d8 69be eaad 913e f32a 853e
000000c0: a04b 4dbe 0b9f 95bc a93e 913e 09b9 e23e
000000d0: a96e 363e cba3 793d 38df 993e f57a 87be
000000e0: b296 a63d 1f6e b0be de98 9dbe 9460 6abe
000000f0: 0976 513e 1391 393e 3f99 88be a776 083e
00000100: af7b 793e 3fe6 5fbd 93dd 9a3c a57c d03d
00000110: 971d 8d3e 04ed da3e 0a7a afbe 7e90 25be
00000120: c91d 323e 03c4 bc3e 7c50 c63e 6add c83e
00000130: b8c8 b13d e7eb c5be 7ce7 313d bb0f 8ebe
00000140: 5c23 d4be d8d0 cb3e 1c16 ad3e 1560 e5be
00000150: 0168 a73d b301 96bd 81a6 92bd 3ebe 53be
00000160: 5600 2e3e 83ad 88be 40dd 293e ccb0 653e
00000170: b4f8 a33e 8581 2b3e 2588 e2be a862 93be
00000180: 4ec0 663e 8de9 c03d 6792 b2be 5ba4 83be
00000190: e36c d83e 5b4f 993e 26c6 45be bc96 e2bd
000001a0: f628 d9be fb3f c9bb 0976 adbe 6dd3 afbe
000001b0: d392 bbbc afe8 8c3d 9984 39be 12d3 883e
000001c0: c65c 8cbe 08be ce3e a5e4 9b3e 0ff4 c1be
000001d0: 1255 e8bd a72a af3c 90aa 883d a8ef db3d
000001e0: 3414 363e 9b8b ec3c b477 61be b2ab 563e
000001f0: 88a7 dcbe 7cfb 86be e8fe e9bd 0d42 5dbe
00000200: ad40 1ebe 62bd babe 9746 bebd 9074 c03d
00000210: f506 95be 7806 babc 290e a43e e965 33bd
00000220: 28b6 683c 6ee8 21bd 2373 b73d aa1a 913e
00000230: fd16 da3e ef66 923e 71ce d83e ac79 09bd
00000240: 524a cebe 49ec 56be 0303 9d3e 0d62 a5bb
00000250: 81d8 65be 7a91 b0be 0596 d5be 191e c0be
00000260: 38c0 bdbd c7e9 783e 7279 753e 21d0 dbbe
00000270: d073 8e3e 02ea b2be 1d3c c0bd 111d 39be
00000280: 1172 b3bd 97fc b4bd eef6 ccbe c838 c5be
00000290: b751 8dbd 25e9 023c 0772 51be fe67 2d3e
000002a0: e096 cdbe c2be efbc ea4e c83e af68 39be
000002b0: b6e5 cf3e 2512 283e 8882 cdbe d680 913e
000002c0: 1224 4abd 997c 4ebe 2205 b63e 6b15 babe
000002d0: 8fc1 4c3d 13eb bbbd 6569 a23e 2849 fb3d
000002e0: 37d9 593e b3dc 233e 374e d8bd d74a c4bd
000002f0: a4a0 bdbe d749 763e 7aa8 b43e 9a96 9b3e
00000300: d752 a0be 064a b63c 9939 a0be 2afe 79be
00000310: 206c 84be a458 1a3e 9687 89be 9b5f 42bc
00000320: 77dd 8b3c df9d 943e 24e6 abbe 8301 9cbe
00000330: f1c4 83be 1751 a13e 4eb3 22be a120 c03e
00000340: fb95 233e 65e2 5f3d 0fa6 afbb 6994 b8bd
00000350: fdaa 6a3d 7c48 cebd 5978 ffba c7cf 703d
00000360: 64ab b2be add3 6ebe 7677 b93e f03a b9be
00000370: 76a1 0bbd 3e7b e13e 7d8c 273e 7777 713c
00000380: 9b5e c5be 3afd 643e 2609 a2be de10 04be
00000390: dfb7 1bbe 7dc6 8bbd ac09 2a3b 39e8 bb3e
000003a0: fabe 603d 4826 cd3e a6aa 8b3e 27de 91be
000003b0: f8e6 4b3e d6ce a0be 4402 40be 20ca 083e
000003c0: e8b5 173e d1d8 aa3e 58ff 13be 7fc5 ad3a
000003d0: 2f8e 6b3e 7073 debe ab91 a63e f308 bdbe
000003e0: eae6 d93b c09b 9abd d54a 73be c65d 6a3d
000003f0: 4b4d be3e 0bf8 03be 6afb 86be 9684 27be
-0.005489078 0.23770101 -0.36587456 -0.32691005 -0.17004143 0.121938676 -0.007452105 0.35332492
-0.0409712 0.11705551 -0.13359065 -0.087831765 -0.42543414 -0.29437238 -0.18254638 0.015623693
0.17868775 0.26665926 -0.30496457 -0.1964554 0.16440195 0.3725582 -0.09247044 0.33428738
-0.072513 0.045679014 0.40432173 -0.41637933 -0.2829462 -0.11470995 -0.17646861 0.38438436
-0.28788248 -0.20386861 -0.3104483 -0.4173773 -0.26249865 0.38583025 0.20114763 0.21820968
0.021390116 -0.23126036 0.07748926 -0.4157111 -0.32130736 -0.22836305 0.28452998 0.2600933
-0.2004838 -0.018264314 0.28368118 0.44281796 0.17815651 0.06094722 0.30053115 -0.26460996
0.081342116 -0.34459016 -0.3078069 -0.22888404 0.20455183 0.18121748 -0.26679417 0.13326512
0.24363588 -0.05466294 0.018904483 0.10180024 0.27561638 0.42758954 -0.34272796 -0.161684
0.17394175 0.36868295 0.3873328 0.39231426 0.08680862 -0.38656542 0.04343365 -0.27746376
-0.41433227 0.39807773 0.3380593 -0.44799867 0.08174134 -0.07324543 -0.07160664 -0.2067804
0.16992316 -0.2669488 0.16588306 0.22430724 0.32025683 0.16748627 -0.44244495 -0.28786206
0.22534296 0.09419546 -0.3487732 -0.2571133 0.42270574 0.29943356 -0.19313869 -0.110639066
-0.42414063 -0.0061416603 -0.33879116 -0.34340993 -0.02289716 0.068803184 -0.18116988 0.26723534
-0.2741453 0.40379357 0.3044788 -0.37881514 -0.11344351 0.021382643 0.06673157 0.1073907
0.17781144 0.028875163 -0.2201832 0.20963934 -0.43096566 -0.26363742 -0.11425573 -0.21607228
-0.1545436 -0.36472613 -0.09290808 0.093972325 -0.2910687 -0.022708163 0.32042053 -0.04379836
0.014203586 -0.039528303 0.089575075 0.28340656 0.42595664 0.28594157 0.42345002 -0.0335633
-0.40291077 -0.20988573 0.3066636 -0.005047089 -0.22445871 -0.3448599 -0.41716018 -0.37522963
-0.092651784 0.24307929 0.23972109 -0.42932227 0.27822733 -0.3494416 -0.09386466 -0.18077494
-0.08761991 -0.0883724 -0.40032142 -0.38519883 -0.069003515 0.007990156 -0.20453654 0.16934201
-0.4015417 -0.029265765 0.39122707 -0.1810634 0.40604943 0.16413172 -0.4013865 0.28418607
-0.049350806 -0.20164718 0.3555079 -0.36344466 0.04998928 -0.09175696 0.31721035 0.12269813
0.21274267 0.16002159 -0.10561793 -0.09584587 -0.37036622 0.24051605 0.35284787 0.30388337
-0.31313202 0.022252094 -0.31293944 -0.24413362 -0.25863743 0.15072876 -0.26861256 -0.011863614
0.017073376 0.29026696 -0.3357402 -0.30469903 -0.25736192 0.3150718 -0.15888712 0.37524894
0.15975182 0.054659266 -0.005360372 -0.09012682 0.057291973 -0.10072419 -0.0019490822 0.058791902
-0.34896386 -0.23322935 0.36223954 -0.36177778 -0.034089528 0.4403934 0.16362186 0.014737955
-0.3854874 0.22362223 -0.31647605 -0.1289706 -0.1520686 -0.06824968 0.0025945706 0.3670061
0.05486963 0.4006827 0.27278632 -0.284898 0.19912326 -0.31407803 -0.18750864 0.13358355
0.14815485 0.33368543 -0.14452875 0.0013257711 0.23003457 -0.43447447 0.3253301 -0.3692089
0.0066498416 -0.07549238 -0.23759015 0.057218336 0.37168345 -0.1288759 -0.2636369 -0.16359171

encoder.pre_mp.0.bias f4 [64]
00000000: 9cc1 213d ab87 5c3d d6cf b4be b608 143d
00000010: b08b 9d3e 6e2f cf3e cdad 873e f15a 6e3d
00000020: 480d 583e 6703 61be 728b bcbe 4c40 c4be
00000030: 0d4c e33e d66f 903e eb3b 9fbe 2e83 353e
00000040: f7a7 ab3e 21d0 e33e c037 c73e c33e b03e
00000050: 6016 d6bd f9b9 22be 5afc ba3e f5fc 803e
00000060: 30fa 8abe b016 cd3e 8bfc 5a3e 306a 773e
00000070: 6eb5 90be 3135 013e a6af 21be f7e2 b13e
00000080: 9fc2 a1bd 2706 303e e8e2 a63d fdb9 413e
00000090: 3dac 1dbe 1f25 5d3e 53c9 9ebe e8a8 ca3d
000000a0: 9e01 9abe 40f1 e2be f9d5 b6be 44e0 b33e
000000b0: 1ac7 793e 74c2 d53e a67d b83e 3e5f cbbe
000000c0: a195 9cbe 8dec 8fbd 14a6 93be ae0c 9e3e
000000d0: 28f9 abbe e34c 5dbe 5f39 dcbe c5f7 80be
000000e0: bf59 bb3e a253 ba3e 4a10 a53e e6d0 af3e
000000f0: 6ec7 ca3e fc82 e8bd db4c 4b3e 3079 cb3e
0.03949128 0.05384032 -0.35314816 0.03614112 0.30770636 0.40465873 0.26499787 0.058192197
0.21098816 -0.21973954 -0.36825138 -0.38330305 0.4439396 0.28210324 -0.311004 0.17725822
0.33526585 0.44494727 0.3890972 0.34422883 -0.104534864 -0.15891255 0.36520654 0.2519299
-0.27144003 0.40056372 0.213854 0.24161601 -0.2826342 0.12617947 -0.15789661 0.34743473
-0.07898449 0.17189847 0.08148748 0.18918605 -0.15397735 0.21596192 -0.31012973 0.098954976
-0.3007936 -0.44324684 -0.35710123 0.3513204 0.24392357 0.41749918 0.36033362 -0.39721102
-0.30582908 -0.0702754 -0.28837645 0.3086905 -0.3358853 -0.21611361 -0.4301252 -0.25189033
0.36591908 0.36391932 0.3223899 0.34339064 0.39605278 -0.11353108 0.19853537 0.39740896

encoder.convs.0.bias f4 [64]
00000000: f0ea 00bb bfb4 23ba e9d3 b53a 444a e4ba
00000010: f878 0b3b 5371 183b 5424 133b 0898 013b
00000020: c94d 2d3b 432f b1ba 0000 0000 5977 03bb
00000030: 7863 20bb f7ed d63a 1ae0 05bb 0000 0000
00000040: 985e 0bbb faaa 0bbb 2efe b439 0000 0000
00000050: b17d e5ba 0c37 0fbb b03d f1ba b1c3 02bb
00000060: fef4 f7ba 5967 0abb 0000 0000 b816 bfba
00000070: 04f9 3f3a 1b20 053b f6de 943a 0000 0000
00000080: 0000 0000 6284 ecba bd8e 893a 2b0c f5ba
00000090: 52b9 e9ba b05e 053b 0000 0000 e328 beba
000000a0: 4a1d 113b 1bf1 da3a 201a f3ba 9aea 91ba
000000b0: 02ab 8a39 097c 00bb 6121 173b f651 d33a
000000c0: 0000 0000 d2be 0a3b 5c4a 0ebb 9b8d 043b
000000d0: f580 da3a a235 0fbb 97b8 f13a 6247 09bb
000000e0: 0000 0000 f11a b03a 0000 0000 5378 cf38
000000f0: aaf6 e5ba 5a62 f8b9 20f2 bab8 2749 faba
-0.0019671284 -0.000624489 0.0013872358 -0.0017417152 0.002128182 0.0023260906 0.0022452073 0.0019774456
0.0026444069 -0.0013518113 0.0 -0.002006015 -0.002447335 0.0016397823 -0.0020427764 0.0
-0.00212661 -0.0021311627 0.00034521654 0.0 -0.0017508772 -0.002185288 -0.0018405225 -0.0019953067
-0.0018917618 -0.002111873 0.0 -0.0014578914 0.0007323178 0.0020313326 0.0011357951 0.0
0.0 -0.0018044824 0.001049481 -0.0018695643 -0.0017831719 0.0020350628 0.0 -0.0014508035
0.0022142702 0.0016703935 -0.0018547215 -0.0011132539 0.00026448822 -0.001960518 0.0023060667 0.0016122449
0.0 0.0021170867 -0.0021711802 0.0020226005 0.0016670512 -0.0021852036 0.0018441853 -0.0020947088
0.0 0.0013435764 0.0 9.892941e-05 -0.0017544825 -0.00047375524 -8.9142704e-05 -0.0019095287

encoder.convs.0.lin.weight f4 [64, 64]
00000000: a811 623b 4656 33be 7fe9 febd a0a1 b3bd
00000010: c419 ad3c db4a a73d fcc9 2cbd acc2 b1bd
00000020: f5e6 be3d 988d 55be 9fe4 1c3e 4106 bfbc
00000030: 5341 183e 66a9 253e dfaa cb3c 1ffc 883d
00000040: 89d2 febd f6d8 1c3e 1f7f ff3d 6723 13bd
00000050: d422 b03d dee7 27bc e739 2b3e b482 b23d
00000060: 1599 233e 8677 4bbe e5ff 553e 4441 a13d
00000070: 499a db3d b8e8 3e3d b248 133e 4bc5 4e3e
00000080: c42a 91bc 03e1 37be 44c4 493e 69e0 42bd
00000090: d577 d2bd 7e7d 063e 405b fb3d e982 dd3c
000000a0: 0b03 41bc c0c0 21bd 1c4b 4d3e 7015 053e
000000b0: 0f0b 023e 7d61 0b3e 7aea ebbd 6a22 413d
000000c0: 52c8 3dbe 41ad 013e 36be 59be 0e90 5fbe
000000d0: d03f 59be 6a86 0a3e 5b58 c83c 1ab6 1f3b
000000e0: de03 053d 12d5 abbd f9ad 8abd bc53 17be
000000f0: a79e 60bd b1a7 06be d9d1 743b f02f 2c3e
00000100: 7147 39be e3a1 dd3d 53cf 25be a115 bbbd
00000110: 3e5d 2d3d f012 103d c785 333e 78e0 9e3a
00000120: bd45 adbd ba8e b5bd ebbe 023c dcf1 26be
00000130: 953c 2ebe b0fd bbbd b4eb ff3b db0d 18be
00000140: 7111 febd 542a 1d3e 9468 4c3e 8f80 8ebd
00000150: b636 3fbe d263 acbd 2f67 b33d 1669 8f3d
00000160: d33a 8abd b327 45be 5783 86bd 894e 45bd
00000170: 5362 003e 8685 e0bd 513b 073e 458f e63c
00000180: 5813 1cbd b44e 47be ce6b 5b3e 42fa 24bd
00000190: e4d1 0d3e eb0f e8bd 302f 58be f9f4 31be
000001a0: 22a8 e4bd 9ac6 89bd a53b f6bc bac1 373e
000001b0: 57cc 4dbe eed9 da3d 5d61 3b3e 39ec bd3a
000001c0: 5d61 09be cd03 ba3b b9ee 543d 4bb1 c13d
000001d0: 7ea8 82bd 1b97 93bd 0222 d2bd 8431 56be
000001e0: 8d72 9a3d 8241 28be 8805 d6bd a34e 62bb
000001f0: d330 2a3e fb63 473e 5a6c 21be a4f3 3f3e
00000200: befc 473e 86d5 313e bd8f a33c 7489 333e
00000210: 80cf d93d 52a7 1dbe 6bdd e6bd 1319 343b
00000220: d2b7 1bbe 6367 94bd 2f60 313e fbd0 d03d
00000230: ee6d 423e 9b6c fc39 daeb e4bd 131b 143e
00000240: ee32 8e3c 08fa 1a3d 0517 b9bd 6708 b93d
00000250: 6964 22be 543a 313e d4c3 413e 80ae a13d
00000260: 1f51 2d3e 82f8 073e 3b86 a6bd 88f8 40be
00000270: 8cb3 de3c caa1 0c3e 5a0e c1bc ffa2 a03c
00000280: 13a5 253e 55f8 b93d 8753 243e fa81 073d
00000290: 51b0 bb3c 054c 4ebd d52c 11bd 1dcf e8bd
000002a0: 5784 153e a8c6 483e a8c5 a13d 09cd f33b
000002b0: 657c 8fbd 4d7c 59be 50ca 27bd 5302 1dbe
000002c0: 2211 25be 811a 2abd 58f1 33bd 407a 383d
000002d0: a016 22be e0e6 1d3e b485 49be 1ce3 cfbd
000002e0: 11dc a5bd b083 713c e519 ba3d 5802 64bd
000002f0: b812 103d ec7c 57bd 14f6 acbd 2fe1 f0bc
00000300: dea7 393d 7520 59be 9088 18be 64fc 2e3e
00000310: 06f1 c43d 15db f5bb bb16 0c3c a094 e63c
00000320: 44ed 463d bb93 15be 3599 6abd 4eb1 49be
00000330: 8614 30be e7f9 2dbd 4736 f8bc 732a 2f3e
00000340: c2a0 113d b3eb 16bd 8495 fdbb 6f11 f43d
00000350: b0c1 82bd 02a9 1ebd 4b05 39bd 2e8f 34be
00000360: 539d e9bc 45bd 4ebe 15e7 f1bd 7ee5 0ebe
00000370: f7ef 263e 2b72 4abe f3d7 533e b5ae a23d
00000380: 340c 14be dfe4 353e 3091 4abd a38e 3dbe
00000390: e930 02bd af93 d73d 52c7 55be 0b22 93bc
000003a0: 7df9 b73d 8739 a9bd e5c8 af3c 0959 b1bd
000003b0: 8f8a 16be 96d7 2b3e 5633 1fbe 0c8c 51ba
000003c0: 1b3f 973d 3b3d f4bd a3a7 d93d 40e6 39be
000003d0: f085 553e ccf0 c13d 53db ecbc 03a4 36be
000003e0: 73be a13b bbb7 993d ce63 f4bd eea2 edbc
000003f0: 87b9 5ebe 4a4f 5fbe 34e3 cebc 1eba 373e
0.0034495387 -0.1751338 -0.124468796 -0.08771062 0.02113045 0.081685744 -0.042184815 -0.08679709
0.09321395 -0.20854795 0.15321587 -0.023318412 0.14868669 0.16177902 0.024861751 0.06688713
-0.124425 0.15317139 0.12475418 -0.035922434 0.08600393 -0.010248153 0.16721307 0.08716336
0.15976365 -0.19869813 0.20898397 0.078737766 0.10722787 0.046608657 0.143832 0.20192449
-0.017720588 -0.17956929 0.19703776 -0.047577295 -0.102767624 0.13133809 0.12273264 0.027039962
-0.011780511 -0.03949046 0.20048183 0.12996459 0.12699531 0.13611408 -0.11519332 0.04715196
-0.18533447 0.12663747 -0.21263966 -0.21832296 -0.21215749 0.13527837 0.024456194 0.0024370016
0.03247439 -0.08390249 -0.06771464 -0.14778036 -0.054838803 -0.13149907 0.0037356524 0.16815162
-0.18093659 0.10821893 -0.16192369 -0.09134985 0.04232525 0.03517431 0.17531501 0.001212134
-0.08460567 -0.088651136 0.007980089 -0.163032 -0.17015298 -0.091792464 0.0078100804 -0.14849035
-0.124056704 0.15348178 0.19961768 -0.06958114 -0.18673214 -0.08417477 0.08759915 0.070024654
-0.06749501 -0.19253425 -0.0656802 -0.0481706 0.12537508 -0.109629676 0.13206221 0.028144488
-0.038104385 -0.19463617 0.21427843 -0.040277727 0.13849598 -0.11331161 -0.2111175 -0.17378606
-0.11164881 -0.06727333 -0.030057738 0.17944995 -0.2009748 0.10686098 0.1829886 0.0014489956
-0.13416047 0.0056767226 0.051985476 0.09457644 -0.063797936 -0.072065555 -0.10260393 -0.20917326
0.0754138 -0.16431239 -0.10450274 -0.0034531734 0.16620187 0.19471733 -0.15763989 0.18745285
0.19530007 0.17366609 0.019966 0.17532903 0.106352806 -0.15395859 -0.11272701 0.0027480766
-0.1520684 -0.07246282 0.17321847 0.1019611 0.18987247 0.00048146103 -0.111777976 0.14463453
0.01735827 0.037836105 -0.09037594 0.09034806 -0.15858616 0.17307407 0.18922359 0.07894611
0.16925476 0.13278392 -0.08131071 -0.18844807 0.027185224 0.13733593 -0.023566414 0.019608973
0.16176252 0.09080569 0.16047488 0.03308294 0.022911223 -0.050365467 -0.035443146 -0.11367629
0.14601265 0.19607031 0.07899028 0.0074402136 -0.07006148 -0.21238823 -0.040964425 -0.15332918
-0.16119817 -0.041529182 -0.043931335 0.04503846 -0.15828943 0.15420103 -0.1967991 -0.101507396
-0.08098615 0.014740869 0.0908697 -0.055666298 0.0351741 -0.05260937 -0.08445373 -0.02940425
0.045326106 -0.21203788 -0.14895844 0.17088467 0.09616284 -0.0075029233 0.008550341 0.028147042
0.048566118 -0.14607136 -0.057275016 -0.19696543 -0.17195329 -0.042474654 -0.030299319 0.17106037
0.0355537 -0.036845874 -0.007738771 0.11917388 -0.06384599 -0.038735397 -0.045171063 -0.17632744
-0.0285174 -0.20189388 -0.118116535 -0.13954732 0.16302477 -0.19770114 0.20687847 0.07943479
-0.1445778 0.17763089 -0.049454868 -0.18511443 -0.031784926 0.10526215 -0.20876816 -0.017960569
0.08983133 -0.082629256 0.021458099 -0.0865956 -0.14701293 0.16781458 -0.15546927 -0.0007993586
0.07385083 -0.11925741 0.10627677 -0.1815424 0.20851874 0.094697565 -0.028913176 -0.17836003
0.0049360334 0.07505747 -0.11933099 -0.029008355 -0.2175046 -0.2180759 -0.025254823 0.17942092

encoder.convs.1.bias f4 [64]
00000000: ddf7 14bb 34a4 b8ba f3f1 8339 f741 fdba
00000010: d7cb deba d667 e13a b069 09bb 7012 16bb
00000020: 9cc9 dcba 9230 0c3b 7d7f 09bb 83d9 8dba
00000030: 52f3 f2ba 9f0d 093b 88e4 d3ba 10bb 03bb
00000040: f7f0 113b 0678 093b 8426 f23a 5476 0a3b
00000050: 1eac a0b8 a543 083b 0000 0000 041c e3ba
00000060: 6078 03bb d08f eeba d588 863a 8786 093b
00000070: c4e4 093b e89d 02bb 4e20 073b c0b5 083b
00000080: 5c62 2b39 5f77 f2ba 131b 0f3b 77c0 e0ba
00000090: d65a d13a 22f8 5f39 bcc8 0f3b 00a7 1b3b
000000a0: e36c 4a3a f9d0 0b3b 5bc6 08bb ff1e 8e3a
000000b0: 3257 913a 5712 f0ba 3c98 103b e31c 04bb
000000c0: 4d57 023b cd14 033b 71a2 d3ba eb98 08bb
000000d0: 5b8a 013b 8108 9fba 6647 07bb d15b 19bb
000000e0: 691c 0e3b 361c fbba e6c9 133b d195 e03a
000000f0: 7ce7 8738 1c54 ceba 64bb c43a db24 12bb
-0.0022730746 -0.0014087022 0.00025166533 -0.0019322027 -0.0016998005 0.0017197083 -0.0020967536 -0.0022899173
-0.0016844752 0.0021391255 -0.002098053 -0.001082227 -0.001853565 0.002091266 -0.001616613 -0.0020100512
0.002226887 0.002097608 0.0018474613 0.0021127658 -7.661454e-05 0.0020792272 0.0 -0.0017327075
-0.0020060763 -0.0018200818 0.0010264168 0.0020984726 0.0021040896 -0.0019930545 0.002061862 0.0020860285
0.00016344473 -0.001849871 0.0021836206 -0.0017147203 0.0015972506 0.00021359374 0.0021939715 0.0023750663
0.0007721914 0.0021334274 -0.0020870182 0.0010842978 0.0011088608 -0.0018316013 0.0022063395 -0.002015882
0.001988846 0.0020001412 -0.0016146434 -0.00208431 0.0019766304 -0.0012133272 -0.0020641922 -0.0023400674
0.0021684414 -0.0019158188 0.002255076 0.0017134493 6.480419e-05 -0.0015741619 0.001500946 -0.00222998

encoder.convs.1.lin.weight f4 [64, 128]
00000000: 6977 e0bc 2328 c2bd d9c9 90bd b4d3 a7bd
00000010: e528 223e a850 55bc da02 0f3e 096f f9bd
00000020: b8e6 aa3d ba6a 23be cfe6 66bd 75b1 97bd
00000030: 6a05 2bbe 5a02 05be 59e1 eebd 32a7 06bd
00000040: f0c0 78bd e93a 29be 0297 d73c c64f 983d
00000050: 5aab e73c 0187 0a3e 5751 82bc 20ed 103e
00000060: 2b2c 53bc 747e 76bc e7d9 4cbc baa7 8ebd
00000070: 397e 89bd 0585 253d fa63 c1bd 5d0c 713d
00000080: 8fda 12be 3c0b c1bc fbf2 bebc 3931 a6bd
00000090: a778 033e 87d1 14be 5f9a a83d 54d5 23be
000000a0: 497e d23d a35f 2d3e f0cf 1fbd b199 70bc
000000b0: 5f65 f5bb 15f6 cb3d b544 3d3c baee 38bd
000000c0: c3b3 213e 64c8 083e 652c 1cbc 8a6f bcbd
000000d0: 1ff5 d33d 2d27 9cbd 1c57 cdbd 6488 e5bd
000000e0: ad7b 363c cdc1 9ebd 2132 ee3d 0e4c f83d
000000f0: ef2b 9fbd 243f 8bbd 4db9 023e fb6c b6bd
00000100: b9f1 e03d 3eb7 54bc 4156 003e d7ae b43d
00000110: 6c55 03be cbad 03be c790 9a3d 90a1 b4bd
00000120: 87d5 3e3c 1091 033d 9c53 12be 4aab 41bc
00000130: da44 f63d 1d14 833b 09ed e4bd 41e2 1d3e
00000140: 760a 193e 8b3d 243d 4e8b dfbd aadc 9b3d
00000150: ec35 443d 75f6 dabd 4b41 05be 4382 9abd
00000160: 231c 293e 8afe 8a3c 804f 28bb 55e8 a23d
00000170: ff13 d0bd d269 6dbd 56ff e83c ebd3 1d3e
00000180: 0062 4abc 65ad 183d 7ef8 18be 606b 2bbe
00000190: c5c5 0e3d bd54 80bb 1109 0e3e 1f78 1c3d
000001a0: 1841 203e 8e48 13bd 3194 4ebd f491 8dbc
000001b0: e0d4 abbd 43e5 173c 23cc 17be 2955 933c
000001c0: 20c5 45bc 80a4 603d 633b 2d3e 615e 793d
000001d0: 48b0 df3c 2f00 f1bd c478 81bd 0c28 92bd
000001e0: 37fd 18be 2f2e bd3d bffb 2b3e 1d52 ec3d
000001f0: e672 0c3e 68d2 cabd 554b 99bd 0945 6cbd
00000200: b115 a6bd 6546 0dbe 7b62 16be 4741 21bc
00000210: e985 d3bd 04bd 09be 8825 2f3e 5df2 27be
00000220: 2620 69bd a9a8 ec3d 4b5b b6bd 4118 a53d
00000230: ecec 02be 454b 78b9 ed1b 873d 0b05 67bd
00000240: e75d 02be db12 083d 8b47 fdbc 718d 1c3e
00000250: 9509 eabc 955b 0a3e 9a9d 96bd ed07 8abd
00000260: 9570 78ba c215 c83d c894 253e 3a7c ac3d
00000270: 9ada 9fbd 95f3 2e3c e360 f33d f1ef 0e3e
00000280: d67b 003e 2e6b 6e3d 5c92 a6bc 45c5 f43d
00000290: 079d 783d 12f0 1dbe 3ac5 2f3e d0b0 6bbc
000002a0: d1b3 2b3e 0f7f d93d b2a3 1fbc 2e20 1cbe
000002b0: 9ecd 2ebe ed8e b0bd 1dc8 993d 06b3 473c
000002c0: 00a2 993c 0408 15be 0040 ca3d be35 39bd
000002d0: 80f4 c03d efea 11be e251 cf3a 8070 b43d
000002e0: 02db 503d 2d84 35be 8aed 163e 5e31 08be
000002f0: a73f 28be cd15 f8bd 5603 2abe 822d 873d
00000300: 74fa 063e f78f 113e a949 783d a045 42bd
00000310: 04d9 183d 825a 5a3d d5f0 34be 0010 8fba
00000320: 318f 2c3d fd13 113e fae9 d93d b33e 52bd
00000330: c5f7 12bc 5e9b e63d 2766 243e 5270 b9bd
00000340: 1774 333e 79ec 01bd 7da9 a4bd 8096 81ba
00000350: f7e4 0d3e d7ce d1bd a98b 9b3b 9b5e d3bd
00000360: c004 91bb eddb f93d 7e32 b3bd 46b1 a2bd
00000370: 410d 413d e066 a73d d4b2 75bc 3cbb 26bd
00000380: b064 37bc abf2 553d 573d 1f3e 3f27 a03d
00000390: 88fe ea3c 7f72 6a3d 10f7 583d ab68 20bc
000003a0: f35e f6bd 602d aebd 32cb 773d 4e9e 783d
000003b0: 9f28 b8bd a89c cabd 23e4 c93d c349 09bd
000003c0: e281 dc3d 28aa 403d c7ab 073d 7dd6 b1bc
000003d0: ef7e a0bd 6825 373d 413b e5bd 04a7 a2bd
000003e0: 5872 02be 1d71 bcba d0f1 c3bd c387 85bd
000003f0: 21e4 6fbd c674 9f3d 8296 c83d 7de0 f13d
-0.02740069 -0.09480312 -0.070697494 -0.08194676 0.15835913 -0.013019718 0.13965932 -0.121793814
0.08344787 -0.15958682 -0.05637246 -0.07406894 -0.16701284 -0.12989178 -0.116640754 -0.032874294
-0.060730875 -0.16526379 0.026317123 0.074370906 0.028279949 0.13528062 -0.015907926 0.14152956
-0.012888948 -0.015044797 -0.012503124 -0.06965585 -0.06713528 0.04041006 -0.09442897 0.05884968
-0.14341186 -0.023564927 -0.023309221 -0.08114857 0.12838994 -0.14533053 0.08232569 -0.15999347
0.10277993 0.16931014 -0.039016664 -0.01468508 -0.007488891 0.09959046 0.011552026 -0.045149542
0.1579123 0.13357693 -0.009532069 -0.09200962 0.103494875 -0.0762466 -0.100263804 -0.11207655
0.011137885 -0.07751808 0.11630655 0.12123881 -0.077720515 -0.067991525 0.12765999 -0.08907505
0.10983605 -0.0129831415 0.12532903 0.088224106 -0.12825555 -0.12859266 0.07547145 -0.08819878
0.011647589 0.032120764 -0.14289707 -0.011820624 0.12024851 0.0040002004 -0.11178023 0.1541834
0.14945397 0.040097754 -0.10915242 0.07610448 0.047902986 -0.10691539 -0.13013189 -0.07544377
0.1651464 0.016967077 -0.0025682151 0.0795447 -0.10160064 -0.057962246 0.028442066 0.15412872
-0.012352467 0.037274737 -0.14938542 -0.16740179 0.034856576 -0.0039163516 0.13870646 0.038200494
0.15649831 -0.035957865 -0.050434295 -0.01728151 -0.08390212 0.009270969 -0.14823966 0.017984943
-0.012070924 0.05484438 0.16917185 0.060881022 0.027305737 -0.11767613 -0.06321862 -0.071365446
-0.14940344 0.092373244 0.16795252 0.11539099 0.13715705 -0.09903413 -0.074850716 -0.057683025
-0.08109606 -0.13796385 -0.14686005 -0.0098422235 -0.10328276 -0.1345101 0.17104161 -0.16401048
-0.056915425 0.11555607 -0.089041315 0.08061267 -0.12785691 -0.00023679163 0.06597123 -0.056401294
-0.12731133 0.033221107 -0.030917903 0.1528833 -0.028569022 0.13511498 -0.07354279 -0.06739793
-0.0009477225 0.09769775 0.16170037 0.08422132 -0.07805367 0.010678192 0.11883714 0.13958718
0.1254724 0.058207683 -0.020333461 0.11951689 0.060696628 -0.15423611 0.1716508 -0.014385417
0.16767813 0.10619938 -0.009743618 -0.1524665 -0.17070624 -0.08621011 0.07508872 0.012188679
0.018754005 -0.14553839 0.09875488 -0.04521727 0.09421635 -0.14249776 0.001581725 0.0881052
0.050990112 -0.17726202 0.14739051 -0.13300082 -0.16430531 -0.12113533 -0.16602835 0.06600477
0.13181478 0.14215074 0.060617123 -0.04742968 0.037316337 0.05330897 -0.17669995 -0.0010914803
0.042128745 0.14167781 0.106403306 -0.051329326 -0.008970206 0.11260103 0.16054593 -0.090546265
0.17524754 -0.03171966 -0.0804014 -0.0009886771 0.13856874 -0.1024453 0.0047468734 -0.10320779
-0.004425615 0.12200151 -0.08749865 -0.079439685 0.04713178 0.08173919 -0.014996249 -0.040705904
-0.011193439 0.05223338 0.15550743 0.078199856 0.028685823 0.0572381 0.052969992 -0.00979058
-0.12029829 -0.08504748 0.060496517 0.060697846 -0.08992123 -0.09893161 0.09857967 -0.03351761
0.10766961 0.047037274 0.033122804 -0.021708721 -0.07836711 0.044713408 -0.111929424 -0.07942012
-0.12738931 -0.0014376972 -0.095676064 -0.06520035 -0.05856717 0.07785945 0.09794332 0.11810396

encoder.post_mp.0.weight f4 [64, 192]
00000000: 50b9 e93b 5319 62bc 1c03 153d 7770 83bb
00000010: d7d9 0d3d bbe8 d4bc 60fa 02bd c6be 9a3c
00000020: 0392 30bb 0156 77bd 7fc0 533d 9d6c 8cbd
00000030: 9bb6 5e3d 3413 67bd f4ad 74bd ddf2 2e3d
00000040: b0f3 053d 08d0 2e3d c410 0dbd 90c3 4dbc
00000050: 6620 793b f365 d53c b878 fcba 8416 93bd
00000060: 0d49 a6bc 4f93 423d de67 c7bb 9e87 063b
00000070: edd4 033d c303 44bc f411 473d 13af 03bd
00000080: 4f97 e83b 85b6 223c f128 803d 2c12 a1bb
00000090: 86ca 25bd b284 83bc 05a8 cebb b7fd 83bc
000000a0: 27fb 31bc 9b54 96bc cf13 0f3d 80d8 90bd
000000b0: 830c ca3c 6dd3 46bd 8345 8e3d 436a 27ba
000000c0: bc02 123c 0578 5bbd 6d6a 6fbc 257c 393d
000000d0: 16b6 173d f48e 3ebd c037 683d f98d 0bbc
000000e0: 4c02 693d fafc 463b aca7 f5bc fd5a 0f3c
000000f0: 9306 203d 1033 8abd fe09 14bd fd93 493d
00000100: ef9b 963b d2df 1ebd a5a9 f2bb b178 173d
00000110: 4558 0539 ef75 76bd 0a4a 94bd 9efd 7b3d
00000120: 62d9 babc 96b6 63bd 84ef 32bc 5000 e43c
00000130: 7974 593d 128f 3dbd 74e5 1d3d 345e efbc
00000140: b80c 593c 8b11 04bc 807c 5fbd e050 60bc
00000150: c5bd 88bd 8ebe 84bd 1e6b 03bd 806e e5bc
00000160: f8b5 34bd bb7b b83c 2876 4bbc f887 6a3d
00000170: 6431 663d 7ffd 0fbc 50e6 75bc 80cc 5dba
00000180: 6028 2ebb d471 883c 6025 08bc 7062 7b3d
00000190: 5a3e 2d3c b3b0 723c 4f4c 71bd 885e 8fbd
000001a0: ab54 f13a a0c3 3c3d e977 babc d02d 9f3c
000001b0: 4d53 8cbd 692d 313c b343 95bc 7f70 fbbc
000001c0: 2ee3 0cbd a41a e4bb a6c7 143d f419 7d3d
000001d0: 1e84 68bd 2dc4 843c 73d4 8ebd ca6e 9a3c
000001e0: dcb5 463d 6bb5 fb3b b0e2 303d bb30 7abd
000001f0: 80ba 9d3c 7196 1ebd b25f 353c b36b aa3a
00000200: 716d 363d 95c1 853a 3056 fd3c 3def 2d3d
00000210: 4972 87bc 3c83 5cbd 0893 b2bb b945 e23c
00000220: ee48 8bbd df25 2cbd 0e0c 0b3d baa8 50bd
00000230: c5fe 803d f3ac 47bd bdcb 673d 31ab 6bbd
00000240: eb28 8f3b f1f2 85bb eedb d43c f89b f83b
00000250: 9583 793d 3338 8fbc 3a3f 843d ba2a a8bc
00000260: 551b 78bd a700 523d dfbc 533c 0734 853c
00000270: 157a a23c fa6f 2a3d d35b 0d3d 9835 b93c
00000280: d6f2 0e3c 6e73 513b 3641 163d afa2 833d
00000290: 5c61 afbc 860d 86bd a4bd 733c a0e4 103d
000002a0: aef5 55bd cd54 4abd cda3 72bd 5658 acbb
000002b0: c1da 33bd cef2 a83c bf50 083d fdaa 0fbd
000002c0: f812 41bd 529b 8ebd 2bf3 49bd a145 433c
000002d0: 797f 9cbb fda6 e8bc 9326 9cbb 98f0 ecbc
000002e0: 4b56 97bd 156a 6ebd f3fb a8bc ff14 89bd
000002f0: b529 223d 35fd 16bd 2723 4dbd aa2a eabb
00000300: 7692 80bd 51b2 5d3d be4d 2e3d ad40 5a3c
00000310: 98fc 55bd efcc 253d 0b33 68bd 32af 743d
00000320: 0ab1 73bc 42e0 c6bb b864 87bd ccbe b03c
00000330: 04c3 83bc 74d4 30bc fa39 bdbc 5285 e7bc
00000340: b50b 383c b59c a33c e5f1 593d 3b5d 14bc
00000350: f004 263d baed 93bd c274 983c 80a6 9c3b
00000360: a1ae abbc ee7b e73c 3e41 70b9 0dd9 afbb
00000370: 2d5a 863d d8f2 85bd 8b9e 31bd e6ba d6bc
00000380: ff8f 793d 3716 afbc e8c0 523c 187e 4fbc
00000390: 41e9 463d c593 443d 72b6 51bd 718d 083c
000003a0: dbf7 91bd 24dd 07bd 2f27 64bd 7bd2 a3bc
000003b0: 4955 f53a fada bebc d8c9 d5bc de56 cebc
000003c0: 376d 103c 0be2 7abd d28e 673d 8580 00bd
000003d0: 6903 49bb c969 61bd 0a23 87bd 0558 40bd
000003e0: 77b8 6ebd fb41 8dbd ba2f 513d 58a1 923d
000003f0: 7fb4 29bd 8eed 823d 8bd4 2c3c 6709 903d
0.0071326867 -0.013799983 0.03637992 -0.0040112096 0.034631576 -0.02598988 -0.031977057 0.018889796
-0.0026942499 -0.060384754 0.05169725 -0.06856654 0.054373365 -0.056414798 -0.059736207 0.04271208
0.0327031 0.042678863 -0.034439817 -0.012558833 0.0038013696 0.02604959 -0.0019262051 -0.07182029
-0.020298505 0.047503766 -0.00608538 0.0020527611 0.032185484 -0.0119637875 0.048601106 -0.032149386
0.0070981155 0.009931211 0.06257809 -0.0049154963 -0.040476345 -0.016054485 -0.0063066506 -0.016112192
-0.010863102 -0.01835089 0.034931 -0.07072544 0.02466417 -0.048541475 0.06946852 -0.00063863787
0.008911785 -0.053581256 -0.014612776 0.04528441 0.037038885 -0.04652305 0.056693792 -0.008517736
0.056886956 0.0030363188 -0.029987179 0.008749721 0.03906877 -0.06748021 -0.03614234 0.0492134
0.0045962255 -0.03878767 -0.007405477 0.036980335 0.00012716751 -0.060171064 -0.07240684 0.061521165
-0.022808734 -0.05559405 -0.010921363 0.02783218 0.053089593 -0.04627902 0.0385489 -0.029219724
0.013247661 -0.008060823 -0.05456209 -0.013691157 -0.06676821 -0.06481658 -0.032084577 -0.028006792
-0.04411885 0.022519937 -0.012418307 0.057258576 0.056199446 -0.0087884655 -0.015008524 -0.0008460954
-0.0026574358 0.01665584 -0.008309692 0.061373174 0.010573948 0.014812636 -0.058910664 -0.07000452
0.0018412074 0.046085 -0.022762256 0.019431025 -0.06851826 0.010814049 -0.018220758 -0.03069329
-0.034396343 -0.0069611836 0.036323212 0.06179233 -0.05676662 0.016206825 -0.06974115 0.018851656
0.04851328 0.007681539 0.043184936 -0.06108163 0.01925397 -0.03871769 0.011070179 0.0013002068
0.044537965 0.0010204787 0.030924886 0.042464484 -0.016533988 -0.053836092 -0.0054496564 0.027621137
-0.068010196 -0.042028304 0.033947043 -0.05094216 0.062985934 -0.04874892 0.056590784 -0.057536308
0.0043688915 -0.0040877988 0.025983777 0.0075869523 0.060916502 -0.017482853 0.06457372 -0.020528186
-0.06057294 0.051270153 0.012923448 0.01626016 0.019833604 0.041610695 0.0345114 0.022608563
0.008724889 0.003195967 0.036683284 0.06427514 -0.02140873 -0.06545548 0.014876757 0.035374284
-0.05223625 -0.04939728 -0.059238244 -0.005259554 -0.04390979 0.02062359 0.03328013 -0.035075177
-0.04713723 -0.06963219 -0.04930417 0.011918456 -0.004775938 -0.028399939 -0.0047653406 -0.028923318
-0.07389506 -0.058206636 -0.020627951 -0.06693458 0.039590556 -0.03686257 -0.050082352 -0.0071461992
-0.06277935 0.054125134 0.04255461 0.013321084 -0.052242845 0.040478643 -0.056689303 0.05973739
-0.014873752 -0.006069214 -0.066110075 0.021575354 -0.016084202 -0.01079284 -0.023098934 -0.028261814
0.01123326 0.019972185 0.053209204 -0.009055431 0.040532053 -0.07223077 0.018610362 0.0047805905
-0.020957293 0.028257336 -0.00022912488 -0.0053664506 0.065601684 -0.065404594 -0.04336409 -0.026212167
0.06092834 -0.021372898 0.012863375 -0.01266434 0.048562292 0.047992487 -0.051199384 0.0083345035
-0.07127353 -0.03316988 -0.05570143 -0.019997826 0.0018717434 -0.023297776 -0.026097223 -0.025187906
0.008815101 -0.061250728 0.05653269 -0.031372566 -0.0030672199 -0.055032525 -0.0659848 -0.046958942
-0.058281388 -0.068973504 0.051070906 0.0715968 -0.0414319 0.06392966 0.010548721 0.07033043

encoder.post_mp.0.bias f4 [64]
00000000: bb10 7c3d 2c3d e9bc 3e9c 45bd 1a47 833d
00000010: e528 6dbd 3247 65bd 3458 1a3d f7ef 363d
00000020: 14fc 023d 50df 1abc 464c e8bb 916c 62bd
00000030: 0602 c1bc bd29 66bd b10d 8b3d 60da 64ba
00000040: a205 cd38 ca0e b63c f8d1 363c e7cc d4bc
00000050: 1735 d0bc cfe4 91bd 03ad bcbc 4ff2 83bc
00000060: c169 e5bb ac5e 83bb 8795 d13c 9e13 90bd
00000070: dad8 8abd 7e3e 3ebd 009c c93c 30df 503d
00000080: fae5 80bd 83be 06bd 38f1 7fbc 9bf7 bdbc
00000090: 995f 51b9 2a17 dcbc 8eda 1fbd 2e97 1e3c
000000a0: 1667 b2bc 00a4 6b3d 8d72 303d 120a 9ebc
000000b0: e3b3 2fbd 8b06 833d e446 263c aee6 ffbc
000000c0: 806c db3c 98b3 2dbb 8e85 213d 5862 543c
000000d0: b3ab 833d 8e0d f43c 218c f6bc 3fad 62bc
000000e0: fbce 203d 7f0a 39bd 091f 14bd 246b dbbc
000000f0: d5ff 813d 12bc 7d3c 0441 a03c 7230 5dbd
0.061539393 -0.028471552 -0.048244707 0.06410046 -0.05790033 -0.0559761 0.037681773 0.044662442
0.03197868 -0.009452656 -0.0070891706 -0.05527932 -0.023560535 -0.05619215 0.06789721 -0.000873005
9.776211e-05 0.022223849 0.011158459 -0.025976611 -0.02541594 -0.0712372 -0.023031717 -0.016106753
-0.0070011322 -0.0040090885 0.025583996 -0.07034992 -0.067796424 -0.046446316 0.02461052 0.0509941
-0.062938645 -0.03289653 -0.015621476 -0.023189357 -0.00019967406 -0.026866514 -0.03902679 0.009679599
-0.02177767 0.05752945 0.043077994 -0.019291911 -0.042896163 0.06397732 0.010148738 -0.031237926
0.026785135 -0.0026504751 0.03943401 0.0129629 0.064292334 0.02979162 -0.030096116 -0.01383525
0.039259892 -0.045176025 -0.03616241 -0.026784487 0.06347624 0.015486734 0.019562252 -0.05400128

encoder.post_mp.3.weight f4 [64, 64]
00000000: 4127 eebd f493 8ebd 99de 84bd 6074 bc3d
00000010: 8dd1 b73c eb0f d23d 8c2a 97bd e0b0 83bc
00000020: 50a1 86bd 70b3 663d c87f 9bbd ec93 383d
00000030: 3098 193d dc13 e2bd bd07 d8bc d6fe e63c
00000040: 6c7e f83d f04c f9bd 875c aabd d27e ee3d
00000050: fa77 d1bd 16dc fabc 3815 b13d 04c4 933d
00000060: 5292 9b3c c910 303d 1bac 34bd 3d91 9dbd
00000070: 8b77 16bb 4e01 fabd 7a81 b53d 0346 523d
00000080: 5b0e dc3d 3bdd 4cbd 44ac 7bbd cc1c 663c
00000090: 1373 d6bd 9699 b93d 364c 7e3c 7b86 4e3d
000000a0: 0518 a6bd 497b 8f3d 7a40 dabd 2592 cbbd
000000b0: 8c72 acbd 3015 363d 8082 0ebd a3d4 7e3d
000000c0: f925 703c 8218 aabc 1cbf 073d e7b9 62bd
000000d0: 4078 c7bc 8d78 c53d a1a4 e83d 7d06 5a3d
000000e0: 0689 6bbc 0ff0 aabd b7aa 97bb ea1d f4bd
000000f0: 9d1b c83d 6a49 a6bc 85e4 c73c d239 f5bc
00000100: 8e84 0b3d 7e2a 943d 1752 14bd 4e37 b53d
00000110: c34c d2bd 3434 793d bb6b a93d 40c0 813d
00000120: 3c01 a43d 42c1 d6bd 58d8 f9bc d582 953d
00000130: 90bf 873d e400 fabd 2729 24bd 3454 883a
00000140: 742c 98ba 37df ffbc 7c8b d9bd 3959 0e3d
00000150: ffe7 ec3d bd99 9a3c 702f 863d 3910 bdbd
00000160: 44b5 01be 832b adbd e0eb 10bc acf1 e3bd
00000170: 9b79 ef3d 88bb 663c 7d78 3c3d 2137 9bbc
00000180: 1f90 f83d f64a 82bd bee8 5bbd e7de 4f3d
00000190: e768 053c eb1f 44bd 4e42 f9bd 3c49 9d3d
000001a0: 3272 67bd 2458 be3d d9e5 e8bd 6fba 603d
000001b0: 98ec e83d b335 eb3d 2ac1 dabd 2cb6 a4bd
000001c0: 4d2a b13d a802 80bc b92c b93b 42d0 a0b9
000001d0: d887 35bd a096 1c3d cbb8 19bd cda9 9a3d
000001e0: 7515 cebd 09d6 ca3d 864c 1ebc c4d9 fdbc
000001f0: a734 eb3d 2338 573d e56d 983d afd8 d13d
00000200: 6a6f 9e3d 73bc 343d 5f30 d0bc 3c35 b0bb
00000210: b7ab 33bd bb1c bebc 6cb7 ad3d 43e7 00be
00000220: 219f bfbd fd0a 9fbc 17bf 953d 101a 5e3d
00000230: cf48 b43c 9865 fdba 8ce7 ddbd bf65 3ebd
00000240: 4fad cf3d 27f1 113d c6f2 afbc d0a2 c13b
00000250: 1bde de3d 78cd cbbc e65b 9fbc 7cc4 993d
00000260: a2e8 e2bd 181c 1f3d 91ba 933d 773a b33d
00000270: 8858 54bd 923c e5bd bee7 e73d 1c27 f43d
00000280: a0a9 d9bd 5c7c f63d 2c24 9cbd bb53 923d
00000290: d8fe 25bb bde5 f1bc ae50 a43d 3ddd 19bc
000002a0: 64ee aebd 204a cbbd 8139 973d 778c f93c
000002b0: 6f80 93bd 024e 883d 2091 c2bd adaa f03d
000002c0: 1422 ec3c afba bb3d e154 41bd 79da bd3d
000002d0: 7139 633d 2441 c43d c15d a0bd da4d eebd
000002e0: d6fa 6c3d e9ed 923c 66fb 6fbc 1f70 53bd
000002f0: e53b 833d 5381 fa3c 332c 6d3d eb87 983b
00000300: 707d 6f3d 0116 be3d 9ea0 e8bd a3e8 3cbb
00000310: aa69 dabd 496d b23d 97c4 0bbd 9373 fc3c
00000320: ddd9 853d 8e20 82bd d547 a13d 46b0 90bd
00000330: bb11 e23d c9f0 3fbd 371a aebc 71ef d23d
00000340: 66a4 6fbd 24d9 1abd 5319 713d 2430 86bd
00000350: 6775 cc3d c236 4e3d 9983 b93c 5b8d 433c
00000360: 0cb1 c8bd 6c9c bdbc e2d1 0e3d 0444 50bd
00000370: b5ed 61bd 5cc8 c8bb c33f bebd 72f5 443d
00000380: 38c8 cebd 193c b0bd 6da3 743c 6ea5 8dbc
00000390: 724c 9cbd 8681 4d3d d48b dfbd 0700 a33d
000003a0: d23d d93d d660 bd3d 06d4 d03d cf61 66bc
000003b0: 69e7 5f3d 1f8d ddbd e7b5 7b3d c63b abbd
000003c0: 88c7 88bd 6705 d3bd 972b 043b 4702 e23d
000003d0: 3e22 d0bb 517d d13c dcdb acbc 6ead 893c
000003e0: 58f7 ee3d 5f49 65bb 829f 1d3d ee18 573c
000003f0: 73eb 0bbd a54c acbd 894e da3b f8b0 823c
-0.11628581 -0.069618136 -0.0648777 0.09201884 0.022438789 0.10256942 -0.07381162 -0.016075552
-0.06573737 0.05632347 -0.07592732 0.045062944 0.037498653 -0.11038944 -0.026370877 0.028197687
0.12133488 -0.12172878 -0.083184294 0.11645283 -0.10227962 -0.030622523 0.08646625 0.072151214
0.01899067 0.042984758 -0.044109445 -0.07693718 -0.0022959437 -0.1220728 0.08862586 0.0513363
0.107449256 -0.05001567 -0.061443582 0.014044952 -0.104711674 0.09062497 0.0155211 0.05042122
-0.0811005 0.07005937 -0.10656829 -0.09939984 -0.084202856 0.0444538 -0.034792423 0.062214505
0.014657491 -0.02076364 0.03314124 -0.05535307 -0.024349332 0.09642134 0.113595255 0.053228844
-0.014375931 -0.08346569 -0.004628505 -0.11919768 0.09770892 -0.020298678 0.024400959 -0.029934797
0.03406196 0.07234667 -0.0362111 0.08848439 -0.102685474 0.0608408 0.08272501 0.06335497
0.08008048 -0.1048608 -0.030498669 0.07300345 0.066283345 -0.12207201 -0.04007831 0.0010401071
-0.0011609928 -0.031234367 -0.10622308 0.034753058 0.11567687 0.018872136 0.06552017 -0.0923161
-0.12666804 -0.08455565 -0.0088452995 -0.111300796 0.11693116 0.014082797 0.046013344 -0.018947186
0.12136864 -0.06361954 -0.053688757 0.050749686 0.008142686 -0.047882 -0.1217085 0.07679984
-0.05650539 0.09294155 -0.11371965 0.054865297 0.11373252 0.11484852 -0.10681374 -0.08042559
0.08650646 -0.015626267 0.0056510833 -0.00030672742 -0.044319004 0.038229585 -0.037529748 0.07551918
-0.10062686 0.09904105 -0.009661799 -0.030987628 0.11484652 0.05254377 0.07442836 0.10246407
0.07736094 0.04412503 -0.02541369 -0.00537744 -0.043864932 -0.02320706 0.084822506 -0.1258822
-0.09356523 -0.01941442 0.07311838 0.054224074 0.022007374 -0.0019332645 -0.1083518 -0.04648375
0.10140478 0.03563037 -0.021478068 0.0059093013 0.10882207 -0.024878249 -0.019453 0.075081795
-0.110795274 0.03884515 0.07213319 0.08751386 -0.051842242 -0.111931935 0.11323498 0.11921522
-0.106280565 0.120354384 -0.07624087 0.071448766 -0.00253289 -0.029528493 0.08023201 -0.009391126
-0.08541563 -0.099262476 0.07384015 0.030462487 -0.07202231 0.06655504 -0.09500337 0.11751304
0.028824843 0.091664664 -0.047200087 0.09270186 0.055474702 0.09582737 -0.07830382 -0.11635943
0.057856403 0.01793571 -0.01464734 -0.0516206 0.06407908 0.030579245 0.05790348 0.0046548746
0.058469236 0.09281541 -0.1135876 -0.0028825186 -0.10664685 0.08712251 -0.03412303 0.030816829
0.06535695 -0.063538656 0.07875029 -0.070648715 0.11038538 -0.04686049 -0.021252735 0.10299576
-0.058506392 -0.037804738 0.05886204 -0.06552151 0.0998333 0.05034519 0.022645758 0.011935557
-0.09799394 -0.023145877 0.03486813 -0.050846115 -0.055158336 -0.0061274003 -0.09289505 0.048085637
-0.100967824 -0.08605213 0.014931542 -0.017290797 -0.07631768 0.05017235 -0.10915342 0.079589896
0.106074944 0.092469856 0.1019669 -0.014061405 0.05466405 -0.10817932 0.061452772 -0.0836101
-0.066786826 -0.10303765 0.0020167583 0.110355906 -0.0063517382 0.02557245 -0.02110093 0.01680633
0.11668271 -0.003498636 0.038482197 0.013128502 -0.03416009 -0.08413056 0.006662194 0.015953526

encoder.post_mp.3.bias f4 [64]
00000000: 44ef b83d 6dd7 6dbd 4d85 ca3d 9338 f0bd
00000010: 53ba 813c 5cf3 e63d 44d8 c63d 2aad b2bd
00000020: d0e7 183d 5add ce3d 25db 46bd 4433 983d
00000030: 8569 c8bd 42c6 49bd 8d7d eabd ae28 8a3c
00000040: 1ebf ec3c a9e9 bd3d 3c5f 983d 0f73 173d
00000050: b40f 9c3d 4e38 d1bc 809c d43c 3b60 8e3d
00000060: d636 1abd c148 e43d b1b9 393d 07b0 8bbd
00000070: 95af e73d 30c0 093d 61ae a6bd 806e 7b3d
00000080: 3307 8a3c 7571 4abd fbc3 5e3c eefe 9fbd
00000090: 5df8 cfbd 36e0 74bd 6901 ba3d 4625 243d
000000a0: e5d1 5dbd 526e debd e75e d0bd 6a6f 01be
000000b0: 92d4 89bd d5fa cc3d 05af 803d aa63 f7bd
000000c0: 5e46 54bd c33c b3bd c164 a03d d486 21bd
000000d0: 3608 6e3d d1c4 8ebd 2976 113b 4bf8 f33d
000000e0: 8dd8 9bbd c837 00be 779d e83b bea7 563d
000000f0: ae47 fd3d 983f 08bd e60b 183d a315 a7bd
0.09030011 -0.058066774 0.09888706 -0.11729541 0.015835917 0.11276886 0.09709218 -0.08724435
0.03733045 0.10100813 -0.048548836 0.07431653 -0.09785751 -0.04926134 -0.11449728 0.0168651
0.028899726 0.09273083 0.074400395 0.036974963 0.07620183 -0.025539543 0.025953531 0.06951948
-0.037649952 0.11146689 0.045343105 -0.06820684 0.113127865 0.03363055 -0.08138729 0.061384678
0.016849136 -0.049424607 0.01359653 -0.07812296 -0.101547934 -0.059784137 0.090823 0.04007461
-0.05415525 -0.10860886 -0.10174351 -0.12640157 -0.06729998 0.1000878 0.06283382 -0.12079556
-0.05182492 -0.08751824 0.07831717 -0.039435223 0.0581133 -0.069711335 0.0022195673 0.119125925
-0.07609663 -0.12521279 0.0070988494 0.052406065 0.123671874 -0.033263773 0.037120722 -0.08158424

encoder.post_mp.5.weight f4 [256, 64]
00000000: 631e 433d ffe0 55bd 178f 9cbd 0bce 4abd
00000010: 767d d0bd b3ef c43d e3d7 82bc 4594 0abd
00000020: b0b1 c93a 67eb acbc ab32 953d 746b a7bd
00000030: 3139 b8bd ac3d 5f3c 21b6 bbbc 9edf b53d
00000040: db43 36bc a9ad b93d fa3a 4cbd 6110 71bd
00000050: 7386 22bb a06e 1fbd 6006 f6bd d830 86bc
00000060: e7bd b7bd 7fb0 68bd 77de e4bd 51ba 933d
00000070: 1667 f9bc 17f7 31bc cd5f d3bd 4c57 3fbd
00000080: ec49 cebd 65e6 69bd 9f71 d5bd a1a6 2e3b
00000090: c0da c7bc c6ba 5cbd f8cf cebc 4bc2 acbd
000000a0: bb14 ed3d c011 f7bc 7758 963b dd59 2cbd
000000b0: 68be 32bd 587a ac3d ebc1 383c 8d5b 88bd
000000c0: 085c 56bc 0fa8 693d de23 a2bc d829 93bc
000000d0: 02b6 2dbd fbdb 3cbd bd39 77bd 37a8 9b3d
000000e0: 630c 333d 411e 133d 976c 943d adc1 1cb9
000000f0: b181 fabc 8289 373d 9a4d e23b 05a3 f53d
00000100: 9926 d6bd c4ad ca3d 3469 16bc 4ca8 dbbb
00000110: e9d8 3a3c 97fa ae3c 8853 1db8 1b77 983d
00000120: 2922 f73c 3447 80bd f8fd 9cbc 8350 823d
00000130: e7ed f0bd ed4a dd3d 2a8e 4b3d 0af5 ef3d
00000140: e2b6 d0bd 1f3d 953c fa04 cc3d 2dee ed3c
00000150: 5ae5 75bd f74c e2bd 625c 313d d4ce b73d
00000160: 839a 933d a17e a73c fb45 e53d 9d6b 673d
00000170: 6720 5c3d ec1c 133d 5530 a1bd 6ba8 943c
00000180: ee9d 6abd 90d6 913d 06a3 bcba 7b15 7bbd
00000190: 6cf5 bfbd d95c ac3d 77c2 063d fc69 2cbd
000001a0: 2879 bc3d eb0d 133c 161b dcbd ff52 f33d
000001b0: 852f 893d b837 e3bd 4a30 42bd b787 babd
000001c0: b1cd d63d 74d9 1ebd 8e04 e03d 57c8 27bc
000001d0: de5f f13d 62a1 6c3d 532f f33d f631 b13d
000001e0: 4e2d e0bd c435 4e3d a3bc 4abd b825 d43d
000001f0: 141f bdbd 9796 d8bd 09f2 3fbd c854 2dbd
00000200: a237 413d db80 2ebd 2d53 003d 31a1 f33d
00000210: 13b3 d73c f031 e13d f727 9ebd adea 1a3d
00000220: 29de babd 6d49 473d 5792 cb3d 6816 fdbd
00000230: 2254 8abd f6a9 9dbc 178d 953d 07c6 96bd
00000240: 3f9a 83bd 1a5d 88bd 82ed 443b 5178 da3b
00000250: ca08 df3c 5382 013d e4b6 80bd 0c59 21bd
00000260: 6e42 b1bd 9e71 4fbd f573 e7bd e098 20bd
00000270: 3c98 df3d 3f37 e13d ac32 d2bd 3171 383d
00000280: bee0 f1bd f417 f43d e623 9d3d 96dc c6bc
00000290: 0b2b 57bd b634 143d b8d3 a2bd 9f3e d73d
000002a0: 1a55 9c3c 9ae2 bb3c 0fe9 e4bd a76d bfbd
000002b0: 7e71 fdbc 3fef 1d3d 4522 a53d 6369 ab3d
000002c0: 83a8 da3d d2bd 863c d78c 3a3d 6118 8c3d
000002d0: e57d 233d 261b bfbd bc98 363d 4991 ef3c
000002e0: 671c 6ebd c90d 713c 2d72 eb3c 3c7a 90bd
000002f0: 83d8 6fbc 6d18 cb3c 8fb1 313d d0a6 473d
00000300: 9e24 96bd c92d f43d a497 6bbc 3160 90bd
00000310: 71ca aa3c 14b2 b13d 41c6 fabd 640e e03c
00000320: 4174 f03d f84d d8ba 7020 a93d 6845 9dbd
00000330: 9d7c 023e f159 4c3d 6ee4 e33d b66f 013e
00000340: 9da8 d3bc 71d2 bebd 82f1 a83c 0290 ddbd
00000350: e006 16bd b76d 913d 2940 40bd 351c 40bd
00000360: 5f2b 81bd b4d5 41bd daa9 9f3d d629 33bd
00000370: b862 e13c 3694 533c a198 cebd 9f31 a1bc
00000380: 92ef fb3d 69e7 a63d 440d d5bb c8d3 943d
00000390: 3257 e73d 2126 1cbb 4130 efbc eb53 5e3d
000003a0: 4a6d c9bc 85d5 283d 6248 aabc 576e 4b3d
000003b0: 6fc5 a5bd d180 da3d 204e c1bd 855a 9a3d
000003c0: f678 1c3c 47a4 ec3d 5e9f c9bd 4899 dc3d
000003d0: 7eca 5cbd 2e8b 24bd 90ef 9bbd b4d7 c9bd
000003e0: 056e 98bd 0c45 ea3d 80e2 623d 3824 39bd
000003f0: bbd8 e4bd aa86 dcbd 7ea7 e3bd 8854 b33c
0.0476364 -0.052216526 -0.0764448 -0.049512904 -0.1018018 0.096160315 -0.015972083 -0.033832807
0.0015388038 -0.021108342 0.07285055 -0.08174792 -0.089952834 0.013625544 -0.022913994 0.08880542
-0.011124576 0.09066326 -0.049860932 -0.05885351 -0.0024799376 -0.03892386 -0.12012935 -0.016380712
-0.08971768 -0.056808945 -0.11175244 0.072132714 -0.030444663 -0.0108621335 -0.10321007 -0.046714112
-0.10072693 -0.057104487 -0.10422062 0.0026649612 -0.0243963 -0.05388906 -0.025245652 -0.08435496
0.1157622 -0.030159831 0.0045881825 -0.042077888 -0.043638617 0.08421773 0.011276702 -0.06658087
-0.013083465 0.05704504 -0.019792493 -0.017964289 -0.042409904 -0.046108227 -0.060357798 0.07600444
0.043712985 0.035917524 0.07247274 -0.00014949469 -0.03057942 0.044808872 0.0069062235 0.11993984
-0.10456581 0.098964244 -0.009180356 -0.006703412 0.0114042545 0.021359725 -3.750951e-05 0.074445926
0.030167656 -0.06263581 -0.01916407 0.06363013 -0.11764126 0.108053066 0.049696125 0.11716659
-0.10191132 0.018217621 0.09961887 0.029044235 -0.06003318 -0.11049836 0.043300994 0.08974996
0.07207205 0.020446124 0.11194988 0.056499112 0.05374184 0.035916254 -0.07870547 0.018146714
-0.05727952 0.07121003 -0.0014391846 -0.061299782 -0.093729824 0.08416147 0.0329003 -0.042093262
0.09202796 0.008975486 -0.10747354 0.118810646 0.06698517 -0.11094612 -0.047409333 -0.09107917
0.10488451 -0.0387816 0.10938369 -0.010240636 0.11785863 0.057771094 0.11874261 0.086521074
-0.10946141 0.050344244 -0.049496304 0.10358757 -0.09234443 -0.10575598 -0.046861682 -0.04231718
0.047172196 -0.042603355 0.031329323 0.11895979 0.026330506 0.10995853 -0.077224664 0.03782146
-0.09124405 0.04865401 0.099400215 -0.12357789 -0.06754328 -0.019246083 0.073023014 -0.073619895
-0.064259045 -0.06658383 0.0030048792 0.006667175 0.02722587 0.031618427 -0.062848836 -0.039391562
-0.086552486 -0.050645463 -0.11301414 -0.039208293 0.10917708 0.109968655 -0.10263571 0.045029823
-0.11810444 0.11918631 0.07672863 -0.024275105 -0.052531283 0.03618308 -0.079505384 0.10509991
0.019083548 0.0229352 -0.11177265 -0.093470864 -0.030937906 0.03855824 0.08063177 0.0836971
0.10676672 0.016447935 0.04554447 0.068405874 0.039914984 -0.0933135 0.044579253 0.029244082
-0.058132555 0.014712759 0.028740967 -0.07054564 -0.014639023 0.02479192 0.043382224 0.04874307
-0.07331203 0.11922795 -0.014379416 -0.07049597 0.020848485 0.08676544 -0.12244845 0.027350612
0.11740924 -0.0016502729 0.0825814 -0.07679254 0.12742849 0.049890462 0.11127554 0.1264027
-0.025837237 -0.09317482 0.020622972 -0.10818483 -0.03662765 0.071010046 -0.046936188 -0.0469019
-0.063071005 -0.047322944 0.077960685 -0.04374107 0.027512893 0.012913754 -0.100877054 -0.019676981
0.12301554 0.08149607 -0.0065018255 0.072669566 0.11295928 -0.0023826438 -0.029197814 0.05427925
-0.024588246 0.041219253 -0.020786468 0.049665775 -0.08094298 0.10669101 -0.09438729 0.075367965
0.009550324 0.11554771 -0.0984485 0.107714236 -0.05390405 -0.040171795 -0.07614052 -0.09855595
-0.074428596 0.11438951 0.05539179 -0.045200557 -0.111741506 -0.10767873 -0.11115931 0.021890894
