amazon/20230717-174308/commm.pt (torch, 253910 bytes, 15 tensors)

encoder.learnable_skip f4 [2, 2]
000000 ae 98 7f 3f 00 00 80 3f ae 91 7f 3f 1a 9a 7f 3f
       0.99842346 1.0 0.99831665 0.99844515

encoder.pre_mp.0.weight f4 [64, 5]
000000 df a9 a9 bb 23 a7 73 3e 40 8c bb be 13 9b a7 be
       -0.005177721 0.23794226 -0.3663044 -0.327355
000010 bd 92 2e be 0e 7b f3 3d 89 04 1a bc 91 60 b6 3e
       -0.17048164 0.11888705 -0.009400495 0.3562055
000020 00 b9 1b bd 0b b3 f5 3d 24 48 0a be 4c a6 b5 bd
       -0.038018227 0.1199704 -0.13504082 -0.08869609
000030 7d 0a da be 37 eb 96 be 52 54 3b be 44 74 7f 3c
       -0.42586127 -0.2947633 -0.18293884 0.015591685
000040 5a e3 34 3e 95 69 88 3e 08 39 9c be ae 62 49 be
       0.17664853 0.26643053 -0.3051226 -0.1966655
000050 e5 c5 27 3e 97 cb be 3e 67 71 be bd 8b de aa 3e
       0.16384085 0.37264702 -0.092989735 0.33372912
000060 eb 87 95 bd 1d f8 3c 3d d2 de ce 3e fb 75 d4 be
       -0.07301315 0.046135057 0.40404373 -0.41496262
000070 77 25 90 be cc 0e e8 bd f0 48 34 be 4d f0 c4 3e
       -0.28153583 -0.11330947 -0.17605948 0.38464585
000080 0d 88 93 be c5 09 51 be 42 16 9f be f3 1d d7 be
       -0.28814736 -0.20413883 -0.3107167 -0.42015037
000090 fe 10 86 be f8 1b c5 3e c7 31 4d 3e bb a1 5e 3e
       -0.2618484 0.384979 0.2003852 0.21741383
0000a0 1b 8f b2 3c cd 90 6c be 3a 64 9e 3d 64 ef d4 be
       0.021796754 -0.23102112 0.077339604 -0.4158889
0000b0 ac 97 a4 be 3d 2b 6a be 3a 94 91 3e 85 51 85 3e
       -0.32146966 -0.22868057 0.284334 0.26038757
0000c0 fe f4 4c be 15 17 93 bc 76 11 92 3e 8d 5d e3 3e
       -0.20015332 -0.017955342 0.28528947 0.4440731
0000d0 b5 36 34 3e 4e f4 70 3d 59 ba 98 3e 76 af 87 be
       0.17598994 0.058826737 0.29829672 -0.26501054
0000e0 85 0f a7 3d e3 96 b0 be 9e c3 9d be a4 b2 6a be
       0.08157257 -0.34490117 -0.30813307 -0.22919708
0000f0 55 e3 50 3e 7b ff 39 3e a7 5c 88 be 24 e5 08 3e
       0.2039922 0.18163864 -0.26633188 0.1336866
000100 53 f3 79 3e f1 f1 5f bd fd ca 9b 3c 9a 60 d0 3d
       0.24409227 -0.054674093 0.01901769 0.10174675
000110 49 16 8d 3e d1 e5 da 3e ce bd af be ec ab 25 be
       0.27556065 0.4275346 -0.34324497 -0.16178864
000120 ba 80 32 3e 5f 3e bd 3e ae 8b c6 3e 30 2d c9 3e
       0.17431918 0.36961648 0.38778442 0.39292288
000130 9b 26 b2 3d c9 4a c6 be f1 4b 2f 3d 01 6b 8e be
       0.0869877 -0.38728932 0.042797033 -0.27816013
000140 6a eb d4 be 4a 26 cb 3e 3e 9e ae 3e 35 d9 e3 be
       -0.41585857 0.3967765 0.34105104 -0.44501653
000150 ba 97 ad 3d ae 6f 96 bd b6 c7 92 bd ca 65 53 be
       0.08476205 -0.0734552 -0.07166998 -0.20644298
000160 96 57 2e 3e bb 80 88 be e0 9b 29 3e de 48 69 3e
       0.17025599 -0.26660714 0.16563368 0.22781703
000170 07 1b a3 3e 02 a0 29 3e db 6d e3 be f7 64 93 be
       0.31856558 0.16564944 -0.4441975 -0.28787968
000180 c3 ce 66 3e 83 6e be 3d 24 ed b2 be 04 27 84 be
       0.22539811 0.09298422 -0.3494655 -0.25811017
000190 a8 c0 d7 3e 51 c7 9a 3e 21 45 46 be 25 48 e3 bd
       0.42139173 0.3023019 -0.19362308 -0.11097745
0001a0 5a 5e d9 be 36 25 ca bb 4b 76 ab be 46 84 b1 be
       -0.42454797 -0.0061689867 -0.33488688 -0.3467123
0001b0 26 19 d8 bc 4e f1 85 3d 7a a9 39 be d4 d5 88 3e
       -0.02637918 0.06540166 -0.18131056 0.26725638
0001c0 2f 37 8c be a1 e2 ce 3e ac 0a 9c 3e 0d a7 c0 be
       -0.27385852 0.4040728 0.30476892 -0.3762745
0001d0 20 e4 e1 bd a3 73 9b 3c bb 2a 83 3d 89 c5 d6 3d
       -0.110298395 0.018976038 0.064046346 0.104868956
0001e0 af 6c 35 3e dc 71 ea 3c f4 2c 61 be 81 fc 56 3e
       0.17717241 0.028618746 -0.21989805 0.2099476
0001f0 b0 80 dc be bd fa 86 be 16 98 e6 bd 80 20 5d be
       -0.4306693 -0.26363173 -0.11259477 -0.21594429
000200 ff 37 1e be 11 b0 ba be 6c 59 c2 bd 08 b2 c5 3d
       -0.15451048 -0.36462453 -0.09489712 0.096530974
000210 9f a5 94 be b5 aa b3 bc 6e 6f a4 3e 9d af 33 bd
       -0.2903261 -0.021931985 0.32116264 -0.04386865
000220 dd 1a 6b 3c 6f ca 24 bd 87 1e b6 3d 9b c4 90 3e
       0.014349666 -0.04023212 0.088925414 0.28274998
000230 22 f6 d9 3e a0 7a 92 3e 45 8c d8 3e 7c 4a 0b bd
       0.42570597 0.2860918 0.42294517 -0.03400658
000240 f3 87 ce be 7f 31 57 be 11 d6 9c 3e 4f b6 a0 bb
       -0.40338096 -0.21014975 0.3063207 -0.0049045454
000250 b8 ab 65 be 23 7e b0 be 14 c2 d6 be 97 81 c1 be
       -0.22428787 -0.34471235 -0.41944945 -0.37794182
000260 2a 1e b8 bd 85 f2 7b 3e 7e 67 78 3e 29 e8 db be
       -0.08990128 0.24604233 0.24258229 -0.42950562
000270 c3 9a 8f 3e d5 35 b3 be c5 69 c1 bd d7 a3 39 be
       0.2804776 -0.35002008 -0.09444002 -0.18128906
000280 7e 82 b3 bd c7 93 b6 bd 3c c8 cc be df 00 c5 be
       -0.08765124 -0.08914905 -0.39996517 -0.38477227
000290 ae 8f 8c bd 46 e3 fc 3b 1d 17 4e be 86 e5 2a 3e
       -0.06863342 0.007717523 -0.20126005 0.16689119
0002a0 dc dc ce be 37 ef 01 bd e4 91 c8 3e 08 81 3c be
       -0.40402877 -0.031722274 0.39173806 -0.18408597
0002b0 10 6b cf 3e 8b 1e 27 3e 69 fe cd be 18 77 91 3e
       0.4051137 0.16320245 -0.40233162 0.28411174
0002c0 f1 5b 4e bd ea f2 4d be 07 5e b6 3e 7d c8 b9 be
       -0.05038065 -0.20112196 0.35618612 -0.36285773
0002d0 93 83 4c 3d 7b c1 bb bd e4 80 a2 3e ca 97 fb 3d
       0.049930166 -0.09167763 0.3173896 0.12284811
0002e0 47 06 5a 3e 3a 64 23 3e 56 fd d8 bd d2 a9 c3 bd
       0.21291457 0.15956202 -0.10595195 -0.09553875
0002f0 23 73 bd be df 9e 76 3e 29 e1 b4 3e 99 c6 9b 3e
       -0.37001905 0.24084042 0.35328034 0.30424955
000300 4c 99 a0 be 6e 1a b2 3c e1 7e a0 be 04 1f 7a be
       -0.31366956 0.021741118 -0.313468 -0.24425894
000310 44 62 84 be d1 64 1a 3e 02 83 89 be 8b 93 41 bc
       -0.2585622 0.15077521 -0.26857764 -0.011814962
000320 95 5f 9b 3c 01 d5 93 3e 3d 2d ad be 0c 14 9d be
       0.018966476 0.28873447 -0.33823577 -0.30679357
000330 89 01 85 be 98 34 a1 3e 96 af 22 be b0 48 c0 3e
       -0.25977734 0.31485438 -0.15887293 0.37555456
000340 e2 e7 23 3e 53 2c 61 3d 59 05 ab bb ea cd b8 bd
       0.16006425 0.05497391 -0.0052191433 -0.0902365
000350 eb 85 6b 3d 34 7a ce bd 45 69 ec ba c6 09 72 3d
       0.05750076 -0.10081902 -0.0018036744 0.059091352
000360 fa fb b1 be 6e d9 6f be 61 3a b9 3e a0 8f b9 be
       -0.34762555 -0.23422787 0.36177352 -0.3624239
000370 c1 0d 0c bd e7 5f e1 3e 12 c4 27 3e cc 3b 75 3c
       -0.034192804 0.4401848 0.16383389 0.01496787
000380 5d 42 c5 be 2d 35 64 3e 78 cf a2 be 9a 51 03 be
       -0.38527194 0.2228591 -0.3179891 -0.12824097
000390 32 f1 1a be 47 3a 8a bd 3e f8 90 3b 22 d1 bd 3e
       -0.15131071 -0.06749397 0.004424124 0.37073618
0003a0 a1 59 5d 3d 4c 43 cc 3e ab 2b 8b 3e 97 a5 91 be
       0.054040555 0.39895093 0.27181754 -0.28446648
0003b0 1b bb 4b 3e 31 06 a1 be 99 70 40 be 80 58 08 3e
       0.19895594 -0.31450036 -0.18792953 0.1331501
0003c0 ad 7b 15 3e 42 f6 aa 3e 69 e6 11 be 26 7a 15 3b
       0.1459796 0.33391005 -0.14248051 0.0022808402
0003d0 10 53 6d 3e cf 57 de be 91 9e a4 3e b3 8b bc be
       0.23176217 -0.43426368 0.32152227 -0.36825332
0003e0 7b 9c fc 3b d4 8c 98 bd 94 5b 73 be f1 2a 69 3d
       0.0077090836 -0.07448736 -0.23765403 0.056925718
0003f0 f7 51 be 3e bd fa 03 be 7c fb 86 be e2 d0 27 be
       0.3717191 -0.12888618 -0.26363742 -0.16388276

encoder.pre_mp.0.bias f4 [64]
000000 c5 db 20 3d 47 b3 67 3d 92 ac b4 be 7b e5 14 3d
       0.03927209 0.056567457 -0.3528791 0.036351662
000010 ea c6 9d 3e 3f f9 ce 3e 1c 7e 87 3e 4e ce 75 3d
       0.30815822 0.40424535 0.264634 0.0600112
000020 4a b5 57 3e 09 c2 60 be b9 da bc be 8f 08 c4 be
       0.2106525 -0.21949019 -0.36885622 -0.3828778
000030 b8 8c e3 3e e6 6f 90 3e 3f 2b 9f be ea 91 34 3e
       0.44443297 0.28210372 -0.31087682 0.17633787
000040 c4 25 ac 3e e8 e4 e3 3e aa 51 c7 3e b4 30 b0 3e
       0.33622563 0.4451058 0.38929492 0.34412158
000050 e4 c8 d4 bd 25 ae 22 be b5 08 bb 3e d5 96 7f 3e
       -0.10389879 -0.15886743 0.3653008 0.24959882
000060 f1 b6 8a be c4 f5 cc 3e a3 90 5c 3e 09 68 77 3e
       -0.27092698 0.40031254 0.2153955 0.2416078
000070 cc 97 90 be 1f 86 01 3e b3 7d 1f be 86 f1 b1 3e
       -0.28240812 0.1264882 -0.15575294 0.3475458
000080 66 c2 a1 bd d5 35 30 3e 26 2e a6 3d 49 73 41 3e
       -0.07898407 0.17208035 0.08114271 0.18891634
000090 1e 9f 1d be 4d 8f 5d 3e 58 07 9f be c8 d0 ca 3d
       -0.1539273 0.21636696 -0.3106029 0.09903103
0000a0 68 25 9b be 6a de e2 be 2d dd b6 be 45 b1 b3 3e
       -0.30301976 -0.44310313 -0.3571562 0.35096183
0000b0 bd 02 7a 3e 10 df d5 3e d0 aa b6 3e a2 7f cb be
       0.24415107 0.41771746 0.35677195 -0.39745814
0000c0 93 93 9b be b4 40 90 bd 43 98 93 be 28 19 9e 3e
       -0.30386028 -0.07043591 -0.28827104 0.30878568
0000d0 82 fe ab be f9 e5 5e be 07 6a dc be fd 0e 81 be
       -0.33592612 -0.21767415 -0.43049642 -0.25206748
0000e0 e2 7e bb 3e 07 89 ba 3e 15 d9 a4 3e 26 ed af 3e
       0.3662024 0.3643267 0.3219687 0.34360617
0000f0 28 b6 cb 3e c7 ab ec bd 47 26 4b 3e a4 87 cb 3e
       0.39787412 -0.115562014 0.1983882 0.39751923

encoder.convs.0.bias f4 [64]
000000 e7 2d 05 bb 62 ec 97 3a 40 f5 02 3b 9b 85 be ba
       -0.002032155 0.0011590833 0.0019982606 -0.0014535667
000010 99 91 00 3b 38 d9 b2 b9 e7 4a 0e 3b ad 26 0c 3b
       0.0019618033 -0.00034112646 0.0021712126 0.0021385357
000020 96 7c ff 3a 52 bd 01 bb f2 cc ed ba d9 c9 fe ba
       0.0019492086 -0.0019796682 -0.0018142744 -0.0019438817
000030 66 50 88 b9 75 ff 47 ba de e8 04 bb 4d 85 df ba
       -0.00025999843 -0.00076293136 -0.0020280401 -0.0017053277
000040 f3 52 1a bb 9a 99 ee ba 5a 91 14 3b 0c 85 e2 ba
       -0.0023547977 -0.0018203736 0.0022669644 -0.0017282083
000050 2e 52 ee ba 1c a7 e1 ba 64 96 0e bb 7d 19 0f bb
       -0.001818245 -0.001721594 -0.002175712 -0.002183526
000060 e8 12 bc 3a e7 98 15 bb a0 bc f0 3a 77 58 02 bb
       0.0014348896 -0.0022826733 0.0018366762 -0.0019889155
000070 00 00 00 00 58 d2 0c 3b ff f0 d5 3a 64 71 d0 ba
       0.0 0.002148768 0.0016322433 -0.0015902934
000080 ee 28 ca 3a aa be 10 bb 64 63 ee ba 18 b0 20 bb
       0.0015423575 -0.00220863 -0.001818758 -0.0024519023
000090 98 7f d2 ba e6 e2 f0 3a 54 36 f9 3a 4f c0 97 3a
       -0.0016059754 0.0018378168 0.0019013383 0.0011577698
0000a0 5f 26 24 3b a2 a4 0b 3b 6b fa c9 ba 11 c2 ab ba
       0.0025047285 0.0021307846 -0.0015409713 -0.0013104101
0000b0 e8 28 95 3a 00 d9 e1 ba ae 69 ee 3a 23 aa c0 39
       0.0011379989 -0.0017230809 0.0018189454 0.00036747855
0000c0 6e 65 cb ba ee fe ff 3a 70 93 0d bb 97 99 01 3b
       -0.0015517899 0.0019530931 -0.0021602772 0.0019775385
0000d0 d8 c3 0c 3b 4f df 0a bb 2a 1f f7 3a a4 69 17 bb
       0.0021479037 -0.0021190231 0.0018853892 -0.0023103738
0000e0 6b 05 50 3a ff 00 d0 ba 50 73 d6 3a 16 66 b9 3a
       0.00079353777 -0.0015869437 0.001636127 0.0014144804
0000f0 78 de 02 bb d3 9c c3 3a e2 c6 a8 ba d7 7f f3 ba
       -0.0019969027 0.0014924057 -0.0012876655 -0.0018577528

encoder.convs.0.lin.weight f4 [64, 64]
000000 fa fd a6 3b 23 01 34 be ea 2f ff bd 15 8b af bd
       0.0050961943 -0.17578559 -0.12460311 -0.0857145
000010 05 4f ad 3c 20 aa a9 3d c9 d7 24 bd e5 eb b1 bd
       0.021155844 0.08284402 -0.04024485 -0.086875714
000020 a7 40 c2 3d ea 7c 55 be b0 d1 1c 3e 23 19 c0 bc
       0.09484988 -0.20848432 0.15314364 -0.023449486
000030 bf 3c 18 3e 2a d2 25 3e 35 36 bd 3c c4 c8 8c 3d
       0.14866923 0.16193452 0.023097137 0.068742305
000040 69 09 ff bd 64 be 1c 3e a4 60 ff 3d 1a 76 11 bd
       -0.12452967 0.15307003 0.124696046 -0.03551302
000050 4d ec af 3d 07 b9 29 bc 2d 59 2b 3e 67 9f b2 3d
       0.08589993 -0.010359055 0.16733237 0.0872181
000060 cc 7b 23 3e 0f f4 4a be 49 f2 55 3e 5a 7e a1 3d
       0.15965194 -0.19819663 0.20893206 0.07885428
000070 0a aa db 3d c6 55 48 3d 7b 70 11 3e 4d a5 4f 3e
       0.10725792 0.048909925 0.14203064 0.20277901
000080 32 a7 8b bc ea 9e 37 be 29 bb 49 3e c6 29 43 bd
       -0.017047498 -0.17931715 0.19700302 -0.04764726
000090 97 d3 d6 bd 7b 77 06 3e a7 13 fb 3d 02 80 dd 3c
       -0.10489576 0.13131516 0.12259608 0.027038578
0000a0 fa 48 43 bc 9f 73 22 bd 8d 55 4d 3e 06 fa 04 3e
       -0.011919254 -0.039661046 0.20052166 0.12986001
0000b0 06 18 02 3e 41 49 0b 3e 88 97 eb bd f3 e5 40 3d
       0.12704477 0.13602163 -0.11503512 0.047094297
0000c0 70 b2 3d be e1 67 02 3e 1e b7 59 be 7a a1 5f be
       -0.185251 0.12734939 -0.2126126 -0.21838942
0000d0 c0 3d 5a be 76 c5 08 3e 13 a3 c7 3c a1 2b 1d 3b
       -0.21312618 0.13356575 0.024369752 0.0023982304
0000e0 36 fb 04 3d 4e f4 ab bd e1 cd 8a bd 0c 63 17 be
       0.032466136 -0.08396207 -0.067775495 -0.14783877
0000f0 09 e8 60 bd e2 09 08 be 8f 52 77 3b 6f 36 2c 3e
       -0.054908786 -0.1328502 0.0037738418 0.1681764
000100 f1 6e 38 be 81 5f dc 3d f9 10 26 be 5c 06 ba bd
       -0.18011071 0.107604034 -0.16217412 -0.09083244
000110 c7 25 32 3d 57 0e 14 3d 50 ab 34 3e d1 71 89 3a
       0.04349306 0.036146488 0.17643476 0.001048619
000120 0f 2e ab bd 42 c4 b9 bd a4 2b f4 3b 3a 67 27 be
       -0.08358394 -0.09070636 0.0074514914 -0.16347972
000130 a0 a3 2c be 1e 63 bb bd a9 eb da 3b 42 df 16 be
       -0.16859293 -0.091497645 0.006680925 -0.14733604
000140 ce b6 fa bd 48 8d 1d 3e e5 0f 4e 3e 01 24 8d bd
       -0.122418985 0.15385926 0.20123251 -0.06891633
000150 bc 5d 3f be 9b 19 ac bd 1a 4f b5 3d 03 3f 92 3d
       -0.186881 -0.08403321 0.08852978 0.07140925
000160 1e cb 8b bd 25 65 44 be 0e e8 82 bd 3d 9b 41 bd
       -0.06825851 -0.19179209 -0.06391917 -0.047267187
000170 aa f4 fc 3d 48 2c de bd 34 33 06 3e bd f8 ec 3c
       0.123513535 -0.1084829 0.1310547 0.028927201
000180 26 43 19 bd 9e b5 46 be 78 08 5c 3e b6 9d 22 bd
       -0.037417553 -0.19405219 0.21487606 -0.039701186
000190 b9 a4 0c 3e bd 6d e7 bd 67 10 59 be f4 ce 31 be
       0.13734712 -0.11300228 -0.21197663 -0.17364103
0001a0 2e 90 e5 bd 39 fb 8a bd 0b fa 01 bd 56 17 38 3e
       -0.11209141 -0.06786198 -0.0317326 0.17977652
0001b0 50 86 4d be 71 6b db 3d 3c b7 3b 3e 32 f1 84 39
       -0.20070767 0.10713852 0.18331617 0.00025356706
0001c0 f7 6e 0b be 66 f5 bd 3b 9c 9d 4d 3d 92 0f c2 3d
       -0.13616548 0.005797076 0.050199136 0.09475626
0001d0 7c 7e 84 bd 7e e0 95 bd 35 86 d3 bd 82 98 57 be
       -0.064694375 -0.07318209 -0.10328332 -0.21054271
0001e0 8c 16 9e 3d 30 6e 26 be e9 a1 d2 bd ec 0c 56 bb
       0.07719144 -0.1625297 -0.10284788 -0.003266151
0001f0 02 1d 2c 3e d3 43 46 3e e8 15 20 be bc 73 41 3e
       0.1680794 0.1936181 -0.15633357 0.18891805
000200 b8 d2 48 3e b7 ce 30 3e 9f 1b aa 3c 34 34 34 3e
       0.19611633 0.17266355 0.020765124 0.17598039
000210 c5 51 db 3d 48 ec 1c be 3f 59 e5 bd 06 57 f4 3a
       0.10708956 -0.15324509 -0.11198663 0.0018641658
000220 2c f2 1a be 69 3e 96 bd e9 96 30 3e fe ef d1 3d
       -0.15131444 -0.073361225 0.17245068 0.10250853
000230 c8 17 43 3e a5 0a 18 ba 81 71 e6 bd 81 ef 14 3e
       0.1905204 -0.0005799926 -0.11252118 0.14544488
000240 e9 ce 92 3c 5f da 1d 3d e5 cd b7 bd 49 67 ba 3d
       0.017920928 0.038538333 -0.08974818 0.09101731
000250 b3 77 21 be 8a 26 31 3e a9 2b 43 3e 60 c4 a3 3d
       -0.15768318 0.17299858 0.19059624 0.0799644
000260 c3 c6 2b 3e 38 ba 08 3e fc 3f a5 bd d8 37 3f be
       0.1677504 0.13352287 -0.08068845 -0.18673646
000270 fe c6 d8 3c d1 62 0d 3e 07 a3 c6 bc 91 87 a6 3c
       0.026462074 0.13807227 -0.02424766 0.020328315
000280 4e 96 26 3e ed 52 bb 3d 51 d1 26 3e 56 ec 0a 3d
       0.16268274 0.09146676 0.16290785 0.033916794
000290 a6 36 b5 3c 7a aa 4b bd 90 4f 15 bd 0d 6e e7 bd
       0.022120785 -0.049723126 -0.03645283 -0.113002874
0002a0 7e 47 16 3e 81 0e 48 3e 34 7a a0 3d a8 17 07 3c
       0.1467571 0.19536783 0.078358084 0.008245386
0002b0 e3 27 8e bd de c4 58 be 71 9d 2b bd b5 33 1f be
       -0.069412015 -0.21168849 -0.041898195 -0.15547068
0002c0 34 c4 25 be 8d 85 26 bd e3 b7 36 bd be 61 3b 3d
       -0.16188127 -0.040654708 -0.04460896 0.04574751
0002d0 84 dc 22 be 4e 29 1d 3e 35 36 4b be 7a c6 d5 bd
       -0.15904433 0.15347788 -0.19844897 -0.10438247
0002e0 c9 31 a4 bd 6f 68 7b 3c 03 59 bb 3d ce 25 61 bd
       -0.08017308 0.015344723 0.09147837 -0.054967694
0002f0 00 b6 12 3d 8f a3 5a bd 9a bb aa bd 6a 60 e8 bc
       0.0358181 -0.053378638 -0.083365634 -0.028366286
000300 13 8f 38 3d d2 d8 58 be d2 d0 18 be e2 bb 2e 3e
       0.04505832 -0.2117646 -0.14923409 0.17063859
000310 3b 7e c5 3d 7f 88 8d bb f5 0f 08 3c f6 d1 e8 3c
       0.09643217 -0.00431925 0.008304586 0.02842043
000320 a6 26 54 3d 52 d2 15 be 78 bc 77 bd 61 f9 49 be
       0.05179467 -0.14631012 -0.060482472 -0.19724037
000330 1d cc 2f be ba db 2c bd a0 3a f6 bc 73 e6 2e 3e
       -0.17167707 -0.042201735 -0.030057251 0.17080097
000340 80 ec 12 3d de e5 09 bd 7d 34 f4 bb 48 ae fa 3d
       0.035870075 -0.033666484 -0.007452546 0.12240273
000350 8f 51 83 bd e5 cc 1f bd d5 ea 37 bd 6b 45 34 be
       -0.064120404 -0.039013762 -0.044901688 -0.17604606
000360 81 ef eb bc 91 72 4b be e6 57 f1 bd 59 9d 0e be
       -0.028800728 -0.19867922 -0.117843434 -0.13927211
000370 b5 a9 26 3e 50 b8 4a be 0b 1a 54 3e 22 43 a9 3d
       0.16275676 -0.19796872 0.2071306 0.08264758
000380 f3 52 14 be 98 3a 39 3e 5a 6d 49 bd 56 4f 3a be
       -0.14484768 0.18088758 -0.04917655 -0.18194327
000390 a8 26 01 bd 0d 40 de 3d 46 10 56 be 21 e5 70 bc
       -0.031531006 0.108520605 -0.20904645 -0.014703066
0003a0 3b 6a b7 3d 26 d0 af bd df 7d ad 3c ca 14 ab bd
       0.08955809 -0.08584623 0.021178184 -0.083535746
0003b0 b9 3a 13 be b0 25 2f 3e a6 eb 1e be 83 1c 8d ba
       -0.1437787 0.1710422 -0.1551958 -0.0010765943
0003c0 54 a2 96 3d 85 ce f4 bd 78 1a d9 3d 17 95 36 be
       0.073551804 -0.11953453 0.10600752 -0.17830311
0003d0 6b 3a 52 3e 50 75 c2 3d 1e 29 ef bc 6e ed 36 be
       0.20530097 0.09495032 -0.02919441 -0.1786401
0003e0 63 6a aa 3b ee 50 9a 3d 77 cd f3 bd 73 6d d3 bc
       0.0052006706 0.07534967 -0.11904424 -0.025809025
0003f0 b0 70 5e be a4 23 5f be 7f 8c cc bc 7a 02 38 3e
       -0.21722674 -0.2179094 -0.024969338 0.17969695

encoder.convs.1.bias f4 [64]
000000 8e 03 16 bb 3f 29 ec ba 32 60 da 3a 00 3d f1 ba
       -0.0022890302 -0.0018017663 0.0016660749 -0.001840502
000010 ac e5 f5 ba 83 ef 8d ba d5 f9 17 bb 25 7c e6 ba
       -0.0018760464 -0.0010828826 -0.0023189683 -0.0017584605
000020 4a 90 b8 ba 8e 0f fa 3a ba e7 0b bb 62 1c 65 39
       -0.0014081087 0.0019078122 -0.0021347837 0.00021849715
000030 2c d3 0d bb e0 ae 09 3b 9b a6 ed ba 61 af f0 ba
       -0.002164076 0.0021008775 -0.0018131317 -0.0018362814
000040 1d 36 e3 3a 0c 76 e8 3a 56 52 db 3a 43 cd ef 3a
       0.0017334853 0.0017735376 0.0016732912 0.0018295426
000050 0e 79 2e b8 32 57 0e 3b 10 f5 4a 3a 91 54 e0 ba
       -4.1597574e-05 0.0021719453 0.00077422056 -0.0017115047
000060 04 e1 ee ba 6c 52 03 bb 20 7c ae 3a ae ff b9 3a
       -0.0018225019 -0.002003814 0.0013312139 0.0014190578
000070 d3 ad 18 3b 89 39 d9 ba 57 82 ff 3a 50 c3 1d 3b
       0.0023296967 -0.0016572933 0.00194938 0.0024072714
000080 20 5e c6 b9 6d 0e e4 ba 9d 97 52 ba 05 52 04 bb
       -0.00037835632 -0.0017399319 -0.00080334564 -0.002019049
000090 cb 11 21 3b 6e 05 08 38 eb d6 fe 3a ad aa 1e 3b
       0.0024577256 3.2429984e-05 0.0019442713 0.0024210617
0000a0 5b 71 3a b9 f7 e6 0a 3b 5a 19 f8 ba 5e ef 2d 3b
       -0.0001778057 0.0021194795 -0.0018928454 0.002654038
0000b0 3e fe 27 ba 9c 84 e6 ba 32 d7 f0 3a a2 1d 06 bb
       -0.00064084295 -0.0017587128 0.001837468 -0.002046444
0000c0 dc a3 e3 3a e3 df c3 3a 46 84 d4 ba 6b 4c 7a ba
       0.001736756 0.0014944043 -0.0016213737 -0.00095481303
0000d0 08 81 16 3b d1 2b a8 ba 13 83 0b bb 38 ea 3b ba
       0.0022965092 -0.0012830441 -0.0021287843 -0.0007168385
0000e0 5b 96 de 3a 7d 41 e6 ba fc 5c 20 3b 1b 28 fb 3a
       0.0016982065 -0.0017567124 0.0024469486 0.0019161733
0000f0 40 3b 4b b9 7b 3a c1 ba b7 f5 14 3b 7f 0d c5 b9
       -0.00019381661 -0.001474216 0.0022729465 -0.00037584823

encoder.convs.1.lin.weight f4 [64, 128]
000000 a5 12 e2 bc fc 4c c1 bd db 1b 92 bd e1 ec a7 bd
       -0.027596781 -0.09438512 -0.07134219 -0.08199478
000010 4a 24 22 3e 78 00 57 bc 0c e3 0e 3e 37 fd f8 bd
       0.15834156 -0.01312267 0.13953799 -0.12157672
000020 2e 45 aa 3d 07 3d 21 be ec 0c 65 bd ad b0 98 bd
       0.08313976 -0.15745936 -0.055920526 -0.07455573
000030 74 fe 2a be e3 7e 04 be fc 89 ee bd 19 8f 07 bd
       -0.16698629 -0.12939028 -0.11647412 -0.033095453
000040 03 8f 78 bd 14 66 29 be 47 c5 d7 3c 78 24 98 3d
       -0.06068326 -0.16542846 0.026339186 0.07428831
000050 71 f7 e5 3c 51 23 07 3e 26 39 5a bc 27 e5 0d 3e
       0.02807209 0.13197066 -0.013319289 0.13856946
000060 ec 3c 63 bc bb 24 7a bc 4c aa 4c bc 32 65 8c bd
       -0.013869505 -0.015267546 -0.012491774 -0.06855239
000070 6f c3 86 bd d8 11 25 3d 78 48 c1 bd 1c 94 70 3d
       -0.06580245 0.04030022 -0.094376504 0.058734998
000080 76 42 13 be 7c 89 c3 bc 4a 4d bd bc 58 d1 a6 bd
       -0.14380822 -0.023869269 -0.023108143 -0.08145398
000090 3e af 03 3e c3 ff 14 be 3e e1 a7 3d 7d e0 24 be
       0.12859818 -0.1455069 0.081972584 -0.1610126
0000a0 3f e4 d1 3d d2 7f 2d 3e e3 e0 1f bd 5d c6 7a bc
       0.102486126 0.16943291 -0.039032828 -0.015306083
0000b0 a5 ae f5 bb d0 50 cb 3d 9a e0 55 3c 67 08 29 bd
       -0.007497626 0.09927523 0.0130540375 -0.04126778
0000c0 75 5a 22 3e 94 9e 08 3e d3 5c 1a bc fc 91 bd bd
       0.15854819 0.13341743 -0.009421545 -0.0925636
0000d0 c2 92 d4 3d cf d9 9b bd 7b 7d d0 bd 37 69 dc bd
       0.10379554 -0.07609903 -0.101801835 -0.10762256
0000e0 4d b8 17 3c bc e6 9e bd 68 3f ee 3d e2 29 f8 3d
       0.009260249 -0.07758853 0.116331875 0.121173635
0000f0 f8 39 9f bd bf a2 8a bd b1 03 01 3e 1d 7d be bd
       -0.077747285 -0.067693226 0.12599064 -0.09301207
000100 51 8d e0 3d f7 dd 52 bc fe e9 ff 3d df a9 b3 3d
       0.10964454 -0.012870303 0.12495802 0.08772635
000110 6c 26 03 be 8d ea 03 be c7 39 9a 3d 02 26 b4 bd
       -0.12807626 -0.12882443 0.075305514 -0.08796312
000120 ed b0 46 3c 5f 6d 02 3d 10 20 14 be 6f 20 43 bc
       0.012127143 0.031842586 -0.14465356 -0.011909588
000130 f9 47 f6 3d c5 6a a8 3b ec 53 e6 bd 9c 18 1c 3e
       0.120254464 0.005139681 -0.112464756 0.15243763
000140 5e 53 18 3e 4b 1d 24 3d 0c ab e0 bd 13 a4 98 3d
       0.14875552 0.040067 -0.109701246 0.0745317
000150 2b a1 44 3d 04 15 db bd bc 8c 05 be bc dc 9a bd
       0.048005264 -0.10697368 -0.13041967 -0.07561633
000160 d0 f9 28 3e 6d 89 89 3c 88 41 90 bb 87 db a2 3d
       0.16501546 0.016789163 -0.004402343 0.07952028
000170 3a 68 cb bd 10 f3 6e bd 13 5d e7 3c f2 41 1c 3e
       -0.09931989 -0.05833727 0.028242623 0.15259531
000180 ac be 70 bc c8 44 18 3d 2c 6b 18 be f8 ba 2b be
       -0.014693897 0.03717497 -0.14884633 -0.16770542
000190 0a 00 0e 3d a1 ec 86 bb 30 06 0c 3e b0 c7 1b 3d
       0.034668006 -0.004117564 0.13674235 0.038032234
0001a0 e7 36 20 3e 1a 85 13 bd 41 4a 4f bd e1 b5 8e bc
       0.15645944 -0.036015607 -0.050607923 -0.017420711
0001b0 b8 05 ac bd e4 70 17 3c bc c0 17 be 1a d8 90 3c
       -0.08399528 0.009243224 -0.14819616 0.01768117
0001c0 66 5b 5d bc 9b c8 58 3d 18 24 2d 3e dd 0c 7a 3d
       -0.013510561 0.052925687 0.169083 0.061047424
0001d0 7b df dd 3c 90 9c f0 bd ea 82 81 bd 79 c2 92 bd
       0.027084103 -0.11748612 -0.06323798 -0.07165999
0001e0 37 fd 18 be cc da bc 3d 3d ed 29 3e a9 6b ec 3d
       -0.14940344 0.0922142 0.16594405 0.11543972
0001f0 9e 41 0c 3e 8a a3 cb bd fd 01 99 bd 63 56 6c bd
       0.13696906 -0.09943302 -0.07471082 -0.057699572
000200 5d dc a6 bd c6 e2 0c be 2e c5 16 be 92 7e 27 bc
       -0.081475 -0.13758382 -0.14723656 -0.010223048
000210 09 2e da bd 3f 20 0a be cc c1 2e 3e c0 8f 27 be
       -0.10653312 -0.13488863 0.17066115 -0.1636343
000220 64 ab 6a bd de 6d ed 3d 2f 97 b5 bd 0e 52 a4 3d
       -0.057292357 0.11593221 -0.088667266 0.08023463
000230 b0 5d 03 be 08 e9 12 39 8d e2 87 3d 03 92 68 bd
       -0.12828708 0.00014010456 0.06635008 -0.056779873
000240 1f c7 02 be 7f 87 06 3d b0 5d 00 bd 62 29 1c 3e
       -0.12771271 0.032844063 -0.031339347 0.15250161
000250 63 24 ed bc b2 f8 09 3e 29 da 95 bd 2b 05 8f bd
       -0.028948015 0.13473776 -0.073170014 -0.069834076
000260 06 6e ad ba a8 4f c7 3d 4b 2c 25 3e a6 41 ad 3d
       -0.0013231642 0.0973199 0.16130178 0.08459787
000270 06 13 9f bd c1 bd 28 3c d3 2a f4 3d 2f 8c 0e 3e
       -0.077673 0.010299147 0.119222306 0.13920663
000280 2b 19 00 3e 22 dd 6c 3d 63 75 a3 bc e7 01 f4 3d
       0.12509601 0.057828076 -0.019953435 0.11914425
000290 27 2a 7a 3d 35 52 1e be 94 61 2f 3e 99 b9 71 bc
       0.061075356 -0.15461047 0.17127067 -0.014753723
0002a0 5d 50 2b 3e 8e 46 da 3d ec 1c 19 bc a4 82 1c be
       0.16729875 0.106579885 -0.009345274 -0.1528421
0002b0 c4 33 2f be cd 52 b1 bd 4c 8c 9a 3d 06 ab 41 3c
       -0.17109591 -0.08658371 0.07546291 0.01182056
0002c0 b8 b7 9c 3c bf 6b 15 be a3 04 cb 3d 1f c0 3a bd
       0.019130573 -0.14591883 0.09912994 -0.045593377
0002d0 9c b9 c1 3d 0d 88 11 be 02 e8 9d 3a 6f 60 b8 3d
       0.0945923 -0.14212056 0.0012047293 0.09002768
0002e0 5c 44 4f 3d e9 e7 35 be b9 7f 16 3e 5e 96 08 be
       0.050602302 -0.17764248 0.1469716 -0.1333861
0002f0 02 a4 28 be c7 4f f7 bd 00 9c 29 be 26 91 80 3d
       -0.16468814 -0.12075763 -0.16563416 0.06277685
000300 f9 92 06 3e ee 9f 10 3e 79 b7 76 3d 96 19 47 bd
       0.13142003 0.14123508 0.060233567 -0.048608385
000310 7e eb 14 3d 72 de 58 3d ef 43 35 be 00 10 8f ba
       0.036357395 0.052946515 -0.17701696 -0.0010914803
000320 e7 25 2e 3d 2d b2 10 3e fa e9 d9 3d 7c ad 53 bd
       0.042516615 0.14130469 0.106403306 -0.05167912
000330 69 d2 1a bc a9 69 e6 3d f1 16 23 3e 52 70 b9 bd
       -0.00944958 0.11250622 0.1592672 -0.090546265
000340 20 6e 32 3e 09 4f 03 bd 1b 66 a5 bd 80 96 81 ba
       0.17424822 -0.032057796 -0.08076116 -0.0009886771
000350 69 74 0c 3e 30 7d d2 bd b8 80 8f 3b 02 0c d4 bd
       0.13716282 -0.10277784 0.004379358 -0.10353853
000360 d0 bb 9d bb 6c 28 f9 3d 7e 32 b3 bd 11 fb a4 bd
       -0.0048136488 0.12165913 -0.08749865 -0.080556996
000370 94 da 48 3d 07 a6 a6 3d 47 b3 7b bc 3c bb 26 bd
       0.049036577 0.08137136 -0.015362567 -0.040705904
000380 b0 64 37 bc 80 b6 54 3d c8 01 21 3e 05 7d 9f 3d
       -0.011193439 0.051931858 0.15723336 0.077875175
000390 31 89 e6 3c 6d e9 68 3d 5c b5 53 3d 36 91 26 bc
       0.02814159 0.056863237 0.05168663 -0.010166457
0003a0 9c 20 f7 bd 96 e7 ae bd 0f 4f 76 3d 69 d4 76 3d
       -0.120667666 -0.08540265 0.06013399 0.060261164
0003b0 b5 9e b8 bd 1b 5c cb bd 0f 4a cc 3d dc 35 0a bd
       -0.09014646 -0.09929677 0.09975063 -0.03374277
0003c0 e2 81 dc 3d 28 aa 40 3d f9 fa 04 3d df 06 ab bc
       0.10766961 0.047037274 0.03246591 -0.0208773
0003d0 c2 36 a1 bd ea 0c 34 3d ec 9b e5 bd 93 6f a3 bd
       -0.07871772 0.04395763 -0.1121138 -0.079802655
0003e0 58 72 02 be 9a b0 f2 ba d0 f1 c3 bd d7 aa 85 bd
       -0.12738931 -0.0018515766 -0.095676064 -0.06526726
0003f0 bb 71 71 bd 66 31 9f 3d 59 81 c7 3d 38 04 f1 3d
       -0.058946352 0.07773094 0.09741468 0.11768383

encoder.post_mp.0.weight f4 [64, 192]
000000 bb 52 db 3b 79 ca 59 bc 58 7e 13 3d ae 99 8f bb
       0.006693212 -0.013292902 0.036009163 -0.0043823337
000010 44 73 0e 3d 75 94 d7 bc 2e 71 04 bd 55 c4 9e 3c
       0.034777895 -0.026315907 -0.0323345 0.019380728
000020 e2 9e 49 bb aa 8c 76 bd e6 0d 55 3d 6a 15 8d bd
       -0.0030764868 -0.06019274 0.052015208 -0.0688885
000030 95 09 5f 3d 0a ac 64 bd 26 26 73 bd 1c 4e 2d 3d
       0.054452498 -0.05582813 -0.059362553 0.04231082
000040 e4 ec 05 3d b7 dc 2d 3d 23 12 0d bd 34 73 52 bc
       0.03269662 0.04244682 -0.034441125 -0.012844849
000050 0f 9c 57 3b 29 9e d2 3c 74 ba 56 bb 88 15 95 bd
       0.0032899415 0.025710182 -0.0032764943 -0.072794974
000060 88 be a4 bc 61 39 41 3d 3f 38 c8 bb 24 8d 9f 3a
       -0.020110384 0.04717386 -0.0061102207 0.00121728
000070 8f 0e 04 3d 9d 17 4a bc 2a 7c 48 3d 31 f6 04 bd
       0.032240447 -0.012334731 0.048946537 -0.03246135
000080 59 2d d8 3b 9a a7 1d 3c d3 d5 7d 3d d1 88 ab bb
       0.0065972027 0.009622479 0.061971497 -0.0052348156
000090 3c 2d 24 bd 52 a7 85 bc 87 89 d3 bb 73 32 86 bc
       -0.0400822 -0.016315136 -0.0064556035 -0.016381478
0000a0 7d d0 3a bc 57 f6 93 bc 1c 07 0f 3d 83 62 91 bd
       -0.011402247 -0.0180618 0.03491889 -0.07098868
0000b0 e6 36 c8 3c 90 e1 47 bd ec 23 8f 3d 5b a2 fd 3a
       0.02444024 -0.048799098 0.069892734 0.0019350754
0000c0 d8 92 14 3c 68 44 5d bd af 09 6f bc 66 5b 38 3d
       0.009068213 -0.054020315 -0.014589711 0.04500904
0000d0 d7 2f 19 3d c5 13 3d bd 62 10 6e 3d f0 e5 b5 bb
       0.03739914 -0.04616143 0.058121093 -0.0055510923
0000e0 3a e9 68 3d 13 90 45 3b e6 9e f5 bc d5 58 0b 3c
       0.056863047 0.003014569 -0.029982995 0.008505066
0000f0 bf a9 1f 3d 5a 65 89 bd 90 a0 19 bd 5a a4 47 3d
       0.038980242 -0.067087844 -0.03750664 0.048740722
000100 25 d4 8d 3b e9 64 1b bd 53 d0 01 bc e9 64 1a 3d
       0.004328268 -0.037938032 -0.0079232035 0.03769389
000110 e7 df 95 3a 14 db 76 bd 85 05 95 bd 6f 2a 80 3d
       0.0011434526 -0.060267523 -0.072764434 0.062580936
000120 36 ef b5 bc 1d a0 65 bd be 00 3e bc 2c 14 e2 3c
       -0.022208791 -0.0560609 -0.011596857 0.02759751
000130 b4 7c 5a 3d a1 73 39 bd 4b a1 21 3d 7f 14 f5 bc
       0.053341582 -0.045276288 0.03946046 -0.029917
000140 2e 09 68 3c 42 a7 07 bc dd 7f 62 bd 66 ff 6c bc
       0.014162345 -0.008279623 -0.05529772 -0.014465189
000150 27 ea 86 bd 9f cc 84 bd ad 0c 05 bd bc 68 e9 bc
       -0.0658763 -0.06484341 -0.03248279 -0.028492324
000160 03 0b 33 bd f1 c2 b5 3c a0 bc 58 bc a7 29 6e 3d
       -0.043711673 0.022187682 -0.013228565 0.05814519
000170 5c 52 6e 3d 64 28 18 bc 04 95 79 bc 1c a0 d0 ba
       0.058184013 -0.009286974 -0.015233282 -0.0015916857
000180 aa 56 70 bb b7 54 85 3c 49 7a fb bb 56 1a 79 3d
       -0.003667275 0.016275747 -0.0076744896 0.06081613
000190 6f 5d 3e 3c 93 31 6c 3c 33 20 75 bd 39 1c 90 bd
       0.011618956 0.014416116 -0.05984516 -0.07036633
0001a0 69 f2 d2 3a 17 8c 3b 3d b6 57 bb bc b7 ce 9d 3c
       0.0016093972 0.045787897 -0.022868972 0.019263608
0001b0 cc 0b 8a bd 7c 59 2d 3c 55 a2 8e bc 4f 23 ff bc
       -0.06740531 0.010580417 -0.01741139 -0.031144766
0001c0 b5 46 0f bd 3a f6 bb bb a4 c4 14 3d 45 60 7f 3d
       -0.03497954 -0.0057361396 0.036320344 0.06234767
0001d0 42 15 6a bd 6b 86 8a 3c d2 1b 8e bd a3 99 96 3c
       -0.05714918 0.016909799 -0.069389 0.018383807
0001e0 31 e5 43 3d 00 c0 ee 3b ca cc 2d 3d 55 30 79 bd
       0.047825996 0.007286072 0.04243163 -0.06083711
0001f0 e8 ce 99 3c 2b 2e 1b bd 0e a3 46 3c c0 8d a1 3a
       0.018775418 -0.037885826 0.012123836 0.001232557
000200 a2 2a 35 3d 2b 53 38 3a b2 1e ff 3c ee e8 31 3d
       0.04423011 0.0007031436 0.031142566 0.04343503
000210 62 2a 7e bc 1f 67 5e bd 87 0c c0 bb 02 f9 e0 3c
       -0.015513035 -0.054297563 -0.0058608684 0.027462486
000220 b4 52 8b bd 60 a7 27 bd 74 4d 09 3d cf 41 52 bd
       -0.06802884 -0.040931106 0.03352113 -0.05133229
000230 b6 26 80 3d 11 da 46 bd 30 7e 66 3d 2d 3f 6c bd
       0.062573835 -0.048547808 0.056272686 -0.057677437
000240 16 08 99 3b ec b8 88 bb 99 27 d4 3c 14 cb 0d 3c
       0.0046701534 -0.004172435 0.025897788 0.008654375
000250 9f 0a 78 3d 80 1d 92 bc 59 a8 82 3d 48 32 aa bc
       0.060557004 -0.017836332 0.06379766 -0.02077593
000260 aa 07 75 bd 5e be 50 3d 32 f4 4d 3c 0d 19 90 3c
       -0.059821762 0.0509628 0.012570428 0.01759007
000270 fa f1 a0 3c c5 c4 2c 3d 66 da 0b 3d 28 15 b3 3c
       0.019646633 0.04217984 0.034143828 0.021860674
000280 82 7f 09 3c ab b5 70 3b c8 9a 1a 3d cd df 82 3d
       0.008392217 0.0036729376 0.037745267 0.06390343
000290 fe e1 b5 bc 94 94 88 bd 97 43 80 3c 7f 6a 12 3d
       -0.022202488 -0.06668964 0.01565723 0.035746094
0002a0 a1 23 58 bd 78 d4 4b bd b0 1f 6f bd c9 97 c7 bb
       -0.052768353 -0.049763173 -0.05837983 -0.0060910922
0002b0 2f 38 33 bd 20 6a ad 3c 5b 64 0a 3d c1 6a 11 bd
       -0.043754753 0.021168768 0.033787113 -0.0355022
0002c0 50 e6 3e bd 53 b8 8d bd 86 ce 45 bd fa 04 4e 3c
       -0.046606362 -0.06919923 -0.04829266 0.012574429
0002d0 1b 17 b5 bb e1 6b ea bc fb 98 a3 bb eb 11 f0 bc
       -0.005526436 -0.028615894 -0.004992602 -0.029305419
0002e0 e6 4d 94 bd ca 17 6d bd 65 3a ab bc 92 07 8a bd
       -0.072414204 -0.057884015 -0.020901868 -0.06739725
0002f0 79 b3 20 3d 9e 4b 17 bd d9 8c 4f bd 97 63 d2 bb
       0.03923366 -0.03693735 -0.050671432 -0.0064205634
000300 85 69 7f bd 9e 01 5c 3d 81 00 30 3d e6 06 61 3c
       -0.06235649 0.05371248 0.04296923 0.013734555
000310 fe 82 57 bd 3d 62 18 3d b3 04 72 bd bc ef 72 3d
       -0.05261516 0.037203062 -0.059086513 0.05931066
000320 09 da 90 bc 8d 60 bf bb b0 93 80 bd a2 19 b4 3c
       -0.017682092 -0.005840367 -0.06278169 0.021984879
000330 6d 7c 86 bc b7 ae 37 bc 9a 8a af bc c2 01 e9 bc
       -0.016416753 -0.011211089 -0.021428395 -0.028443221
000340 9e 38 34 3c 67 e8 95 3c 5d b4 58 3d fd bf 4a bc
       0.010999827 0.018299295 0.052906383 -0.012374875
000350 f4 bf 27 3d a1 1a 93 bd 74 2b 95 3c e3 90 90 3b
       0.040954545 -0.071828134 0.018209197 0.004411803
000360 b8 88 a8 bc 45 fd cb 3c 42 1b 07 ba 86 c1 bc bb
       -0.020573005 0.024901042 -0.0005153903 -0.0057603745
000370 94 f5 86 3d 0c b2 86 bd 0d 40 30 bd 3f 60 f2 bc
       0.06589809 -0.065769285 -0.043029834 -0.02958691
000380 b9 5c 7b 3d c8 85 c9 bc 52 67 4c 3c 29 6b 83 bc
       0.061367724 -0.024599925 0.012475805 -0.016042309
000390 c0 c0 48 3d 9f 9e 38 3d 25 1a 50 bd 50 dc b5 3b
       0.049011946 0.045073148 -0.050806183 0.005549945
0003a0 2d 20 91 bd 6d 66 f4 bc d5 df 62 bd 02 7d b2 bc
       -0.07086215 -0.029833997 -0.055389244 -0.021788124
0003b0 c4 8c a2 ba be 25 d3 bc 7c 35 d9 bc ad 49 cb bc
       -0.001240157 -0.025774833 -0.026514761 -0.024815405
0003c0 2e c9 13 3c 67 40 79 bd 02 db 68 3d c6 2f 0c bd
       0.009020133 -0.060852434 0.056849487 -0.034225248
0003d0 f0 18 45 39 63 ac 57 bd d3 58 86 bd 0e e0 3e bd
       0.00018796674 -0.052654635 -0.065599106 -0.046600394
0003e0 6a 16 70 bd f2 d5 8d bd 7c 00 50 3d bc 0f 8c 3d
       -0.058615126 -0.069255725 0.050781712 0.068389386
0003f0 f8 c4 2a bd f7 7c 86 3d 58 13 27 3c 15 4f 8f 3d
       -0.04169175 0.06566804 0.010197483 0.069975056

encoder.post_mp.0.bias f4 [64]
000000 79 b8 79 3d 70 c3 f2 bc ec 1b 4d bd 77 56 82 3d
       0.060966942 -0.029634207 -0.050075457 0.06364148
000010 46 87 6d bd 3d 6b 64 bd 86 d7 25 3d 2f 99 37 3d
       -0.057990335 -0.055766333 0.040488742 0.04482382
000020 4f 52 04 3d 08 b5 3a bc 6c c4 d2 bb ee ad 61 bd
       0.032305058 -0.0113957 -0.0064321067 -0.055097513
000030 64 7b bd bc cf 57 68 bd 9e bb 8a 3d a6 f2 89 b9
       -0.023130126 -0.056724366 0.067740664 -0.00026311463
000040 12 3b c3 b8 8a e2 af 3c 72 bc 42 3c 63 f5 d1 bc
       -9.309327e-05 0.021470327 0.011885749 -0.025629705
000050 14 76 d9 bc ad 30 8d bd 80 d2 bf bc a8 5c 8d bc
       -0.026545562 -0.0689405 -0.023415804 -0.017256096
000060 a2 9d b6 bb fa 57 69 bb 16 b4 c3 3c 13 d9 91 bd
       -0.0055729905 -0.0035605417 0.023889583 -0.07121482
000070 80 4f 87 bd ab 83 37 bd e2 7f c0 3c c1 cc 4f 3d
       -0.0660696 -0.044803303 0.02349848 0.050732378
000080 75 ef 80 bd 61 ec 09 bd 58 1a 67 bc c0 8f bd bc
       -0.06295673 -0.033672694 -0.014105402 -0.023139834
000090 8c 99 98 3a ac f9 dc bc 48 1c 23 bd c0 ee 27 3c
       0.001164244 -0.026974522 -0.039821893 0.0102497935
0000a0 f0 0c b4 bc 6e eb 6d 3d cd 26 34 3d eb 88 a2 bc
       -0.021978825 0.05808585 0.043982316 -0.019840678
0000b0 c1 1f 33 bd 49 35 80 3d 27 84 22 3c 4b 6f fc bc
       -0.043731455 0.06260163 0.009919203 -0.030814787
0000c0 b1 00 ed 3c 7f b1 90 b9 0f ea 24 3d 63 b4 3e 3c
       0.028930994 -0.00027598065 0.04026228 0.011639687
0000d0 5e b2 85 3d fd a5 ee 3c e6 de f2 bc 71 85 63 bc
       0.065281615 0.029131884 -0.029647302 -0.013886795
0000e0 7a 18 22 3d 58 33 3c bd fa 15 12 bd 05 6f dd bc
       0.039574124 -0.045947403 -0.03566549 -0.027030477
0000f0 89 93 81 3d 10 c5 82 3c bb 7f a2 3c b3 a5 57 bd
       0.06326968 0.015963107 0.019836297 -0.052648257

encoder.post_mp.3.weight f4 [64, 64]
000000 35 aa ed bd 5c d1 8c bd 4f 23 83 bd b9 15 bb 3d
       -0.1160473 -0.0687587 -0.06403219 0.09135003
000010 3b 9c bd 3c 0d ac d2 3d d1 0d 93 bd d0 b1 7a bc
       0.023145786 0.10286722 -0.0718037 -0.015301183
000020 61 a2 87 bd 76 cc 5a 3d a3 93 9a bd 3f 05 45 3d
       -0.06622768 0.053417645 -0.07547691 0.048100706
000030 90 fd 1b 3d da bb de bd b4 f7 bd bc 41 00 ee 3c
       0.038083613 -0.108756736 -0.023189403 0.029052855
000040 7e 81 f9 3d d0 08 fa bd 03 27 a9 bd f3 94 ed 3d
       0.12182902 -0.12208712 -0.08259394 0.116006754
000050 77 c5 d7 bd 79 fe f7 bc 31 d3 b0 3d 4a b7 93 3d
       -0.1053571 -0.03027271 0.086340316 0.07212694
000060 1c ca 9f 3c 0c 97 32 3d 42 21 33 bd 4e 2d 9d bd
       0.019505553 0.04360108 -0.04373289 -0.07674657
000070 bf b6 c3 ba 79 de f8 bd 40 d6 b3 3d 06 a0 53 3d
       -0.0014931782 -0.12151808 0.08781099 0.051666282
000080 6f 44 dd 3d 72 00 4d bd ce f5 7d bd 30 50 8a 3c
       0.10804068 -0.050049253 -0.062001996 0.01688394
000090 fe a0 db bd da 40 b8 3d 5c fb 83 3c 21 ec 4f 3d
       -0.10724066 0.089967445 0.016111068 0.0507623
0000a0 73 c9 a2 bd ee 61 93 3d 5a 40 d9 bd 69 2b cf bd
       -0.0794858 0.07196413 -0.10607977 -0.10115702
0000b0 61 a9 ab bd 7a d1 2a 3d de 11 0e bd d7 83 80 3d
       -0.08381916 0.04170368 -0.03468501 0.062751465
0000c0 22 34 69 3c a0 50 b6 bc ef 55 0a 3d ce 9f 60 bd
       0.014233621 -0.022255242 0.03377336 -0.0548399
0000d0 7f 3f cc bc 5d 6f c4 3d da 03 ea 3d ef 20 5b 3d
       -0.024932621 0.09591553 0.11426516 0.053498205
0000e0 fa de 6b bc 79 2d a5 bd 48 35 96 bb 88 c9 f3 bd
       -0.0143964235 -0.08065314 -0.0045839883 -0.119036734
0000f0 11 31 c7 3d 84 b3 a6 bc 68 16 ce 3c 3f 25 fa bc
       0.097261555 -0.020349272 0.025157169 -0.030535338
000100 9a 22 15 3d 7d 73 95 3d 66 43 12 bd 00 b3 b5 3d
       0.03640995 0.07297418 -0.035708807 0.08872032
000110 78 f2 cd bd 49 a5 79 3d 01 1b ae 3d 39 a5 82 3d
       -0.10056013 0.060948644 0.08501244 0.0637917
000120 1a a1 a8 3d 41 b3 dd bd 83 ff f8 bc 92 d3 95 3d
       0.08233853 -0.108252056 -0.030395275 0.073157445
000130 4c 43 88 3d e4 fd f9 bd 29 d9 22 bd 92 ac b5 3a
       0.06653461 -0.12206629 -0.03975788 0.0013860634
000140 78 f1 3e ba 85 fa 05 bd 85 d0 d8 bd ec 7d 18 3d
       -0.00072839065 -0.032709617 -0.10586647 0.037229463
000150 6a 7f e4 3d d9 76 96 3c 18 1a 89 3d 14 77 b7 bd
       0.11157115 0.018367218 0.0669443 -0.08958259
000160 1f 4f 01 be c7 a2 ac bd 02 ff 0d bc 6b e6 e2 bd
       -0.12627839 -0.08429485 -0.008666756 -0.11079105
000170 77 b5 ef 3d 1d 2e 6c 3c 19 13 3a 3d ef a8 80 bc
       0.117045335 0.014415291 0.04542837 -0.015705554
000180 fb ac f8 3d f2 ed 81 bd 42 7c 5d bd d2 a7 50 3d
       0.121423684 -0.063442126 -0.05407358 0.050941296
000190 3f de c3 3b dc c5 46 bd 3e 9c f8 bd ab 32 9e 3d
       0.0059774215 -0.048528537 -0.12139176 0.07724508
0001a0 f9 bb 5f bd b3 19 be 3d 27 da e8 bd 9e 82 62 3d
       -0.054622624 0.092822455 -0.11369734 0.055300348
0001b0 2b 03 ea 3d 34 bd e4 3d dd ef da bd dd 88 a3 bd
       0.114263855 0.111689 -0.106902815 -0.07985089
0001c0 e1 68 b3 3d e7 eb 86 bc 87 82 c4 3b e6 0a 42 38
       0.087602384 -0.016469909 0.0059970054 4.6263354e-05
0001d0 1f 82 36 bd 72 f5 1c 3d b6 e2 18 bd 33 fd 9f 3d
       -0.044557687 0.038320012 -0.037325583 0.07811966
0001e0 ae c0 cd bd 1a f9 cd 3d f2 d2 de bb 98 7a eb bc
       -0.10046516 0.10057278 -0.006800049 -0.02874498
0001f0 6b 14 eb 3d ab 6c 60 3d e4 0a 99 3d 50 cf d1 3d
       0.11478504 0.054791134 0.0747278 0.1024462
000200 0d 1c 9e 3d 67 76 39 3d 93 c0 ca bc 3a 63 c7 bb
       0.07720194 0.045278933 -0.02475003 -0.006084827
000210 9c b4 37 bd 8b 38 bf bc 05 d1 ad 3d 94 96 00 be
       -0.044849977 -0.023342391 0.08487133 -0.12557441
000220 fc 54 c0 bd 1a 89 b8 bc 28 9a 96 3d be b6 5d 3d
       -0.093912095 -0.022526313 0.07353622 0.054129355
000230 3d 3f b8 3c 69 88 f9 ba 62 53 de bd bb 68 3c bd
       0.022491092 -0.0019037846 -0.10855748 -0.045998316
000240 a6 53 d0 3d 57 5a 0d 3d 87 19 ac bc 50 4d 09 3c
       0.10172205 0.034509983 -0.021008266 0.008380249
000250 90 28 d8 3d e5 13 ce bc fa 2c a3 bc ff 4e 9a 3d
       0.10554612 -0.02515597 -0.019918907 0.075345986
000260 43 92 e2 bd 56 54 21 3d 4e 5d 93 3d 9d 16 b4 3d
       -0.110630535 0.03938707 0.07195531 0.08793376
000270 57 2f 52 bd c2 e9 e4 bd 3e 3c e8 3d b1 5f f8 3d
       -0.051314678 -0.11177398 0.11339615 0.12127627
000280 64 59 d9 bd 1f 9d f5 3d af 7b 9d bd fc 46 92 3d
       -0.10612753 0.11992859 -0.076896064 0.071424454
000290 d0 f7 86 bb fc b4 f1 bc 8d d0 a4 3d f0 a2 15 bc
       -0.004118897 -0.029505245 0.080475904 -0.009133086
0002a0 27 dc ae bd 08 c4 cb bd 31 9c 97 3d 4c 1c f9 3c
       -0.085380845 -0.09949499 0.07402838 0.030409
0002b0 9c 10 92 bd b0 b1 81 3d 4f e9 c3 bd b8 b2 f1 3d
       -0.07132074 0.06332719 -0.095659845 0.11801666
0002c0 a4 79 e7 3c 7f ec b9 3d 63 eb 3f bd 1d 35 be 3d
       0.028256245 0.09078311 -0.04685534 0.09287474
0002d0 90 25 61 3d e7 84 c3 3d f6 19 9f bd 94 0c ec bd
       0.054967463 0.095468335 -0.077686235 -0.115258366
0002e0 ba 58 75 3d 58 ae 92 3c 5d 5d 5e bc 2d bf 51 bd
       0.05989907 0.0179054 -0.013572064 -0.05120771
0002f0 df 42 82 3d ef 45 fa 3c c8 59 6f 3d 4e 94 91 3b
       0.06360411 0.030550925 0.05843523 0.004442728
000300 c0 a4 6c 3d c2 ff b9 3d c8 f0 ec bd d1 20 13 bb
       0.057774305 0.09081985 -0.11569363 -0.002244998
000310 98 71 dc bd 05 b7 ae 3d 39 b7 0c bd f4 a6 fe 3c
       -0.10763854 0.08531002 -0.034354422 0.031085469
000320 fc 57 85 3d b0 5f 85 bd c8 b7 a2 3d 64 dc 91 bd
       0.06510922 -0.065123916 0.0794521 -0.07122114
000330 06 d7 e2 3d 86 b1 40 bd 27 26 b0 bc c6 de d3 3d
       0.11076169 -0.0470443 -0.021502567 0.10345225
000340 b6 dc 6f bd 75 79 1a bd dd 9a 73 3d f4 92 86 bd
       -0.058560096 -0.037713487 0.05947386 -0.06570998
000350 ab 7d ca 3d 4c 92 45 3d 7d 82 c2 3c c7 d0 40 3c
       0.098872505 0.048235223 0.023743862 0.011768526
000360 95 6a cc bd 65 1f ba bc b5 2e 06 3d 3a 1a 4f bd
       -0.099812664 -0.022720048 0.032759387 -0.05056212
000370 20 5e 63 bd 54 9c e0 bb f1 2b bd bd 13 b5 42 3d
       -0.055509686 -0.0068545733 -0.09236897 0.047535967
000380 dd f3 ce bd 0c b6 b1 bd 0f 80 64 3c d5 a2 93 bc
       -0.10105107 -0.08677301 0.013946547 -0.01802198
000390 91 1a 9c bd e7 b8 56 3d cb bb e0 bd 68 f2 a2 3d
       -0.07622255 0.05242243 -0.10973319 0.079563916
0003a0 9c 7a d8 3d 77 11 bc 3d 55 9a cf 3d 4f fe 5f bc
       0.10570261 0.09183019 0.101368584 -0.013671472
0003b0 b9 22 5f 3d e7 59 e1 bd 63 f2 7d 3d 98 79 ac bd
       0.054476473 -0.11003476 0.061998736 -0.0842163
0003c0 b4 87 86 bd 86 e5 d2 bd 97 ff 9b 3a b2 4d df 3d
       -0.06568852 -0.10297684 0.0011901733 0.10903491
0003d0 28 d5 d7 bb ec e6 cd 3c f5 f0 a5 bc 33 ee 84 3c
       -0.0065866895 0.025134526 -0.020256499 0.016226863
0003e0 2a 8b ee 3d aa de 7f bb e7 fb 1a 3d 16 a4 49 3c
       0.11647637 -0.003904263 0.03783789 0.012307188
0003f0 01 bd 0e bd 70 4f ac bd d3 92 f3 3b ce 39 87 3c
       -0.034848217 -0.08413589 0.0074332743 0.016507056

encoder.post_mp.3.bias f4 [64]
000000 bd 22 b9 3d c9 6e 64 bd 4b e9 ca 3d 97 e3 f3 bd
       0.09039829 -0.055769715 0.09907778 -0.11908644
000010 19 ea 81 3c db ca e1 3d 08 fd c6 3d c7 3b b2 bd
       0.015858697 0.1102502 0.09716231 -0.08702808
000020 b9 50 15 3d e9 b1 cf 3d 13 58 39 bd b0 e5 97 3d
       0.036453936 0.101413555 -0.04525001 0.07416856
000030 a6 9e c8 bd 01 4b 4f bd 28 71 eb bd 3a 1a 8a 3c
       -0.09795885 -0.05060864 -0.11496192 0.016858209
000040 37 08 ed 3c f0 b2 bd 3d 68 08 97 3d df a6 1a 3d
       0.028934581 0.09262645 0.0737465 0.037756797
000050 5f 16 9a 3d 47 cc cf bc a5 8b e6 3c d3 28 8e 3d
       0.07523798 -0.025365962 0.02814276 0.0694138
000060 3a 5a 1a bd 33 ff e1 3d 82 e1 38 3d 91 f4 8b bd
       -0.037683703 0.110350035 0.045136936 -0.06833757
000070 22 eb e8 3d de d8 07 3d c5 d7 a5 bd 03 fb 76 3d
       0.11372973 0.033165805 -0.080977954 0.060297977
000080 ca 50 8a 3c 05 5e 47 bd 26 b4 61 3c a2 1a a3 bd
       0.016884226 -0.04867365 0.013775861 -0.07964064
000090 b9 c6 cf bd 67 07 7d bd 52 2c bb 3d f8 f3 25 3d
       -0.10145325 -0.061774638 0.09139313 0.04051587
0000a0 ee e9 5e bd 61 6b de bd 55 ec d0 bd 90 d5 00 be
       -0.05442231 -0.10860325 -0.10201327 -0.12581468
0000b0 52 f3 8a bd 19 cc cc 3d 0d 80 81 3d 23 b5 f7 bd
       -0.06784691 0.09999866 0.06323252 -0.12095096
0000c0 95 46 54 bd 2c 21 b7 bd 36 46 a0 3d 0f a1 22 bd
       -0.051825125 -0.08941874 0.07825892 -0.03970438
0000d0 68 27 72 3d c0 62 8e bd 80 67 1a 3b 88 4d f3 3d
       0.059119612 -0.06952429 0.0023560226 0.11880022
0000e0 b1 63 a0 bd c7 32 00 be 81 9d b1 3b 39 17 58 3d
       -0.078315146 -0.1251937 0.0054203873 0.05275652
0000f0 7f 3d fd 3d 88 1c 07 bd ba 7f 1d 3d de 1f a7 bd
       0.12365245 -0.032986194 0.038451888 -0.08160375
