amazon/20230629-172151/commr_eval_best.pt (torch, 29553 bytes, 10 tensors)

fc1.weight f4 [32, 65]
000000 23 93 ce 3d d3 f9 e6 bd e4 00 5b 3c 3b 65 13 bd
       0.10086658 -0.11278119 0.013366912 -0.035985213
000010 ce f0 18 3d e8 40 fe bd b1 cb 39 be 72 5e 05 3e
       0.037339024 -0.12414724 -0.18144108 0.1302431
000020 41 db b5 3d 58 f6 11 be 7e d1 d8 3c 02 af 98 3d
       0.0887971 -0.14254129 0.026467081 0.07455255
000030 df da eb bd 92 45 ee 3d 3c 4d 87 bd 60 f6 3f 3d
       -0.11516356 0.11634363 -0.06606528 0.04686582
000040 b1 d3 de 3c 9c 97 93 bd b4 7a ec bd bc 48 b3 bd
       0.027200552 -0.072066516 -0.11546841 -0.08754107
000050 c0 c2 f0 bd e3 7e 8e 3d fb 51 8a bd df 99 6f bc
       -0.117558956 0.069577955 -0.06753918 -0.014624088
000060 90 a4 ce bd 24 be 3e 3e 82 41 83 be 33 f9 a4 3d
       -0.100899816 0.1862722 -0.25635916 0.080553435
000070 cc bc 7a 3d a5 09 c3 3d 88 79 04 3e 98 ad 7f bd
       0.061215207 0.09523324 0.12936985 -0.06242141
000080 22 7c 4f 3e 65 91 4e 3e 8e 55 92 bd 90 8a c9 3d
       0.20262197 0.20172651 -0.071452245 0.09840882
000090 93 b1 48 bc 79 90 ce bd 89 6b c9 bd c0 6f 74 be
       -0.012249368 -0.1008615 -0.09834964 -0.23870754
0000a0 33 37 f5 bc 46 ee 48 bd d2 32 15 be e6 07 9e bd
       -0.029933548 -0.04905536 -0.14570168 -0.0771635
0000b0 ec 6a 44 3c 25 bc 05 be db 5e 13 3d 6c 0f 27 3e
       0.011988383 -0.13060053 0.035979133 0.16314477
0000c0 f2 1c e3 bc dc 67 0a bd 90 35 75 bc 21 b7 35 be
       -0.027723763 -0.033790454 -0.014966384 -0.1774564
0000d0 4d 45 ba 3c 6a bd 0d bd 0e 47 3f 3d ed f5 2c 3d
       0.022738123 -0.034604467 0.046698622 0.04222672
0000e0 3a 2c 51 3c 40 b6 c5 bb be 69 88 3d 5d 43 a1 bd
       0.012766892 -0.006033689 0.06660794 -0.07874177
0000f0 e4 aa 76 3d ff db 99 3d 6e 33 79 3d fb 83 86 bc
       0.060221568 0.07512664 0.060840063 -0.016420355
000100 c7 a4 4c 3c 62 36 4f 3e 4f 9c 44 3d 2b 1b d0 3d
       0.012490458 0.20235589 0.04800063 0.10161432
000110 66 16 8b bc 0a 21 7f 3b 76 66 bc bc b5 21 58 bc
       -0.016978454 0.0038929605 -0.022998076 -0.01319163
000120 af cf 49 3c 8b 76 be 3d 0e 97 02 be 79 26 8d bd
       0.012317582 0.09299954 -0.12752935 -0.06892104
000130 3c d8 03 3e 83 39 b3 bd 5a 80 85 3e 05 c2 04 3e
       0.12875456 -0.08751204 0.26074487 0.12964638
000140 52 79 fa bd b8 e5 91 3d 75 0f 07 3e f4 ed e2 bd
       -0.12230171 0.071238935 0.1318949 -0.11080542
000150 70 fc d8 bd 7c 75 dd 3d dc 99 b1 bc ae ae 31 bd
       -0.10595024 0.10813424 -0.021679811 -0.04337948
000160 76 80 1e be d0 d2 fd bd b7 d7 2c 3e f2 47 80 bd
       -0.15478691 -0.12393725 0.16879164 -0.062637225
000170 f6 df ca 3c 59 c3 b1 3d 34 80 73 bd c9 9f 31 3e
       0.024764996 0.08679838 -0.059448436 0.1734611
000180 6d ac da bc 5a bf d6 3d 2e 58 3b 3e be e1 cf bd
       -0.026693547 0.10485716 0.18295357 -0.10150479
000190 f1 61 be 3d 47 1c f4 bd cc 07 ae 3b 75 15 d0 bc
       0.092960246 -0.11919456 0.005310988 -0.025400857
0001a0 35 51 9f bd bb 60 59 3c 65 cc 0d bd 5c d1 58 bd
       -0.07779161 0.013267691 -0.034618754 -0.052934036
0001b0 88 f4 53 be e6 fa 5a bd bb 5b e2 bd dc 29 16 bd
       -0.2069875 -0.05346193 -0.110526524 -0.036661014
0001c0 71 43 7a 3e 80 b5 99 3d 4f 3d 54 bd d3 bf cf 3d
       0.2443979 0.075053215 -0.05181628 0.101440094
0001d0 21 97 af bd d5 18 16 3e 41 f1 3f bd 34 45 e4 3c
       -0.085737474 0.1465791 -0.046860937 0.02786503
0001e0 10 4c aa bd 35 7d 1b bd 1f ad bc 3c bb fa 90 bd
       -0.08315289 -0.037961204 0.02303177 -0.07079073
0001f0 d5 6d 8c bb 9a 53 f0 bc c5 1a 29 3d 69 80 b5 bd
       -0.004285554 -0.02933674 0.041285295 -0.08862383
000200 98 bd 02 be 4d 27 d2 3d e0 7c e9 3d 87 c2 04 3d
       -0.12767637 0.10261402 0.11400771 0.03241208
000210 c5 86 01 3c 59 d0 ce bd 88 b7 55 bd b1 c1 84 bc
       0.007905667 -0.10098333 -0.052176982 -0.01620564
000220 4a ae 7e bd b6 0e 31 3d 75 b4 d2 3b 21 d6 8d bb
       -0.062177934 0.04322692 0.0064302036 -0.0043285047
000230 b6 67 cc 3d f7 45 70 3b 09 55 4a bc 60 81 12 3e
       0.09980719 0.0036662796 -0.0123493755 0.14307165
000240 83 a7 9f 3d 79 75 16 be 9f b8 ad 3d f6 e3 e2 bc
       0.07795622 -0.1469325 0.08482479 -0.02769659
000250 ee 42 e4 3d f2 92 e1 bd 00 37 80 3c 45 ad 5b bc
       0.11145578 -0.11014356 0.015651226 -0.01340801
000260 19 56 65 3d 8c 48 42 be 46 c2 06 be 6e c8 fb 3d
       0.055990312 -0.18972987 -0.13160047 0.12294088
000270 90 7a 40 be 24 a1 83 3d 94 f5 ff bd a6 4d a5 bd
       -0.18796754 0.064272195 -0.12498012 -0.08071451
000280 70 7c 2a bd a4 87 7c bd fb a5 47 3e e2 ef 78 bb
       -0.04162258 -0.061652794 0.1949691 -0.0037984778
000290 13 3d 8b bd 79 4e 6a 3d 5e ce 0e be d8 0a f1 bd
       -0.06798758 0.057203744 -0.1394591 -0.117696464
0002a0 6f 69 a6 bc d6 7f 3f be af 19 d3 3d 74 70 16 be
       -0.020313947 -0.1870111 0.10307633 -0.14691335
0002b0 e4 c6 a7 bd ae 07 39 be fd 3b 77 3c 6d 6d 0a be
       -0.08192232 -0.18069336 0.015089986 -0.13518305
0002c0 33 f8 3f bd 84 6c a1 3d 2d 03 6b bd 00 c9 40 3d
       -0.04686756 0.07882026 -0.057376076 0.04706669
0002d0 95 a9 f5 3d e9 01 58 be d6 eb c3 3d da 5f b5 bc
       0.11995236 -0.21094479 0.095664665 -0.022140432
0002e0 6a 0b 68 3d 75 7c 82 bd 69 66 13 bd 12 d8 5c 3d
       0.05665151 -0.063713945 -0.035986338 0.053917
0002f0 ea dd f7 bc a2 cf 06 be 18 9b e0 bc fe 9f ec bd
       -0.030257184 -0.13165143 -0.027417704 -0.115539536
000300 ed 44 c6 3d 12 27 5f bd b8 ec c5 3b a3 73 64 3e
       0.09681115 -0.05448062 0.006040182 0.22309737
000310 d5 00 e0 3c 3f 7f e3 3c 06 90 d3 bc 17 39 84 bd
       0.027344147 0.027770637 -0.025825512 -0.064562015
000320 6d 57 c4 bd 91 9d 14 be 30 6a 05 3e 13 c8 55 3d
       -0.09586988 -0.14513232 0.13028789 0.05219276
000330 2d a0 0c be 9c 56 8b 3d b5 b3 01 3d 10 d9 69 3d
       -0.13732977 0.06803629 0.031665523 0.057091773
000340 e6 44 4a 3e 86 e4 c7 bb c5 36 98 3d 01 c7 a1 bd
       0.19752845 -0.00610024 0.074323215 -0.07899285
000350 f7 7b 4f 3d 0a 3b ca 3d 57 c5 03 be 07 1b f1 bd
       0.05065533 0.09874542 -0.12868248 -0.11772733
000360 8d d3 cf 3d 7c 86 f2 bd 0a e8 38 be 0d 64 f3 bb
       0.10147772 -0.11842057 -0.18057266 -0.0074276985
000370 e2 2a 44 3e 54 e3 a8 bd 1b 33 ed 3c f4 a3 6c 3d
       0.19156983 -0.082464844 0.028955033 0.057773545
000380 a9 6f 8b bd 61 e4 66 3d b1 c0 35 3d 11 e5 20 3e
       -0.06808407 0.056370143 0.044373218 0.15712382
000390 ec 04 8c 3b 44 c1 06 be 2e 07 8c 3d 79 71 20 be
       0.0042730477 -0.13159662 0.06837307 -0.15668286
0003a0 f6 c1 25 bd c5 21 8c bc d4 4e ae bc 8e 3c fc bd
       -0.04046818 -0.017105946 -0.021277823 -0.123162374
0003b0 ac a6 86 bd fe 15 b5 bd 07 93 a5 bb d2 0f 26 bd
       -0.06574759 -0.08842085 -0.0050529274 -0.04054243
0003c0 bb 1c 3a be dc 17 ce 3d 40 55 33 3e b0 a9 b8 bd
       -0.18175022 0.100631446 0.17512989 -0.0901674
0003d0 9f 89 ee 3c de 35 bb 3d e0 7f 53 bc aa e6 e7 bb
       0.029118357 0.09141134 -0.012908906 -0.007077058
0003e0 b8 85 b4 bc 9b ac 04 bd 86 1c 9d 3d b4 f2 a8 bc
       -0.022036418 -0.032391172 0.07671456 -0.020623542
0003f0 42 7b cd bd 8d 4d 12 bd 68 ea 9a bd 27 98 5d bd
       -0.10033275 -0.03571849 -0.07564241 -0.054100182

fc1.bias f4 [32]
000000 ee 38 e6 bb fd 7e 32 bd 4b 42 09 3d e3 9c df b8
       -0.0070258295 -0.043578137 0.033510488 -0.00010662691
000010 05 62 89 3c 93 86 62 3c 40 54 86 3c 97 80 4e 3b
       0.016770372 0.01382603 0.016397595 0.003150975
000020 49 09 06 bd 6a 45 24 bd 17 37 9a 3c 0e cb 58 39
       -0.0327237 -0.04010526 0.018825097 0.00020675009
000030 28 2d c4 bd 19 46 a1 3d 10 03 10 bd a0 44 0f 3c
       -0.09578925 0.07874698 -0.03515917 0.008744389
000040 05 55 b5 bc 80 a3 04 3c b4 77 82 bc fd 11 1c 3d
       -0.022135267 0.008095622 -0.01592622 0.038103092
000050 c0 e2 63 3d ae b4 09 3d 97 3a 07 bd 0c 2b 43 bd
       0.055636168 0.033619575 -0.03301486 -0.047648475
000060 b4 ae 4b 3c 62 91 17 3c 23 79 8b 3d 5d bc 1d 3d
       0.012431789 0.009250971 0.06810214 0.038509715
000070 21 ac 98 3d ef 1c 66 3d ea 44 62 bb f1 43 41 bc
       0.07454706 0.056179937 -0.003452594 -0.011795984

fc2.weight f4 [32, 32]
000000 d7 d2 4d 3e 5b 79 93 3e b6 72 b2 3c 38 2d 5c 3e
       0.2009996 0.28803524 0.021783214 0.21501625
000010 84 da 83 be 97 7b 53 3e e8 01 8a 3d 6d f2 a1 3e
       -0.25752652 0.20652615 0.06738645 0.3163027
000020 ad 53 de bd c2 65 2d bd 85 10 9c be 65 df 6d be
       -0.10855804 -0.042333372 -0.30481353 -0.2322975
000030 f7 32 49 be 0a de 8e 3d 39 53 68 3e d9 9e fb bd
       -0.19648348 0.06975944 0.22687997 -0.12286157
000040 b6 fb 17 3e aa fc ce 3d 3a df 2b 3e dd 19 9d 3e
       0.14842114 0.101067856 0.16784373 0.30683795
000050 cd e3 cb bc c8 3c 95 be 0b 13 92 be 28 a2 a2 3e
       -0.024888897 -0.29147935 -0.28530154 0.3176434
000060 17 46 d2 3c 65 72 bb bc 1c 1d 51 be 42 4e ee 3d
       0.025668187 -0.022881696 -0.2042126 0.1163602
000070 11 28 85 3a 56 1d af bd b1 82 65 be 09 9b 6d be
       0.0010159035 -0.08550517 -0.22413136 -0.23203672
000080 0b 90 83 3c 0c 63 24 be b2 f3 e5 bd 97 8b 81 be
       0.016059896 -0.16053408 -0.11228122 -0.2530181
000090 81 c0 ab 3d b7 69 50 be 74 b3 72 3e 5a 08 1e be
       0.083863266 -0.20352827 0.23701268 -0.15432873
0000a0 d5 43 81 3e 3e 57 29 be b1 ed 9b 3e 31 a6 d9 bc
       0.25247064 -0.16537187 0.30454782 -0.026568504
0000b0 5d c1 48 3e da be 4e be 65 68 44 be a4 9a 55 3e
       0.19605012 -0.20189992 -0.19180448 0.20859772
0000c0 c4 24 22 be 98 4f 89 bd 76 9f 62 be b8 dd 43 be
       -0.15834337 -0.067046344 -0.22131142 -0.19127548
0000d0 2b 61 c4 3d e8 7d aa 3d bf 1e 07 3e 17 3d 17 be
       0.09588846 0.08324796 0.13195322 -0.14769398
0000e0 75 9d b8 bd 7f 44 21 3c 9e 5e 95 3e 6a d6 1d be
       -0.090144075 0.009842991 0.2917375 -0.15413824
0000f0 1c a9 6b 3e 80 51 80 bc 4e 64 74 3e 11 90 7b 3e
       0.23013729 -0.015663862 0.23866388 0.24566676
000100 46 af ed bd ba bf 9c be 4e c1 9c be ad 1c d1 3b
       -0.116056964 -0.30615026 -0.3061623 0.0063815922
000110 f0 eb 61 3e 07 8c e9 bd f3 c8 2e 3e 0a 7d 22 3c
       0.2206266 -0.11403661 0.17068844 0.009917507
000120 0e 9d 0b 3e 0f 27 a5 3c 1d 0c 99 3e 8d 23 68 3e
       0.1363413 0.020160226 0.29892054 0.22669812
000130 58 35 a5 3e c2 ae 16 be 3f 48 4f be b2 16 b9 3d
       0.3226726 -0.14715102 -0.20242403 0.09037532
000140 23 38 0a bc 00 86 49 be 90 da 0a be 74 22 59 bd
       -0.008436236 -0.19680023 -0.13559937 -0.053011373
000150 92 b5 84 3e ed 3c fc bc ef 4e 5a 3e 0d 1d 0c be
       0.25919777 -0.03079077 0.21319173 -0.13682957
000160 a9 32 d2 bc d9 c6 30 3d 6b 45 8d 3e ab c9 01 be
       -0.025658922 0.043158386 0.27592024 -0.12674586
000170 52 8e 6a 3e 7b 82 5f 3e 0a 08 0d 3e d7 94 1e bc
       0.22905853 0.21827118 0.13772598 -0.009679041
000180 01 b5 e0 3d 76 9e 0e 3e 99 ac a1 3d a7 c4 08 3e
       0.10972024 0.13927636 0.078942485 0.13356267
000190 58 9b c2 bd 63 f3 09 3e ce a5 89 be f0 78 a0 3e
       -0.09502286 0.13471751 -0.2688431 0.31342268
0001a0 f9 89 8c bd 72 8c 78 3d f6 de 55 bd 90 cc 27 bd
       -0.06862254 0.060680814 -0.052214585 -0.04096657
0001b0 65 74 dc bd 70 c0 ba bd ae 31 4e 3e 3d 95 82 be
       -0.10764388 -0.09118736 0.20136139 -0.25504485
0001c0 10 18 86 3e 25 b0 9d 3e 4d 27 97 3e e0 51 44 3e
       0.26190233 0.3079845 0.29522172 0.19171858
0001d0 2e 43 67 be dc 29 e2 ba 78 82 f5 bc 33 40 1c 3e
       -0.22584221 -0.0017254907 -0.029969439 0.15258865
0001e0 46 f1 47 3d f9 ba 1a be d0 a6 3b be 6d 3f 3e 3e
       0.04881408 -0.15110387 -0.18325353 0.18578883
0001f0 29 dc 59 be 70 d8 01 be 8e 68 0f bc 74 5d 50 be
       -0.2127539 -0.1268022 -0.008752955 -0.2034815
000200 51 e2 90 be ad 25 f8 3c 18 5a e3 3c 04 f0 95 bd
       -0.28297666 0.030291403 0.027752921 -0.0732117
000210 2f c5 93 bd 5f ae 32 bd 37 8f 02 3e 2a 3b e5 bd
       -0.07215344 -0.043623324 0.12749945 -0.11192925
000220 39 f7 8b 3e cd f9 55 be a3 b9 96 3e 09 6d 80 3e
       0.27337053 -0.20896073 0.29438505 0.25083187
000230 97 ac cb 3c 46 4e 3f be e0 89 7c be 2f 15 1b 3e
       0.02486257 -0.18682203 -0.2466197 0.151448
000240 0f 0c 07 be c7 4d 78 be 74 5a aa bc cf b3 80 be
       -0.13188194 -0.2424842 -0.020795085 -0.25137183
000250 ea 5b 60 3e bf dd 58 3e 57 e3 9a 3e ac 4f 07 be
       0.21910062 0.2117834 0.30251572 -0.13213986
000260 3e e2 d9 bd d2 78 6d 3d 7e 9b 61 3e d2 4b 16 bb
       -0.106388554 0.05797655 0.22031972 -0.0022933376
000270 9f 75 fc 3c eb 1a 85 3d 98 17 95 3e 41 eb 58 3e
       0.030817805 0.06499275 0.29119563 0.21183492
000280 ec 69 9a 3c ec bf 33 be a5 b9 d3 bd 5e ed 85 be
       0.018849336 -0.17553681 -0.10338143 -0.2615766
000290 e0 16 23 3d 86 b2 8f bd eb 44 bb 3d ae 94 54 bd
       0.039816737 -0.070164725 0.091440044 -0.051899604
0002a0 08 9f 91 3e a3 a8 9e be 80 fe 90 3e d2 24 0e 3e
       0.28441644 -0.30988035 0.28319168 0.13881233
0002b0 e5 6b ab 3e 9f 18 ee bb f8 fc f5 bd 58 05 53 3e
       0.33480754 -0.0072661187 -0.120111406 0.20607507
0002c0 3a 17 85 be ed 3d 8d bd 65 81 3e be 68 10 8b be
       -0.25994283 -0.06896577 -0.18604048 -0.27160954
0002d0 46 4b db 3d c1 c1 24 bc 03 9b 0f 3e 64 d5 d9 bd
       0.10707717 -0.01005596 0.14023976 -0.10636404
0002e0 13 df 8d be ec 07 10 3e f3 b6 9a 3e 9b 74 25 bd
       -0.27709255 0.14065522 0.30217704 -0.040394407
0002f0 92 f4 08 3d 25 a6 93 3e 34 f5 34 3e 89 ba fa 3d
       0.033436365 0.28837696 0.17671663 0.1224261
000300 c5 ba c0 3b 15 96 a7 3e 93 b0 c0 3d ac d4 93 3e
       0.0058816397 0.3273169 0.09408679 0.28873193
000310 60 56 38 3c 3d 96 19 3e 04 60 f6 bd 33 45 83 3e
       0.011251062 0.14998718 -0.12030032 0.25638732
000320 aa 6e 4e be c7 7c e9 3c 75 bb 87 be 85 c9 36 bb
       -0.20159402 0.028501881 -0.26510206 -0.002789111
000330 e1 3e 4d bd a6 a9 14 bd eb 64 9f 3e ee e7 af be
       -0.050108794 -0.0362946 0.31131682 -0.34356636
000340 69 49 e6 3d 6c 74 f0 3d 1f d2 03 3e 90 1d 3c 3e
       0.112444706 0.11740956 0.12873124 0.18370652
000350 a1 27 c0 bd ac a4 c3 bd 45 0c 1f be 9f cb 93 3e
       -0.093825586 -0.09552893 -0.15532024 0.28866288
000360 37 4b 6d 3e 60 d9 df bd bd 7d ea bd 1d 33 a8 3d
       0.23173223 -0.10930133 -0.11449764 0.08212874
000370 25 68 e7 bd 59 8b 8f be 07 44 be bc 7d ee be bc
       -0.11299161 -0.28036 -0.023225797 -0.02330708
000380 3f b1 35 3e fd d5 27 3e 93 e8 74 3e ef b4 cd bc
       0.17743395 0.16390224 0.23916845 -0.02511069
000390 35 39 70 be 5c e7 94 bd 59 0c 34 be ee 97 fc 3d
       -0.23459323 -0.07270691 -0.17582835 0.12333666
0003a0 32 b9 53 bd 0f da 33 bd 1b 3c a3 be 9a a2 80 be
       -0.051690288 -0.04390913 -0.31881794 -0.25124055
0003b0 29 34 80 be 47 7e 57 3e 61 67 93 3e 7e 0e 82 be
       -0.25039795 0.21044265 0.2878981 -0.25401682
0003c0 80 48 85 3e f9 0e 4b 3e b1 bf a9 3e be 1d f1 3d
       0.26031876 0.1982993 0.3315406 0.11773251
0003d0 6b ba 20 be 3a b3 a8 be 46 bc 21 be 78 34 a4 3e
       -0.15696113 -0.3294924 -0.15794477 0.3207128
0003e0 db 10 32 3d 3a a3 02 bc 7e d0 9b be 9e 15 70 bc
       0.043473106 -0.007973487 -0.30432504 -0.014653591
0003f0 fd 78 e6 bd 0c a7 96 be cf 70 81 be 5e c5 13 3c
       -0.112535454 -0.29424322 -0.2528138 0.009019224

fc2.bias f4 [32]
000000 be 77 9f bd 8e 89 90 bd 3c 1e 94 3c fa 11 86 bd
       -0.07786511 -0.070574865 0.018080823 -0.065463975
000010 5d 57 3e bd bc c6 73 3c a9 1f 98 3c d3 79 8b bd
       -0.046470035 0.014878925 0.018569784 -0.068103455
000020 a9 a1 ab bc 16 6a 3b bd 93 f8 20 3d 17 f0 cc 3d
       -0.020951109 -0.04575547 0.03929956 0.10006731
000030 db f7 02 3b 62 b6 aa 3b 14 76 e0 3b ff d4 fc bc
       0.001998416 0.00520973 0.0068500135 -0.030863283
000040 ff 69 38 3d 4c 35 8e 3d 55 32 a4 bd 09 49 42 bd
       0.04502296 0.06943759 -0.080174126 -0.047432933
000050 46 21 8c bc ea ff 27 bc 06 89 36 3d eb b6 56 bd
       -0.01710571 -0.010253886 0.04456427 -0.052420538
000060 0b 7e 54 3d 84 32 b1 bc f1 ae d0 bc 91 68 71 3d
       0.051878016 -0.021630533 -0.025474044 0.058937613
000070 58 a8 2a bc 47 8b 61 bc ce cf d1 3d d9 d1 a2 bb
       -0.010416113 -0.013766116 0.10244714 -0.0049688634

fc3.weight f4 [1, 32]
000000 7a 96 84 3e f3 03 8d be 02 53 a4 be e6 46 95 3e
       0.25896055 -0.27542076 -0.3209458 0.29155654
000010 2b b9 b1 be 90 56 76 be d9 21 38 3e 19 ee 5f 3e
       -0.34711584 -0.24056458 0.17981662 0.21868171
000020 15 bc 98 3e 66 6a 85 3e 26 8f 96 be 24 14 8f be
       0.29830995 0.26057738 -0.2940609 -0.27945054
000030 73 87 93 3e 60 38 8f be bc b6 77 3e 02 fe 8e be
       0.28814277 -0.27972698 0.24190801 -0.27928168
000040 34 91 ac be 08 69 a4 3e a6 0c 8f be 66 eb 83 be
       -0.3370453 0.32111382 -0.27939337 -0.25765532
000050 1f 1f 3c 3e a3 73 84 3e cd cd 95 be d0 c8 73 be
       0.18371247 0.25869474 -0.29258576 -0.23807073
000060 f8 0c a8 be b1 a4 6c 3e 27 1a 54 3e c0 9e 90 be
       -0.32822394 0.231097 0.20713101 -0.28246117
000070 7b 08 94 3e 01 bb 5a 3e dc db a5 be f3 0c 68 be
       0.2891272 0.21360399 -0.32394302 -0.2266119

fc1.weight f4 [32, 65]
000000 d0 e2 ec bd 05 0d 18 be d5 2a dc bc 39 b7 79 3c
       -0.115666986 -0.14848717 -0.026875893 0.015241438
000010 be b1 09 be 1b 81 2c be 2d 67 29 3d 16 3c c9 bc
       -0.1344671 -0.16846125 0.04135816 -0.024564784
000020 66 b3 4c bc 82 9e 04 bd 95 6e 72 be d3 bb 21 3e
       -0.012493944 -0.032377727 -0.23674996 0.15794306
000030 69 1d 93 3d 5c 4f 0b 3e a8 07 97 bd bd 06 60 3e
       0.07183344 0.13604492 -0.07374507 0.2187757
000040 a3 32 64 bd c7 e0 6b 3d 83 6e 84 bd 5b 80 11 be
       -0.055712353 0.05758741 -0.06466391 -0.1420912
000050 aa 3e d8 bd 42 9b 24 be 35 aa 96 bd 54 d9 4a bc
       -0.10558827 -0.16074851 -0.07356683 -0.012380917
000060 0f 40 52 bc 15 b3 5f be 66 c0 3a be 6b 60 18 3e
       -0.012832656 -0.21845658 -0.18237457 0.1488053
000070 53 2b 55 3e 6d 24 a8 bd 06 75 ff 3b 44 91 b1 bd
       0.20817308 -0.08210073 0.0077959327 -0.08670285
000080 75 b2 1d 3e b5 f4 80 bd 06 cc 75 3c aa 0b 0b 3e
       0.15400107 -0.06296674 0.015002256 0.13578668
000090 83 55 96 3d 80 43 75 bd 35 69 df bd 23 fd 04 3e
       0.07340529 -0.059878826 -0.109087385 0.12987189
0000a0 7a 4d ff 3d ff cb 8f bd 3c 50 cd bd fc 60 e9 bd
       0.12465949 -0.07021331 -0.10025069 -0.113954514
0000b0 a7 7d 8a 3d 5d 8c 95 bd dd d3 44 bd 08 14 ba 3d
       0.067622475 -0.07302163 -0.04805361 0.09085852
0000c0 db c8 f2 bd 02 08 95 3d c7 b7 d5 bd 6d ee 8e bc
       -0.118547164 0.07276918 -0.10435443 -0.017447675
0000d0 30 59 e7 bd cd 47 5e 3d 18 a9 3c 3d 5a db 2a 3e
       -0.11296308 0.054267693 0.046059698 0.16685238
0000e0 d0 8e 60 3e b1 a4 c8 3b 46 3d 5c bd 61 6b 63 3d
       0.21929479 0.0061231484 -0.053769372 0.055522326
0000f0 69 1b e2 3d a3 a1 73 3d 70 4c 68 bd b9 e1 20 be
       0.11040384 0.05948032 -0.05671352 -0.15711106
000100 18 fc 2e 3e c4 e9 0f bd 72 1d 29 3d 34 00 ec bd
       0.17088354 -0.035135046 0.041287847 -0.11523476
000110 6a da 11 3d 73 4d 3b 3e 8a f2 a1 3b c5 ef 97 3d
       0.035608687 0.18291263 0.004942243 0.07418779
000120 6e b1 62 3d 71 d9 68 bd cb ea 29 3e f4 ce 8a 3e
       0.05534499 -0.056847993 0.16593473 0.27111018
000130 42 3d fa bd 9d 10 24 bc d7 49 33 bd 3f db 9d bd
       -0.12218715 -0.010013727 -0.04377159 -0.077078335
000140 76 0d 38 be 7f 0d 05 be 68 7f e9 bd 83 d5 bb bd
       -0.17973885 -0.1299343 -0.11401254 -0.091715835
000150 53 1a 0d 3e 90 8a f9 3d eb 58 e7 3d 38 e4 2c 3b
       0.13779573 0.12184632 0.11296257 0.0026381146
000160 20 75 05 3e 04 84 2d be 49 30 27 3d 13 4f 59 3e
       0.13032961 -0.16944891 0.040817533 0.2122157
000170 8b 4f 00 be a6 eb 4b bc 47 f9 9f 3d 6d 90 fe bd
       -0.12530343 -0.01244632 0.07811218 -0.12429891
000180 dc 24 28 bd f1 c4 a9 3c d3 29 09 3d a3 46 0d be
       -0.041050777 0.020723792 0.033487152 -0.13796477
000190 53 0d 7b bd ea 4b e3 bd b8 ee 7b 3d 99 97 92 3d
       -0.061292004 -0.11098464 0.061506957 0.07157821
0001a0 fe c9 ce bd f7 27 a5 bd bb 8c 82 3d 22 a9 b6 3d
       -0.10097121 -0.08064263 0.063744985 0.08918978
0001b0 e1 e5 0f bd f1 4f 9e bd 65 83 07 3e 50 a4 92 3d
       -0.03513134 -0.07730091 0.13233717 0.07160246
0001c0 c4 3e 13 be 19 86 fa bc 88 47 4c be f8 7f 19 bd
       -0.14379412 -0.03058152 -0.19949162 -0.037475556
0001d0 0e 52 f0 bd 5a 66 31 3d 62 da 9d bd f6 e8 bb bd
       -0.11734401 0.0433105 -0.07707669 -0.09175293
0001e0 d9 0a 0b be c7 0b 47 bd 83 8c c1 bd bb a9 9b 3c
       -0.13578357 -0.048595216 -0.094506286 0.019001832
0001f0 bd 72 1b bc bb cc ac bc 22 51 14 3d c1 fe 8d 3d
       -0.009487805 -0.021093717 0.036210187 0.06933356
000200 31 eb e3 3d 5e d0 c1 bb 5b fc 1d 3e fc 65 ef 3c
       0.111288436 -0.005914732 0.15428297 0.029223435
000210 0d fa ca bd 86 8f 33 be 36 bc cc 3c 67 f4 04 3e
       -0.09910975 -0.17535219 0.02499209 0.12983857
000220 de 79 44 bd 91 28 f2 3a 0e ef 37 3d 42 61 17 3e
       -0.047967784 0.0018475224 0.044905715 0.14783195
000230 cc da 31 3e 49 58 0f ba d2 4c 12 bd 36 f2 22 bc
       0.1736862 -0.00054681726 -0.035717793 -0.009945443
000240 4e 4c 73 3d 3a a3 0b be 89 f5 38 bd 52 98 04 be
       0.05939894 -0.13636485 -0.045156036 -0.1294873
000250 d2 7b 4a bb dc c7 13 3e d2 3f ca 3d c1 1f 8e 3c
       -0.0030896557 0.14431709 0.09875454 0.017349126
000260 4a b9 ad bd 6d ec e5 bc 46 7a 14 be bd ca 55 3e
       -0.08482607 -0.028066838 -0.14499769 0.2087812
000270 06 59 10 ba f0 f3 29 be d3 51 67 be f3 66 2f 3e
       -0.00055064296 -0.16596961 -0.22589807 0.17129116
000280 8a b3 09 be b2 e3 85 3d d2 c5 6e bd 7f 96 0d 3e
       -0.13447395 0.0653757 -0.058294125 0.13826941
000290 94 14 25 be 83 b0 8a 3d 05 92 18 be 22 e3 07 3e
       -0.16121131 0.06771948 -0.14899452 0.13270238
0002a0 ea da e7 bc 27 49 20 bd 0d 0b 9b 3d 28 14 be bd
       -0.028302629 -0.039132264 0.07570467 -0.09281188
0002b0 0b 60 e0 bd 90 85 4c ba 27 d4 43 3d b1 d8 fd 3d
       -0.10955819 -0.0007801885 0.047809746 0.12394846
0002c0 05 3a da bc 0d 45 7f be b8 93 9f bd 6a 9a 21 bd
       -0.026638994 -0.24928685 -0.07791847 -0.0394539
0002d0 7f 4d 2c 3e 83 d1 19 be 27 55 4e 3e 89 93 31 be
       0.16826437 -0.15021329 0.2014967 -0.17341436
0002e0 14 cb e8 3d e3 fb 0f be 87 68 42 be b9 ae b3 bd
       0.11366859 -0.14060931 -0.18985187 -0.0877356
0002f0 87 3b 2c 3e 96 d8 61 be 56 7e 16 bd 09 da 07 be
       0.16819583 -0.22055277 -0.036741577 -0.13266768
000300 d3 5c cd bc 1f 57 f4 3d f1 be 0c 3c ac 27 19 3d
       -0.025068676 0.119306795 0.008590446 0.03739135
000310 8f 7e 11 3e 17 ae f5 bd 6b bb c7 bd 84 ae c7 3d
       0.14208435 -0.11996096 -0.09752544 0.09750083
000320 13 7f 99 3d c8 56 d6 3d 16 0b d4 3d b1 94 e5 3d
       0.074949406 0.10465771 0.10353677 0.11210001
000330 17 ec 79 3d ac a5 62 3d 57 68 42 3d db 52 db bd
       0.06101617 0.05533378 0.047462787 -0.10709163
000340 8c e3 6f bc e8 99 c0 bd e3 5b ef bb 3f 50 9e 3d
       -0.014641654 -0.09404355 -0.007304655 0.077301495
000350 2a 2e 10 bd 49 4b 86 bd 12 41 5f 3d 81 77 e9 3c
       -0.035200275 -0.06557328 0.054505415 0.028499367
000360 56 b1 11 3e 8c 5d 94 bc 6c 7e 90 bd d1 ba ea bd
       0.14227805 -0.018111013 -0.07055363 -0.11461414
000370 ae 92 ba 3c dd 83 a2 3b 89 dc b6 3c 70 4c f9 bd
       0.02277502 0.004959567 0.022321956 -0.121727824
000380 38 c0 8c 3d a9 37 c8 bd ef 8a a0 3d 28 0f 37 3c
       0.068726 -0.09776241 0.078389995 0.011173047
000390 ea c7 0c bc 7d 0e 96 3c 80 af f9 bd 7d 35 04 be
       -0.008592585 0.018317455 -0.12191677 -0.12911029
0003a0 3a af 98 3c 4a fe dd bd 4d eb 48 be e4 46 ca 3d
       0.018638242 -0.108395174 -0.1962101 0.098768026
0003b0 bb 5b 6b bd fd d7 c6 bc 8e 0d a0 3d 3d 9f 0a be
       -0.057460528 -0.024272913 0.07815085 -0.13537307
0003c0 e7 b9 fa 3d 0d 5f 7e 3d 83 f5 79 be 93 70 1c 3e
       0.12242489 0.062102366 -0.24410062 0.15277319
0003d0 6f c3 86 bd 33 3a 46 3d 2f 7a 6b 3c 61 8c d6 bc
       -0.06580245 0.048395347 0.014372393 -0.026189985
0003e0 0d 7b 04 3d b2 85 f3 3b 36 a3 a2 bd 43 2a 7b be
       0.032343913 0.007431709 -0.07941286 -0.2452784
0003f0 d7 c0 00 3d 3c 34 9e 3c ea 7f 89 3c c7 86 38 be
       0.031433906 0.019312017 0.016784627 -0.18020163

fc1.bias f4 [32]
000000 95 55 8e 3c 87 ce c0 3d 1e 53 d2 3d fd e3 b5 3d
       0.017374793 0.09414392 0.102697596 0.08881376
000010 f9 91 1b be 89 0b eb 3d ae d0 3f 3d df 74 a9 bc
       -0.15192403 0.114768095 0.04682987 -0.020685611
000020 4b 79 b9 3c 33 d1 33 3c a8 60 c6 3d eb 44 d8 bd
       0.022640845 0.01097517 0.096864045 -0.1056002
000030 06 0a f4 bb 21 1b e9 bd 56 e5 ab bd b0 45 05 3e
       -0.007447484 -0.113821276 -0.08393352 0.13014865
000040 50 05 3a be 04 9e ae 3d 29 80 f5 bd 33 60 16 bd
       -0.18166089 0.08526233 -0.11987335 -0.036712836
000050 d8 c4 df bd a3 90 b7 bd 78 2b bb bc fa 90 ff 3d
       -0.10926217 -0.08963134 -0.022847876 0.12478824
000060 63 d4 05 3e 2a 22 3b bd 0f 66 ce bd ad a3 b9 3c
       0.130693 -0.04568688 -0.1007806 0.022661055
000070 86 3f a0 bd 47 d9 aa bc 33 60 17 be a4 d2 c8 bd
       -0.07824616 -0.020855559 -0.14782791 -0.098058015

fc2.weight f4 [32, 32]
000000 90 6a f1 3d 19 56 ee bd 01 4f 8b be 42 8b 7c 3c
       0.11787903 -0.116375156 -0.27208713 0.015414061
000010 d0 a2 60 bc de 42 fc 3c fd 8e 57 bd 77 a3 79 bd
       -0.0137106925 0.030793604 -0.0526266 -0.060946908
000020 10 09 1a be 64 78 c8 bc 5c b1 8a be b3 65 3a 3e
       -0.1504252 -0.02447147 -0.2708844 0.18202858
000030 2f 13 7b be 48 e3 3b 3e 1b 07 7e 3e 01 bc 5e bd
       -0.24519037 0.1834842 0.24807398 -0.054378513
000040 6b ef 66 3e df 64 af bb 75 5c 36 3e cb ae 7a 3e
       0.22552268 -0.005352601 0.17808707 0.2448074
000050 35 fc ed 3d 45 bc 16 3e 89 ce 27 be 47 a7 69 be
       0.1162037 0.14720257 -0.1638738 -0.22817717
000060 cb 3c 79 be e0 40 97 3a 32 ef ab 3c 3c 9d 0a bd
       -0.24339597 0.001153972 0.02098808 -0.033841357
000070 5e 0d 6e 3e bc c7 56 be 06 92 a3 bc dc bd 0f 3e
       0.23247287 -0.2097463 -0.01996709 0.1403727
000080 5d 9b e2 bc 9e 1e 8e 3e 24 df 0e 3e c0 32 39 bc
       -0.027661974 0.27757734 0.13952309 -0.011303604
000090 c4 c7 15 be 64 3e 59 bd b8 c2 41 3e 25 fc 33 be
       -0.14626986 -0.053038016 0.18921936 -0.17576654
0000a0 c2 50 82 3d 22 1c 8e 3e ee bd d1 3c 62 4a 2a 3d
       0.063630596 0.2775584 0.02560326 0.041574843
0000b0 87 b9 72 3c 04 45 6c 3d 49 49 99 be 6e 73 5c 3c
       0.014814741 0.057683006 -0.29938725 0.013455255
0000c0 75 e0 5c be d4 8e 96 bb 66 12 dc bb 33 3d 86 be
       -0.21569999 -0.004594663 -0.0067160605 -0.26218566
0000d0 3d 93 23 be d9 f1 48 bc 48 77 86 3e 13 43 1a 3e
       -0.15974136 -0.012264692 0.2626288 0.1506465
0000e0 03 60 88 3e 6e 29 5c 3e 52 9f 95 be cc a3 a4 3b
       0.2663575 0.21500179 -0.29223114 0.005024409
0000f0 6c 0d ea bd 0a 50 73 bc 32 6e 8e be 7b a9 51 be
       -0.11428341 -0.014850626 -0.27818447 -0.20474808
000100 d0 45 2b 3e 02 56 f2 bc 2b 9a fa bd f2 7b b8 bc
       0.1672585 -0.029582027 -0.122364365 -0.02252004
000110 f4 a8 92 bd fa 70 d7 bd 0c 93 d5 3c 16 00 82 bd
       -0.071611315 -0.105195954 0.026071094 -0.06347673
000120 a4 b6 55 3d dc b6 3a be a9 ec 9e bd a1 2d 8f bd
       0.052176133 -0.18233818 -0.07759983 -0.06991125
000130 33 a2 a4 bd 6b 5e 83 3e fc e3 ad 3c b1 02 2b be
       -0.080387495 0.25657973 0.021226875 -0.16700245
000140 d2 22 37 3d b0 5c 04 be 38 f1 f4 bb ea b5 ac 3d
       0.04471094 -0.12925982 -0.0074750446 0.08433135
000150 1d a3 3e 3e e4 78 ed 3c 58 49 79 be 23 b3 11 be
       0.1861691 0.02898831 -0.24344385 -0.14228491
000160 64 6c 87 be 68 bb ab bd 74 b6 69 3c aa 54 82 be
       -0.26449883 -0.08385354 0.014264692 -0.2545522
000170 7e 02 2e 3d 3d 7b 23 be c4 de 2d bd 06 eb 90 bb
       0.042482845 -0.1596498 -0.042448774 -0.004422548
000180 3a d7 1d 3e ba 22 97 3d b7 be 5b bd b1 0d 7c be
       0.15414134 0.073796704 -0.053648677 -0.24614598
000190 c7 57 2b 3e dd aa 02 be e8 c7 04 be 7d 39 30 3e
       0.16732703 -0.12760492 -0.12966883 0.1720943
0001a0 25 12 9c bc 1c 3b b1 bd 5f 3d 97 3d 52 db 5b 3e
       -0.01905162 -0.08653852 0.073847525 0.21470383
0001b0 c8 74 3e be b1 23 3d bd 34 98 f4 bc 8d 98 50 be
       -0.18599236 -0.046176616 -0.029857732 -0.20370694
0001c0 f3 b9 23 3e bd db 89 be 4b 36 91 3e b7 23 6d 3e
       0.15988903 -0.2692546 0.28361735 0.23158155
0001d0 9e 63 37 3e fc 50 87 3d 50 06 1b be 19 da 28 be
       0.17909095 0.066072434 -0.15139127 -0.16489448
0001e0 bd 1e 40 be 22 b5 76 be ac 78 1d 3d e1 90 7f be
       -0.18761726 -0.24092534 0.03844516 -0.2495761
0001f0 44 d6 44 3e f4 8e e2 bc 42 b0 8a 3d 81 85 a5 3d
       0.19222361 -0.027656056 0.067719 0.080821045
000200 ad da e6 bd 63 90 17 3e d6 57 60 3e 69 b6 66 3e
       -0.11272178 0.14801173 0.21908507 0.22530521
000210 a6 a3 3a bb 2a 26 24 3d 53 c2 6d bd 1d 94 50 be
       -0.002847889 0.04007546 -0.05804665 -0.20369
000220 54 b0 8c 3e 24 01 93 3e bc 7c c6 3d 2f b0 8f be
       0.27478278 0.28711808 0.0969176 -0.28064105
000230 bd 81 85 3e 3a b0 b7 bd c9 b1 f1 bc 31 68 53 3e
       0.26075545 -0.089691594 -0.02950372 0.20645215
000240 af a2 81 be b5 ea 4f 3e 79 f2 2a be 97 2d 66 be
       -0.2531943 0.20304377 -0.16694058 -0.22478329
000250 23 70 c6 bc 90 30 c1 bd 28 a0 00 3c 5f f3 88 bd
       -0.024223393 -0.09433091 0.007850684 -0.06687044
000260 36 40 a7 3b 17 59 ff 3d d4 e7 ce bd b0 8d 6a 3e
       0.00510409 0.124681644 -0.101028115 0.22905612
000270 e7 2d f2 bd dc c2 66 bb c4 07 88 be bc f6 98 3c
       -0.118251614 -0.003521136 -0.26568425 0.01867234
000280 b4 cd 05 be 90 d9 c1 3d dc 8b 95 3d 93 18 e2 bd
       -0.13066751 0.09465325 0.07302067 -0.110398434
000290 6f f2 59 be 6a 6f c3 3c a0 76 d7 bd f6 f8 59 be
       -0.21283887 0.023856837 -0.10520673 -0.21286377
0002a0 b0 73 7d 3e 38 5d 35 3e 86 7a b1 3d ed 62 6e be
       0.24751163 0.17711341 0.086659476 -0.23279925
0002b0 2c 58 70 3e 10 f1 29 38 1a c7 36 be d3 14 2b 3d
       0.23471135 4.0517247e-05 -0.17849389 0.041767906
0002c0 e1 90 55 be a2 80 88 3e cb 20 df bd 27 c6 3a be
       -0.20856048 0.2666064 -0.10894927 -0.18239652
0002d0 c6 44 88 be e7 01 83 bd d9 12 80 3e 59 e9 7d 3c
       -0.2661497 -0.06396847 0.2501438 0.015497529
0002e0 56 d9 95 3d 59 67 1c bd de 68 ff bd 91 01 3c 3c
       0.07316844 -0.038184498 -0.12471174 0.011474983
0002f0 6c 64 8c bd 98 91 6a 3d 4d fb 6b be f9 8a 00 be
       -0.068550915 0.057267755 -0.23045082 -0.12553014
000300 6b 23 19 3e 3e 67 84 be fe 9a 3c bd 09 6b fc bc
       0.14954917 -0.25860018 -0.04604625 -0.030812757
000310 72 b8 f1 3c 37 7d 29 bd 97 3d 82 3d 43 17 6f 3e
       0.029506896 -0.04137918 0.063594036 0.23348717
000320 f5 a3 9c bd b9 a0 c1 bb 7c 6d b7 3c 85 46 61 3e
       -0.0764846 -0.005909052 0.022391073 0.21999557
000330 52 b1 20 be 22 85 24 bc af 2a 11 3e 23 4b 8a be
       -0.15692642 -0.010041507 0.14176439 -0.2701045
000340 0c a0 23 bd 5d 8b 62 bb e5 ee 53 3e 77 c0 20 3e
       -0.039947554 -0.003456793 0.206966 0.1569842
000350 fa 12 c9 3d ab 5b 08 3e fc aa f0 bd 28 e6 21 3d
       0.098180726 0.13316219 -0.11751363 0.039526135
000360 54 92 03 bc 60 c7 0d bd 54 89 3b 3e 7d 29 6c 3d
       -0.008030493 -0.034613967 0.18314105 0.057656754
000370 9f 56 60 3e 9b d8 80 be bb e6 0f 3d 65 15 81 3c
       0.21908043 -0.25165257 0.03513215 0.015757272
000380 37 9c cc bc b8 cc c0 bc 02 7f 05 bd 6b 45 0c 3e
       -0.024976833 -0.023535118 -0.032591827 0.13698356
000390 e2 a1 1b be 69 8c 80 3e 9f 30 cc bd c9 b8 fa bd
       -0.15198472 0.25107124 -0.09970211 -0.12242276
0003a0 7a 48 4b 3e 34 55 69 3c 87 7b 60 3d 0c a6 15 be
       0.19851866 0.014241505 0.054805305 -0.14614123
0003b0 3e f4 bc 3c 1b 55 88 be 1e 9e 22 be 08 2d 0d 3e
       0.023065683 -0.2662743 -0.1588063 0.1378671
0003c0 57 fd 56 be 5a bd 4e 3e 6b d5 82 bb 9e 91 3d 3b
       -0.20995079 0.2018942 -0.0039927266 0.0028925906
0003d0 4e 50 a8 bd cc 39 c9 3d 3a d7 f8 3c 59 57 7d 3e
       -0.08218442 0.09825477 0.030376066 0.24740352
0003e0 fc 3d 06 3b f0 84 ff 3d 98 2a 14 bb 44 f5 8c 3e
       0.0020483723 0.12476528 -0.0022608396 0.27530873
0003f0 c4 37 07 be 83 9a 6e 3d 84 1b 3a be f1 d9 5e be
       -0.13204867 0.058252823 -0.18174559 -0.21762826

fc2.bias f4 [32]
000000 61 0a 7a 3d 16 61 da 3d ca d0 be bd 28 9b 61 bd
       0.061045054 0.10663049 -0.09317167 -0.05507961
000010 6e 35 90 3d 5d 1a 4a 3d 3e 73 1b 3d 75 90 dc 3b
       0.07041441 0.04934155 0.0379517 0.006731088
000020 2e cb a5 bd 82 65 a2 3c 92 5a 84 bd 9d 4a 50 3b
       -0.08095394 0.019823793 -0.064625874 0.0031782754
000030 bc 3a 63 3d 8b a7 fc 3d dc 7d 94 ba 56 a3 86 bd
       0.055475935 0.12336644 -0.0011329013 -0.065741226
000040 37 06 0a 3e 86 d5 84 3d 76 30 f5 3c ae e9 c7 bc
       0.13478933 0.06486039 0.029930335 -0.02440342
000050 65 93 1f 3d fb 9f 0a 3d c8 20 5d bd 80 04 cd bd
       0.038958926 0.033843976 -0.05398634 -0.10010624
000060 a1 d3 db bb e1 4c 97 bc 22 a1 73 3d a4 06 0e be
       -0.0067085777 -0.018469276 0.05947984 -0.1386972
000070 12 8d fd 39 e9 f2 87 3d f9 38 4a bd 36 de a0 3d
       0.00048361026 0.06638128 -0.04937074 0.078548834

fc3.weight f4 [1, 32]
000000 41 5b 9b be 46 e8 3c 3e 93 10 4a be 9d 1a 79 be
       -0.3034306 0.1844798 -0.19732885 -0.24326558
000010 14 94 1d 3e 88 69 02 3e fa 88 76 be f3 31 62 3e
       0.15388519 0.1273557 -0.2407569 0.22089367
000020 a9 31 90 3e 2b 78 18 be 8f 04 25 be 43 9e 76 be
       0.28162888 -0.1488959 -0.1611502 -0.2408381
000030 81 db 2e be 8b 74 1e 3e 30 66 69 be 16 29 99 be
       -0.17075922 0.15474145 -0.22792888 -0.2991416
000040 bd f0 ed 3b 6b 22 75 be 97 be 30 3e 4a eb 84 3e
       0.0072613643 -0.2393891 0.17260204 0.2596076
000050 30 68 58 3e 13 d9 8a 3e a7 19 2e 3e a4 13 0a be
       0.21133494 0.2711874 0.17001973 -0.13484055
000060 66 b6 3b 3e 6f 05 8a 3e 01 c5 25 be 98 29 84 be
       0.18331298 0.2695727 -0.16188432 -0.25812984
000070 ff 0a 7b 3e 1f 25 10 3e 01 4c 34 3e 64 63 8f be
       0.24515913 0.1407666 0.17607118 -0.28005517
