amazon/20230719-120527/commm.pt (torch, 253910 bytes, 15 tensors)

encoder.learnable_skip f4 [2, 2]
00000000: 1a6d 7f3f 0000 803f 9e74 7f3f d785 7f3f
0.9977585 1.0 0.9978732 0.998136

encoder.pre_mp.0.weight f4 [64, 5]
00000000: cebe c4bb 81b5 723e 3bf4 babe 6501 a7be
00000010: 1e60 2dbe 4490 fb3d 5830 dbbb 6fca b43e
00000020: 3fb8 28bd ca43 ef3d 56b3 09be 6625 b5bd
00000030: f592 d9be 2377 96be 596d 3abe d96b 853c
00000040: c873 373e 1656 883e 835a 9cbe e090 49be
00000050: ef01 293e 27de be3e 66bd bdbd c912 ab3e
00000060: e0dd 94bd 7ac5 383d d115 cf3e 9a77 d5be
00000070: dd26 91be 8f0e ecbd 0940 35be 11b9 c43e
00000080: 2f3b 93be d975 50be 1eca 9ebe 42df d5be
00000090: 3c6b 86be 8901 c63e 6ddc 4e3e f058 603e
000000a0: 1436 aa3c 0f12 6dbe 60de 9e3d 5dcb d4be
000000b0: dc76 a4be e113 69be ec1c 923e 08d0 843e
000000c0: 3b05 4ebe 1a59 9bbc 11cd 903e c43f e23e
000000d0: f152 363e af46 793d 51d6 993e abac 87be
000000e0: 2bca a23d e9bb afbe 62e6 9cbe 01fb 68be
000000f0: 6d09 523e b615 393e bdd8 88be 9707 083e
00000100: 0902 793e c7e5 5ebd cb73 9e3c 4e2d d03d
00000110: 3307 8d3e 57d8 da3e fb71 afbe 0703 25be
00000120: 29cc 313e 0299 bc3e 7326 c63e 117e c83e
00000130: f221 b03d 73ab c5be b108 343d 01cd 8dbe
00000140: 1199 d3be efb7 cb3e f492 ac3e ccdc e5be
00000150: 6465 a53d 470c 95bd 5acd 91bd f32e 54be
00000160: 7391 2d3e a8e5 88be a427 2a3e b54c 643e
00000170: b8e2 a33e dd76 2b3e 9297 e2be 43dd 92be
00000180: c211 673e 0eee c03d 1b95 b2be 03a6 83be
00000190: 35c9 d83e 330c 993e f5ee 44be 55eb e0bd
000001a0: a6bd d8be c267 adbb f9cd adbe 6698 afbe
000001b0: 78e2 b6bc 3cee 8d3d bf2b 39be 28fe 883e
000001c0: 849b 8cbe cb80 ce3e 7ea6 9b3e 5d8e c1be
000001d0: 9b6c e9bd 5681 b13c 6e73 893d ab97 dc3d
000001e0: e60c 373e dbb9 ee3c 1e9e 61be ce8a 563e
000001f0: 22ba dcbe d30a 87be ed40 ebbd 5fe6 5cbe
00000200: 6dd7 1dbe 178d babe e78a bcbd 6397 bc3d
00000210: 6419 95be f693 babc 2e00 a43e 5001 31bd
00000220: 90d9 703c d073 20bd 6b31 b83d 5848 913e
00000230: 078b da3e 6380 923e 4d04 d93e 7cd3 07bd
00000240: 0e15 cebe b564 56be 383b 9d3e 7d82 bbbb
00000250: c586 66be dce8 b0be eb1b d5be acbb bfbe
00000260: 5c64 c0bd a19b 773e 8329 743e 2da9 dbbe
00000270: 92d4 8d3e 02a9 b2be ae09 bfbd 5c93 38be
00000280: cb3a b3bd f28b b2bd b2e4 ccbe 072f c5be
00000290: 3017 8dbd e716 0e3c 908c 51be a0fe 2d3e
000002a0: 6a49 cdbe a002 ebbc 35f2 c73e 0a3a 39be
000002b0: 3460 d03e 9208 293e af07 cdbe 5e43 913e
000002c0: 357a 47bd 545d 4fbe 5798 b53e 1185 babe
000002d0: c504 4e3d 219c babd 4327 a23e 1d3b fa3d
000002e0: 7353 593e 3a6a 243e 5f85 d7bd 16a8 c4bd
000002f0: ffbb bdbe dd18 763e a546 b43e ad5b 9b3e
00000300: 0701 a0be 473b bb3c e0e8 9fbe 058c 79be
00000310: 4541 84be 5119 1a3e e4a7 89be 4560 46bc
00000320: 1bfc 8d3c 0d99 943e 8d2c abbe e73b 9bbe
00000330: 7f05 83be be94 a13e 3923 22be 630b c03e
00000340: ce62 233e e82d 5f3d a585 bdbb f8ec b8bd
00000350: f45b 6a3d 2070 cebd e67e 04bb 6230 713d
00000360: f4a2 b2be 2732 6ebe 73c5 b93e efea b8be
00000370: 90df 0dbd 0c3e e13e a1de 273e c0e7 763c
00000380: c934 c5be a1c7 653e 18ce a1be 8f2b 04be
00000390: ddd6 1bbe 0aff 8bbd 20c7 d538 4b8b bb3e
000003a0: c2f6 623d e58a cd3e cafb 8b3e dd32 92be
000003b0: bd9e 4b3e bc8d a0be 8281 3fbe c24b 093e
000003c0: 0b6a 193e 07ba aa3e 4f51 13be 6580 083b
000003d0: 3b48 6c3e 26b4 debe 56e0 a63e 891a bdbe
000003e0: 8382 d43b a6eb 9abd 85b8 73be 90c5 683d
000003f0: d881 be3e c891 03be 2ec7 86be 4dde 26be
-0.006004191 0.23702051 -0.36514458 -0.3261825 -0.16931197 0.12283376 -0.0066891126 0.35310695
-0.041191336 0.116828516 -0.13447317 -0.08845024 -0.42494932 -0.2938777 -0.18205775 0.016286777
0.17915261 0.26628178 -0.30537805 -0.19684172 0.16504644 0.37278864 -0.092646405 0.3341277
-0.07268882 0.045110203 0.40446332 -0.4169281 -0.28349963 -0.11526214 -0.17700209 0.38422444
-0.2875609 -0.20357455 -0.31013578 -0.41771895 -0.26253688 0.38673046 0.20201273 0.21908927
0.02077774 -0.2315142 0.077572584 -0.41561404 -0.32121933 -0.2276149 0.2853769 0.25939965
-0.20119183 -0.018963385 0.28281453 0.44189274 0.17805077 0.060858425 0.30046323 -0.26498923
0.07948717 -0.34323052 -0.30644518 -0.22752 0.20511408 0.18074688 -0.26727858 0.13284145
0.24317183 -0.05441835 0.019342324 0.10164891 0.27544555 0.4274318 -0.34266648 -0.16114436
0.17363037 0.36835486 0.3870121 0.3915868 0.086002246 -0.38607368 0.0439536 -0.27695468
-0.41327718 0.39788768 0.33705866 -0.44895017 0.08075979 -0.07277732 -0.07119246 -0.20721035
0.16950016 -0.26737714 0.16616684 0.22294886 0.3200891 0.16744561 -0.44256264 -0.28684434
0.22565368 0.09420405 -0.34879383 -0.25712594 0.4234101 0.2989212 -0.1923178 -0.10982386
-0.4233219 -0.00529191 -0.33946207 -0.34295958 -0.022324786 0.06930205 -0.18083094 0.26756406
-0.274624 0.40332636 0.3040046 -0.37803927 -0.11397668 0.021668117 0.067114696 0.10771116
0.17876014 0.029141357 -0.22032973 0.20951387 -0.43110758 -0.26375446 -0.11486993 -0.21572255
-0.1541421 -0.36435768 -0.09206181 0.09208562 -0.29120934 -0.022775631 0.32031387 -0.043214142
0.014700308 -0.039172947 0.08993801 0.28375506 0.42684194 0.28613576 0.42386094 -0.03316067
-0.40250438 -0.20936854 0.30709243 -0.0057223425 -0.22512348 -0.34552658 -0.41622862 -0.3744787
-0.09394142 0.24180461 0.2384396 -0.42902508 0.2770124 -0.34894568 -0.09328018 -0.18024963
-0.08751448 -0.08718099 -0.4001823 -0.38512442 -0.06889188 0.0086724525 -0.20463777 0.16991663
-0.40095073 -0.028687775 0.39051977 -0.18088546 0.40698397 0.16507176 -0.40044925 0.2837171
-0.04870053 -0.20250446 0.3546779 -0.36429647 0.050297517 -0.091118105 0.3167058 0.12218306
0.2122324 0.16056147 -0.105234854 -0.09602372 -0.37057492 0.24032922 0.35210148 0.3034338
-0.31250784 0.022855414 -0.31232357 -0.2436982 -0.25831047 0.1504872 -0.26885903 -0.012107913
0.017332127 0.29023018 -0.33432427 -0.3031914 -0.2559013 0.31558794 -0.15833749 0.37508687
0.1595566 0.05448714 -0.005783754 -0.09029573 0.0572166 -0.1007998 -0.002021724 0.058884032
-0.34889948 -0.23261319 0.36283454 -0.3611674 -0.034637034 0.4399265 0.1639352 0.015069902
-0.38516834 0.22439434 -0.3160255 -0.12907241 -0.15218683 -0.06835754 0.000101937214 0.3662971
0.055411108 0.4014503 0.27340537 -0.2855443 0.19884773 -0.31358135 -0.18701747 0.13407806
0.14981858 0.33345053 -0.14386486 0.0020828482 0.23074429 -0.43496817 0.3259303 -0.36934307
0.006485285 -0.075644776 -0.23800857 0.056829035 0.37208438 -0.1284858 -0.26323837 -0.16295739

encoder.pre_mp.0.bias f4 [64]
00000000: 0ed5 233d e9f1 583d cd5a b4be d770 113d
00000010: da36 9d3e 4d7d cf3e 47f5 873e 3bd2 6f3d
00000020: 14b1 583e 8ec5 61be 251a bcbe a516 c4be
00000030: 2e01 e33e 3c50 903e fe3e 9fbe 1b41 363e
00000040: 991c ab3e 9d92 e33e 1710 c73e b3b1 af3e
00000050: df86 d7bd eb93 23be c7cf ba3e 5f79 803e
00000060: 8179 8bbe d220 cd3e 7415 5a3e 5ad1 763e
00000070: 4f2a 91be b4ab 003e 009b 22be f6b9 b13e
00000080: 84ef a1bd f454 2f3e 6550 a83d 6d53 423e
00000090: 76fa 1dbe 6f97 5c3e 7064 9ebe f7c3 c93d
000000a0: 5c1e 9abe b734 e3be d99d b6be 8bd4 b33e
000000b0: f657 7a3e 215c d53e 7fcd b93e ca09 cbbe
000000c0: 5373 9dbe 8fe8 8ebd 026f 93be e9b5 9d3e
000000d0: 76d2 abbe 503d 5dbe 522a dcbe 9899 80be
000000e0: c448 bb3e 82fc b93e d87a a53e 5b9b af3e
000000f0: 9755 ca3e 4f8b e6bd fc77 4b3e ccb5 cb3e
0.039998107 0.05296508 -0.35225525 0.035508003 0.3070591 0.40525284 0.2655432 0.0585501
0.211613 -0.22048017 -0.36738697 -0.38298526 0.44336838 0.28186214 -0.31102747 0.17798273
0.33420256 0.44447795 0.38879463 0.3431526 -0.105237715 -0.15974395 0.36486647 0.250926
-0.27241138 0.40064102 0.21297246 0.24103299 -0.2835259 0.125655 -0.1587944 0.3471219
-0.07907012 0.17122251 0.08218459 0.18977137 -0.15427575 0.21542142 -0.30936003 0.098518305
-0.30101287 -0.44376156 -0.35667303 0.35123095 0.24447617 0.4167185 0.36289594 -0.39655906
-0.30752048 -0.06977951 -0.2879563 0.3080285 -0.33559006 -0.2160542 -0.43001038 -0.25117183
0.36578953 0.3632546 0.32320285 0.34298214 0.39518425 -0.1125704 0.19869989 0.39787138

encoder.convs.0.bias f4 [64]
00000000: 43e5 16bb 1916 cd38 dbd7 6a3a 3264 f3ba
00000010: ca11 313b 7df5 853b 0442 4e3b 941f 203b
00000020: 91f8 8f3b 7f16 adba 0000 0000 aaba 16bb
00000030: 8ff4 57bb 53a1 0b3c b4e9 21bb 0000 0000
00000040: 5277 2ebb ba15 30bb cdb0 a13a 0000 0000
00000050: d289 16bb 9b26 3cbb 7e53 2bbb 46f7 2ebb
00000060: 52f9 09bb 02ee 39bb 0000 0000 b4c4 9fba
00000070: 190d b73a ae1f 463b 26ec 2a3a 0000 0000
00000080: 0000 0000 4263 02bb 7fa0 c33a 16fe c5ba
00000090: 239b 02bb d855 0b3b 0000 0000 d4f8 d4ba
000000a0: ec23 5b3b b1ce 123b 1a3d 10bb afab 98b9
000000b0: d339 0cba 0328 35bb 58d2 573b c2cb 343b
000000c0: 0000 0000 3ea7 2c3b f7be 6dbb 6330 193b
000000d0: 2dac 1b3b 5169 42bb 3791 fd3a b34b 4ebb
000000e0: 0000 0000 dfb9 8a3a 0000 0000 5b91 ab3a
000000f0: e647 1ebb 4014 56ba 2045 92ba 4fe8 10bb
-0.0023024834 9.779278e-05 0.00089585566 -0.0018569289 0.002701866 0.0040881024 0.0031472454 0.0024432885
0.004393645 -0.0013205557 0.0 -0.0022999444 -0.0032952165 0.008522349 -0.0024705948 0.0
-0.0026621413 -0.0026868419 0.0012336016 0.0 -0.002297033 -0.0028709534 -0.0026142295 -0.002669768
-0.0021053148 -0.0028370623 0.0 -0.0012189359 0.0013965695 0.0030231285 0.0006520174 0.0
0.0 -0.0019895588 0.0014925151 -0.0015105631 -0.0019928894 0.0021260884 0.0 -0.0016248473
0.003343816 0.002240103 -0.0022009076 -0.00029119613 -0.00053491927 -0.0027642257 0.003293177 0.002758727
0.0 0.0026344801 -0.0036277154 0.0023374788 0.0023753748 -0.0029664824 0.0019345646 -0.0031478226
0.0 0.0010583958 0.0 0.0013089584 -0.0024151742 -0.00081664696 -0.0011159517 -0.0022111123

encoder.convs.0.lin.weight f4 [64, 64]
00000000: 2a08 583b d170 33be 5953 febd 3b36 b4bd
00000010: bd4e aa3c 6494 a63d 3830 2ebd b410 b2bd
00000020: db3d be3d 0339 55be 843a 1d3e 03ad bcbc
00000030: 4ce9 173e 3a60 253e 235f ce3c d658 883d
00000040: 6b89 ffbd d480 1c3e 8ecc fe3d 8a8e 14bd
00000050: b792 b03d bc88 22bc dae4 2a3e 54d9 b13d
00000060: cdea 233e 75cf 4bbe aea7 553e 1a9d a03d
00000070: dc44 dc3d eb8f 3d3d 89a4 133e ef6a 4e3e
00000080: e277 90bc 4337 38be c484 493e fe3d 44bd
00000090: 5bd1 d1bd a325 063e e7f6 fb3d 66e5 da3c
000000a0: 779c 3cbc d757 20bd 06a3 4d3e d2bf 043e
000000b0: cbab 013e a70a 0b3e 268d ecbd 676d 423d
000000c0: 8f72 3dbe 6ebe 013e da67 59be 86e5 5fbe
000000d0: 08ea 58be 92dd 0a3e f9f4 ca3c e39e 333b
000000e0: 25b2 033d 1682 acbd a060 8bbd 92ae 17be
000000f0: e3ff 61bd db55 06be d27c 5f3b ccdb 2b3e
00000100: 4d5f 3abe 1beb df3d 56fb 26be cc78 bdbd
00000110: 9d41 313d 3834 0f3d e100 333e 9137 1c3b
00000120: d3da adbd 38ca b6bd 93b7 fd3b b716 28be
00000130: 0b67 2dbe 61a9 b9bd a977 083c 04b8 18be
00000140: 967b fcbd a8a1 1d3e af37 4d3e c941 8ebd
00000150: 1266 40be fbc1 aebd f87d b53d 503c 913d
00000160: c56d 8cbd eb18 45be fc00 85bd 2919 41bd
00000170: 7957 ff3d 2e29 e2bd fa30 083e 10a6 e63c
00000180: 09a2 20bd e81b 47be 8992 5c3e 992a 24bd
00000190: ef70 0e3e 816e e7bd 783f 59be 6790 31be
000001a0: 29f3 e6bd e431 8abd c181 fcbc 8e38 383e
000001b0: d878 4dbe e1a8 db3d 638c 3c3e dd4b 043a
000001c0: 3800 0abe 24ed 933b d4ff 513d f07e c23d
000001d0: bf6f 82bd ae9c 92bd 3356 d4bd 7c18 57be
000001e0: 70ee 9b3d b686 27be e966 d4bd fdc2 49bb
000001f0: 8ae2 2a3e 9fd1 473e f57c 20be 78d3 403e
00000200: 3f87 473e d12b 323e ffa0 a13c e4eb 323e
00000210: f632 d83d 812c 1ebe 14e3 e7bd 95a4 513b
00000220: 3115 1cbe b06f 94bd e2ac 313e 6130 d03d
00000230: 7ad0 413e f66a 4b3a f3fe e3bd 01ad 133e
00000240: 40b5 883c 283d 193d 7663 babd 7afd b73d
00000250: 07dd 22be 809d 313e 3276 413e 5a75 a13d
00000260: fa2e 2d3e f58f 073e 0da6 a7bd c1df 40be
00000270: c4b9 df3c 5f19 0c3e 2f3b bcbc d59e 9c3c
00000280: 0b4e 253e f347 b93d 92ef 243e 0cfd 053d
00000290: 832f bf3c 44f1 4fbd 82d7 12bd 7729 e9bd
000002a0: a917 153e e741 493e afe8 a23d 1905 ec3b
000002b0: 40d0 90bd 97d4 59be 82b6 27bd 972f 1dbe
000002c0: d0d2 24be 3c41 2cbd fc4d 32bd f574 373d
000002d0: 57b9 21be 7960 1e3e e05c 49be b09d d1bd
000002e0: c7ff a5bd ede9 6a3c d0e6 b83d 8238 66bd
000002f0: e9f6 0d3d d608 56bd fd85 adbd d909 f1bc
00000300: ad1d 3a3d 003e 59be bf6a 18be ef19 2f3e
00000310: f8b4 c43d b1ad fabb d6cf 0d3c 5da7 e53c
00000320: f655 463d 7275 15be 6d1e 6abd 7093 49be
00000330: a432 30be 1871 2ebd af11 f9bc e146 2f3e
00000340: e927 113d 7665 17bd 58ad 00bc 08d3 f33d
00000350: 1f86 82bd 2632 1ebd 2f7d 39bd 48ad 34be
00000360: 0bae e8bc 78dc 4ebe 9123 f2bd 7003 0fbe
00000370: 360e 273e 3e55 4abe 74ba 533e 726f a23d
00000380: b0ee 13be 33c6 353e 5e08 4bbd 63ad 3dbe
00000390: 6aa1 02bd a256 d73d 6ba9 55be d614 94bc
000003a0: 2e35 b83d a6fb a8bd 19ba b03c d795 b1bd
000003b0: b1a9 16be 1eb9 2b3e 1651 1fbe d98a 33ba
000003c0: 897b 973d eb01 f4bd 01e4 d93d a304 3abe
000003d0: c1a5 553e 91bb c13d 4bec ebbc fe85 36be
000003e0: aaf8 9d3b 607b 993d 22a0 f4bd 0498 eebc
000003f0: c0d7 5ebe 5f65 5fbe c0d3 cfbc 129c 373e
0.003296385 -0.17523505 -0.12418241 -0.08799406 0.020789498 0.08133772 -0.042526454 -0.08694592
0.09289142 -0.2082253 0.15354353 -0.023031717 0.1483509 0.16149989 0.02519185 0.06657569
-0.12477382 0.15283519 0.124413595 -0.03626875 0.08621734 -0.009920295 0.16688862 0.0868403
0.16007538 -0.19903357 0.20864746 0.07842465 0.107553214 0.04627983 0.14418234 0.2015798
-0.01763529 -0.1798983 0.19679552 -0.047910683 -0.102450095 0.13100295 0.12302952 0.026720714
-0.0115119135 -0.03914627 0.2008172 0.12963799 0.1266319 0.13578282 -0.115503594 0.047467615
-0.18500732 0.126703 -0.21231022 -0.218649 -0.21183026 0.13561085 0.024775015 0.0027407936
0.032152314 -0.084232494 -0.06805539 -0.14812687 -0.055175673 -0.13118689 0.0034101498 0.16783065
-0.18200417 0.10933515 -0.16306815 -0.09251556 0.043275464 0.03496191 0.17480804 0.002383683
-0.08489003 -0.08925289 0.007742831 -0.16414915 -0.16933839 -0.090655096 0.00832931 -0.14913946
-0.1232826 0.15393698 0.20040773 -0.06946141 -0.18788937 -0.085330926 0.08861917 0.07091582
-0.068568744 -0.19247787 -0.064943284 -0.047143135 0.12467856 -0.11043011 0.13299933 0.028155357
-0.03921703 -0.19444239 0.21540274 -0.040079687 0.13910268 -0.11300374 -0.21215618 -0.17340241
-0.11276848 -0.06747797 -0.03082359 0.17990324 -0.2006563 0.107255705 0.18412928 0.0005046705
-0.13476646 0.0045143533 0.051269367 0.09496868 -0.0636897 -0.071587905 -0.10368004 -0.21005434
0.07613838 -0.16359982 -0.10371191 -0.0030786388 0.1668798 0.19513558 -0.15672667 0.18830669
0.19485186 0.17399527 0.01973009 0.17472798 0.10556595 -0.15446664 -0.113226086 0.0031988968
-0.15242459 -0.07247865 0.17351106 0.101654775 0.18927184 0.0007759774 -0.11132612 0.14421465
0.01668799 0.03741184 -0.09101002 0.08983894 -0.15904628 0.17345238 0.18892744 0.07883711
0.16912451 0.13238509 -0.081859685 -0.18835355 0.02731026 0.13681553 -0.02297744 0.019118706
0.16143052 0.09046926 0.16107014 0.032712027 0.023338085 -0.0507672 -0.035850056 -0.11384862
0.14559807 0.19654046 0.07954537 0.007202756 -0.070709705 -0.21272503 -0.040945537 -0.15350185
-0.16096044 -0.0420544 -0.043531403 0.044789273 -0.15793358 0.15466489 -0.19664335 -0.10235155
-0.08105426 0.014337999 0.09028399 -0.056206234 0.0346593 -0.05225452 -0.08472822 -0.029423641
0.045438457 -0.21215057 -0.1488447 0.17099737 0.096048295 -0.0076501 0.008655509 0.028033907
0.048421822 -0.14595583 -0.057157923 -0.19685149 -0.17206818 -0.042588323 -0.03040394 0.17116882
0.035438452 -0.036961995 -0.007853828 0.119054854 -0.06373238 -0.038622044 -0.0452854 -0.17644227
-0.028403303 -0.2020129 -0.1182319 -0.13966155 0.16314015 -0.1975908 0.20676595 0.07931413
-0.14446521 0.17751388 -0.049568526 -0.18523173 -0.031892218 0.10514571 -0.20865409 -0.018076342
0.08994518 -0.08251123 0.021573113 -0.08671158 -0.1471317 0.16769835 -0.15558276 -0.0006848998
0.07396609 -0.11914428 0.106391914 -0.18165831 0.20864011 0.094596036 -0.028799197 -0.17824551
0.004820903 0.07494235 -0.119446054 -0.029125221 -0.2176199 -0.21816014 -0.025369525 0.1793063

encoder.convs.1.bias f4 [64]
00000000: 0063 63bb f2a9 c9ba 7cc9 bdb9 db88 18bb
00000010: e1b8 e5ba 803f 063b 579e 32bb eef6 3fbb
00000020: 7cf1 ddba eb94 343b bbfa 30bb 44dc 3cba
00000030: 2cee 06bb 977b 233b 8a8b dbba 963c 20bb
00000040: 723a 8f3b ff13 3f3b e5d8 103b e704 693b
00000050: e2fa 3aba 0dc7 333b 0000 0000 489f faba
00000060: c06d 1fbb afc5 08bb 39cd 383a 0077 2f3b
00000070: 3693 0b3b 9d9f 20bb 18ed 223b 8fad 3c3b
00000080: 68ba cf3a e9d1 07bb afcb 053b f091 03bb
00000090: 1396 063b ad0b 0ab9 8105 373b 1f8b 5c3b
000000a0: 2fe0 c639 5115 3c3b 0121 2abb 66d4 1c3b
000000b0: 8309 313b b555 07bb d2b9 543b cf3f 1bbb
000000c0: 5609 103b 5c84 143b aa29 ebba 4e81 0cbb
000000d0: 0cb8 1d3b 385a acba 87ea 26bb ffef 52bb
000000e0: 831d 2c3b 73a6 16bb 9fab 403b 1c59 ba3a
000000f0: a794 a93a 4fc1 ecba 4353 f23a 1451 4bbb
-0.003469646 -0.0015385731 -0.00036199007 -0.0023274932 -0.0017526412 0.0020484626 -0.0027255022 -0.0029291469
-0.001693293 0.0027554582 -0.0027004916 -0.0007204453 -0.002058874 0.0024945491 -0.001674996 -0.0024450175
0.004370981 0.0029156206 0.0022101935 0.00355559 -0.00071327214 0.0027431876 0.0 -0.0019120956
-0.002432689 -0.0020869782 0.00070496235 0.002677381 0.0021297461 -0.00245092 0.0024860557 0.0028789972
0.00158484 -0.0020724481 0.0020415594 -0.0020076 0.0020536229 -0.00013165055 0.0027926865 0.0033652259
0.00037932533 0.002869923 -0.0025959613 0.002393031 0.0027013726 -0.002065045 0.003245939 -0.0023689156
0.002197822 0.00226619 -0.0017941494 -0.0021439376 0.0024066 -0.0013149446 -0.002546938 -0.0032186506
0.0026262708 -0.0022987395 0.002939917 0.001421723 0.0012937979 -0.0018062982 0.0018487949 -0.0031023668

encoder.convs.1.lin.weight f4 [64, 128]
00000000: 2f15 ecbc 633b bfbd d1c6 93bd b5b1 aabd
00000010: d341 213e 1dd8 6bbc 5199 0d3e c776 f6bd
00000020: 3105 a83d b5ee 22be 825c 61bd 84ba 9abd
00000030: 001b 2cbe eb7e 03be 7205 ecbd 6b5d 0cbd
00000040: 94a0 7dbd dc98 2abe 8e54 ce3c 6288 953d
00000050: 76ea db3c 734e 0a3e b315 79bc 4dba 123e
00000060: d82f 6bbc 1683 86bc 4ecf 5fbc b49c 8bbd
00000070: 8607 88bd e6cb 1f3d 69a1 bebd bb7a 6b3d
00000080: d255 14be 0d58 ccbc f813 b3bc a5fc a8bd
00000090: 3ce7 043e e93c 16be f58c a53d 9922 25be
000000a0: 5d7b cf3d 52c2 2e3e 3525 1bbd 666a 82bc
000000b0: 259c 0fbc d830 c93d 0569 523c c585 3fbd
000000c0: 69ee 223e 2855 073e 8036 09bc a714 bfbd
000000d0: f6cd d63d b948 99bd cd59 cfbd 9f6d e8bd
000000e0: 896e 333c 973b a1bd 72e3 eb3d 3a9f f53d
000000f0: e2b4 a1bd 1e66 88bd bd7d 033e c08a b2bd
00000100: b459 de3d 6620 5dbc 964f fd3d d0f3 b33d
00000110: 06fd 03be af08 05be 8297 973d 6617 b6bd
00000120: 4a3d f53b cba6 fb3c 9c53 12be 4ef1 56bc
00000130: 0d5c f53d 384e 08bc 200a e5bd 41e2 1d3e
00000140: 2efe 183e 7df7 1e3d 2796 e2bd aadc 9b3d
00000150: 0660 423d 4f92 ddbd fc87 06be c368 9dbd
00000160: ece3 283e 4486 7f3c 804f 28bb 5607 a23d
00000170: a52f d7bd e4aa 73bd 7f6a dd3c ebd3 1d3e
00000180: 0062 4abc 6700 133d 20df 1bbe 80e0 2cbe
00000190: a2de 0b3d a5bb b0bb 1109 0e3e 8176 163d
000001a0: c6cb 1e3e 5e06 19bd 0ff2 53bd b8c7 95bc
000001b0: c66f adbd 3ca2 023c ccf8 18be 788d 833c
000001c0: 20c5 45bc 80a4 603d f23b 2c3e 731b 753d
000001d0: e4d6 d33c 4a92 f2bd bab0 83bd 07db 94bd
000001e0: 37fd 18be 466d ba3d bffb 2b3e e5d4 e73d
000001f0: 8b05 0b3e 8fa1 cbbd 6f3a 9abd 61cf 70bd
00000200: 886b a6bd 731a 0dbe a68f 16be 5fdb 23bc
00000210: 2aef d2bd 7ae6 09be cafb 2e3e b3c6 27be
00000220: 8eca 69bd f0fa ec3d b106 b6bd 14be a43d
00000230: cdfc 02be 3314 89b8 4970 873d 7aaf 67bd
00000240: c379 02be 5270 073d ad1b febc c164 1c3e
00000250: b266 ebbc 1c2c 0a3e 203b 96bd b796 89bd
00000260: 68c0 93ba 03c2 c73d 6c74 253e a2da ac3d
00000270: 788f 9fbd 5f53 2c3c c4b2 f33d abc6 0e3e
00000280: e64f 003e 15c4 6d3d a433 a5bc 8f70 f43d
00000290: ec46 793d 6819 1ebe df97 2f3e 5d5b 6ebc
000002a0: 6787 2b3e eed0 d93d 72c9 1dbc e049 1cbe
000002b0: c5f3 2ebe fee1 b0bd e724 9a3d 31ac 443c
000002c0: 46e1 9a3c f032 15be 5187 ca3d 8adc 39bd
000002d0: 8f49 c13d d5c0 11be b373 b73a ff14 b43d
000002e0: 7f4c 503d 05a7 35be 42d2 163e 1f59 08be
000002f0: 3264 28be 79c0 f7bd 23ce 29be bfa4 873d
00000300: afcf 063e f78f 113e 8d88 773d a045 42bd
00000310: 04d9 183d 09be 593d 4f1f 35be 0010 8fba
00000320: 6293 2b3d 27e7 103e fae9 d93d fde0 52bd
00000330: 9a5d 14bc 5e9b e63d 2766 243e 5270 b9bd
00000340: 1774 333e c48f 02bd 6f18 a5bd 8096 81ba
00000350: f7e4 0d3e ab26 d2bd 5124 963b c2ae d3bd
00000360: c004 91bb 4c87 f93d 7e32 b3bd 46b1 a2bd
00000370: 8ea0 3d3d 7605 a73d 2037 78bc 3cbb 26bd
00000380: b064 37bc 2e3b 553d d016 1e3e 8abf 9f3d
00000390: 88fe ea3c 48e4 693d 10f7 583d 6d87 23bc
000003a0: 59bb f6bd 1c85 aebd 8c21 773d ad0a 783d
000003b0: 9f28 b8bd ade9 cabd 6467 cb3d ff25 0abd
000003c0: e281 dc3d 28aa 403d e55d 073d 6b68 b3bc
000003d0: fad5 a0bd 6825 373d e74e e5bd 3dfc a2bd
000003e0: 5872 02be 0c87 d0ba d0f1 c3bd c387 85bd
000003f0: 738b 70bd c674 9f3d 8296 c83d d8a5 f13d
-0.028818695 -0.09337499 -0.072156556 -0.08334676 0.15747766 -0.014394787 0.13828017 -0.12034374
0.08204115 -0.15911372 -0.055019863 -0.07555106 -0.16807175 -0.12841384 -0.11524476 -0.034268778
-0.061920717 -0.16659874 0.025186803 0.073014036 0.026845198 0.13506489 -0.015202927 0.1432888
-0.014354669 -0.016419929 -0.013660265 -0.06816998 -0.0664206 0.039012812 -0.0930813 0.05749009
-0.14485863 -0.02494433 -0.021860108 -0.08251313 0.12978834 -0.14671673 0.08083526 -0.16126479
0.101309516 0.17066315 -0.03787728 -0.015919875 -0.008765255 0.09823769 0.012842421 -0.046758432
0.15911259 0.13216078 -0.00837481 -0.09330111 0.10488503 -0.07484574 -0.1012455 -0.113490336
0.010951647 -0.07872694 0.11517991 0.11993261 -0.07895829 -0.06660102 0.12840934 -0.08717871
0.10856953 -0.013496494 0.123686954 0.08786738 -0.1288949 -0.12991594 0.07401945 -0.08891182
0.007484113 0.030719182 -0.14289707 -0.013119055 0.11980448 -0.00831943 -0.11183572 0.1541834
0.14940712 0.038810242 -0.110637955 0.07610448 0.047454856 -0.10818922 -0.13137811 -0.07685997
0.16493195 0.015595976 -0.0025682151 0.079115555 -0.10507134 -0.059489146 0.02702832 0.15412872
-0.012352467 0.035889056 -0.15221834 -0.16882515 0.034147866 -0.0053934627 0.13870646 0.036734108
0.15507421 -0.037359588 -0.051744517 -0.01828371 -0.08468585 0.00797325 -0.14938658 0.016058668
-0.012070924 0.05484438 0.16819742 0.05984063 0.025859304 -0.11844309 -0.06430192 -0.07268339
-0.14940344 0.091028735 0.16795252 0.11319903 0.13576333 -0.09942924 -0.075306766 -0.058791522
-0.08125979 -0.13779621 -0.14703235 -0.010001033 -0.10299523 -0.13466826 0.17088237 -0.16384391
-0.057077937 0.115713 -0.08887995 0.08044067 -0.12791748 -6.5364315e-05 0.066132136 -0.056563832
-0.12741761 0.0330661 -0.031019056 0.1527281 -0.028735492 0.13493389 -0.07335496 -0.067182
-0.0011272551 0.09753802 0.16157693 0.084401384 -0.07791036 0.010517924 0.11899331 0.13942973
0.12530479 0.058048327 -0.020166226 0.11935531 0.060858652 -0.15439379 0.17147778 -0.01454815
0.1675087 0.10635553 -0.009630548 -0.15262556 -0.17085178 -0.086368546 0.0752657 0.012003944
0.018906247 -0.14570212 0.09889091 -0.045376338 0.09437858 -0.14233716 0.0013996273 0.08793067
0.050854202 -0.17739494 0.14728644 -0.13315247 -0.16444471 -0.12097258 -0.16582541 0.0662322
0.13165163 0.14215074 0.06043296 -0.04742968 0.037316337 0.053159747 -0.17687725 -0.0010914803
0.041888602 0.14150678 0.106403306 -0.051484097 -0.0090555195 0.11260103 0.16054593 -0.090546265
0.17524754 -0.031875387 -0.08061301 -0.0009886771 0.13856874 -0.102612816 0.004581966 -0.10336067
-0.004425615 0.12184009 -0.08749865 -0.079439685 0.046295695 0.081553385 -0.015149862 -0.040705904
-0.011193439 0.05205839 0.1543839 0.07800205 0.028685823 0.05710247 0.052969992 -0.0099810185
-0.120474525 -0.08521482 0.060334727 0.060557056 -0.08992123 -0.09907851 0.099318296 -0.033727642
0.10766961 0.047037274 0.03304853 -0.021900376 -0.07853313 0.044713408 -0.1119669 -0.07958267
-0.12738931 -0.0015909388 -0.095676064 -0.06520035 -0.05872674 0.07785945 0.09794332 0.1179921

encoder.post_mp.0.weight f4 [64, 192]
00000000: 4aac df3b 1328 5dbc 43d9 133d 32af 8dbb
00000010: 7faa 0c3d 8a85 d7bc 5544 04bd 2137 9d3c
00000020: 3955 45bb 71ef 75bd a116 553d 2c00 8dbd
00000030: bf50 5d3d 8ee7 65bd 1364 73bd abab 2d3d
00000040: 8596 043d 2674 2d3d e36f 0ebd bf08 53bc
00000050: 08cf 653b fb40 d33c 3397 e5ba 414e 93bd
00000060: 3065 a8bc f542 413d 3776 d2bb 3bff 153b
00000070: 5e47 053d 5a29 49bc 7d57 483d 88fe 04bd
00000080: baa6 de3b 7967 1d3c 1cc5 803d 07c1 abbb
00000090: 7982 24bd 7838 86bc 3559 d7bb 2cc5 86bc
000000a0: dead 36bc 94af 93bc 607b 103d 5686 91bd
000000b0: 6c6e c73c 7c2f 48bd fbd3 8e3d a835 53ba
000000c0: 08a7 173c d3b4 5cbd 88aa 69bc eb22 383d
000000d0: b804 193d 8a43 3dbd 113c 673d c7a7 0ebc
000000e0: c390 673d 9004 303b fc65 f8bc ee0c 0a3c
000000f0: a3a1 1e3d c18e 89bd a72f 14bd c7ba 483d
00000100: 812d 8c3b d1a0 20bd ca54 febb 337b 163d
00000110: 94ca cab9 9bef 77bd ddf2 94bd 8aee 793d
00000120: b439 c5bc d4f3 64bd 84ef 32bc b55e e13c
00000130: 0556 583d 2639 4abd 1a66 1c3d 345e efbc
00000140: 9026 543c 4743 09bc ffc3 60bd e050 60bc
00000150: 3d92 89bd 7c77 85bd b69f 04bd 4be6 e7bc
00000160: e443 35bd 7dda b53c 2876 4bbc 2cfa 683d
00000170: 1e6f 623d e49e 15bc 9c81 7bbc 80cc 5dba
00000180: 6028 2ebb bfe3 853c 402b 15bc b926 7a3d
00000190: 03d5 293c b043 6d3c 4f4c 71bd d409 90bd
000001a0: 77b0 c23a 7b6a 3b3d 8654 bdbc deae 9c3c
000001b0: 42da 8cbd bd02 2c3c cbe7 97bc b798 febc
000001c0: 2ee3 0cbd e0a4 f9bb 4c79 133d 4b6d 7b3d
000001d0: c2d2 69bd aab2 813c 6e82 8fbd c4ea 973c
000001e0: dcb5 463d c0c5 f13b b0e2 303d 81e2 7abd
000001f0: 6745 9b3c 0025 1fbd bfff 2e3c 3284 803a
00000200: e657 353d 36b3 463a 1cf9 f93c c66f 2c3d
00000210: c4a4 8abc bd0c 5ebd f611 bdbb a39c df3c
00000220: bd0c 8cbd b25d 2ebd 6ede 093d 0eff 51bd
00000230: 5a5b 803d b179 49bd 10d8 663d b1d2 6cbd
00000240: 05fd 833b d5f9 93bb b49d d13c 29d0 ea3b
00000250: c52f 783d 8b74 92bc 3a3f 843d da5b aabc
00000260: 59b5 79bd 28bb 503d c356 4e3c d7ea 7c3c
00000270: 85ab 9f3c 43f9 283d 7600 0c3d f553 b63c
00000280: e4f9 093c bcd8 393b 4df5 133d 3213 833d
00000290: 1c0e b2bc 9983 86bd c76d 6c3c afa6 0e3d
000002a0: 6a7f 57bd 38ad 4bbd 58ee 73bd 1759 b9bb
000002b0: a461 35bd 6de0 a63c 42ec 063d f1ca 10bd
000002c0: 0dfa 42bd 415b 8fbd 810c 4bbd 74f7 3e3c
000002d0: 750c a8bb dada e9bc 0764 a6bb 2973 efbc
000002e0: 1f23 99bd 3de2 6fbd b1fb abbc 16d9 89bd
000002f0: 91ec 203d 8101 18bd 999a 4ebd c23a f1bb
00000300: 5e2c 81bd ec28 5f3d 1baa 2c3d 6d41 573c
00000310: b518 54bd 1afb 273d 274a 66bd db19 763d
00000320: e5e3 6ebc 6c98 d3bb 4b32 88bd 878b ad3c
00000330: fe37 80bc b166 2abc 7680 bfbc 14ab e7bc
00000340: 737f 3f3c 3b23 a73c c4c7 5b3d b986 0cbc
00000350: 4094 243d 54dd 94bd 05f4 9b3c 29d4 a93b
00000360: fcf1 aebc 4e19 eb3c 0061 5339 36a2 a2bb
00000370: 678c 853d f9c1 85bd 6d7f 32bd b1a6 d2bc
00000380: 9d05 783d a906 acbc 6896 583c 3910 48bc
00000390: d7b8 463d 8537 463d c241 53bd 650d 0e3c
000003a0: dfbb 92bd 01c8 09bd b9e9 65bd eb85 a0bc
000003b0: cbfb 1e3b e490 bbbc 544b d2bc 5a95 d1bc
000003c0: 8af9 093c 321c 7cbd 7cde 653d aae1 fdbc
000003d0: 2ca8 62bb 22e0 62bd b9fc 87bd 3cd5 41bd
000003e0: 2018 6dbd d56d 8cbd 3ffe 523d a19e 933d
000003f0: 8af0 27bd 6ab0 823d a560 333c eed9 903d
0.0068259584 -0.013498324 0.03609587 -0.0043238634 0.034342285 -0.026308794 -0.03229173 0.019191327
-0.003011061 -0.060042802 0.052023534 -0.068847984 0.054032084 -0.05612903 -0.05942161 0.042400043
0.03237011 0.042347096 -0.034774672 -0.012880503 0.0035066027 0.025787821 -0.0017516374 -0.0719266
-0.020556062 0.047182996 -0.0064227837 0.0022887725 0.032538764 -0.012277925 0.04891156 -0.032469302
0.0067947777 0.009607189 0.06287596 -0.0052415165 -0.04016349 -0.016384348 -0.0065719136 -0.01645144
-0.011149852 -0.018028058 0.03527391 -0.07105701 0.024344645 -0.04887341 0.06974026 -0.00080570066
0.009256132 -0.053883385 -0.014261849 0.044955175 0.037358016 -0.04620699 0.05645377 -0.008706993
0.05653454 0.0026858188 -0.030322067 0.008425934 0.038728368 -0.06716681 -0.036178257 0.04900625
0.0042778854 -0.039215866 -0.0077615725 0.036738586 -0.00038679375 -0.06053124 -0.07272885 0.061018504
-0.024075367 -0.055896595 -0.010921363 0.02751098 0.05281641 -0.049370907 0.03818331 -0.029219724
0.012948647 -0.008377857 -0.054874416 -0.013691157 -0.06717346 -0.065169305 -0.032378875 -0.028308054
-0.0442542 0.02219891 -0.012418307 0.056879207 0.05528175 -0.009132121 -0.0153507255 -0.0008460954
-0.0026574358 0.01634395 -0.00910455 0.061072085 0.010365727 0.01448147 -0.058910664 -0.070331246
0.0014853616 0.045755845 -0.023111593 0.019126352 -0.06877567 0.0104987 -0.018543145 -0.03107868
-0.034396343 -0.0076185316 0.03600435 0.061383527 -0.05708576 0.015832264 -0.07007299 0.018544562
0.04851328 0.00737831 0.043184936 -0.061251167 0.018953992 -0.038853645 0.010681092 0.0009805022
0.04427328 0.0007579805 0.030514292 0.042098783 -0.01692427 -0.054211367 -0.0057699634 0.02729637
-0.06838367 -0.042569824 0.03365939 -0.05126863 0.06267424 -0.04918832 0.056358397 -0.05781812
0.004027965 -0.0045158663 0.025587894 0.007165928 0.06059243 -0.017877838 0.06457372 -0.020795751
-0.060963962 0.050959736 0.012593928 0.01543685 0.019490967 0.04125334 0.034180127 0.02225683
0.008421395 0.0028357944 0.03612261 0.064001456 -0.021735243 -0.06568069 0.01443047 0.03482693
-0.052611746 -0.04972574 -0.059553474 -0.0056563723 -0.04428257 0.020370686 0.032940157 -0.03534979
-0.04760175 -0.06999827 -0.04957247 0.011655677 -0.005128438 -0.02854674 -0.005077842 -0.029229717
-0.07477402 -0.058565367 -0.02099404 -0.06730859 0.039288107 -0.03711081 -0.050440405 -0.007361741
-0.063072905 0.054482386 0.042154413 0.013138157 -0.051781375 0.041010953 -0.05622306 0.06008325
-0.0145807015 -0.006457379 -0.066502176 0.021184696 -0.0156517 -0.01040046 -0.023376685 -0.028279819
0.011688101 0.020402541 0.05365731 -0.008577042 0.040180445 -0.072687775 0.019037256 0.005182762
-0.021355622 0.02869859 0.00020158663 -0.0049631847 0.0652092 -0.06531138 -0.043578554 -0.02571425
0.06055223 -0.02099927 0.013219453 -0.012210899 0.04851612 0.04839279 -0.051576383 0.008670186
-0.0716474 -0.033638004 -0.0561311 -0.019595107 0.0024258967 -0.022896238 -0.025670685 -0.025583912
0.008421311 -0.061550327 0.05612038 -0.030991394 -0.0034585102 -0.05538953 -0.0664 -0.047322497
-0.057884336 -0.06856886 0.051512 0.072079904 -0.04100088 0.063813046 0.010948335 0.07072817

encoder.post_mp.0.bias f4 [64]
00000000: a3f9 783d 2fe0 e7bc 5a73 3fbd 2b37 823d
00000010: 8b4d 6cbd 70e6 66bd d13a 223d d4f4 303d
00000020: 162e ef3c 3f09 10bc 50a1 14bc 0882 66bd
00000030: b4d9 cdbc 915f 6dbd 87ba 883d 3e78 e4ba
00000040: f6d2 61ba 4864 bb3c c14f 373c e86d e0bc
00000050: c7a2 bebc 2721 94bd 3550 babc c449 83bc
00000060: 7c0f 04bc f802 b7bb 3d33 d53c df5e 91bd
00000070: 2c78 89bd 31df 41bd 7efc c83c a163 523d
00000080: 689a 82bd 07b1 06bd 41c3 86bc 5606 c5bc
00000090: dbdd bdba 93c7 e8bc f721 2bbd 347f 163c
000000a0: 6719 bcbc 21b5 663d d2bd 2f3d 4213 9abc
000000b0: 0bcc 33bd e194 853d 6b36 203c 10bc 02bd
000000c0: baad d13c d27e 7ebb f973 203d 883b 573c
000000d0: 1374 863d c971 fc3c 8aca 03bd 9af6 79bc
000000e0: 27d5 1d3d 38a6 3bbd 1da8 17bd 2fab e4bc
000000f0: 4266 843d 3f99 813c 70f4 973c 7233 66bd
0.060784947 -0.028305141 -0.046740867 0.06358179 -0.05769114 -0.056372106 0.039606873 0.043202236
0.02919678 -0.008791267 -0.009071663 -0.05627635 -0.025128223 -0.057952467 0.06676202 -0.0017430854
-0.00086145045 0.022874966 0.011188448 -0.027396157 -0.023270978 -0.07232886 -0.022743324 -0.016026385
-0.008060332 -0.0055850707 0.026025409 -0.07098173 -0.06712374 -0.047331993 0.02453446 0.051364545
-0.06377107 -0.03288367 -0.016450526 -0.024050873 -0.0014485674 -0.028415477 -0.04178044 0.009185601
-0.022961332 0.05632508 0.042905636 -0.018808011 -0.043895762 0.06522537 0.009778599 -0.03191763
0.025595535 -0.0038832915 0.0391731 0.013136752 0.06565108 0.030815976 -0.03217558 -0.015256548
0.038533356 -0.045812815 -0.03702556 -0.027913658 0.06464817 0.015820144 0.018549174 -0.056201406

encoder.post_mp.3.weight f4 [64, 64]
00000000: 4666 eebd 5737 8fbd 8aa1 85bd c7f0 bc3d
00000010: 8d29 ac3c b951 d23d f45d 9abd a51a 86bc
00000020: 62bd 86bd d641 6a3d 19b4 9bbd dc14 373d
00000030: fab9 183d 2ecd e3bd 8326 ddbc e5d9 e43c
00000040: bf58 f83d 25e9 f7bd c3ac aabd 8181 ee3d
00000050: e3f4 cebd fae7 f9bc 463c ae3d 8e2e 923d
00000060: 3ab3 9a3c ac70 2f3d cbf5 33bd 8263 9dbd
00000070: c72c 24bb aa96 fabd 8802 b63d e6b9 4e3d
00000080: 01d5 db3d 10fc 4cbd 1522 7abd 4624 633c
00000090: c8c5 d5bd 3f97 b93d e783 7c3c 59ed 4d3d
000000a0: fe85 a4bd 2cb6 8e3d 5772 dabd dc33 cabd
000000b0: 4b84 acbd 072e 393d 8da6 12bd 6335 7d3d
000000c0: 8167 6e3c 009c a6bc b0e8 063d a81b 63bd
000000d0: 6035 c4bc c230 c63d e666 e73d 5510 573d
000000e0: 4b04 5ebc 274d acbd f49a c8bb 224f f5bd
000000f0: 1ed7 c83d e4b0 acbc 194c c23c 36e1 f1bc
00000100: 7c76 0b3d 23da 913d 4588 16bd 90fb b63d
00000110: cd1d d3bd a996 7a3d 486c a83d 0c9e 803d
00000120: e729 a43d eea3 d5bd bcef fdbc 42c5 943d
00000130: edb7 863d b91d fabd c744 25bd d3fb 463a
00000140: 4c2d aeba aa6e fbbc 4039 dabd ecbf 0b3d
00000150: ec99 ed3d 2363 9b3c bae6 853d cf38 bdbd
00000160: 19d9 01be 48b3 adbd ed09 11bc 2d28 e4bd
00000170: 1cef ed3d 318d 593c e872 3d3d c1be 9ebc
00000180: 1422 f83d fb3c 82bd e9c4 58bd 84de 4c3d
00000190: 668d 113c 1899 43bd 2d18 fabd 11c0 9c3d
000001a0: 62c2 68bd 9609 bd3d 124b e9bd b2af 633d
000001b0: 9c25 e73d bb17 ec3d 902b dbbd 08d3 a5bd
000001c0: a068 b23d 317f 6fbc 1a33 ae3b f15b feb9
000001d0: abbf 33bd 9262 1f3d e363 1ebd 0259 9a3d
000001e0: 9ce2 ccbd 3e33 ca3d 5638 25bc 8201 00bd
000001f0: affe eb3d 7ef7 563d d78e 973d 1dc7 d23d
00000200: b62c 9f3d 1f49 2b3d efeb dabc 0001 93bb
00000210: ad0f 34bd 2901 bcbc db3d ac3d ef28 01be
00000220: 7468 bebd 7d69 9bbc 74be 943d 6a96 5c3d
00000230: 8dcf b03c e0de 2fbb b260 debd dbcc 3fbd
00000240: 8062 cf3d 858d 143d 0475 b2bc 95ac 9a3b
00000250: 1936 de3d 0d60 c9bc f710 99bc 685b 9b3d
00000260: 62dd e2bd be02 1d3d 51c6 933d 8510 b23d
00000270: 722c 57bd 8d07 e7bd e703 e83d 8e43 f23d
00000280: ad0c dabd 261b f73d 8f35 9abd 48b0 903d
00000290: 370b e8ba c7d0 f1bc c989 a33d 99a2 1cbc
000002a0: 79a8 afbd 259e ccbd 68e6 963d cad1 ff3c
000002b0: 3de8 94bd 026f 893d c938 c2bd 0cd1 ef3d
000002c0: df85 f23c 2169 be3d d665 42bd 8d8b bd3d
000002d0: cae3 643d e4ae c53d 472d a2bd cd56 edbd
000002e0: 0244 6d3d e65e 913c a723 71bc 8daf 52bd
000002f0: e921 843d d5a3 ff3c 7e85 6b3d 52b1 a63b
00000300: 9511 6e3d c7a0 c33d 4aaa e3bd c420 8fbb
00000310: b992 dcbd 9188 b33d 5e73 0cbd 245e 043d
00000320: 17b1 833d fe17 81bd e779 a33d d8b1 90bd
00000330: 7040 e43d 3961 41bd c6ec b2bc efbd d33d
00000340: f9cf 6ebd 906a 17bd 8c06 753d 1640 87bd
00000350: 44a7 d03d 2868 513d d2b3 a73c f9c2 2e3c
00000360: e025 c7bd 56e6 b7bc 3ca6 123d a476 4cbd
00000370: 2dc2 58bd 1423 85bb b831 bfbd b291 413d
00000380: 7e78 ccbd 77a4 b0bd 9906 523c d00c 85bc
00000390: 91de 9ebd e37a 483d 83f0 ddbd ad53 a43d
000003a0: a93d d73d 849b be3d 45c6 d23d 574f 74bc
000003b0: 501f 683d 716e dcbd 339c 783d db05 a8bd
000003c0: 8374 8bbd 4479 d5bd 9f62 5c3b 857c e43d
000003d0: f965 d7bb 8183 ca3c 86c3 9fbc 6f0e 823c
000003e0: 5e87 ee3d 59ae 8dbb f811 183d 3c94 493c
000003f0: bff1 09bd a3d1 aebd 6cfe cf3b e133 7f3c
-0.11640601 -0.06992977 -0.06524952 0.09225612 0.021015907 0.102694936 -0.075374514 -0.016370127
-0.06579091 0.057191692 -0.0760271 0.044697627 0.037286736 -0.11123119 -0.026995903 0.027935931
0.12126302 -0.12105016 -0.08333733 0.11645795 -0.10105302 -0.030506123 0.0850759 0.07137786
0.01888429 0.04283206 -0.04393558 -0.07684995 -0.0025051103 -0.12235768 0.088872015 0.050470255
0.10733987 -0.050045073 -0.06106766 0.013863629 -0.104381144 0.09062051 0.015412307 0.05027518
-0.080333695 0.0696834 -0.1066634 -0.09873173 -0.084236704 0.04520991 -0.035803366 0.06181849
0.014551044 -0.020338058 0.03293675 -0.055446297 -0.023951232 0.096772686 0.11298923 0.05250581
-0.013550828 -0.08413153 -0.0061219875 -0.11977984 0.09806655 -0.021080442 0.023717927 -0.029526334
0.034048542 0.071216844 -0.03675105 0.089347005 -0.103084184 0.061178837 0.08223778 0.06280145
0.08015805 -0.10431658 -0.030998103 0.072641864 0.0657805 -0.122127004 -0.040348794 0.00075906253
-0.0013288646 -0.030692417 -0.10655451 0.034118578 0.11601624 0.01896817 0.06538148 -0.09239351
-0.12680472 -0.08481461 -0.008852464 -0.111404754 0.11617872 0.013278292 0.04625216 -0.019378068
0.12115875 -0.06359287 -0.052922163 0.050016895 0.00888381 -0.047753423 -0.122116424 0.07653821
-0.056826003 0.09230344 -0.11391272 0.055587478 0.1128647 0.11527964 -0.10701668 -0.08096892
0.08711362 -0.014617727 0.0053161504 -0.00048515157 -0.04388396 0.038912363 -0.03866948 0.07536508
-0.1000416 0.09873055 -0.010084232 -0.031251438 0.115231864 0.05248212 0.074002914 0.10291884
0.077722 0.04181778 -0.02672383 -0.004486203 -0.043960262 -0.022949772 0.084102355 -0.12613271
-0.092972666 -0.0189712 0.072628886 0.053854384 0.021583343 -0.0026835725 -0.10858287 -0.046826225
0.10126209 0.036267776 -0.021784313 0.0047202804 0.10850162 -0.024581933 -0.018684847 0.07585794
-0.11077382 0.038332693 0.0721556 0.08694557 -0.05253262 -0.11280737 0.11328869 0.11829291
-0.10646949 0.12065725 -0.07529747 0.07064873 -0.0017703538 -0.029518498 0.07985265 -0.009560251
-0.085770555 -0.09991101 0.07368165 0.031227965 -0.072708584 0.06710626 -0.09483487 0.117097944
0.02960485 0.092973955 -0.0474604 0.09255133 0.0558813 0.09652498 -0.07918792 -0.115888216
0.057926185 0.017745446 -0.014717973 -0.05143695 0.0645178 0.03120605 0.057500355 0.005087056
0.058122236 0.0955215 -0.111164644 -0.0043679196 -0.107701726 0.08766282 -0.03428971 0.032316342
0.064302616 -0.06303404 0.079822354 -0.07065171 0.11145103 -0.04721186 -0.021841418 0.10338961
-0.058303807 -0.03696686 0.059820697 -0.0660402 0.101881534 0.05112472 0.020471487 0.010666602
-0.09724021 -0.0224487 0.035803065 -0.049917832 -0.052919555 -0.0040630195 -0.09335655 0.047258087
-0.099839196 -0.08625119 0.012818956 -0.016241461 -0.07757295 0.04894532 -0.108368896 0.080237724
0.105098076 0.09307006 0.10291723 -0.014911494 0.056670487 -0.107632525 0.06069584 -0.08204242
-0.06809332 -0.1042352 0.0033628119 0.11156563 -0.0065734354 0.02472091 -0.019502413 0.015876023
0.11646913 -0.0043237624 0.03712651 0.012303408 -0.033677813 -0.08536079 0.006347468 0.015576334

encoder.post_mp.3.bias f4 [64]
00000000: db00 b93d 9a92 6dbd 7309 cb3d 6abc eebd
00000010: 8126 7c3c fc7e e43d 3139 c43d 6d48 b5bd
00000020: 4e5b 193d a855 ca3d 98a9 4ebd 0c42 953d
00000030: cdca c8bd 8d24 42bd 4e98 f1bd 0766 813c
00000040: 448c d13c 8f72 bb3d f6f5 9b3d ba72 0d3d
00000050: 1a93 983d 2c2c ddbc cfde ce3c ff01 913d
00000060: 9a53 1dbd f986 e63d 3391 383d 5ea3 8dbd
00000070: 3f97 e13d fad3 113d 6f5d acbd 54ee 7d3d
00000080: eb08 823c 2a4e 56bd e260 5b3c 6953 9fbd
00000090: 2c77 d1bd bf3f 70bd 89da b73d 8da0 283d
000000a0: cf04 55bd be34 e2bd d97d d3bd d8ab 01be
000000b0: 39fc 8abd df38 ce3d 06ca 7a3d c4f6 f7bd
000000c0: 2781 57bd 0f77 b1bd 254b a23d 9929 19bd
000000d0: 2668 6a3d 65d7 91bd a3b2 513b 5b7c f33d
000000e0: 2e5d 98bd 264a 01be a7bc fd3b ed20 4f3d
000000f0: db32 003e ba6e 04bd 5f77 0e3d b594 a9bd
0.09033366 -0.05800114 0.09913912 -0.11657031 0.015390039 0.11157033 0.09581221 -0.08851705
0.03744059 0.09879619 -0.050454706 0.07287988 -0.09804306 -0.04739814 -0.11796628 0.01579572
0.02557958 0.0915271 0.07615273 0.03453324 0.074499324 -0.026998602 0.025252728 0.07080459
-0.038409807 0.11256213 0.045060348 -0.069159254 0.11015176 0.035602547 -0.084162585 0.061994866
0.015873393 -0.052320637 0.013389798 -0.07779581 -0.10227808 -0.058654543 0.08977229 0.04116874
-0.05200654 -0.11045216 -0.10326738 -0.1266321 -0.06786389 0.10069441 0.06122782 -0.12107614
-0.052613404 -0.08665287 0.07924489 -0.037393186 0.05722823 -0.07121161 0.0031997345 0.11888953
-0.074396476 -0.12625942 0.0077434364 0.05056851 0.125194 -0.03233216 0.03478181 -0.08280317

encoder.post_mp.5.weight f4 [256, 64]
00000000: a4a7 423d c664 50bd 7486 9dbd 7eca 46bd
00000010: 09a4 d0bd e0d1 c63d ffe7 82bc 643d 08bd
00000020: 5a9f c3ba c26c b0bc e77f 963d 2d11 a6bd
00000030: 1a65 b6bd 51fd 613c 33a9 b2bc 30b9 b63d
00000040: 5b4f e0bb 7af2 ba3d 84b1 46bd 40e3 6ebd
00000050: f102 6cba c208 1dbd bc8d f6bd 2619 86bc
00000060: 087d b6bd 33a9 6abd 53b4 e4bd ce4c 963d
00000070: 2bb0 f1bc dada 11bc 3d54 d3bd 084e 40bd
00000080: af79 cebd c941 62bd 8f4f d3bd 9d2a 793b
00000090: f3a0 c5bc 7021 5abd f076 cabc b08c abbd
000000a0: 5784 f63d 1e57 f2bc 46f4 ae3b b921 28bd
000000b0: aee4 28bd 2f88 aa3d ef54 3b3c 453a 87bd
000000c0: 8cb2 4bbc 7347 6f3d 7d55 a0bc 17bb 8bbc
000000d0: c681 2cbd 5960 36bd 2fe3 72bd d22e 9c3d
000000e0: 2e48 343d ae32 153d 514a 963d a7e1 93ba
000000f0: a73f f4bc a11f 3a3d dbba 173c 18fa f63d
00000100: fd07 d3bd ec1b c93d c6d9 1cbc 8982 ecbb
00000110: 2434 373c fa50 ab3c 3843 a2b9 5fa1 973d
00000120: 1767 f83c d119 81bd 0c0f 9dbc 9a51 813d
00000130: be8b f1bd dfa2 da3d bc47 443d fc8d ef3d
00000140: 69e4 d1bd 189c 923c 061d ca3d d77e e83c
00000150: 7aca 78bd 7153 e2bd 31a8 2f3d 9854 b73d
00000160: 9b13 933d a5b5 a93c 524c e43d e760 633d
00000170: 0361 5a3d e8ca 103d e8e1 a2bd 77e0 943c
00000180: a246 6bbd 5638 903d b4d8 e9ba 32bd 7abd
00000190: 178f c0bd 8355 ab3d 4bcc 053d 0a89 2ebd
000001a0: cdbe b83d 82d6 0e3c efca dfbd 912a f13d
000001b0: 8f43 863d 2bf6 e3bd df16 44bd e30d bbbd
000001c0: 0c99 d53d b4fa 21bd 66ac de3d 8b35 3bbc
000001d0: 3ae7 ef3d 3d89 673d fe04 f23d 2754 b03d
000001e0: 76b3 debd 72c0 4c3d 03a8 4ebd a224 d13d
000001f0: 54b8 bdbd df6c d9bd 3014 45bd 1d7e 2ebd
00000200: 39ce 483d 42dc 33bd 924a 003d 2ea3 f23d
00000210: 6cff d63c 2ee8 df3d a034 9dbd d732 263d
00000220: 4490 b8bd 069b 503d 9b33 cb3d 1250 f8bd
00000230: d08c 88bd 6316 61bc 5571 9b3d 705b 96bd
00000240: 013c 80bd 75aa 88bd 4a5e ae3b e64d 123c
00000250: e38c dc3c 5437 ff3c 2944 7dbd 6417 21bd
00000260: c40b b2bd f35b 49bd a9c8 e7bd 16d5 26bd
00000270: 3a4c e43d 40fa e63d 56a6 cbbd 752e 453d
00000280: 5709 f2bd 679c f33d 490f 9c3d a604 a9bc
00000290: ec7e 57bd 2817 1c3d c2aa 9fbd fbdf d63d
000002a0: 46c0 c43c 4ecb b93c 02e2 ddbd ab2c bcbd
000002b0: e9db dabc 8060 1f3d ffd0 a73d fdcb aa3d
000002c0: f9d8 d93d 7d4f 9f3c 8585 3c3d fe9e 943d
000002d0: a59e 253d a7b4 b7bd af56 383d 163a fe3c
000002e0: 307b 69bd 4e1c 6d3c 6c65 0a3d ce73 88bd
000002f0: c298 34bc 59a8 ca3c f17c 2d3d d69a 473d
00000300: f5a8 96bd 1c62 f83d 012c 65bc dd43 8ebd
00000310: 1096 ad3c 859c b43d 942a fabd 0fac e53c
00000320: 2525 ee3d dd4f 0ebb f42e aa3d 1ad6 9abd
00000330: 0973 033e 3558 563d 9fb6 e83d 9f9e 013e
00000340: 4fe6 b3bc a6fd bcbd 3a64 ba3c 2dd0 d8bd
00000350: 49e0 10bd e81f 923d 09a5 3cbd b9c9 3ebd
00000360: 1972 7fbd 2ebe 44bd 79a5 a03d ee23 2bbd
00000370: 3bae ea3c 4f8a 783c 6bc3 cabd f47c a1bc
00000380: c3cb fc3d 83ad aa3d fb53 9fbb 66cc 933d
00000390: e184 e83d ddcd c6ba 4ec1 ebbc 76e3 613d
000003a0: c852 a2bc 8861 2b3d 0445 9ebc 9159 513d
000003b0: 7cbf 9ebd 2138 db3d 2b30 bfbd d933 9b3d
000003c0: d6af 2d3c 7d5f f03d 1689 c6bd 9cfd e03d
000003d0: 4ee8 57bd f94d 18bd 8bf0 98bd 9af5 c8bd
000003e0: 4965 95bd 9ec6 eb3d 2d9e 6d3d d53f 2dbd
000003f0: 72fa debd 23b9 dabd 2850 dfbd 2085 b93c
0.047523156 -0.050877355 -0.076916605 -0.048532955 -0.10187537 0.09707999 -0.015979765 -0.03326167
-0.001492481 -0.021536235 0.07348614 -0.08108745 -0.08906002 0.0137933055 -0.021809196 0.089220405
-0.0068453974 0.0912828 -0.048509136 -0.05832219 -0.0009003124 -0.03833843 -0.120387524 -0.016369414
-0.089105666 -0.057290267 -0.111672066 0.07338868 -0.029502949 -0.008902276 -0.103188016 -0.046949416
-0.10081803 -0.05523852 -0.10317909 0.0038019784 -0.024124598 -0.053254545 -0.024714917 -0.083764434
0.120369606 -0.029582556 0.0053391783 -0.041047785 -0.04123371 0.08326756 0.011433824 -0.06602911
-0.012432706 0.05841775 -0.019572014 -0.017056985 -0.04211595 -0.044525478 -0.05929869 0.07626118
0.04401415 0.036425285 0.073383935 -0.001128246 -0.029815508 0.04544032 0.009260858 0.1205942
-0.10304258 0.09819779 -0.009573406 -0.0072177094 0.011181865 0.020912636 -0.0003094913 0.07403826
0.030322595 -0.06303752 -0.019172214 0.063143924 -0.11794232 0.106755964 0.047919974 0.11697003
-0.10248644 0.017896697 0.09868817 0.028380794 -0.06073997 -0.110510714 0.04288501 0.08951682
0.07181474 0.020716498 0.111473694 0.055512335 0.053315174 0.035349756 -0.079532444 0.01817344
-0.057440408 0.07041995 -0.0017841072 -0.061215587 -0.09402292 0.083659194 0.032665532 -0.04261116
0.09020767 0.008718135 -0.109273784 0.11775697 0.065558545 -0.11130937 -0.047873374 -0.09133508
0.10429582 -0.03954573 0.10872726 -0.01142634 0.11714025 0.056527365 0.118173584 0.08609801
-0.10874073 0.049988218 -0.050453197 0.10212065 -0.092636734 -0.10616469 -0.048114955 -0.04260074
0.049024794 -0.043911226 0.031321116 0.1184753 0.026244842 0.10932957 -0.07676053 0.04057583
-0.090118915 0.050929092 0.09921952 -0.12124647 -0.06667483 -0.013738248 0.07589976 -0.07341659
-0.06261445 -0.06673137 0.0053212987 0.008929705 0.026922649 0.031154312 -0.06183258 -0.039328948
-0.0869365 -0.049159955 -0.1131757 -0.04073056 0.111473516 0.112782 -0.099438354 0.048140008
-0.11818188 0.11895066 0.07620103 -0.0206321 -0.052611277 0.03810802 -0.07796241 0.1049194
0.024017464 0.022679951 -0.10834123 -0.09188207 -0.02671619 0.03891039 0.0819416 0.08339689
0.106370874 0.019447083 0.04602577 0.07256888 0.0404345 -0.089700036 0.045004543 0.031033557
-0.057002246 0.01447208 0.03378813 -0.06662713 -0.011022748 0.024738478 0.04235548 0.048731647
-0.07356445 0.12128088 -0.013987542 -0.06946538 0.02118972 0.08818916 -0.122151524 0.028036145
0.116281785 -0.0021715083 0.08309737 -0.07560368 0.12836851 0.052330215 0.11362957 0.12658165
-0.021960406 -0.09228067 0.02275287 -0.105865814 -0.035370145 0.07134992 -0.046055827 -0.046579096
-0.06236467 -0.048032932 0.078440614 -0.041782312 0.028647533 0.015169694 -0.09900554 -0.019712903
0.12343552 0.08333876 -0.004862306 0.0721672 0.1135347 -0.0015167553 -0.028778698 0.055148564
-0.019814864 0.04184106 -0.019320019 0.051110808 -0.077513665 0.10704065 -0.09335359 0.075782485
0.010601005 0.11736963 -0.09694116 0.10985872 -0.052711777 -0.037183736 -0.07467755 -0.0981247
-0.07294709 0.115124926 0.058012176 -0.042297203 -0.108876124 -0.10679843 -0.109039605 0.022646487
