amazon/20230719-194757/commm.pt (torch, 253910 bytes, 15 tensors)

encoder.learnable_skip f4 [2, 2]
00000000: 4773 7f3f 0000 803f d280 7f3f aa85 7f3f
0.99785274 1.0 0.9980594 0.9981333

encoder.pre_mp.0.weight f4 [64, 5]
00000000: a66d c0bb 30e7 723e 0b24 bbbe 6c2f a7be
00000010: 7fbe 2dbe 287f f93d 6812 07bc c698 b43e
00000020: 7a31 2abd 9d7c ee3d f00a 0bbe 1b3a b1bd
00000030: eade d9be 19d2 96be 6518 3bbe 58ad 8f3c
00000040: ee23 373e 37fc 883e 48e7 9bbe e760 48be
00000050: 09e2 283e b75d bf3e c87b c1bd ac19 aa3e
00000060: 319d 98bd 5e5d 3a3d bfce cf3e aa71 d3be
00000070: 0b34 8fbe ad10 e4bd a1f3 34be e98c c43e
00000080: 3f27 93be 2049 50be 03b5 9ebe ab82 d6be
00000090: cec2 84be 145b c53e 4e6e 4d3e ebe5 5e3e
000000a0: 59af ac3c 4b58 6dbe ee0b a03d 2b83 d4be
000000b0: ab2c a4be fe63 69be 41e4 913e 40e2 843e
000000c0: 57d9 4dbe 2721 9abc ebea 903e 6c37 e23e
000000d0: 55c5 383e 67cf 813d 6f08 9b3e f786 88be
000000e0: 0351 ab3d edcd afbe dcf1 9cbe 3b1a 69be
000000f0: cce3 513e 3fa1 3a3e 8bf3 88be 5fbb 073e
00000100: 7fc4 783e 92b3 5ebd 327c 9d3c d8fc cf3d
00000110: fffc 8c3e d8cc da3e 327d afbe 318c 25be
00000120: 65f4 313e 01b2 bc3e a93c c63e beb5 c83e
00000130: b4ed b03d ffc5 c5be f527 333d 00e9 8dbe
00000140: 9bb3 d3be 86f9 cc3e 3566 ac3e d81f e6be
00000150: ec9e a43d d66c 95bd b5ac 91bd 1918 54be
00000160: 51a3 2d3e f5da 88be 8b01 2a3e b5dc 673e
00000170: 7de5 a23e 8c32 293e 73a3 e3be 6c0c 93be
00000180: 2763 673e 72d3 b93d 6512 b4be 904e 85be
00000190: 467d d83e f01e 9b3e 9d39 49be fb55 e9bd
000001a0: 00e3 dabe dda7 b0bb ed6f adbe cc0c b2be
000001b0: 65fd dfbc c4c8 833d d639 39be 6108 893e
000001c0: c283 8cbe 0c96 ce3e 52bd 9b3e 65af c1be
000001d0: f989 e8bd 6def af3c fde1 883d e42e dc3d
000001e0: d093 363e 8cb1 f43c 9955 62be d4c3 553e
000001f0: e017 ddbe 9b52 87be 4a13 edbd 48ad 5fbe
00000200: 8275 20be 8fe8 bbbe 5761 bcbd c97c c83d
00000210: b6c2 96be b977 d5bc 5252 a23e e1f7 31bd
00000220: 4d5c 783c c660 28bd 5f2b b43d 434b 903e
00000230: 8c3c da3e 63d9 923e bb10 d83e 1f27 0fbd
00000240: a605 cfbe bf68 56be 7d36 9d3e 59fa b7bb
00000250: 3661 66be e0d9 b0be 4d58 d5be 8bc7 bfbe
00000260: a746 bcbd f340 793e 2506 763e 6ace dbbe
00000270: 1a7f 8f3e fa24 b4be 9470 c5bd 929b 3bbe
00000280: 9a44 b2bd 767d b2bd 6fff ccbe 7c47 c5be
00000290: ed81 8dbd ff3f 0b3c d5f3 4cbe 48b4 293e
000002a0: ee80 cfbe fae2 06bd c0e7 c73e f93d 3abe
000002b0: 5d3d d03e 43f0 283e c924 cdbe c7a9 913e
000002c0: 34ea 48bd 9d4c 4ebe 8a1c b63e 50fe b9be
000002d0: ec6a 4d3d 24f3 babd 8060 a23e 5f17 fb3d
000002e0: a6c4 593e 1b41 243e 53d9 d6bd a4bc c5bd
000002f0: 70f9 bdbe 6e92 753e 3c56 b43e 6a38 9b3e
00000300: d801 a0be 013c bb3c a3e8 9fbe 77d3 79be
00000310: cc3c 84be ba34 1a3e f198 89be 3fa0 44bc
00000320: 5890 893c 02bb 943e 66fd abbe 9b19 9cbe
00000330: 3fdd 83be fb78 a13e 9618 22be 05e6 bf3e
00000340: 351e 233e ea0a 5e3d a840 b8bb 33b1 b9bd
00000350: 2725 6f3d 917c ccbd 8fb9 63ba 5399 6f3d
00000360: 2b63 b2be 4c72 71be 302a b83e bd89 babe
00000370: bb3c 0dbd 0c4c e13e 4df2 273e c7ad 773c
00000380: 2c2c c5be fe88 653e ccb4 a1be 2dc5 04be
00000390: 5966 1cbe 812d 8dbd ee12 a23a 0252 bb3e
000003a0: a92a 713d ef30 cf3e 8de0 8d3e 341a 92be
000003b0: 0cf8 4a3e 0580 a0be 5a5f 3fbe 4968 093e
000003c0: 2cf6 193e 2826 ab3e d434 16be 59d0 d0ba
000003d0: 1d15 693e 0c99 debe b838 a53e 1229 bcbe
000003e0: 8d9a 0a3c ba00 97bd f994 73be 2f6b 683d
000003f0: d38f be3e e36e 03be a4b8 86be 7474 27be
-0.005872446 0.23721004 -0.36550936 -0.32653368 -0.169672 0.12182456 -0.0082441345 0.35272807
-0.04155109 0.11644862 -0.13578391 -0.08653661 -0.42552882 -0.29457167 -0.18271025 0.017538711
0.178848 0.26754925 -0.3044989 -0.19568215 0.16492476 0.37376186 -0.094474375 0.3322271
-0.07451857 0.0454992 0.40587422 -0.41297656 -0.27969393 -0.11135993 -0.17671062 0.38388756
-0.2874088 -0.20340395 -0.30997476 -0.41896567 -0.25929874 0.3854605 0.20061609 0.21767394
0.021079706 -0.23178212 0.078147754 -0.41506323 -0.3206533 -0.2279205 0.28494456 0.25953865
-0.2010244 -0.018814636 0.28304228 0.4418291 0.18044026 0.06338387 0.30279872 -0.2666547
0.08365061 -0.34336796 -0.30653274 -0.22763912 0.20497054 0.18225573 -0.2674831 0.1325507
0.24293707 -0.05437047 0.01922426 0.10155648 0.2753677 0.42734408 -0.34275204 -0.1616676
0.17378385 0.36854556 0.38718155 0.39201158 0.08639088 -0.38627622 0.043739278 -0.27716827
-0.41347966 0.4003412 0.33671728 -0.4494617 0.080381244 -0.072961494 -0.071130194 -0.20712318
0.16956832 -0.2672955 0.16602151 0.22642787 0.3181571 0.16523188 -0.4446064 -0.28720415
0.22596417 0.09073533 -0.35170284 -0.260365 0.42283076 0.3029704 -0.19650884 -0.113933526
-0.42751312 -0.0053911046 -0.33874455 -0.34775388 -0.027342508 0.064347774 -0.18088469 0.26764205
-0.27444273 0.40348852 0.30417877 -0.37829128 -0.11354441 0.021476472 0.06683729 0.10751131
0.17829823 0.029869817 -0.22102965 0.20875484 -0.43182278 -0.2643021 -0.11575945 -0.21843445
-0.15669826 -0.36700866 -0.091982536 0.09789426 -0.29445428 -0.026058065 0.3170343 -0.043449286
0.015158725 -0.041107915 0.08797335 0.2818242 0.4262432 0.28681478 0.42200264 -0.03494942
-0.40433997 -0.20938395 0.30705634 -0.0056145606 -0.2249802 -0.34541225 -0.4166893 -0.37456927
-0.09193163 0.24341182 0.24025781 -0.4293092 0.28026658 -0.3518446 -0.09640613 -0.18321064
-0.08704491 -0.08715336 -0.4003863 -0.385311 -0.06909547 0.008499145 -0.2001489 0.16572678
-0.40528053 -0.032931305 0.39044 -0.18187703 0.40671816 0.16497903 -0.40067127 0.28449842
-0.04905148 -0.20146413 0.3556865 -0.36326838 0.050150797 -0.09128407 0.3171425 0.12260317
0.21266422 0.16040461 -0.1049067 -0.09655121 -0.37104368 0.2398164 0.35222042 0.30316478
-0.31251407 0.02285576 -0.31232175 -0.24397074 -0.25827634 0.15059176 -0.26874498 -0.012001096
0.016792461 0.29048926 -0.33591765 -0.30488285 -0.25754735 0.31537613 -0.15829691 0.37480178
0.15929492 0.054209627 -0.005622942 -0.09067001 0.05838504 -0.09984697 -0.0008687013 0.05849583
-0.34841284 -0.23578757 0.35969687 -0.3643321 -0.034481745 0.44003332 0.16401024 0.015117115
-0.38510263 0.2241554 -0.3158325 -0.12965842 -0.15273418 -0.06893445 0.0012365261 0.36586004
0.058878575 0.4046702 0.2771038 -0.28535616 0.19821185 -0.3134767 -0.18688717 0.13418688
0.15035313 0.33427548 -0.1466859 -0.0015931233 0.2276196 -0.4347614 0.32269835 -0.36750084
0.008459699 -0.073731855 -0.23787297 0.056742843 0.37219104 -0.12835269 -0.26312745 -0.16353017

encoder.pre_mp.0.bias f4 [64]
00000000: 6a51 233d 8e1d 5d3d 9c9c b3be 105f 0c3d
00000010: 2748 9d3e 7f4a cf3e 29cc 873e 41de 763d
00000020: dc5c 583e cc77 61be 9337 bcbe ca34 c3be
00000030: 1316 e33e d149 903e fa38 9fbe 3bd2 353e
00000040: 0137 ab3e 96ab e33e f524 c73e 99e5 af3e
00000050: 7a59 d6bd d177 23be 29d7 ba3e 8ccc 803e
00000060: 6937 8bbe f766 cd3e 0f0b 5a3e d410 773e
00000070: 12d9 90be 78af 003e b80c 22be f0df b13e
00000080: 3ce0 a2bd c885 2f3e 5f73 a83d e558 413e
00000090: cad3 1dbe 17c4 5c3e e977 9ebe 9857 ca3d
000000a0: d6df 99be 9718 e3be 22b4 b6be c808 b43e
000000b0: 4c31 7a3e 787d d53e 2727 b93e f622 cbbe
000000c0: 30aa 9dbe 9755 8fbd a681 93be 4601 9e3e
000000d0: e3e1 abbe 3c52 5dbe 462b dcbe 24b2 80be
000000e0: e066 bb3e 3915 ba3e 5459 a53e 17ad af3e
000000f0: 8973 ca3e 8946 ecbd 452d 4b3e 8a93 cb3e
0.039872564 0.053983264 -0.3508042 0.034270346 0.3071911 0.40486524 0.2652295 0.06027055
0.21129173 -0.22018355 -0.3676115 -0.38126212 0.4435278 0.28181317 -0.31098157 0.17755978
0.33440402 0.44466847 0.38895383 0.34354857 -0.10466285 -0.15963675 0.3649228 0.25156057
-0.27190712 0.40117618 0.21293281 0.24127513 -0.28290612 0.12566936 -0.15825164 0.34741163
-0.079529256 0.17140877 0.0822513 0.18881567 -0.15412822 0.21559177 -0.3095086 0.098799884
-0.30053586 -0.44354698 -0.35684305 0.3516295 0.24432868 0.41697288 0.36162683 -0.3967511
-0.30793905 -0.06998747 -0.2880985 0.30860347 -0.33570775 -0.21613401 -0.43001765 -0.2513591
0.36601925 0.36344317 0.32294714 0.34311745 0.3954127 -0.11536891 0.19841488 0.39761

encoder.convs.0.bias f4 [64]
00000000: 9b4c 0cbb 9ff6 213b b61d c33a ed84 f6ba
00000010: 8816 2a3b c822 4b3b 3f72 423b e6b8 193b
00000020: 7b3c 1e3b fa90 5f3a 0000 0000 15b9 07bb
00000030: bcde 3fbb 0000 0000 8171 1cbb 0000 0000
00000040: 370f 24bb f8eb 33bb 0000 0000 0000 0000
00000050: 4574 0fbb 0a22 2bbb 5db8 8cba 4f07 f5ba
00000060: 12ec 0abb b4d3 37bb 0000 0000 d025 a5ba
00000070: 0000 0000 0000 0000 5441 dd39 0000 0000
00000080: 0000 0000 29be f0ba 0000 0000 1de5 bcba
00000090: 2adc f9ba 473f 0bbb 0000 0000 fd30 f7ba
000000a0: 6624 153b 9e18 f03a 7fc7 18bb 4d76 033b
000000b0: 0874 463a cbd0 0fbb 062a 373b 0000 0000
000000c0: 0000 0000 6851 203b 611c 40bb ea2a 0f3b
000000d0: e726 193b 5ab7 3ebb 9b2d fb3a d3a6 26bb
000000e0: 0000 0000 98bc 1f3b 0000 0000 0000 0000
000000f0: 9b8e bdba 0914 923a 3802 19bb 5e57 06bb
-0.0021407965 0.0024713648 0.0014886174 -0.0018807926 0.002595337 0.0030996073 0.0029670147 0.0023456155
0.0024144936 0.0008528378 0.0 -0.0020709683 -0.0029277047 0.0 -0.0023871365 0.0
-0.0025033483 -0.002745388 0.0 0.0 -0.002188937 -0.0026112818 -0.0010736097 -0.0018694195
-0.0021197838 -0.002804977 0.0 -0.001259977 0.0 0.0 0.00042201078 0.0
0.0 -0.0018367219 0.0 -0.0014411543 -0.0019062806 -0.0021247433 0.0 -0.0018859204
0.002275729 0.0018317883 -0.0023312268 0.0020059526 0.00075703906 -0.0021944519 0.0027948632 0.0
0.0 0.0024462584 -0.002931379 0.0021845647 0.0023369135 -0.0029100985 0.0019163372 -0.0025429025
0.0 0.0024373885 0.0 0.0 -0.0014462055 0.0011144887 -0.002334727 -0.0020498852

encoder.convs.0.lin.weight f4 [64, 64]
00000000: e591 c53b caa8 34be c348 febd b52f adbd
00000010: cea9 ab3c 30a9 a63d adf2 25bd df5c b3bd
00000020: 9011 be3d b35c 55be e01c 1d3e 46b6 bcbc
00000030: 6214 183e c856 253e 1f6a b03c eb6d 903d
00000040: be28 ffbd afa7 1c3e 7a25 ff3d e40a 14bd
00000050: 4f33 b13d a49e 23bc 1707 2b3e 9f23 b23d
00000060: 50d2 233e ceb8 4bbe bad3 553e c6d6 a03d
00000070: 5cf7 db3d d346 4e3d 2478 0f3e ea84 4e3e
00000080: edac 85bc d916 38be 6361 493e ecca 43bd
00000090: 08f6 d9bd 974b 063e efd1 fb3d 440e dc3c
000000a0: 1cbe 3bbc a8d3 20bd df77 4d3e 62e3 043e
000000b0: 9fd1 013e 7d2f 0b3e ac6f ecbd 0be7 413d
000000c0: 8f99 3dbe d8f9 023e 1491 59be 5ac2 5fbe
000000d0: 08f4 58be 086d 0a3e 100d ca3c 9ff6 2b3b
000000e0: fe4b 043d b02d acbd e209 8bbd 9887 17be
000000f0: 3054 61bd 4232 06be ef09 693b 4701 2c3e
00000100: 5e20 3abe 3aa8 df3d 359e 27be 285b bdbd
00000110: c9d7 373d 37c4 1b3d 6adc 323e 332b 2b3b
00000120: 3568 a9bd 1560 bcbd 2a41 883b b9ed 28be
00000130: 7244 2bbe 314d b8bd f56e 0c3c b1d1 18be
00000140: 2f0c f8bd 94b2 203e 716c 4f3e 2ec2 86bd
00000150: b8f0 40be 9a4f afbd 8e3f b83d 201c 953d
00000160: a3cd 8ebd ac44 41be 7949 80bd c9b9 3bbd
00000170: 0c45 fa3d a100 e2bd 06f1 073e d67b 023d
00000180: cff2 1fbd 8b6c 43be 9e94 5d3e 6756 15bd
00000190: bf9e 0e3e 04c9 e0bd 188c 5abe 8360 2ebe
000001a0: 6f9f e8bd eaa6 91bd ae63 07bd 444e 3b3e
000001b0: 3b2b 4abe ac09 e23d 3644 3d3e ee0c 97ba
000001c0: c0c0 0cbe ed99 8b3b b54b 483d a2e7 c83d
000001d0: 81bd 89bd 8048 92bd d383 d6bd 0b03 59be
000001e0: 19c9 a03d 6c18 25be 60e1 cfbd 4dc6 7038
000001f0: bd6b 2d3e 637d 473e 0ca5 1ebe c8db 423e
00000200: 9006 483e 5a93 343e 703e 933c b584 333e
00000210: 6f0e d93d eec4 1dbe d122 e7bd 22af 403b
00000220: f0cc 19be 64cf 8fbd 5dd7 323e 2ffe cc3d
00000230: 982d 423e f2dd 073b 2d31 e5bd e1dd 133e
00000240: 2dd5 8d3c adce 1b3d 3192 b9bd 601c b93d
00000250: edba 22be 33d6 2f3e 7f9b 423e a5b0 a53d
00000260: dfea 2a3e 60c2 083e d0da a6bd 1222 3fbe
00000270: d284 ee3c 1286 0c3e 8471 bfbc 4ab3 9f3c
00000280: 8a9e 253e 3076 bd3d 81a3 243e 615c f33c
00000290: b2ac ba3c 0c8f 4abd 2942 18bd c7c1 e9bd
000002a0: 7560 153e 7ebe 483e 981a a23d e1ff a63b
000002b0: 781e 90bd 5ae8 57be 1a23 21bd 35f3 1fbe
000002c0: 87cb 23be 1c45 2cbd a666 31bd 2270 353d
000002d0: 042a 24be 2fbc 1d3e a424 4bbe b6c6 d0bd
000002e0: aeb9 aabd ed43 7d3c 12ef b93d fa90 65bd
000002f0: 6b76 0f3d b186 5ebd 083c aabd b44c fabc
00000300: 583e 3a3d 3d46 59be a463 18be 9d1f 2f3e
00000310: 95a7 c43d a0bf fbbb 46a2 0e3c d16d e53c
00000320: 484e 463d f36f 15be 1409 6abd 628c 49be
00000330: 2f39 30be cb8d 2ebd b875 f9bc 3052 2f3e
00000340: ad0c 113d 327d 17bd 7111 01bc 0fca f33d
00000350: 8877 82bd 7c13 1ebd 3698 39bd b1b3 34be
00000360: a778 e8bc 17e0 4ebe 3c2f f2bd 560a 0fbe
00000370: 0714 273e 0c4d 4abe 7ab1 533e 7369 a23d
00000380: e4e6 13be 05c1 353e ec22 4bbd cdb2 3dbe
00000390: e0d0 02bd b549 d73d 5ea2 55be f44a 94bc
000003a0: 5d43 b83d 26f3 a8bd d8ed b03c c2a0 b1bd
000003b0: f1ac 16be 11b3 2b3e d857 1fbe a1aa 2cba
000003c0: b887 973d bbf2 f3bd eef0 d93d 2e0a 3abe
000003d0: 60a9 553e cf9e c13d 15b3 ebbc fe7e 36be
000003e0: ad38 9d3b 2b6e 993d 07ac f4bd 2abe eebc
000003f0: 19de 5ebe 0c67 5fbe d60a d0bc 7d95 373e
0.006029355 -0.17642513 -0.12416222 -0.08456365 0.020954993 0.08137739 -0.040514637 -0.08757948
0.092806935 -0.20836143 0.15343046 -0.023036133 0.14851525 0.16146386 0.021534977 0.07052215
-0.12458943 0.15298341 0.1245832 -0.0361432 0.086523645 -0.009986553 0.16701923 0.086982004
0.15998197 -0.19894716 0.20881549 0.07853465 0.107405394 0.050360512 0.14010674 0.2016789
-0.016317809 -0.17977466 0.19666056 -0.047800943 -0.1064263 0.13114773 0.12295901 0.026862271
-0.0114589 -0.03926435 0.20065258 0.12977365 0.1267762 0.13592334 -0.11544737 0.04733948
-0.18515609 0.1279062 -0.21246749 -0.21851483 -0.2118684 0.13518155 0.024664432 0.0026239527
0.032299034 -0.08407152 -0.06788994 -0.14797819 -0.055011928 -0.1310511 0.00355589 0.16797362
-0.1817641 0.109207585 -0.16368945 -0.09245902 0.044883523 0.038028922 0.17466894 0.0026118278
-0.08271829 -0.09198014 0.004158159 -0.16496934 -0.16725329 -0.08999098 0.008571376 -0.14923741
-0.12111699 0.15693122 0.20256211 -0.065800056 -0.18841827 -0.08560105 0.08996497 0.07280755
-0.06972816 -0.18873852 -0.06264014 -0.045831475 0.12220201 -0.11035276 0.13275537 0.03185638
-0.03904992 -0.19084375 0.21638724 -0.036459353 0.13927744 -0.10975841 -0.21342504 -0.17029004
-0.113585345 -0.071119145 -0.033054046 0.18291575 -0.19743054 0.11037001 0.18483052 -0.0011524239
-0.13745403 0.0042602927 0.048900325 0.098098055 -0.06725598 -0.071427345 -0.10474362 -0.21192567
0.07850856 -0.16122597 -0.10150409 5.740514e-05 0.1693563 0.19481425 -0.15492648 0.19029152
0.19533753 0.17634335 0.017974108 0.17531092 0.10598456 -0.15407154 -0.112859376 0.0029401262
-0.15019584 -0.070219785 0.17464967 0.10009419 0.18962705 0.0020731655 -0.1119102 0.14440109
0.017313564 0.0380389 -0.09061087 0.09038615 -0.15891619 0.17171554 0.1900463 0.08090333
0.16691159 0.13355398 -0.08147204 -0.1866534 0.029116068 0.13723019 -0.023369558 0.019494671
0.16173759 0.09251058 0.16077997 0.029707136 0.022787426 -0.049452826 -0.03717247 -0.11413913
0.14587577 0.19603917 0.079152286 0.005096421 -0.070370615 -0.21084729 -0.039340116 -0.1562012
-0.15995608 -0.042058095 -0.043310784 0.04429639 -0.16031653 0.15403818 -0.19838196 -0.10194151
-0.08336197 0.015458089 0.09078802 -0.056046464 0.03502504 -0.05432767 -0.08312231 -0.030554153
0.045469612 -0.212182 -0.1488176 0.17101903 0.09602276 -0.0076827556 0.008705681 0.028006466
0.0484145 -0.14593486 -0.057137564 -0.19682458 -0.17209314 -0.042615693 -0.03045164 0.17121196
0.03541248 -0.03698463 -0.0078776935 0.11903774 -0.06370455 -0.0385928 -0.045311175 -0.17646672
-0.028377844 -0.20202671 -0.118254155 -0.13968787 0.16316234 -0.19755954 0.2067317 0.07930269
-0.14443547 0.17749412 -0.04959385 -0.18525238 -0.03193748 0.105121054 -0.2086272 -0.018102147
0.089972235 -0.08249502 0.021597788 -0.0867324 -0.1471441 0.16767527 -0.15560853 -0.0006586705
0.07398933 -0.119115315 0.10641657 -0.18167946 0.20865393 0.094541185 -0.028771916 -0.17821881
0.004798016 0.07491716 -0.11946874 -0.029143412 -0.21764411 -0.21816653 -0.025395792 0.17928119

encoder.convs.1.bias f4 [64]
00000000: fbfe 1dbb 0000 0000 7ee4 3bba 6882 15bb
00000010: 97a1 f4ba 3170 ef3a 2f80 29bb 9af8 24bb
00000020: a475 e3ba 3d93 263b c1f0 daba 13bf 07ba
00000030: c16f 313b b751 173b 2710 04bb 82cd 12bb
00000040: 39f1 303b 4d7f ec3a 6aa4 083b d2a8 793b
00000050: 3ef5 f5ba 398d dbba 0000 0000 cf65 e3ba
00000060: 0672 16bb bcd3 05bb f083 513a 65eb 2f3b
00000070: 201e df3a eda9 1fbb 23c0 173b de6f 483b
00000080: ceb0 fb3a 0ed5 07bb a8d0 b939 050f d1ba
00000090: 0000 0000 0000 0000 ddaa 333b 42a5 833b
000000a0: 1ab6 a8b9 462a 383b 2eb3 1ebb 0000 0000
000000b0: d51b 123b 1137 03bb 19a6 543b 18a0 3fbb
000000c0: e8a4 043b 77c2 2f3b a542 d7ba bb64 e6ba
000000d0: 87f4 893a 70c1 deba aed6 17bb 639c 893a
000000e0: 1607 353b 51e0 0dbb dfa7 2b3b 0449 c73a
000000f0: 835e 413b a3ac ffba c7de d03a db93 60bb
-0.002410828 0.0 -0.0007167532 -0.0022813324 -0.001866388 0.0018267689 -0.0025863757 -0.0025172592
-0.0017353785 0.002541735 -0.001670383 -0.00051783136 0.0027074667 0.0023089477 -0.002015123 -0.0022400324
0.0026999249 0.001804331 0.0020849952 0.003809501 -0.0018765104 -0.0016750462 0.0 -0.0017349067
-0.0022956147 -0.0020420393 0.00079923775 0.0026843187 0.0017022528 -0.0024362758 0.0023155294 0.0030584256
0.0019202472 -0.0020726356 0.0003544141 -0.0015949911 0.0 0.0 0.0027415075 0.004017503
-0.00032179133 0.0028101369 -0.0024215686 0.0 0.0022294421 -0.0020021836 0.0032447635 -0.002923971
0.0020239893 0.002681879 -0.001642306 -0.0017577627 0.0010525145 -0.0016994905 -0.002316873 0.0010498877
0.0027622632 -0.0021648596 0.0026192588 0.0015204255 0.0029505796 -0.0019506406 0.0015935533 -0.0034267816

encoder.convs.1.lin.weight f4 [64, 128]
00000000: 0a16 e3bc 5f01 cbbd c860 88bd a625 a8bd
00000010: 8e02 223e e9c6 58bc 72c7 0e3e 5ec3 f8bd
00000020: ecc3 b33d aa13 26be 8362 78bd 1109 8fbd
00000030: e41e 2bbe 1f56 09be d448 eebd 5afe 07bd
00000040: 711f 79bd cd7c 29be 04d0 d63c 63e5 973d
00000050: 0a1d e53c d100 0c3e f93f 91bc f2d4 0d3e
00000060: 1dcb 13bc 787a 7cbc abc4 4ebc c04e 96bd
00000070: d367 90bd 4ba3 243d 0115 c1bd 9a23 703d
00000080: 3f74 0ebe 3fe6 9dbc eb84 bdbc 48d7 9cbd
00000090: d1d0 033e e933 15be 50c8 a73d e312 20be
000000a0: 4c83 d13d 419d 2d3e 3063 1fbd df09 2dbc
000000b0: 0403 f9bb bff4 d43d 31c3 073c 82c3 28bd
000000c0: 1d88 1d3e e28b 083e e517 1abc 5dee b3bd
000000d0: c5fd ca3d 3195 9bbd 9c29 c8bd 17c6 e5bd
000000e0: b953 653c 6f23 9fbd c4fa ed3d e1f6 f73d
000000f0: 9e73 9fbd 7726 94bd a2ba 003e 51a4 b4bd
00000100: 1d80 e03d 6ac9 59bc 5dc1 fc3d 2582 b33d
00000110: beb3 03be 2fb7 03be 7000 9a3d 68d2 b5bd
00000120: b9ff 3e3c e990 ff3c 9c53 12be 6a16 44bc
00000130: 8003 f73d 0055 e33b 8f80 e5bd 41e2 1d3e
00000140: ffc6 183e 0cad 233d 4082 dbbd aadc 9b3d
00000150: ec8f 433d c20d dbbd 6cc1 04be 1514 9bbd
00000160: 3a34 293e 7236 883c 804f 28bb 8882 a23d
00000170: 3a68 cbbd e8fb 64bd bddd e53c ebd3 1d3e
00000180: 0062 4abc 75eb 173d e79c 16be f3c2 2bbe
00000190: dc2e 0e3d a135 87bb 1109 0e3e b4bd 1b3d
000001a0: 5c2e 203e 28e9 13bd edaa 4ebd c0d5 8fbc
000001b0: b65b acbd bbcd 143c cd06 18be 681f a43c
000001c0: 20c5 45bc 80a4 603d 941e 2d3e 73eb 783d
000001d0: be9d dc3c 0c5e f1bd 9fb9 81bd 0943 92bd
000001e0: 37fd 18be 3c69 bc3d bffb 2b3e 1a70 f03d
000001f0: 7428 0c3e 77d6 cbbd 8b8d 99bd 49aa 6cbd
00000200: f724 a3bd eabf 0ebe 00e8 14be e0c1 09bc
00000210: a6a8 d6bd 5f45 08be e59c 303e f96b 29be
00000220: c83e 63bd 02ba e93d 0e4d b9bd b60c a83d
00000230: f887 01be 001e dcba 242c 843d e623 61bd
00000240: cef3 00be 70f2 0d3d 6000 f2bc cd03 1e3e
00000250: c843 debc 39d8 0b3e e697 99bd 0512 8dbd
00000260: 0003 053a 6a05 cb3d 5902 273e 5284 a93d
00000270: 1fc4 a2bd 1077 463c 4a75 f03d 2d67 103e
00000280: 5ff5 013e 7c48 743d 4069 b2bc 62b9 f73d
00000290: 8cbc 723d be77 1cbe 3b3f 313e 0004 54bc
000002a0: 512d 2d3e 6691 d63d e095 36bc cfa7 1abe
000002b0: a85a 2dbe 9b9d adbd d6d0 963d 206b 5f3c
000002c0: 00e5 8d3c 908f 13be d252 c73d 1457 33bd
000002d0: fe02 be3d ee62 13be 00e7 463b 3a5e b73d
000002e0: 7caa 563d a30f 34be 2d55 183e c4bb 06be
000002f0: c6ca 26be 8e05 fbbd c781 2bbe b42e 843d
00000300: e76d 083e f78f 113e 407b 7e3d a045 42bd
00000310: 04d9 183d e854 603d de70 33be 0010 8fba
00000320: a0e6 343d 4989 123e fae9 d93d 0054 4cbd
00000330: 4084 03bc 5e9b e63d 2766 243e 5270 b9bd
00000340: 1774 333e 88e2 f7bc 0b98 a1bd 8096 81ba
00000350: f7e4 0d3e 8dbd cebd 605f ca3b c15e d0bd
00000360: c004 91bb 36dc fc3d 7e32 b3bd 46b1 a2bd
00000370: 94da 483d aa71 aa3d 20e6 5dbc 3cbb 26bd
00000380: b064 37bc 9415 5c3d d928 213e b62c a33d
00000390: 88fe ea3c dc66 703d 10f7 583d f0a3 08bc
000003a0: 2b57 f3bd ca30 abbd 24c7 7d3d a037 7e3d
000003b0: 9f28 b8bd ffb5 c7bd 2e0a cc3d 00f1 02bd
000003c0: e281 dc3d 28aa 403d b098 0c3d f020 a4bc
000003d0: a186 9dbd 6825 373d 77f8 e2bd 85c3 9fbd
000003e0: 5872 02be 0020 6db8 d0f1 c3bd c387 85bd
000003f0: f825 6abd c674 9f3d 8296 c83d 92b9 f43d
-0.02772047 -0.09912371 -0.066590846 -0.08210306 0.15821287 -0.013231018 0.1394327 -0.12146638
0.087776035 -0.16218439 -0.060640823 -0.06984151 -0.16711003 -0.13411759 -0.116349846 -0.033201553
-0.060821 -0.16551514 0.026222236 0.07416799 0.027967948 0.13672186 -0.0177307 0.13850763
-0.009020594 -0.015410058 -0.0126201315 -0.07339239 -0.07051053 0.04019479 -0.09427834 0.058627702
-0.13911532 -0.019274829 -0.02313467 -0.07658249 0.12872626 -0.14570583 0.081925035 -0.15632205
0.10230121 0.16954519 -0.038912952 -0.0105614355 -0.0075992364 0.10398244 0.008286283 -0.041202076
0.15383954 0.13334611 -0.009405111 -0.087856986 0.09911684 -0.075968154 -0.09773561 -0.11219423
0.013997012 -0.0777043 0.11620095 0.12107635 -0.07785724 -0.07233899 0.12571195 -0.08820403
0.10961936 -0.01329265 0.123415686 0.087650575 -0.12861535 -0.12862848 0.07519615 -0.088780224
0.011657649 0.031197028 -0.14289707 -0.011968235 0.120612144 0.006937623 -0.11206161 0.1541834
0.14919661 0.039959952 -0.107182026 0.07610448 0.047744676 -0.106959835 -0.1296441 -0.0757219
0.16523829 0.016627524 -0.0025682151 0.07935053 -0.09931989 -0.0559043 0.028059835 0.15412872
-0.012352467 0.037089784 -0.14708291 -0.16773586 0.034712657 -0.004126266 0.13870646 0.038022712
0.15642685 -0.036111027 -0.050455976 -0.017557979 -0.0841593 0.009082253 -0.14846344 0.020034507
-0.012070924 0.05484438 0.16906196 0.060771417 0.026930686 -0.11785516 -0.063342325 -0.07141692
-0.14940344 0.09199759 0.16795252 0.11740132 0.13687307 -0.09953015 -0.074977 -0.057779584
-0.07966035 -0.13940397 -0.14541626 -0.00840804 -0.10481386 -0.13307713 0.1724735 -0.16545095
-0.055479795 0.11412431 -0.090479 0.082055494 -0.12649524 -0.0016793609 0.06453732 -0.054965876
-0.12593004 0.034655035 -0.029541194 0.15431137 -0.02713193 0.13656701 -0.074996755 -0.068882026
0.00050739944 0.09913142 0.1630949 0.08277191 -0.079475634 0.012113348 0.11741121 0.14101858
0.12691258 0.05963944 -0.021778703 0.12095906 0.059261844 -0.15280053 0.17309277 -0.012940407
0.16911818 0.10476951 -0.011144131 -0.15103076 -0.16929114 -0.084773265 0.07364051 0.01363638
0.01732111 -0.14410233 0.097325936 -0.043784216 0.092779145 -0.14393207 0.003035009 0.08953519
0.05240868 -0.1758409 0.14876242 -0.13157564 -0.1628829 -0.12256919 -0.16748725 0.064542204
0.13323174 0.14215074 0.06212926 -0.04742968 0.037316337 0.054768473 -0.17523524 -0.0010914803
0.044165254 0.14310183 0.106403306 -0.049884796 -0.008027136 0.11260103 0.16054593 -0.090546265
0.17524754 -0.030259386 -0.07890328 -0.0009886771 0.13856874 -0.10094748 0.0061759204 -0.10174323
-0.004425615 0.123466894 -0.08749865 -0.079439685 0.049036577 0.08322461 -0.013543636 -0.040705904
-0.011193439 0.053731516 0.15738238 0.07967512 0.028685823 0.058691844 0.052969992 -0.008339867
-0.1188186 -0.08358915 0.061957493 0.062064767 -0.08992123 -0.0975151 0.09962879 -0.031968117
0.10766961 0.047037274 0.0343253 -0.020035237 -0.07691694 0.044713408 -0.11082547 -0.07800964
-0.12738931 -5.6535006e-05 -0.095676064 -0.06520035 -0.057165116 0.07785945 0.09794332 0.11949457

encoder.post_mp.0.weight f4 [64, 192]
00000000: 0e54 3a3c 0229 93bc 1987 253d 8bf4 a739
00000010: 6fed 0c3d cdd0 d8bc c494 02bd 78d5 703c
00000020: 9db3 54bb c96b 75bd 8fea 553d 792e 84bd
00000030: e8c7 5d3d ada8 77bd 0018 7dbd 8a57 403d
00000040: 6dd2 043d c4f2 2c3d e931 0ebd 7d71 55bc
00000050: cb91 023c 4577 f43c 29d5 a7bb cf29 96bd
00000060: dbf1 86bc 176e 403d 4c4a d1bb 8518 d4ba
00000070: 8448 053d 6349 f9bb dc8e 353d 5ca8 05bd
00000080: 15be 383c bf70 1a3c 6a1b 6f3d 87dc b1bb
00000090: 5a16 37bd 8a5c 87bc b641 1bbb 8cf4 87bc
000000a0: ae10 debb ca3a 92bc b430 103d 25db 91bd
000000b0: ba7a c63c 41cc 48bd 1547 863d 1b4d 2b3b
000000c0: 29d8 183c ca33 4abd f176 6abc 916b 373d
000000d0: 81e1 193d 69ff 3ebd 2139 773d b62c a3bb
000000e0: fab4 673d 4676 333b 8c0c f8bc 7ffe 073c
000000f0: de9b 1e3d a9ed 8bbd e723 1cbd 8001 463d
00000100: 585a 883b 5e5b 20bd 01e2 06bc 4f9f 163d
00000110: 3013 bbb9 34ec 77bd 47f9 95bd 4efe 793d
00000120: c085 b9bc 91d6 65bd 84ef 32bc dd89 e03c
00000130: e4c0 583d 0451 36bd 17a5 1c3d 345e efbc
00000140: 470b 553c 897e 0abc 54a5 58bd e050 60bc
00000150: ae72 89bd de22 85bd 1d70 ffbc 9970 eabc
00000160: b088 34bd b97e b53c 2876 4bbc d720 693d
00000170: 5c52 6e3d c015 e4bb 0475 7dbc 80cc 5dba
00000180: 6028 2ebb 1c80 843c c0f5 d3bb d0b5 793d
00000190: 491a 293c 8779 6c3c 4f4c 71bd 0df8 8fbd
000001a0: 075b c23a 3676 3a3d 822a bdbc b00c 9b3c
000001b0: 83d3 8cbd bf58 2b3c a33d 97bc c08d edbc
000001c0: 2ee3 0cbd b541 fabb 68ed 133d a114 7c3d
000001d0: ac6c 6bbd d8a2 823c 27b4 8fbd 8f30 9e3c
000001e0: dcb5 463d 4f12 e73b b0e2 303d 4a26 74bd
000001f0: 09cf 983c 68ed 21bd a63c 2e3c 050a 843a
00000200: 5f95 343d e0fb 273b df9f fa3c 91a6 2c3d
00000210: 022a 8bbc 7dd0 5ebd 3795 b3bb dfb5 df3c
00000220: 0a4c 8bbd 5c57 2ebd 9656 093d 8000 4ebd
00000230: 6d6a 7d3d 685f 49bd b1fa 6b3d d9f4 6cbd
00000240: faa1 5e3b f8aa 95bb 65ac cf3c a693 e73b
00000250: 38b3 773d 695c 90bc 3a3f 843d 6e32 abbc
00000260: 4d89 79bd 0428 503d b210 483c 1d86 7c3c
00000270: 4cf8 9d3c ce8b 293d 812c 093d ba59 b33c
00000280: 9279 053c 4692 413b 89d7 163d 32eb 833d
00000290: fcb7 a1bc f23d 84bd 5ece 6e3c 29e0 0b3d
000002a0: 91cd 50bd 4ead 4dbd d427 73bd c0d7 68bb
000002b0: d5cc 34bd 93ea a63c 9283 043d 65cc 10bd
000002c0: 921f 43bd 2ba8 8fbd cffe 4abd adec 403c
000002d0: bb9f a8bb 3531 ebbc 6abf a9bb a9bc f2bc
000002e0: 703e 99bd 476e 6fbd a69a abbc 5b00 8bbd
000002f0: b6a5 1f3d 6de6 16bd cb0d 50bd 4430 ebbb
00000300: 8792 81bd 6874 5f3d 29a6 2c3d e670 503c
00000310: a57e 54bd a03c 273d 9bce 68bd 987b 763d
00000320: 617c 6bbc 8f8f d4bb be36 88bd 296c ad3c
00000330: b7ac 80bc e92e 2abc 484a aebc 0b34 f1bc
00000340: 5ed8 3d3c 7bb8 a63c 4275 5b3d 31be 0ebc
00000350: be3c 243d 42b5 94bd 7299 9b3c d5ba a93b
00000360: 5afa aebc 97a0 ea3c ac5e 1239 d3f7 a2bb
00000370: d285 853d 7fd9 88bd 5a62 2cbd b9e9 d3bc
00000380: 61cb 773d 28e8 abbc 7e42 5a3c 4235 49bc
00000390: d7fa 4c3d ad21 463d 4662 53bd 9b45 0f3c
000003a0: eed1 92bd cf5e 09bd 5db3 65bd c28d a0bc
000003b0: e406 103b 7aa4 bbbc dd90 d2bc 469c d1bc
000003c0: 26c7 093c 1fc4 7cbd 3ef9 653d 97b3 fdbc
000003d0: 6cd0 64bb 755d 60bd b0ee 87bd e20a 42bd
000003e0: 1816 6dbd 0c76 8cbd 92bd 523d 8b58 933d
000003f0: 1229 28bd 3d26 873d 395c 333c 2ddb 903d
0.011372579 -0.01796389 0.040412042 0.0003203492 0.03440612 -0.026466751 -0.031880155 0.014699332
-0.003245569 -0.059917245 0.052225646 -0.064541765 0.054145724 -0.060463596 -0.061790466 0.046958484
0.03242724 0.042223707 -0.034715567 -0.013027546 0.00796933 0.029842028 -0.005121846 -0.07332193
-0.016472748 0.04697999 -0.0063870307 -0.0016181624 0.03253986 -0.0076076253 0.044325694 -0.032631263
0.011275788 0.009426295 0.058375753 -0.0054279002 -0.04469905 -0.016523618 -0.002369029 -0.016596101
-0.0067768907 -0.017850298 0.035202697 -0.071218766 0.024228442 -0.049022917 0.065565266 0.0026138488
0.00932888 -0.049365796 -0.014310584 0.044780318 0.037568573 -0.046630297 0.060357217 -0.004979695
0.056569077 0.002738373 -0.03027942 0.008300423 0.038722865 -0.068324395 -0.038120177 0.048341274
0.0041611604 -0.039149635 -0.0082325945 0.036773022 -0.00035681715 -0.060527995 -0.073229365 0.06103354
-0.022646785 -0.05611283 -0.010921363 0.027409488 0.05291833 -0.044510856 0.03824338 -0.029219724
0.013003177 -0.00845302 -0.052892044 -0.013691157 -0.067113265 -0.06500791 -0.03118139 -0.028618144
-0.044075668 0.022155153 -0.012418307 0.056916084 0.058184013 -0.0069606006 -0.015469793 -0.0008460954
-0.0026574358 0.016174369 -0.0064685047 0.060964406 0.010321208 0.014433271 -0.058910664 -0.07029734
0.0014828154 0.04552289 -0.023091558 0.018926948 -0.0687628 0.01045817 -0.018462008 -0.028998256
-0.034396343 -0.0076372274 0.03611508 0.06154311 -0.057476684 0.01594679 -0.07016783 0.019310264
0.04851328 0.007051743 0.043184936 -0.059606828 0.01865341 -0.03953305 0.010634577 0.0010073787
0.044087764 0.0025632307 0.03059381 0.042151038 -0.016987804 -0.05439805 -0.0054804343 0.027308403
-0.06801613 -0.04256378 0.03352984 -0.050293446 0.061869074 -0.049163252 0.057612125 -0.057850692
0.0033971057 -0.0045675 0.025350759 0.0070671616 0.06047365 -0.01762219 0.06457372 -0.02089807
-0.060921956 0.050819412 0.012211012 0.0154128345 0.019283436 0.041393094 0.033489708 0.02189337
0.00814666 0.0029536649 0.036826644 0.06441344 -0.01974105 -0.06457128 0.014575569 0.034149323
-0.050977293 -0.050214104 -0.059364155 -0.0035528988 -0.044140656 0.020375526 0.032352038 -0.035351176
-0.04763753 -0.07014497 -0.04955941 0.011775178 -0.0051459945 -0.028709987 -0.005180289 -0.029630976
-0.07482612 -0.058454778 -0.020947766 -0.06787177 0.038976394 -0.036840845 -0.050794404 -0.0071773846
-0.06326776 0.054554373 0.04215065 0.01272223 -0.05187859 0.0408293 -0.05683766 0.060176462
-0.014372916 -0.00648684 -0.06651066 0.021169739 -0.015707357 -0.010387161 -0.021275654 -0.029443761
0.0115872305 0.020351639 0.053578623 -0.008712337 0.04009699 -0.07261135 0.018994067 0.005179743
-0.021359611 0.028641028 0.00013958913 -0.0049733906 0.06519665 -0.06682109 -0.042085983 -0.025868284
0.06049669 -0.020984724 0.013321517 -0.012280764 0.050043907 0.04837196 -0.051607393 0.008744623
-0.07168947 -0.033537682 -0.056079257 -0.019598845 0.0021976763 -0.022905577 -0.025703842 -0.025587212
0.008409297 -0.061710473 0.0561459 -0.030969424 -0.0034914268 -0.054776628 -0.06637323 -0.04737366
-0.0578824 -0.06858453 0.05145032 0.071946226 -0.041054793 0.0659909 0.010947281 0.070730545

encoder.post_mp.0.bias f4 [64]
00000000: e213 793d 5410 e2bc 260f 42bd 1403 813d
00000010: c6a1 66bd 6f83 65bd c9a3 2e3d e2b2 323d
00000020: 730b 003d dad0 10bc cccd 12bc db14 64bd
00000030: 3fba cabc 87fa 67bd 9b40 893d 3e02 a1ba
00000040: 0507 e3ba a3eb bb3c 298e 3c3c 183f e1bc
00000050: 9686 b9bc 1481 93bd 80a5 aebc 1c44 65bc
00000060: d489 fcbb 9c4d b3bb 68b2 d23c fa56 8ebd
00000070: 41cf 8cbd 62e3 3ebd 9f12 cc3c 97f2 533d
00000080: d395 82bd 9f9e 07bd 9c88 8fbc 556a cdbc
00000090: c6c2 b2ba d304 e7bc c022 24bd 30db 0c3c
000000a0: 685c b6bc d06c 693d 8963 2f3d 8ad4 9bbc
000000b0: 8c18 3bbd 4199 853d 4cea 263c 4047 05bd
000000c0: 1052 ca3c 7231 63bb e3d0 1e3d bfe3 573c
000000d0: 62ec 893d 0b7c fb3c 8383 04bd 8701 62bc
000000e0: b87c 1c3d fec4 33bd 2f3a 1bbd 2fd4 e2bc
000000f0: 89ba 833d f42c a23c 89f0 9e3c 6019 64bd
0.060809977 -0.027595676 -0.047377728 0.06299415 -0.056306623 -0.056033548 0.042636666 0.043627627
0.03126092 -0.008838857 -0.008960199 -0.05568395 -0.024747012 -0.056635406 0.06701776 -0.0012283993
-0.0017320818 0.022939509 0.011508503 -0.027495906 -0.022647183 -0.07202354 -0.02131915 -0.013993289
-0.00770686 -0.0054718982 0.025719836 -0.06950183 -0.06875468 -0.046603568 0.024911223 0.051745024
-0.06376233 -0.033110257 -0.017521195 -0.025075117 -0.0013638369 -0.028200543 -0.040072203 0.00859718
-0.02226086 0.056988537 0.042819533 -0.019022245 -0.045677707 0.065233715 0.010187697 -0.032538652
0.024697334 -0.0034666923 0.03877343 0.0131768575 0.067345396 0.030698797 -0.03235198 -0.013794309
0.03820488 -0.04388904 -0.037897285 -0.027689068 0.06432063 0.019796826 0.019401805 -0.055688262

encoder.post_mp.3.weight f4 [64, 64]
00000000: f5a1 ebbd fdfa 8fbd 93bd 85bd 5bf6 bc3d
00000010: 16c5 be3c e761 d23d 7e94 9abd 6253 85bc
00000020: d2e7 85bd 903d 663d f0ad 9bbd a484 383d
00000030: a329 193d 64f7 e2bd 032b d6bc 1845 e73c
00000040: 8d5c f83d db0e f9bd d6c0 aabd b9f0 ed3d
00000050: eb3a d3bd 0493 fabc 6339 b23d 3eb3 953d
00000060: 27cc 9c3c db00 303d c1bd 34bd 3b5d 9ebd
00000070: 318f 23bb d660 fabd 3927 b43d f6bb 533d
00000080: 6ed5 db3d 1410 4bbd 23f9 7abd 875c 5e3c
00000090: b2da d5bd 7d83 b93d 9255 7d3c 52b0 4e3d
000000a0: 2f5b a8bd 9a01 8f3d 0533 dabd 3925 cbbd
000000b0: 9518 adbd 961d 363d f990 09bd 6e76 7e3d
000000c0: 3f40 763c cac2 a6bc 11f6 073d 756b 62bd
000000d0: 32ac c7bc 1bfb c53d 8a22 e83d 4331 5e3d
000000e0: 01e0 57bc fa2d abbd 67e5 7abb 0355 f2bd
000000f0: 9e8d c83d 4cbb a0bc 7e03 c93c ea3a f6bc
00000100: 07bf 1a3d 010d 943d fe71 14bd f3d2 b63d
00000110: 4130 cbbd 136e 773d fb19 a83d c540 813d
00000120: 6922 aa3d e7f6 d5bd 0bd4 fabc 058f 943d
00000130: dc20 873d ea37 f9bd 002e 26bd 8da1 673a
00000140: b843 c3ba 7e86 03bd a320 dabd 9f32 203d
00000150: 4b42 ed3d d30c 953c 5c3e 8a3d 4f6d b5bd
00000160: 8de6 01be a82c adbd b4ae 15bc f393 e3bd
00000170: 917c ee3d 119b 623c aae8 3b3d b602 5fbc
00000180: 4977 f73d f673 7ebd 962b 5cbd efbd 4f3d
00000190: 0cfc 073c 3974 43bd 58f7 f9bd c09c 9c3d
000001a0: 43bd 64bd c43a be3d 2682 e9bd 4af1 613d
000001b0: 5311 e83d c898 eb3d eac2 d7bd 0cfe a4bd
000001c0: d627 b43d 0ef5 7ebc 169b b03b 3a4d 14ba
000001d0: 8e98 34bd 53d7 1c3d 2efc 1abd 5545 a23d
000001e0: b898 ccbd d14b ca3d 8cae c2bb 4f21 debc
000001f0: 73a9 eb3d 37e9 633d 52ca 973d be2e d23d
00000200: 9d93 a63d fe20 2b3d 170f dfbc 1ffd 90bb
00000210: 8472 2dbd 3b02 bfbc 5038 a93d 850f 01be
00000220: 4d91 bebd 0cbc 9dbc c2e7 943d a42b 5d3d
00000230: ca9e b13c 1ee2 40bb e1ea ddbd 23e6 3fbd
00000240: b1a0 cf3d 77c8 103d 46e8 b2bc 9b2f fd3b
00000250: c25d d63d a8b6 cebc e50a 99bc 1138 9e3d
00000260: e768 e3bd d4ae 1d3d a213 933d f52c b23d
00000270: 4b00 57bd 62be e9bd 7326 e93d fc68 f53d
00000280: 1811 dbbd 70a6 f73d 544d 9abd 20e2 903d
00000290: bb68 f4ba 0577 ecbc fb8d a33d 6e4c 1fbc
000002a0: e176 aebd 369e ccbd f2d0 963d f614 003d
000002b0: 53eb 94bd 87e4 883d 8e4f bdbd ba11 f03d
000002c0: b6d9 f13c bfeb be3d 6503 43bd 503a bd3d
000002d0: ed40 643d cbbb c53d ff37 a2bd d4ff e7bd
000002e0: 92ff 813d 41e8 943c 408e 45bc 758f 42bd
000002f0: d9af 833d f8cd 023d f646 6c3d f3e0 a43b
00000300: 2236 673d 53a1 c03d 6091 e5bd 9771 b0bb
00000310: 25f5 d9bd e994 ac3d e9a2 e3bc 8c86 063d
00000320: 27e2 843d a3f3 87bd fb55 a63d e7c4 89bd
00000330: fb56 e73d e682 2dbd 6592 97bc 9713 d63d
00000340: 82d8 6bbd 0bf4 2dbd d84a 773d 0ae5 75bd
00000350: 0aa7 d23d c306 473d 68a5 b23c 081b 363c
00000360: 5598 cabd fab1 a8bc c854 083d bd54 48bd
00000370: a48e 53bd ac5e a7bb 3391 c1bd 3c85 5f3d
00000380: 8344 cebd 3f67 b6bd cdb1 383c 5f87 4fbc
00000390: 0be3 a2bd b3c2 4d3d a897 dabd c55b a43d
000003a0: 087f db3d 860b c53d d62e d13d b326 94bc
000003b0: b69c 663d c260 e3bd cf73 703d 654f a8bd
000003c0: b2d3 8abd 62d0 dcbd cc39 2c3b 9eae e13d
000003d0: 4950 14bc 40cf b53c fddf 83bc 8dc0 823c
000003e0: ad9b e83d 530b c5ba 42a5 1d3d f73a 423c
000003f0: 4f00 1abd d940 abbd 1688 293c 1f35 513c
-0.115055 -0.07030294 -0.06530299 0.09226676 0.023287337 0.1027258 -0.07547854 -0.016275112
-0.06538357 0.056211054 -0.07601535 0.04504837 0.037393223 -0.11082342 -0.026143556 0.028231189
0.12127028 -0.121610366 -0.08337562 0.1161818 -0.10313972 -0.03058768 0.08702352 0.07309578
0.019140316 0.042969566 -0.044126276 -0.07732626 -0.0024957175 -0.12225501 0.08796544 0.051692925
0.10734068 -0.04957588 -0.06127275 0.013571865 -0.104421034 0.090582825 0.015462296 0.05046112
-0.08220517 0.06982727 -0.106542625 -0.09919209 -0.08451954 0.04446181 -0.033585522 0.062124662
0.015029966 -0.020356555 0.03319365 -0.05527826 -0.024374101 0.09667035 0.11334713 0.0542462
-0.013175965 -0.08358379 -0.0038283707 -0.11832621 0.09792636 -0.01962056 0.024537798 -0.03005739
0.037779834 0.07229043 -0.036241524 0.08926954 -0.09921313 0.06040771 0.082080804 0.06311182
0.083073445 -0.104474835 -0.030618688 0.07253841 0.06598064 -0.12168868 -0.040571213 0.00088360236
-0.0014897501 -0.032110684 -0.10650756 0.039110776 0.1158491 0.018194592 0.06750175 -0.088587396
-0.12685604 -0.08455783 -0.009135891 -0.111122034 0.11644853 0.013830916 0.045876183 -0.013611486
0.12083299 -0.062122308 -0.053752504 0.050718244 0.008299839 -0.04771826 -0.1220538 0.07647085
-0.055844557 0.092885524 -0.11401777 0.05516175 0.11331429 0.1150375 -0.10535224 -0.08056268
0.087966606 -0.015561355 0.0053895814 -0.00056572596 -0.0440908 0.038291287 -0.037838154 0.0792338
-0.09990066 0.09877742 -0.0059412178 -0.027115492 0.11506929 0.055642333 0.074116364 0.102628216
0.08133624 0.04177951 -0.027228875 -0.0044247056 -0.04234554 -0.023316493 0.08262694 -0.12603576
-0.09305058 -0.019254707 0.07270767 0.053996697 0.021682162 -0.0029431651 -0.10835815 -0.046850335
0.10138071 0.03534743 -0.021839272 0.0077266223 0.10467102 -0.025233582 -0.018681953 0.077255376
-0.11103993 0.038496807 0.07181479 0.08699981 -0.052490514 -0.11413266 0.11384287 0.11982915
-0.1069662 0.12092292 -0.075342804 0.0707438 -0.0018646935 -0.028865347 0.07986065 -0.009722812
-0.08518768 -0.09991114 0.07364072 0.03126999 -0.07271447 0.06684213 -0.092436895 0.11722131
0.029522758 0.09322309 -0.04761066 0.09239638 0.05572598 0.09654959 -0.07920837 -0.11328092
0.06347574 0.018177154 -0.012057841 -0.047500093 0.06430025 0.03193471 0.05768486 0.005031699
0.05644811 0.0940577 -0.11209369 -0.0053846347 -0.10642461 0.0842684 -0.027787643 0.032843158
0.06488448 -0.06638267 0.08121868 -0.06727009 0.11295887 -0.042361163 -0.018502424 0.10452955
-0.057579525 -0.042469066 0.06037411 -0.06003288 0.102857664 0.048590433 0.021807387 0.011114843
-0.09892336 -0.020592678 0.03328398 -0.048908938 -0.051649705 -0.0051077213 -0.09451523 0.05457042
-0.10071661 -0.089064114 0.01127286 -0.012666552 -0.07953461 0.050234508 -0.106734574 0.08025316
0.10717589 0.096213385 0.10214011 -0.01808486 0.056301795 -0.111024395 0.058704194 -0.08218268
-0.06778659 -0.10781933 0.0026279567 0.11019634 -0.009052345 0.022193551 -0.016098017 0.015960956
0.11357818 -0.0015033282 0.03848768 0.011854879 -0.03759795 -0.08361978 0.010347387 0.012769013

encoder.post_mp.3.bias f4 [64]
00000000: de05 b93d 8d24 6dbd 174e cb3d 1a64 e9bd
00000010: df16 763c 3975 e63d 4d10 c43d 78c1 b4bd
00000020: 01b2 133d 563a cb3d 2252 4ebd 4fbd 963d
00000030: f850 c8bd da4b 42bd 9604 f0bd 12ca 833c
00000040: a689 d83c 5c64 bc3d bc45 9b3d cdb6 0f3d
00000050: 8593 953d e0f6 d8bc 4694 be3c bfc5 903d
00000060: 398a 1bbd 0942 e63d ae09 393d 6773 8dbd
00000070: 70c3 e63d bdc8 103d 787e adbd 00a5 803d
00000080: 83fb 863c bfe0 56bd 30ca 5d3c b035 9ebd
00000090: c7fd d0bd 45a2 6fbd 9a57 bf3d 5120 1a3d
000000a0: 0ff2 58bd 5567 e1bd ee5c cfbd c9b1 01be
000000b0: 16bc 8cbd 814f ce3d f6ad 7d3d 5910 f8bd
000000c0: 743f 56bd 437e b1bd bc05 a23d 4056 19bd
000000d0: f14a 6b3d 71f8 8cbd 3bcf 463b 0701 f63d
000000e0: 029c 9abd 9062 01be 82c8 d13b b1f8 553d
000000f0: ecb9 003e a6e2 05bd b356 103d f789 a8bd
0.09034322 -0.057896186 0.09927004 -0.11396046 0.015020101 0.11252827 0.095734216 -0.08825964
0.03605843 0.09923236 -0.050371297 0.073603265 -0.097810686 -0.04743562 -0.11719625 0.016087566
0.026432823 0.091988295 0.0758166 0.03508644 0.07303528 -0.026484907 0.023264062 0.07068967
-0.037973616 0.11243064 0.045175247 -0.06906777 0.112677455 0.03534769 -0.084713876 0.06281471
0.016477352 -0.05246043 0.013536975 -0.07725084 -0.10204654 -0.05850436 0.093428805 0.037628476
-0.05296522 -0.11006037 -0.10125147 -0.12665476 -0.06871812 0.10073758 0.06193348 -0.12112493
-0.052306607 -0.08666661 0.0791125 -0.03743577 0.057444517 -0.06883324 0.0030335921 0.12011915
-0.075492874 -0.12635255 0.006402076 0.052239124 0.12570924 -0.032686852 0.035238933 -0.0822944

encoder.post_mp.5.weight f4 [256, 64]
00000000: cba6 423d 2c79 4ebd 4d92 9dbd 8b27 45bd
00000010: e80f d2bd 247d c73d 0127 85bc 10dc 07bd
00000020: b4ff d7ba c045 aebc 1241 973d 5dcc a7bd
00000030: 65f7 b5bd 375b 693c e4bd b0bc 899f b73d
00000040: 5344 b8bb 28a9 bb3d 143c 4dbd f783 6cbd
00000050: 8c1c b8ba 086f 1bbd 7a93 f6bd e938 87bc
00000060: 2006 b6bd d838 69bd c989 e6bd 9fa3 953d
00000070: 2da6 f1bc b57b 67bc 0319 d7bd c13c 45bd
00000080: c608 cebd a050 61bd 2b3c d2bd 9377 373b
00000090: a625 c3bc fc72 5abd ca28 debc 65ff aabd
000000a0: d32c f63d 1e48 f0bc 2010 903b fe3d 26bd
000000b0: a99c 24bd 3284 ac3d dc83 423c fd34 88bd
000000c0: 48c0 46bc 6111 6f3d f64b a6bc 52ac 8abc
000000d0: dd68 2dbd d43a 3dbd 6eca 71bd f561 983d
000000e0: 9b98 383d a6a6 163d 648c 943d 63b8 f7ba
000000f0: 3398 07bd 700b 3c3d 5696 0e3c cb75 f73d
00000100: 0817 d6bd c560 c83d 3b15 1bbc c3d7 e6bb
00000110: 814d 373c dbd1 ab3c 96e8 3fb9 066e 983d
00000120: 42cb e93c 7624 7ebd b842 9dbc 42ad 803d
00000130: 3628 f1bd 9482 da3d 5135 473d b5d2 ef3d
00000140: dd42 c9bd 221b 943c d9d5 cb3d 647a e73c
00000150: 7f5b 7abd 7143 e2bd e331 313d 4268 b73d
00000160: 144b 933d e37d b03c 0583 e43d 6d71 643d
00000170: 448d 5b3d b38d 0b3d 54a9 a2bd 1186 943c
00000180: d7e6 65bd bc60 903d a7eb beba 6a61 7abd
00000190: 8667 c0bd daf9 ab3d 0e1c 083d c26a 2ebd
000001a0: 5c7d b93d 3783 113c f925 dabd 8e6c f13d
000001b0: 0e17 833d ab60 e5bd 79ba 43bd 137d bbbd
000001c0: 6ad1 d53d ec4a 23bd 88e5 de3d 30a1 46bc
000001d0: 9b04 f03d 9208 6e3d 877b f23d c1fd b03d
000001e0: be40 ddbd b6f8 4c3d 7975 47bd b54f d43d
000001f0: af51 b1bd d57d d9bd 0b86 42bd d7e9 2dbd
00000200: c845 403d e73a 31bd b1b5 013d 3eb8 f23d
00000210: 6ab5 d63c 567c e03d 3507 9fbd ba0f 153d
00000220: f330 b5bd 1c61 453d 4e2e cb3d 27e0 01be
00000230: 656b 8abd eeef 57bc ad59 953d 6fc9 96bd
00000240: c324 8bbd 630e 89bd 6c6c 733a 959a dd3b
00000250: 35f8 db3c 4965 fe3c 2740 82bd 4781 21bd
00000260: bfa5 b1bd c5b5 4ebd 2782 e7bd 47d8 23bd
00000270: d1b8 dc3d 2fa5 e33d 1a01 c8bd 458a 423d
00000280: 784e f5bd 524d f43d 8f73 9b3d 6319 c1bc
00000290: 2f0b 58bd c6ee 153d 8868 a9bd 5224 d73d
000002a0: 3556 953c 9679 b93c 1841 e6bd c1ce bcbd
000002b0: 6d35 0cbd 574f 1e3d 7001 a33d 9bbc aa3d
000002c0: 225b da3d 58f6 623c 9ff0 3b3d 1600 913d
000002d0: 2603 263d a46a bcbd 292b 353d c332 dc3c
000002e0: a6cf 67bd a401 6e3c 4a9f d73c 60ec 8abd
000002f0: b585 92bc fc8e c53c c66f 303d fd51 473d
00000300: cf7b 96bd f6fe f83d 464e 66bc d017 8ebd
00000310: e33b ad3c ac7a b43d 914e fabd d87b e03c
00000320: e071 f33d a9ee 0ebb ca45 aa3d d67d 9bbd
00000330: 2f50 033e 48c3 563d 487a e93d 5cb8 013e
00000340: 8f98 9fbc 1642 bdbd 4150 c23c e85e d5bd
00000350: de08 12bd c15c 923d 8672 3dbd 28d7 3ebd
00000360: 674e 80bd aef4 46bd 30ee a03d 40f8 2cbd
00000370: bf9c e93c baa0 643c e7a2 cbbd 1c62 a0bc
00000380: e518 fd3d 2b98 aa3d 40fa 9ebb 8c95 933d
00000390: ac49 e83d 97b5 e8ba 663f f1bc 5ffb 613d
000003a0: cf51 a7bc 68d0 2a3d 3bca 9dbc 6866 513d
000003b0: 31d6 9ebd a6e9 da3d 60df bebd 6bcd 9b3d
000003c0: fe66 2d3c d912 f03d 2fd4 c6bd 2fda e13d
000003d0: 9dd6 57bd 999d 23bd c564 99bd 424c cabd
000003e0: ced3 93bd a498 eb3d 3449 643d 0b90 38bd
000003f0: 91ba e4bd a36b dabd 9b6f e0bd a516 b83c
0.047522347 -0.050408527 -0.0769392 -0.048133414 -0.1025694 0.097406656 -0.01625395 -0.033168852
-0.0016479404 -0.021273494 0.07385458 -0.08193276 -0.088850774 0.014242939 -0.021574922 0.08965976
-0.0056233793 0.09163123 -0.050106123 -0.05774304 -0.0014046594 -0.037947685 -0.12039848 -0.016506629
-0.08887887 -0.056938976 -0.11256749 0.07306599 -0.029498184 -0.014128615 -0.105028175 -0.048153643
-0.10060267 -0.05500853 -0.102653824 0.0027994856 -0.023821663 -0.053332314 -0.02711906 -0.08349494
0.12020268 -0.029331263 0.0043964535 -0.040586464 -0.040188465 0.08423652 0.011872258 -0.06650732
-0.012130804 0.058366183 -0.020299893 -0.016927872 -0.042336334 -0.04619868 -0.059030943 0.07440559
0.04506741 0.036780022 0.0725334 -0.0018899556 -0.033104133 0.045909345 0.008702835 0.12083014
-0.104536116 0.09784082 -0.009465511 -0.007044764 0.011187912 0.02097409 -0.00018301824 0.0744286
0.028539304 -0.06204649 -0.019196853 0.06283046 -0.11775248 0.10669437 0.04863483 0.11710111
-0.09827206 0.018079344 0.099528976 0.028256603 -0.061122414 -0.1104802 0.043260466 0.089554325
0.071920544 0.021544402 0.111578025 0.055772234 0.05360152 0.03407068 -0.07942453 0.018130334
-0.05612835 0.070497006 -0.001456608 -0.061128058 -0.093947455 0.08397265 0.03322988 -0.04258228
0.090571135 0.008881382 -0.10651774 0.11788283 0.06400882 -0.112000786 -0.047785256 -0.091547154
0.10440333 -0.039866373 0.10883623 -0.012123391 0.117196284 0.058113642 0.11839967 0.0864215
-0.10803364 0.050041877 -0.048696015 0.103667654 -0.08658158 -0.10619704 -0.047491115 -0.042459335
0.04694155 -0.043269064 0.031667415 0.11851548 0.026209552 0.10961215 -0.077650465 0.03639195
-0.08847227 0.048188314 0.09920941 -0.12683164 -0.06758765 -0.013179762 0.07292495 -0.07362639
-0.06794121 -0.06692197 0.00092858705 0.0067628124 0.026851753 0.031054156 -0.06359892 -0.03942993
-0.08674192 -0.050466318 -0.113041215 -0.04000118 0.107774384 0.11115491 -0.09765835 0.047495145
-0.11977857 0.1192881 0.075904004 -0.023571676 -0.05274504 0.036604665 -0.08271891 0.105049744
0.018229583 0.022640985 -0.112428844 -0.09219123 -0.03423064 0.038649883 0.079592586 0.08336755
0.106619135 0.013852678 0.04588377 0.070800945 0.040530346 -0.092000276 0.044230614 0.026879674
-0.056594513 0.014526758 0.026321072 -0.06783366 -0.017886022 0.024116032 0.043075345 0.048662174
-0.07347833 0.12158005 -0.014056748 -0.069381356 0.02114672 0.0881246 -0.122220166 0.027402803
0.11886954 -0.0021809733 0.083140925 -0.07592361 0.12823556 0.05243233 0.114002764 0.12667984
-0.019481925 -0.092411205 0.023719909 -0.104184926 -0.035652988 0.07146598 -0.046251796 -0.046591908
-0.06264954 -0.04857319 0.07857931 -0.042228937 0.028517125 0.013954336 -0.099431805 -0.019578032
0.12358264 0.08329805 -0.0048516095 0.07206258 0.11342177 -0.0017754313 -0.029449176 0.055171367
-0.020424752 0.041702658 -0.01926147 0.051123053 -0.077556975 0.10689096 -0.09319949 0.0760754
0.010583637 0.11722345 -0.097084396 0.11027943 -0.052694906 -0.03994522 -0.074899234 -0.09877826
-0.07218133 0.11503723 0.055733874 -0.045059245 -0.11168397 -0.10665061 -0.10958787 0.022471735
