amazon/20230719-194757/commr.pt (torch, 28709 bytes, 10 tensors)

fc1.weight f4 [32, 65]
0	0x3e1eb8b1	0.15500142
1	0xbe10d5a4	-0.14143997
2	0x3bcc59d2	0.0062362934
3	0xbdfa9f29	-0.12237389
4	0xbe112776	-0.1417521
5	0xbd4cd1ea	-0.050004877
6	0x3e386d08	0.18010342
7	0x3d38e287	0.04513791
8	0xbd6e937b	-0.058246117
9	0x3da58334	0.08081666
10	0x3d64ba8f	0.05584198
11	0x3d64b4c1	0.055836443
12	0x3d0d82cc	0.034548566
13	0xbdaf37ec	-0.08555588
14	0x3cca995f	0.024731336
15	0xbc806d33	-0.01567707
16	0xbdd36387	-0.10321718
17	0xbe037140	-0.1283617
18	0xbe1842d3	-0.14869241
19	0xbcb30f7d	-0.021857971
20	0xbdd07add	-0.10179684
21	0xbcf315a2	-0.029673401
22	0x3da9b61c	0.08286688
23	0xbe1d90a6	-0.1538721
24	0xbba8e1c7	-0.005153868
25	0xbc00d66f	-0.007863625
26	0xbb48cd93	-0.003064011
27	0x3de43145	0.1114221
28	0x3dce965a	0.10087271
29	0xbddc0318	-0.107427776
30	0xbe0a7139	-0.13519754
31	0xbdbcc883	-0.09217932
32	0x3d0cb5a1	0.034352902
33	0xbd9b5a8d	-0.075856306
34	0x3d88d17a	0.066805795
35	0xbda5c5f4	-0.08094397
36	0x3d39ec6c	0.045391485
37	0xbe0f8618	-0.14015996
38	0x3d08de20	0.03341496
39	0xbe105b9a	-0.14097443
40	0xbe2537d4	-0.16134578
41	0xbdd9174d	-0.106001474
42	0xbe288a68	-0.16459048
43	0xbce87787	-0.028377308
44	0x3e16cf7d	0.14727588
45	0x3da63c09	0.081169195
46	0xbe103c41	-0.14085485
47	0x3be976a1	0.0071247374
48	0x3ddf0ac8	0.10890728
49	0xbc431108	-0.011905916
50	0x3d62cf18	0.05537328
51	0xbdbdceb8	-0.09267944
52	0x3d40b32d	0.047045875
53	0xbd8ba919	-0.06819362
54	0x3a8a9ce8	0.0010575326
55	0x3dc280f4	0.09497252
56	0x3dbbc064	0.09167555
57	0xbdaaa743	-0.08332684
58	0xbd74e4f9	-0.059788678
59	0xbe0277c5	-0.12741001
60	0x3ce29bea	0.027662236
61	0xbe4408c6	-0.19143972
62	0xbd748b70	-0.05970329
63	0xbdcfdf32	-0.10149993
64	0x3d117ffb	0.035522442
65	0x3dcd5a43	0.10026982
66	0xbe00dfda	-0.12585393
67	0xbda81b5a	-0.08208342
68	0x3dad2c91	0.08455766
69	0xbd396d84	-0.045270458
70	0xbccae62e	-0.024767961
71	0x3d772f27	0.060347702
72	0x3d36aaf7	0.04459664
73	0xbdb4e585	-0.0883284
74	0xbd643333	-0.05571289
75	0xbde45c90	-0.111504674
76	0x3d822922	0.06355502
77	0x3d994eb6	0.07485716
78	0x3d309af5	0.04311653
79	0xbdcbabec	-0.09944901
80	0xbd4a4c4e	-0.049389176
81	0xbda76d02	-0.081750885
82	0x3d3491d1	0.044084374
83	0xbe3db924	-0.18527657
84	0xbe2dbade	-0.16965815
85	0x3d12d9e2	0.03585232
86	0x3b46f0f7	0.0030356029
87	0xbd76ba83	-0.060236465
88	0xbe1be5f6	-0.15224442
89	0xbe383b60	-0.179914
90	0x3d85e890	0.065384984
91	0x3d2b4660	0.04181516
92	0xbd34acc5	-0.04411008
93	0x3df1471e	0.11781143
94	0xbc82b927	-0.015957428
95	0xbe10851b	-0.14113276
96	0xbd2df9b8	-0.04247448
97	0x3d49b74f	0.049247082
98	0x3c0d6fba	0.008632595
99	0x3d28a753	0.041175198
100	0xbd2b9de3	-0.04189862
101	0xbd936bec	-0.07198319
102	0xbe11ca01	-0.14237215
103	0xbc5301a3	-0.012878808
104	0x3d86fd05	0.065912284
105	0xbd769eee	-0.06021016
106	0xbd2a4401	-0.04156876
107	0xbd28b680	-0.04118967
108	0x3d80345d	0.062599875
109	0xbde47082	-0.11154272
110	0x3ce9880c	0.028507255
111	0xbdd2ea74	-0.10298625
112	0x3da43f48	0.080198824
113	0xbd5d0b4b	-0.053965848
114	0xbd9af4ba	-0.07566209
115	0x3d8fdff6	0.07025139
116	0xbdca3d5c	-0.098749846
117	0xbd095879	-0.03353164
118	0xbe215059	-0.15753306
119	0x3d31dae6	0.04342165
120	0xbd7e8a9d	-0.06214391
121	0xbd5c739d	-0.053821195
122	0x3c3c4eb2	0.011493372
123	0xbd787dfb	-0.06066702
124	0xbddff7b9	-0.10935921
125	0x3d838e1d	0.0642359
126	0xbdc39bb1	-0.0955118
127	0x3cf8d7a7	0.030376269
128	0xbc334188	-0.010940917
129	0xbe04c4fd	-0.1296577
130	0x3b20e68e	0.0024551484
131	0x3de17622	0.1100886
132	0x3b7e7809	0.003882887
133	0x3dcfeac4	0.101522
134	0x3e0bfb3b	0.13670056
135	0xbd1151a0	-0.035478234
136	0x3c76a0d4	0.015052993
137	0x3daa06f1	0.08302105
138	0xbd8698fb	-0.065721475
139	0x3db3d69b	0.08781167
140	0x3d796ab2	0.06089277
141	0xbda07e02	-0.07836534
142	0x3d56356a	0.052297033
143	0xbdac99a9	-0.08427746
144	0x3d8454c8	0.06461483
145	0x3d9cc31e	0.07654403
146	0xbd4910bd	-0.04908823
147	0x3cb494f8	0.02204369
148	0x3d364de3	0.044507872
149	0xbcd0a7ac	-0.025470577
150	0x3c274f26	0.010211742
151	0xbdd8bcc3	-0.105828784
152	0xbc32c0ef	-0.010910257
153	0x3d9a1ca9	0.07524998
154	0x3d87ff07	0.066404395
155	0x3c165549	0.009175607
156	0xbd36f980	-0.044671535
157	0xbd97c91c	-0.074114054
158	0x3d9a3fcc	0.075316995
159	0x3d5cd824	0.053917065
160	0xbd5c55c2	-0.053792723
161	0x3cd8bb9c	0.026456647
162	0xbd19d10c	-0.03755288
163	0x3e09183e	0.13388154
164	0xbce562f4	-0.028001286
165	0x3c95a785	0.018268356
166	0xbccc7344	-0.024957307
167	0xbd82c6b6	-0.06385557
168	0x3cfd7c69	0.030943112
169	0x3dcacbb0	0.099021316
170	0xbbfae906	-0.007657173
171	0xbc944688	-0.018100038
172	0x3c8e6490	0.017381936
173	0xbd4f747c	-0.050648198
174	0x3ccea7c4	0.025226481
175	0xbe087cb7	-0.13328825
176	0x3db54bbc	0.08852336
177	0x3d8113c4	0.06302598
178	0x3a4deb19	0.00078551617
179	0x3ce8b610	0.028407127
180	0x3c10e956	0.008844694
181	0xbdaa9aa0	-0.08330274
182	0x3e0744bd	0.13209815
183	0x3d82e881	0.06392003
184	0xbdaee5d8	-0.08539933
185	0xbcbc1033	-0.022956943
186	0x3be744f2	0.0070577795
187	0x3c809b0a	0.015698928
188	0x3d184e33	0.03718395
189	0x3d0a5479	0.033771966
190	0x3cb01d8a	0.02149846
191	0x3e237c95	0.15965493
192	0x3ca33084	0.019920595
193	0x3d019acb	0.031641763
194	0xbd3d9c41	-0.046291593
195	0x3df22b8a	0.11824711
196	0xbbe73811	-0.007056244
197	0xbd245532	-0.04012031
198	0x3d6fae5a	0.058515884
199	0xbbc3b4b6	-0.00597247
200	0xbe241a6a	-0.16025701
201	0x3dde1f13	0.10845771
202	0xbd080cd6	-0.033215366
203	0x3c58470b	0.013200532
204	0x3cd3ece9	0.025869804
205	0x3d8cd984	0.06877425
206	0x3d75e864	0.060036078
207	0x3de15f33	0.11004486
208	0xbd9b0034	-0.07568398
209	0xbe0c56b3	-0.13704948
210	0x3dc679ff	0.09691238
211	0xbb8dc89d	-0.0043268935
212	0xbe26ad02	-0.16276935
213	0xbe0ac99c	-0.1355347
214	0x3d856def	0.06515109
215	0x3d9cc827	0.076553635
216	0xbbbc8258	-0.005752843
217	0xbdbf77fc	-0.09349057
218	0xbe1556d1	-0.14583899
219	0x3c4f41a0	0.012649924
220	0x3ce1cab9	0.027562486
221	0xbd3ac20c	-0.045595214
222	0x3c029628	0.00797037
223	0x3cc8065e	0.024417099
224	0xbde70c51	-0.11281646
225	0xbe2de0e9	-0.16980328
226	0xbd54ca21	-0.051950578
227	0x3cddb471	0.02706358
228	0xbdebe539	-0.1151833
229	0xbdbc1bd6	-0.09184997
230	0x3e225332	0.15852049
231	0x3c9b006f	0.018921105
232	0xbdc1632f	-0.09442746
233	0x3bf93f56	0.007606427
234	0xbe159841	-0.14608862
235	0xbe1b5301	-0.15168382
236	0x3d976c84	0.073937446
237	0xbe103858	-0.14083993
238	0x3c5e160f	0.013555064
239	0xbc661c69	-0.014044859
240	0x3dedfd8b	0.11620625
241	0xbc6a79f4	-0.014311302
242	0xbda32620	-0.07966256
243	0x3d399706	0.045310043
244	0xbd7fc8c4	-0.062447324
245	0xbd2769d0	-0.040872395
246	0xbca0a7a4	-0.019611187
247	0xbda3ef35	-0.080046095
248	0xbe1c6cdb	-0.152759
249	0x3d3b01cc	0.04565601
250	0x3c4b0bf5	0.0123929875
251	0xbc9a15e7	-0.018809272
252	0xbe1cf361	-0.15327217
253	0x3d97925b	0.07400962
254	0xbcd0213b	-0.02540647
255	0xbc1a2454	-0.009408075

fc1.bias f4 [32]
0	0x3e182e1a	0.14861336
1	0x3dc784a6	0.097420976
2	0x3d0b8bac	0.03406875
3	0x3c8bc4d7	0.017061634
4	0x3e24b041	0.1608286
5	0x3dcf19fa	0.101123765
6	0x3d8d5b83	0.0690222
7	0x3de55228	0.11197311
8	0xbe870076	-0.2636754
9	0xbe018177	-0.12647043
10	0x3ca9a85e	0.020710167
11	0x3df812e0	0.12112975
12	0x3e4baa3e	0.19889161
13	0xbd30739c	-0.043079004
14	0xbd94c67a	-0.07264419
15	0x3d8a8736	0.06764071
16	0x3dd46db3	0.10372486
17	0xbddcf099	-0.10788078
18	0x3ca4d4a9	0.020120936
19	0x3dab1bf2	0.083549395
20	0xbe3d608d	-0.18493862
21	0x3da79982	0.08183576
22	0x3cb98a56	0.022648972
23	0xbe16da38	-0.14731681
24	0xbe548f25	-0.2075773
25	0xbca1c7d4	-0.019748606
26	0x3dffbf11	0.12487615
27	0xbe1b09d3	-0.15140466
28	0xbe316795	-0.1732467
29	0x3e17220f	0.14759086
30	0xbde7ffac	-0.113280624
31	0xbe301889	-0.1719686

fc2.weight f4 [32, 32]
0	0x3d9d6f11	0.076872
1	0xbdd5b418	-0.10434741
2	0xbb66f24a	-0.003523963
3	0x3d5e3195	0.054246504
4	0x3dfd2339	0.12360234
5	0x3e248394	0.16065818
6	0x3dffda6b	0.12492832
7	0x3e2495cd	0.1607277
8	0xbdc69a36	-0.09697382
9	0xbe2e31bc	-0.1701116
10	0x3c42adb9	0.011882239
11	0x3e3edc4f	0.18638729
12	0x3d71e49a	0.059055902
13	0x3e27032f	0.16309808
14	0x3c99e9d3	0.018788254
15	0x3dca26a3	0.098706506
16	0x3e061de1	0.13097335
17	0xbe19d9a3	-0.15024428
18	0x3ce340b0	0.027740806
19	0x3e65ad4d	0.2242939
20	0xbd39ec4f	-0.045391377
21	0x3c6459a1	0.013937385
22	0x3dca6c02	0.09883882
23	0xbd400c05	-0.046886463
24	0x3db08980	0.08619976
25	0xbd2718c3	-0.0407951
26	0x3ccb88e6	0.024845552
27	0xbdfae377	-0.12250417
28	0xbde04605	-0.10950855
29	0x3d7b5d17	0.061368074
30	0xbdc57195	-0.09640805
31	0xbd87801f	-0.06616234
32	0x3ddec654	0.10877672
33	0xbc9467cf	-0.018115906
34	0xbd08cd20	-0.033398747
35	0x3c880e71	0.016608449
36	0x3d1351fc	0.03596686
37	0x3e4dc368	0.20094073
38	0x3e523841	0.20529272
39	0xbd8c4db8	-0.06850761
40	0xbdce3d1a	-0.10070248
41	0xbe5be56e	-0.21474239
42	0xbdfb7a4d	-0.122791864
43	0x3db35860	0.087570906
44	0x3e57147d	0.2100391
45	0xbdb306a3	-0.087415
46	0xbc958d0a	-0.01825573
47	0x3ace4a5f	0.0015738717
48	0x3d9d479e	0.076796755
49	0xbe0e3b63	-0.13889842
50	0xbe0c7fa4	-0.13720566
51	0x3df1ea71	0.11812294
52	0x3dae4996	0.08510129
53	0x3e28759d	0.16451116
54	0xbbed8190	-0.007248111
55	0x3c762181	0.015022636
56	0xbe507d1c	-0.20360225
57	0x3d6e3f89	0.05816606
58	0x3e12c7f3	0.14334087
59	0xbe324794	-0.17410117
60	0x3dc3f698	0.095685184
61	0x3b8afaf4	0.0042413417
62	0x3da99d03	0.08281901
63	0xbe1e1b2f	-0.15440057
64	0x3dc3d4f0	0.09562099
65	0xbdc23bdf	-0.09484076
66	0xbd579d8d	-0.052640487
67	0x3e04e1ff	0.12976836
68	0x3dcbee89	0.09957606
69	0x3e8eafd7	0.2786853
70	0x3dbb3253	0.09140458
71	0x3d1708a8	0.03687349
72	0xbe7180fc	-0.2358436
73	0xbe211c05	-0.15733345
74	0xbd22570b	-0.039633792
75	0xbdcefa64	-0.10106352
76	0x3e0eb88f	0.13937591
77	0x3e438678	0.19094265
78	0xbce09bbd	-0.027418012
79	0xbb2f187e	-0.002671748
80	0xbd01726d	-0.031603266
81	0xbe4685e4	-0.19387013
82	0x3d3ac7a9	0.045600567
83	0x3c065e81	0.008201242
84	0xbe693597	-0.22774349
85	0xbb912848	-0.0044298507
86	0xbd41bd09	-0.04729942
87	0xbe44715f	-0.19183873
88	0x3df6cd49	0.12050874
89	0x3dc897cb	0.09794577
90	0xbddddda9	-0.10833294
91	0xbe668726	-0.22512493
92	0xbd663be4	-0.05620946
93	0x3de60704	0.11231807
94	0xbe19db94	-0.15025169
95	0xbca33542	-0.019922856
96	0x3dbbdb32	0.091726676
97	0xbd05faa0	-0.032709718
98	0xbe0c9290	-0.13727784
99	0x3de49a6e	0.111622676
100	0x3e7cdf73	0.24694614
101	0x3d447242	0.047960527
102	0xba535a9e	-0.0008062514
103	0x3e76ae1d	0.24089856
104	0xbdeb2bb8	-0.11482948
105	0xbd196cd9	-0.03745732
106	0xbe78ca5d	-0.24295945
107	0x3c60525a	0.013691509
108	0xbc4e22a5	-0.012581502
109	0xbd979e76	-0.07403271
110	0x3dcb7333	0.09934082
111	0x3d53e8c7	0.051735666
112	0x3d496fad	0.049178768
113	0xbe2aa948	-0.16666138
114	0xbd29fd2e	-0.041501217
115	0xbd8e9b5a	-0.06963225
116	0xbe7c300a	-0.246277
117	0x3e25d727	0.16195355
118	0x3e02ea12	0.12784603
119	0xbe394135	-0.18091281
120	0xbdf76c77	-0.12081235
121	0xbde461a3	-0.11151435
122	0x3e81a327	0.25319788
123	0x3daebeab	0.08532461
124	0xbe0a53c1	-0.13508512
125	0xbd915f65	-0.07098273
126	0x3dc20d60	0.09475207
127	0xbdeb40a3	-0.11486938
128	0x3e117894	0.14206153
129	0x3e59b2d3	0.21259622
130	0x3e4713e9	0.19441189
131	0xbd4dc542	-0.050236948
132	0x3e68e9f3	0.22745495
133	0xbc43c624	-0.011949096
134	0x3df150db	0.11783
135	0x3d64c6e7	0.05585375
136	0xbe305788	-0.1722089
137	0xbe8c7464	-0.2743255
138	0xbe33bd1a	-0.17552605
139	0x3db3549e	0.08756374
140	0xbd5bfbbc	-0.05370687
141	0x3e29dbb6	0.1658772
142	0x3decd142	0.1156335
143	0x3e7b6752	0.24551132
144	0x3e4ff72a	0.2030913
145	0xbda12a27	-0.07869368
146	0xbd8ae9de	-0.06782888
147	0x3dc0373e	0.093855366
148	0xbce88173	-0.028382039
149	0x3e60f384	0.21967894
150	0xbd38200c	-0.044952437
151	0xbe86ac87	-0.26303503
152	0x3d88ba29	0.06676132
153	0xbdf3e65f	-0.11909174
154	0x3de75105	0.1129475
155	0xbd2baaaa	-0.041910805
156	0xbe932504	-0.28739178
157	0x3e6170d9	0.22015704
158	0xbe2a5a81	-0.16636087
159	0xbe5327c6	-0.20620641
160	0xbd81fedb	-0.06347438
161	0xbddc7d51	-0.1076609
162	0x3ddb1964	0.10698202
163	0x3da853a2	0.08219077
164	0xbdccf886	-0.100083396
165	0xbd189e9d	-0.03726064
166	0x3d2a6cda	0.041607715
167	0x3d14e0c2	0.03634716
168	0x3e891573	0.26774177
169	0x3e2a1264	0.16608578
170	0xbcfaa7d0	-0.030597597
171	0x3dc09aa7	0.094044976
172	0x3ce57692	0.02801064
173	0x3c055aff	0.008139371
174	0xbdb45b83	-0.08806517
175	0xbe7fd45d	-0.24983354
176	0xbdcf0ec3	-0.101102374
177	0x3e624418	0.22096288
178	0xbd82f99a	-0.06395264
179	0x3cc775a2	0.024348084
180	0x3e1a1c55	0.1504987
181	0xbe31b760	-0.17355108
182	0x3e28cf1d	0.16485257
183	0x3e150a62	0.14554742
184	0x3e13d6a4	0.14437348
185	0x3e44e0f8	0.19226444
186	0xbc9daf2e	-0.019248571
187	0x3ce36b2e	0.027761068
188	0x3d953c56	0.07286899
189	0xbdf43054	-0.1192328
190	0x3d516315	0.051119883
191	0xbd3fe37e	-0.046847813
192	0xbd35044f	-0.044193562
193	0x3c694631	0.014237926
194	0xbda31b60	-0.07964206
195	0x3dd89a54	0.10576311
196	0xbe7ac756	-0.24490103
197	0xbe42cf00	-0.19024277
198	0xbd9b51f9	-0.075839944
199	0xbe80246c	-0.25027788
200	0xbc8b5da1	-0.01701242
201	0x3e623cd8	0.22093523
202	0x3dc5c54c	0.09656772
203	0xbe5734d9	-0.21016254
204	0x3cfab976	0.030606013
205	0xbca6e7ca	-0.020374198
206	0xbe0efc55	-0.13963445
207	0x3d16f6dd	0.03685652
208	0xbe88f359	-0.2674816
209	0x3dfc7b6c	0.12328228
210	0x3d8d7844	0.069077045
211	0xbe38b827	-0.18038999
212	0x3e86f5f1	0.26359513
213	0xbe5736c4	-0.21016985
214	0x3d45d253	0.048296284
215	0x3e604ea0	0.21904993
216	0x3d296907	0.041359928
217	0x3e08fd24	0.13377815
218	0xbd03c1ce	-0.03216725
219	0xbe1c9308	-0.15290463
220	0x3e834645	0.2563955
221	0xbd4e50f2	-0.050370164
222	0xbd44ca5f	-0.04804456
223	0x3dfb69a8	0.12276012
224	0x3e2da6c1	0.16958143
225	0x3d1e764a	0.038687028
226	0xbd8ec292	-0.06970705
227	0x3d4ad554	0.04951985
228	0x3e3468cf	0.17618106
229	0x3e71efb9	0.23626603
230	0xbd0f61e1	-0.035005454
231	0x3df8b7b6	0.12144415
232	0xbe9802ca	-0.29689628
233	0xbc836747	-0.016040457
234	0xbb620e29	-0.0034493303
235	0x3dd1717b	0.10226723
236	0x3e490695	0.19631417
237	0xbe0e2cea	-0.13884321
238	0xbdc8936c	-0.097937435
239	0x3d38b78a	0.04509691
240	0xbcb7a6e2	-0.022418443
241	0xbd4089ba	-0.047006346
242	0xbe2371b5	-0.15961345
243	0xbd522aa3	-0.051310193
244	0x3dea1b96	0.11431043
245	0xbc8cc487	-0.017183555
246	0xbe24e862	-0.16104272
247	0x3dc6c5ae	0.09705673
248	0xbdba60b3	-0.09100475
249	0xbd800980	-0.06251812
250	0xbe0c7275	-0.13715537
251	0xbdaad66c	-0.08341679
252	0xbd55628f	-0.052095946
253	0xbd81395b	-0.06309768
254	0xbe31f9d2	-0.17380455
255	0xbe2bddcd	-0.16783829

fc2.bias f4 [32]
0	0xbd95df6a	-0.073180035
1	0x3d5a73a4	0.05333294
2	0x3e4981f2	0.19678476
3	0x3dde3562	0.10850026
4	0x3e0c7ebd	0.13720222
5	0xbe538cfd	-0.20659252
6	0xbdf3939c	-0.11893389
7	0xbda6dfd7	-0.08148163
8	0xbd918347	-0.07105117
9	0xbe63c571	-0.22243287
10	0x3dae8e12	0.085231915
11	0x3e0e93fe	0.13923642
12	0xbd77ec69	-0.060528193
13	0xbddf75d8	-0.10911149
14	0xbe81af29	-0.2532895
15	0xbcd0a446	-0.025468957
16	0x3e752408	0.23939526
17	0x3e80bd37	0.2514436
18	0xbc2a3881	-0.010389448
19	0x3e6b3743	0.229703
20	0xbe10094f	-0.14066051
21	0x3e4acdd0	0.19805074
22	0xbb2feba4	-0.0026843334
23	0x3e0a1c1f	0.1348729
24	0xbca691a8	-0.020333126
25	0x3d8d121f	0.06888222
26	0xbe342877	-0.17593561
27	0x3e2f5510	0.17122293
28	0xbc90f710	-0.017695934
29	0x3e7ed6bb	0.248866
30	0xbd0c359b	-0.03423081
31	0xbe0e46c7	-0.13894187

fc3.weight f4 [1, 32]
0	0x3e78b68f	0.2428839
1	0x3e490f29	0.1963469
2	0x3e30bb7c	0.1725902
3	0x3dfb40da	0.12268229
4	0x3de101ef	0.10986697
5	0xbe2bd68a	-0.16781059
6	0xbe4714f0	-0.19441581
7	0x3e617783	0.22018246
8	0xbe2c3e37	-0.16820608
9	0xbe2881ca	-0.1645576
10	0x3e14908f	0.1450827
11	0x3e7a5f4d	0.24450417
12	0xbe595ade	-0.2122607
13	0x3e3dba51	0.18528105
14	0xbdd136c9	-0.102155276
15	0x3dcfd831	0.10148657
16	0x3e1562ce	0.14588472
17	0x3dfef26d	0.12448583
18	0xbdfbc055	-0.12292544
19	0x3e3daef5	0.18523772
20	0xbe64f3f4	-0.22358686
21	0x3dcb5741	0.09928752
22	0xbe6550c2	-0.22394088
23	0x3e46db0e	0.194195
24	0xbe5748e1	-0.21023895
25	0xbe4e7d6e	-0.20165035
26	0xbe909f60	-0.28246593
27	0x3e6db843	0.23214822
28	0x3e2b87aa	0.1675097
29	0x3e449466	0.19197235
30	0xbe6a967d	-0.22908969
31	0xbe8a0d63	-0.26963338

fc1.weight f4 [32, 65]
0	0x3e50d705	0.20394523
1	0x3d476f0b	0.048689883
2	0xbc13a3c1	-0.00901121
3	0xbe3094af	-0.17244218
4	0x3d8c3c20	0.068474054
5	0xbe202202	-0.15637973
6	0x3da6e926	0.08149938
7	0xbe11c961	-0.14236976
8	0x3d988d65	0.07448844
9	0x3e1ea6b3	0.15493278
10	0x3d917215	0.071018375
11	0xbe063207	-0.13105021
12	0x3d3da4fc	0.04629992
13	0x3dbf1a48	0.093311846
14	0x3e332817	0.17495762
15	0x3dbf9a03	0.09355547
16	0xbcbf4acf	-0.023351101
17	0xbdd9e5de	-0.10639547
18	0x3cfb4e55	0.030677
19	0xbde2febb	-0.11083742
20	0x3dbadad4	0.091237694
21	0x3ceb7846	0.028743874
22	0x3d85741d	0.065162875
23	0x3bfc19f5	0.007693524
24	0xbdc996e5	-0.09843234
25	0x3e0db23b	0.13837521
26	0x3d89e9b1	0.06734026
27	0x3cf50412	0.029909167
28	0x3dad264b	0.084545694
29	0xbdcaa283	-0.09894278
30	0xbe0156a6	-0.1263071
31	0x3ce89be5	0.028394649
32	0x3d19f3a9	0.037585888
33	0xbb7d49be	-0.003864869
34	0x3dc03241	0.09384585
35	0x3c00fcd9	0.007872784
36	0x3d619cf9	0.05508134
37	0xbdc281ca	-0.094974115
38	0x3e44bc87	0.19212542
39	0x3dd7b7f8	0.10533136
40	0xbdd79d88	-0.105280936
41	0x3cb5fb1f	0.02221447
42	0x3e3d9719	0.1851467
43	0x3daffe79	0.08593459
44	0xbdaffedc	-0.085935324
45	0xbd0a2c0f	-0.033733424
46	0x3b36e8eb	0.0027909826
47	0x3c8ecef7	0.017432673
48	0x3d85914e	0.06521855
49	0xbc242d7f	-0.010020613
50	0x3d95e084	0.073182136
51	0x3d0fb64e	0.03508597
52	0xbdd70499	-0.10498924
53	0x3dddf5d1	0.108379014
54	0xbe2b64e0	-0.167377
55	0xbd560a09	-0.052255664
56	0xbe1bd07a	-0.15216246
57	0xbca2cb4d	-0.019872332
58	0xbb17d211	-0.002316598
59	0xbe27a055	-0.16369756
60	0xbe156d9f	-0.14592598
61	0x3d456bb7	0.048198428
62	0xbdcb046b	-0.09912952
63	0x3dbbba19	0.09166355
64	0xbcf25423	-0.029581135
65	0xbdc4ffb4	-0.09619084
66	0x3df071be	0.117404446
67	0x3d8bd574	0.06827822
68	0x3ca104ff	0.019655703
69	0x3c9c10d1	0.019050987
70	0x3d9c50b1	0.07632578
71	0x3c98a877	0.018635018
72	0x3dd7f3b4	0.105445296
73	0xbe28c1af	-0.16480134
74	0x3ceacedf	0.028663097
75	0xbd39fea8	-0.045408875
76	0x3d652c67	0.05595055
77	0x3b73ab9a	0.003718114
78	0x3db459d1	0.088061936
79	0xbd88ffed	-0.06689439
80	0x3d9f621d	0.077823855
81	0x3d643d5d	0.055722583
82	0x3e4c1eb9	0.19933595
83	0xbdfd6639	-0.12373013
84	0x3e498085	0.19677933
85	0xbd79c829	-0.060981903
86	0xbd9781b1	-0.073977835
87	0xbded2e74	-0.11581126
88	0xbdd5b557	-0.104349785
89	0x3ddf6070	0.10907066
90	0xbe01fbac	-0.12693661
91	0x3daeffc8	0.0854488
92	0x3d036963	0.032082926
93	0x3dd2fe87	0.103024535
94	0xbd986e44	-0.074429065
95	0x3deab074	0.11459437
96	0xbe5780b6	-0.21045193
97	0x3cf21fef	0.029556243
98	0x3c56c0b9	0.013107472
99	0xbcde430f	-0.027131585
100	0xbdcb086a	-0.09913714
101	0x3d8a6fa1	0.06759573
102	0x3e087dd9	0.13329257
103	0xbdf68831	-0.12037695
104	0xbb510007	-0.0031890885
105	0x3d7dd184	0.061967388
106	0xbd3f94ec	-0.046772882
107	0xbe584eb8	-0.21123779
108	0xbd00fe3d	-0.03149246
109	0xbdf5ed58	-0.1200816
110	0x3df83b13	0.121206425
111	0x3d2524f6	0.04031845
112	0xbc20fecd	-0.009826374
113	0xbd708500	-0.05872059
114	0xbdcde233	-0.1005291
115	0xbd37252b	-0.04471318
116	0xbde1d09c	-0.11026117
117	0xbc844b13	-0.01614908
118	0xbdcc3867	-0.099716954
119	0x3e17e316	0.1483272
120	0x3c383a51	0.011244372
121	0xbcbb24d0	-0.022844702
122	0xbd22d05b	-0.039749485
123	0x3da0f3dc	0.078590125
124	0x3d5719bb	0.052514773
125	0xbd3d8ee0	-0.046278834
126	0xbe394928	-0.18094313
127	0xbd8b5817	-0.06803911
128	0xbde4143b	-0.11136671
129	0x3d8471d9	0.06467027
130	0xbb86a8f2	-0.0041094953
131	0x3c3bf4f0	0.011471972
132	0xbc143b0d	-0.009047282
133	0x3ba2bb3c	0.0049661677
134	0xbd873024	-0.06600979
135	0xbd6a9b69	-0.057277117
136	0xbdeb9aa2	-0.11504103
137	0x3cc88339	0.024476634
138	0xbda0cddd	-0.07851765
139	0xbd97cca4	-0.07412079
140	0x3d97f2e8	0.074193776
141	0x3cca4c10	0.024694473
142	0xbda4e3e8	-0.08051282
143	0xbdd90df4	-0.105983645
144	0xbc9d2519	-0.019182729
145	0xbd360435	-0.044437606
146	0x3c843ceb	0.01614233
147	0x3df2524f	0.11832105
148	0x3deac2c9	0.114629336
149	0x3e499d1a	0.19688836
150	0xbcac35bf	-0.021021722
151	0xbdedc449	-0.11609704
152	0xbd4586c8	-0.04822424
153	0xbd88199e	-0.06645511
154	0x3db76bfc	0.08956143
155	0xbe5d7e0c	-0.21630114
156	0x3e0f6fef	0.14007543
157	0x3e1c2fb1	0.15252568
158	0xbd4a1bff	-0.049343105
159	0x3dada0d6	0.08477943
160	0x3d916270	0.070988536
161	0xbe2fa4a9	-0.17152657
162	0xbdfc0a21	-0.123066194
163	0x3e2a696a	0.16641775
164	0xbdd66e1f	-0.10470223
165	0xbd75ac32	-0.05997867
166	0xbdda963c	-0.10673186
167	0x3e0fe315	0.14051469
168	0xbdead96b	-0.114672504
169	0xbdd00350	-0.10156882
170	0x3ddd8606	0.108165786
171	0xbdc6c2ca	-0.09705122
172	0xbe7d37b5	-0.24728282
173	0x3d3810cb	0.04493789
174	0xbdcad146	-0.09903197
175	0x3dc5e819	0.0966341
176	0x3ded2663	0.11579587
177	0x3be6ec5c	0.007047219
178	0x3cbc7724	0.02300603
179	0xbe1d8afd	-0.15385051
180	0x3b0eefc3	0.002181039
181	0x3de8e894	0.11372486
182	0x3e37ef0c	0.17962283
183	0xbe0075b7	-0.12544905
184	0x3c5dde03	0.013541701
185	0xbe0ec403	-0.1394196
186	0x3d060ac8	0.032725126
187	0x3e547d86	0.20751008
188	0x3d300a1a	0.042978384
189	0x3c9ea8d7	0.019367618
190	0x3e3a3a9c	0.1818642
191	0x3ca6c73b	0.020358672
192	0x3d029f51	0.031890217
193	0xbdcee0f8	-0.10101503
194	0x3da813c0	0.08206892
195	0x3e5a588b	0.21322839
196	0xbda85a97	-0.08220404
197	0xbd7f7531	-0.06236762
198	0xbdeb2fb3	-0.11483707
199	0x3db7a212	0.08966459
200	0xbdf289ff	-0.11842727
201	0x3dfd6084	0.123719245
202	0x3db294db	0.08719798
203	0x3e2042a8	0.15650427
204	0x3e459d3e	0.19298264
205	0x3cba0bf9	0.022710787
206	0xbd9ea354	-0.07745996
207	0xbbfb7508	-0.0076738633
208	0xbdd04c0b	-0.10170754
209	0x3de54079	0.11193938
210	0xbdaa6b38	-0.083212316
211	0x3d18268a	0.03714613
212	0xbe1e75a1	-0.1547456
213	0x3deadcce	0.114678964
214	0xbc68c9f3	-0.014208305
215	0xbd541a71	-0.05178303
216	0x3954e668	0.00020303729
217	0x3d5cb04b	0.053879064
218	0x3daa4023	0.08313014
219	0x3cc56084	0.024093874
220	0x3da2b22e	0.07944141
221	0xbe261d60	-0.16222143
222	0xbd2dd66e	-0.042440824
223	0xbd9fcea8	-0.078030884
224	0xbd1fba6c	-0.038996145
225	0xbde0992f	-0.109667175
226	0x3dfe7377	0.12424367
227	0x3d0723d2	0.032993145
228	0x3d17897d	0.036996353
229	0x3dbee059	0.09320135
230	0x3cf1160a	0.029429454
231	0xbbd7204d	-0.00656513
232	0xbcd2af30	-0.025718302
233	0xbb00e628	-0.0019668434
234	0xbc5fba8a	-0.013655314
235	0xbd04ffe9	-0.032470617
236	0x3de266ed	0.11054788
237	0x3e4f1f69	0.20226826
238	0xbdb5611c	-0.08856413
239	0x3d87df2d	0.06634364
240	0xbdd4ffc1	-0.10400344
241	0xbd4a6353	-0.04941113
242	0xbc5fe4d1	-0.013665394
243	0x3bdf02d7	0.0068057585
244	0xbd9034ef	-0.07041346
245	0x3d687b9d	0.05675851
246	0xbd4e550b	-0.050374072
247	0xbe0c3ac8	-0.13694298
248	0xbc954b8f	-0.018224506
249	0xbe07d938	-0.13266456
250	0xbc81ba8f	-0.015836028
251	0xbdefd107	-0.11709791
252	0xbda55459	-0.08072729
253	0xbafb3298	-0.0019164858
254	0x3dc14fce	0.0943905
255	0xbd9815a2	-0.07426001

fc1.bias f4 [32]
0	0x3e3db4a0	0.18525934
1	0xbe152a64	-0.14566952
2	0xbe48601e	-0.19567916
3	0x3e518181	0.20459558
4	0x3e3a1594	0.18172294
5	0x3e0b7b8a	0.13621345
6	0x3e3a41ca	0.18189159
7	0x3e5416e8	0.20711863
8	0x3e014d60	0.12627172
9	0x3e2ab04c	0.16668814
10	0x3e02be56	0.1276792
11	0x3c944f7c	0.018104307
12	0xbe586803	-0.21133427
13	0xbbb9a010	-0.005664833
14	0xbe064d08	-0.13115323
15	0xbe515484	-0.20442396
16	0xbe4ff51a	-0.20308343
17	0xbe454dd6	-0.19267973
18	0xbd525b95	-0.05135687
19	0xbdb95f5b	-0.09051391
20	0xbdf30afe	-0.11867331
21	0xbda029cd	-0.07820473
22	0xbd831064	-0.06399611
23	0xbe13359b	-0.14375918
24	0xbe1e3751	-0.15450789
25	0xbe3c4412	-0.18385342
26	0x3e5ac583	0.21364407
27	0x3cd862d9	0.026414322
28	0x3d79e263	0.061006915
29	0x3e69bed1	0.22826697
30	0x3e1b8319	0.15186729
31	0x3e5a1f67	0.21301042

fc2.weight f4 [32, 32]
0	0xbce0da9c	-0.027447991
1	0xbe63656f	-0.22206663
2	0xbdc59b86	-0.09648804
3	0xbc9d62f8	-0.019212231
4	0x3e9946f0	0.29936934
5	0x3e3a8b98	0.18217313
6	0x3e40a39b	0.1881241
7	0x3d5b3173	0.053513955
8	0x3e98fc81	0.29880145
9	0x3e36765b	0.17818587
10	0xbcf82acc	-0.030293845
11	0x3e94430c	0.28957403
12	0x3d276b85	0.040874023
13	0x3e9fd1d5	0.31214777
14	0xbd6acbcf	-0.057323273
15	0xbe825a09	-0.25459316
16	0xbdf1ec04	-0.118125945
17	0xbdc49707	-0.09599119
18	0xbe434d88	-0.19072545
19	0xbe1869c0	-0.1488409
20	0xbec6a557	-0.3879802
21	0xbe9096c3	-0.28240022
22	0xbdcd9d53	-0.10039773
23	0xbe822ea5	-0.25426212
24	0xbd9bcab1	-0.0760702
25	0xbe15f6e2	-0.1464496
26	0xbd2256f3	-0.039633702
27	0xbca7a5d0	-0.020464808
28	0x3db8fe24	0.090328485
29	0x3e36eb6a	0.17863241
30	0x3dcf6fcb	0.10128745
31	0x3e28ebb6	0.16496167
32	0x3e4ec2ed	0.20191546
33	0x3d0db6d5	0.03459819
34	0xbe61043b	-0.2197427
35	0x3e9c934d	0.30581132
36	0x3e86cfc8	0.263304
37	0x3e848d58	0.25889087
38	0x3e865cc6	0.26242656
39	0x3e2e504d	0.1702282
40	0x3c050c89	0.008120664
41	0x3e7a00e3	0.24414401
42	0x3db0810b	0.08618363
43	0x3e562003	0.20910649
44	0xbe448a64	-0.19193417
45	0x3a9a51ed	0.0011773683
46	0xbe72ebe1	-0.23722793
47	0xbe064236	-0.13111195
48	0xbcc39348	-0.02387394
49	0xbe5daba1	-0.21647502
50	0xbdd2a400	-0.10285187
51	0xbd6d36aa	-0.05791346
52	0xbe99445c	-0.29934967
53	0xbe7d7b55	-0.24754079
54	0x3bd6381b	0.00653745
55	0x3c833f1d	0.016021306
56	0xbe8be87d	-0.27325812
57	0xbdfd8a61	-0.12379909
58	0x3d56af90	0.052413523
59	0x3daffaa4	0.08592728
60	0x3e72551b	0.23665278
61	0x3dff0966	0.124529645
62	0x3d36bf14	0.04461582
63	0x3dc6715c	0.0968959
64	0xbe1132af	-0.1417949
65	0xbd4a3e92	-0.049376078
66	0x3dcc13ad	0.0996469
67	0xbdc71918	-0.09721583
68	0xbdbbdc36	-0.09172861
69	0xbddd2baf	-0.107993476
70	0xbe9162c5	-0.28395668
71	0xbe0192ae	-0.1265361
72	0xbe21329e	-0.15741965
73	0xbe605942	-0.21909049
74	0xbe25ad0e	-0.16179296
75	0xbdbfb3ec	-0.09360489
76	0x3e674287	0.22583972
77	0xbe79e7fc	-0.24404901
78	0x3dbc6fcf	0.09201013
79	0x3c584ebc	0.0132023655
80	0xbc11024c	-0.008850645
81	0xbba4a480	-0.0050244927
82	0x3dfa72c9	0.12228925
83	0xbc77582c	-0.015096705
84	0x3e8a645f	0.27029702
85	0x3da250c8	0.07925564
86	0xbd84146b	-0.06449207
87	0x3dea4f3f	0.11440896
88	0x3e5cc792	0.21560505
89	0x3e626158	0.22107446
90	0x3d47d6aa	0.048788704
91	0xbe16041e	-0.14650008
92	0xbce8611c	-0.028366618
93	0xbe8eb5d9	-0.27873114
94	0xbdf48398	-0.11939162
95	0xbde93ef0	-0.113889575
96	0xbe064a61	-0.13114311
97	0x3e43bc78	0.19114864
98	0x3e765da2	0.24059156
99	0xbd0de8a1	-0.03464568
100	0xbe085e2a	-0.1331717
101	0xbe873a34	-0.26411593
102	0xbe944fdf	-0.28967187
103	0xbe04a096	-0.12951884
104	0xbdc5f874	-0.09666529
105	0xbdbc7b2f	-0.09203183
106	0xbe6dc898	-0.23221052
107	0xbdfb32f1	-0.12265576
108	0x3e50ccf1	0.20390679
109	0xbea2d571	-0.31803468
110	0x3e1c8483	0.15284924
111	0xbb078789	-0.002068015
112	0x3d8c72bf	0.068578236
113	0x3e37a308	0.17933285
114	0x3d62eb75	0.05540033
115	0x3e8205e6	0.25395125
116	0x3e138a47	0.14408217
117	0x3e7958a5	0.24350221
118	0xbc8e5c33	-0.017377948
119	0x3ce67b9d	0.028135115
120	0x3dbf0a5f	0.0932815
121	0x3e37b45d	0.17939897
122	0xbd859c2d	-0.06523929
123	0xbe2f1c4f	-0.17100643
124	0xbe8fbe78	-0.28075004
125	0xbe1445ed	-0.144798
126	0xbd5aa999	-0.053384397
127	0xbe7f2583	-0.24916653
128	0xbd36004a	-0.04443387
129	0x3e93f6b4	0.28899157
130	0xbc8d123b	-0.017220607
131	0xbc4432ed	-0.011975032
132	0xbe7b9e58	-0.24572122
133	0xbde6726e	-0.112522945
134	0xbe2b0acf	-0.16703342
135	0x3d03d67b	0.032186966
136	0xbde8e10b	-0.113710485
137	0xbe302ba2	-0.17204145
138	0xbdf7cb68	-0.120993435
139	0xbe13d71d	-0.14437528
140	0x3d488a81	0.048960213
141	0xbdde1ac0	-0.10844946
142	0xbc27b92f	-0.010237022
143	0x3d6b12d0	0.057390988
144	0x3e2547ac	0.16140622
145	0x3e400ae2	0.18754151
146	0xbcf11b50	-0.029431969
147	0x3e626c9e	0.22111747
148	0x3e5df31c	0.2167477
149	0x3dd548af	0.10414254
150	0xbca40f74	-0.0200269
151	0x3d896d88	0.067103446
152	0x3d0b3975	0.033990342
153	0x3e084aec	0.1330983
154	0xbdc1f7a6	-0.09471063
155	0xbd9d02ee	-0.076665744
156	0xbe6f4a34	-0.2336815
157	0xbdac93d1	-0.08426631
158	0xbb3f6450	-0.0029204078
159	0x3cc16450	0.023607403
160	0xbe6889e7	-0.22708856
161	0x3e1a1719	0.15047874
162	0x3e2f1c70	0.17100692
163	0x3b862595	0.0040938356
164	0xbe0fac41	-0.14030553
165	0x3caae3c7	0.020860566
166	0xbe4977fc	-0.19674677
167	0xbe82bc30	-0.255342
168	0xbcc0021d	-0.023438508
169	0xbe1a239c	-0.15052646
170	0xbe140d89	-0.14458288
171	0xbe98c936	-0.29841012
172	0x3e86316f	0.2620959
173	0xbe5ed4b7	-0.21760832
174	0x3d073a65	0.033014674
175	0x3e9022b2	0.2815147
176	0x3e249af6	0.16074738
177	0x3e44eb8f	0.19230483
178	0x3db9bd03	0.09069254
179	0x3e495ac5	0.19663532
180	0x3d787547	0.06065872
181	0x3e84c7f1	0.25933793
182	0x3e0d82e7	0.13819467
183	0x3ccf3d57	0.025297804
184	0x3e82c18a	0.25538284
185	0x3dabcd11	0.08388723
186	0x3ab1a8e6	0.0013554364
187	0x3ccc45c5	0.024935612
188	0xbe4d20d2	-0.20032051
189	0xbe57dd09	-0.21080412
190	0xbe6ee955	-0.23331197
191	0xbc9ea803	-0.019367224
192	0xbe7f598a	-0.249365
193	0x3dfee24d	0.12445507
194	0x3e9a80c7	0.30176374
195	0xbe41ae44	-0.18914133
196	0x3a9c4b87	0.0011924364
197	0xbea679dc	-0.32514846
198	0xbc823763	-0.015895551
199	0xbe460c07	-0.19340526
200	0xbdeedeef	-0.11663615
201	0xbe8ceb1d	-0.27523127
202	0xbe8deaca	-0.27718192
203	0xbe4b85f6	-0.19875321
204	0x3dc6ecca	0.09713133
205	0xbe2551e6	-0.16144523
206	0x3e631f5a	0.22179928
207	0x3e87b9e8	0.26509023
208	0x3e9a624c	0.3015312
209	0x3d2330a7	0.03984132
210	0x3d0323d7	0.0320166
211	0x3e6876d4	0.2270158
212	0x3e88a4a8	0.26688123
213	0x3e16ab84	0.14713866
214	0x3e1bc9a8	0.15213645
215	0x3e0155ca	0.12630382
216	0x3e1d761d	0.15377088
217	0x3c93d59f	0.018046198
218	0xbe1ce8a5	-0.15323122
219	0x3d422546	0.047398828
220	0xbe346648	-0.17617142
221	0x3b248b4d	0.0025107444
222	0xbe0acd92	-0.13554981
223	0x3ba79f5c	0.0051154327
224	0xbe469ac5	-0.19394977
225	0x3d7ec169	0.06219617
226	0x3e9d4d8e	0.30723232
227	0xbe004dba	-0.1252965
228	0xbe8407b0	-0.25787115
229	0xbd2fa150	-0.04287845
230	0xbd84eaec	-0.0649012
231	0x3d0c0f22	0.03419412
232	0xbe6a0014	-0.22851592
233	0xbe9bbf79	-0.3041952
234	0xbe086d34	-0.13322908
235	0xbe926ee9	-0.28600243
236	0xbd0b7755	-0.03404935
237	0xbc379299	-0.011204385
238	0x3e188d11	0.14897563
239	0x3e5f7606	0.21822366
240	0x3e03b182	0.12860683
241	0x3df8e2e7	0.12152653
242	0x3e548e54	0.20757419
243	0x3d7b2c55	0.061321575
244	0x3e9457d9	0.28973272
245	0x3e91ded5	0.2849032
246	0x3dcafe8c	0.09911832
247	0xbd19caf0	-0.037547052
248	0xbcdeb183	-0.027184254
249	0x3e396337	0.18104254
250	0xba64107f	-0.0008699968
251	0x3d2c8eff	0.04212856
252	0xbdcf079b	-0.101088725
253	0xbe84f5be	-0.25968736
254	0xbd54ddec	-0.051969454
255	0xbd80ed4c	-0.06295261

fc2.bias f4 [32]
0	0x3d8772e5	0.06613711
1	0x3cdc0349	0.026857035
2	0x3d86a522	0.06574465
3	0xbd8e70ba	-0.06955095
4	0xbe13c724	-0.14431435
5	0xbd584833	-0.05280323
6	0xbe438d90	-0.1909697
7	0x3cd7e66e	0.026354995
8	0xbd9dce18	-0.07705325
9	0xbe258bc0	-0.16166592
10	0x3e1993d0	0.14997792
11	0x3c803df0	0.015654534
12	0x3dea6855	0.11445681
13	0x3dc2db60	0.09514499
14	0xbb0a93ea	-0.0021145293
15	0xbe18d364	-0.14924389
16	0x3e3137dd	0.17306466
17	0x3e5ed499	0.21760787
18	0x3e4aaa3f	0.19791506
19	0xbd3d8ae0	-0.04627502
20	0x3e55c3ab	0.20875423
21	0xbc1d5279	-0.009602183
22	0x3d78b225	0.060716767
23	0xbdb2c017	-0.087280445
24	0xbba2e283	-0.00497085
25	0xbd8a15d1	-0.067424424
26	0xbcc635a4	-0.0241955
27	0xbbcb2cbc	-0.006200401
28	0x3df669c4	0.12031892
29	0xbc62cd0e	-0.013842834
30	0xbc2228bf	-0.00989741
31	0x3e33c525	0.17555673

fc3.weight f4 [1, 32]
0	0xbe85ba55	-0.26118723
1	0xbea1000a	-0.31445342
2	0x3e9c063b	0.30473503
3	0x3e549dee	0.2076337
4	0x3e96f596	0.29484242
5	0x3e883085	0.26599517
6	0x3e69e3a1	0.2284074
7	0x3e909beb	0.28243956
8	0x3e6c9ef2	0.23107508
9	0x3ea97799	0.33099058
10	0xbe997019	-0.29968336
11	0xbea851f6	-0.3287503
12	0xbe590f72	-0.21197298
13	0xbeade3b3	-0.33962783
14	0xbea9dcdc	-0.33176315
15	0x3ea01e48	0.31273103
16	0xbe8b6347	-0.2722418
17	0xbe607aaf	-0.219218
18	0xbea9edc3	-0.3318921
19	0xbe5a16a0	-0.21297693
20	0xbe3a5691	-0.18197085
21	0x3e7360db	0.23767416
22	0xbea618d2	-0.3244081
23	0x3ea337a6	0.31878394
24	0x3e51024a	0.2041103
25	0x3e91c899	0.28473356
26	0xbe9ffea6	-0.3124897
27	0xbeb392d8	-0.3507297
28	0xbea8d0f3	-0.32971916
29	0xbe80d29e	-0.25160688
30	0xbe8fd129	-0.28089264
31	0xbe80d685	-0.25163665
