amazon/20230727-164313/commr.pt (torch, 28709 bytes, 10 tensors)

fc1.weight f4 [32, 65]
0	0x3e2429d2	0.16031578
1	0xbdabcb8c	-0.08388433
2	0x3c5956c5	0.013265316
3	0xbc61b96c	-0.013777118
4	0x3c8a3995	0.01687316
5	0xbda38ce4	-0.07985857
6	0xbde5cb03	-0.11220362
7	0xbc9d2942	-0.019184712
8	0x3c213654	0.009839613
9	0xbdc99833	-0.09843483
10	0xbde6ec60	-0.11275554
11	0x3b3f5fb7	0.0029201338
12	0xbdb98ad5	-0.09059683
13	0xbd389bda	-0.045070507
14	0xbe47c657	-0.19509254
15	0x3deb1db4	0.11480275
16	0x3d87fa86	0.066395804
17	0xbe0f88ef	-0.1401708
18	0xbdb346bd	-0.08753727
19	0xbde555e5	-0.11198024
20	0xbd024e9e	-0.031813256
21	0xbe02781a	-0.12741128
22	0xbd4832f1	-0.048876707
23	0x3d698ea4	0.0570208
24	0x3c8dc11f	0.017304001
25	0x3db7f84b	0.08982905
26	0xbdfd2aca	-0.12361677
27	0x3dc56c57	0.09639805
28	0x3dd15153	0.102205895
29	0x3d9d15d3	0.07670178
30	0x3dd0e7c4	0.10200456
31	0xbe1ddb1c	-0.15415615
32	0x3d8aeb40	0.067831516
33	0x3e09b9a5	0.13449724
34	0xbe08dd91	-0.13365771
35	0xbc620c5f	-0.013796895
36	0x3dc69cf7	0.096979074
37	0xbd40a0bc	-0.04702829
38	0xbd84345a	-0.06455298
39	0xbd1259cc	-0.03573017
40	0x3caf6084	0.021408327
41	0x3d317f42	0.043334253
42	0x3b1b9554	0.002374013
43	0x3c90162d	0.0175887
44	0x3d0d31f9	0.034471486
45	0x3dafbd9a	0.085810855
46	0xbca56ab1	-0.020192476
47	0x3c43036e	0.011902673
48	0xbda8f8c5	-0.08250574
49	0x3d913c1b	0.07091542
50	0x3d4deb25	0.05027308
51	0xbdb4f9f4	-0.08836737
52	0xbd40578f	-0.046958502
53	0x3d817171	0.06320465
54	0xbd16a9d3	-0.03678305
55	0x3bf3d04c	0.0074406024
56	0xbd109498	-0.03529796
57	0x3d48824b	0.048952382
58	0x3e17e76f	0.14834379
59	0x3c0e65be	0.008691249
60	0x3d831b2d	0.06401668
61	0xbc646155	-0.013939221
62	0x3dca22ec	0.09869942
63	0x3d0631fd	0.032762516
64	0xbd815fe0	-0.06317115
65	0x3e940ee3	0.28917608
66	0x3dc75363	0.09732702
67	0x3e1b3227	0.1515585
68	0xbb8a0207	-0.0042116675
69	0x3d30af46	0.043135904
70	0x3b6e5f52	0.0036372733
71	0x3dd75a54	0.105152756
72	0xbe0a825b	-0.13526289
73	0xbd1af7cc	-0.037833974
74	0xbd1b1cba	-0.037869193
75	0xbe08eb43	-0.13370995
76	0x3c8ccb4d	0.017186785
77	0xbd3dd06e	-0.046341352
78	0x3d82b5bf	0.063823216
79	0xbca26944	-0.019825585
80	0xbd897f7f	-0.06713771
81	0x3df2e2fd	0.11859701
82	0x3c343c14	0.011000652
83	0xbd82588f	-0.063645475
84	0xbe266297	-0.16248547
85	0x3df5a943	0.11995175
86	0xbe1404cf	-0.1445496
87	0xbcbe8626	-0.023257326
88	0xbd6c3df2	-0.057676263
89	0xbdf0d837	-0.1175999
90	0x3e348b6d	0.17631312
91	0x3db2dbbc	0.08733317
92	0xbcd6683b	-0.026172748
93	0x3dc493c2	0.09598495
94	0xbe1fb815	-0.15597565
95	0x3d8e9d9b	0.069636546
96	0xbd92d6c1	-0.07169867
97	0xbce494b8	-0.027902946
98	0x3e06ebef	0.13175939
99	0xbdcc3764	-0.099715024
100	0x3d19af2a	0.037520565
101	0xbdcf8eac	-0.101346344
102	0x3db37485	0.08762459
103	0x3aea1fa5	0.0017862214
104	0x3db4f8df	0.08836531
105	0x3d8200d4	0.06347814
106	0x3d719312	0.058978148
107	0x3d7c9edc	0.061674938
108	0xbd884051	-0.066528924
109	0xbd6cef5d	-0.057845462
110	0x3d444a35	0.04792233
111	0xbe14d3dd	-0.14533944
112	0x3c7b89e5	0.015352701
113	0x3dde0ae1	0.10841919
114	0xbd31a6c8	-0.043371946
115	0x3e1c1f44	0.15246302
116	0xbc7daacd	-0.015482617
117	0x3d6cb0ab	0.05778567
118	0xbc777e59	-0.015105807
119	0xbd4f1a56	-0.050562225
120	0xbdb401e6	-0.087894246
121	0xbdb42346	-0.087957904
122	0x3dfc0643	0.12305882
123	0x3d3c8b00	0.046031
124	0x3c5e6773	0.013574469
125	0xbdb747a7	-0.089492135
126	0xbd86e8d2	-0.06587376
127	0xbced2be6	-0.028951596
128	0xbd3f54a6	-0.046711586
129	0x3c99dd71	0.01878235
130	0xbe175663	-0.14779048
131	0x3d359a07	0.044336345
132	0x3d1b1dba	0.037870146
133	0xbd0bcbdb	-0.03412996
134	0xbc14d55b	-0.009084071
135	0xbbf1a0f4	-0.0073739234
136	0xbd0db92a	-0.034600414
137	0x3c086a1b	0.008326079
138	0x3c8ba989	0.017048614
139	0xbcc1c6e1	-0.023654403
140	0x3d5802ef	0.052737173
141	0x3dd5163e	0.10404633
142	0xbd0ae6d9	-0.03391156
143	0x3e0af3e7	0.13569604
144	0x3e02ec91	0.12785555
145	0xbdf8a496	-0.12140767
146	0x3ce21b5e	0.02760094
147	0xbc563414	-0.01307394
148	0x3d83c3a7	0.06433802
149	0xbd8840cd	-0.06652985
150	0x3d9978fd	0.0749378
151	0xbcc31b57	-0.023816748
152	0x3dc3dafd	0.09563253
153	0xbc1b105e	-0.009464351
154	0xbd3b2509	-0.045689616
155	0xbd7393bf	-0.059467074
156	0xbd709099	-0.05873165
157	0x3cf42634	0.029803373
158	0xbdf944e1	-0.12171341
159	0xbddea453	-0.10871186
160	0xbe12c7b7	-0.14333998
161	0xbd4ba09b	-0.049713712
162	0x3e293ccb	0.16527097
163	0xbe1ce65f	-0.15322255
164	0x3c3062f4	0.01076578
165	0x3be14bc9	0.0068754894
166	0xbd63a4da	-0.055577137
167	0xbe267682	-0.16256145
168	0xbd633dc1	-0.055478815
169	0xbd8df880	-0.06932163
170	0x3df008f6	0.11720459
171	0xbdf50c76	-0.11965267
172	0xbc438292	-0.011932986
173	0xbd989e48	-0.07452065
174	0x3d177f6f	0.036986765
175	0xbe3e7a4c	-0.1860134
176	0xbd36a1c8	-0.04458788
177	0xbb8d54d6	-0.0043130917
178	0xbd7c8d8f	-0.06165844
179	0x3db19feb	0.0867308
180	0x3d425539	0.047444556
181	0xbd5446c8	-0.051825315
182	0x3d309c41	0.043117765
183	0xbd520931	-0.051278297
184	0x3bd895b7	0.0066096443
185	0xbbb2c6b0	-0.0054558143
186	0xbc6a7735	-0.014310648
187	0x3d2d80c3	0.042359125
188	0xbd844220	-0.06457925
189	0xbdc9b377	-0.09848683
190	0xbcce1856	-0.025158089
191	0xbd2cee6f	-0.042219575
192	0x3ca93571	0.020655366
193	0xbca0a0bf	-0.0196079
194	0x3d66b639	0.056326125
195	0x3e6adb66	0.22935256
196	0x3e01fb43	0.12693505
197	0x3d7a61f5	0.061128575
198	0xbd0732f2	-0.03300757
199	0xbd72a4a8	-0.05923906
200	0x3cdaf7a6	0.026729416
201	0xbd0d6b9c	-0.034526452
202	0xbc1a8fd8	-0.009433709
203	0xbd68dda4	-0.056851998
204	0xbd3b587b	-0.04573868
205	0xbd1cb508	-0.038258582
206	0xbc8141df	-0.01577848
207	0x3de796a9	0.11308033
208	0xbbab09c1	-0.0052196686
209	0xbe24d869	-0.16098179
210	0x3e2d1772	0.16903475
211	0xbcb51648	-0.022105351
212	0xbcf1bfd2	-0.029510412
213	0x3e3bdb0a	0.18345276
214	0xbdcd3bcb	-0.1002117
215	0xbda41270	-0.08011329
216	0xbd7b62a5	-0.06137337
217	0xbd2f4bb6	-0.042796813
218	0xbdc2cb0e	-0.09511386
219	0x3cdd19bb	0.026989808
220	0x3e041848	0.12899888
221	0x3dc7bd56	0.0975291
222	0x3a7d07fc	0.0009652374
223	0x3dc9439c	0.098273486
224	0xbd801009	-0.062530585
225	0xbc97d279	-0.018532978
226	0xbcbfe271	-0.023423405
227	0xbd06026a	-0.032717146
228	0xbd9b73c4	-0.0759044
229	0xbe2dd4c3	-0.16975693
230	0xbd2c1ffe	-0.042022698
231	0xbd93be48	-0.07214028
232	0x3cfd6583	0.030932194
233	0x3d91309d	0.070893504
234	0x3e027c57	0.12742744
235	0xbcf399f9	-0.029736506
236	0x3d541867	0.051781084
237	0x3dda13b1	0.10648287
238	0x3dfd5768	0.12370187
239	0xbc89f937	-0.016842468
240	0x3c52b993	0.012861627
241	0x3d592fab	0.053023975
242	0xbc179ad1	-0.00925322
243	0xbd88642b	-0.066597305
244	0x3da4c1eb	0.080447994
245	0x3e313408	0.17305005
246	0x3df8113f	0.121126644
247	0xbdfd2e85	-0.123623885
248	0x3da86f96	0.08224408
249	0xbdc8c600	-0.098033905
250	0x3d583ee2	0.052794345
251	0xbdd521a6	-0.104068086
252	0x399ebc4c	0.000302764
253	0x3cff3c47	0.031156672
254	0xba0cdc81	-0.0005373434
255	0xbd355ad4	-0.044276074

fc1.bias f4 [32]
0	0xba172b4c	-0.00057666446
1	0x3bfc2b9b	0.007695628
2	0xbd9ea9b3	-0.07747211
3	0x3d9686a4	0.073498994
4	0xbd35182c	-0.044212505
5	0x3d805938	0.06267017
6	0xbcaff7a7	-0.021480395
7	0x3d404d87	0.046948936
8	0xbd2af49b	-0.04173718
9	0x3d308e81	0.043104652
10	0xbc4b4577	-0.012406698
11	0xbd9aaf87	-0.075530104
12	0xbdc90562	-0.0981548
13	0xbbcd049b	-0.0062566525
14	0x3cfa19ae	0.030529823
15	0xbca9c124	-0.02072198
16	0x3caca378	0.021074042
17	0x3df6ccf8	0.120508134
18	0x3d692ea4	0.056929246
19	0x3da286bb	0.07935854
20	0x3cdf5081	0.027260067
21	0x3b8b0e2e	0.0042436337
22	0x3cd6f37f	0.026239155
23	0xbd132c23	-0.035930764
24	0x3d868924	0.06569126
25	0xbd261574	-0.040547803
26	0x3d439bd3	0.047756027
27	0x3dbdb17c	0.09262368
28	0x3ddf8e46	0.109158084
29	0xbc930b28	-0.017949656
30	0xbd8e96bc	-0.06962344
31	0xbd07ba27	-0.033136513

fc2.weight f4 [32, 32]
0	0x3dcd45cf	0.100230806
1	0x3e8ecb68	0.27889562
2	0xbe46121c	-0.19342846
3	0x3e54b3da	0.20771733
4	0xbea55755	-0.32293192
5	0x3e84b9aa	0.259229
6	0xbc712fdb	-0.014720882
7	0x3ea2cd31	0.31797174
8	0xbd9e2863	-0.07722547
9	0xbd4fb015	-0.050705034
10	0xbe75baf7	-0.23997103
11	0xbe87b6db	-0.26506695
12	0x3d929bcf	0.071586244
13	0xbcfe427a	-0.031037558
14	0x3e49fb5b	0.19724791
15	0xbe239053	-0.15973024
16	0x3e226126	0.15857372
17	0x3dbf0133	0.093264006
18	0x3dd546ff	0.10413932
19	0x3e89f95f	0.26948068
20	0x3d867ad0	0.065663934
21	0xbe48cee5	-0.19610174
22	0xbd06f5d4	-0.032949284
23	0x3e8250fd	0.25452414
24	0x3b5581db	0.003257862
25	0x3ce44e88	0.027869478
26	0xbd6b096f	-0.057382043
27	0x3d9deb0b	0.077108465
28	0x3d2ee1f6	0.042695962
29	0xbd9b3439	-0.0757832
30	0xbe327c09	-0.17430128
31	0xbe3c28ef	-0.1837499
32	0x3dfb995f	0.122851126
33	0xbe13d388	-0.14436162
34	0x3da7f0f6	0.082002565
35	0xbe7c134f	-0.2461674
36	0x3e0d78a2	0.13815549
37	0xbe800ecd	-0.25011292
38	0x3e9a7848	0.30169892
39	0xbe17b10a	-0.14813629
40	0x3e64f584	0.22359282
41	0xbe1a383d	-0.15060516
42	0x3e7178d2	0.23581246
43	0xbc1d6d30	-0.009608552
44	0xbd8453b5	-0.06461278
45	0xbddbcb53	-0.107321404
46	0xbe158c8f	-0.146044
47	0x3e6f33ba	0.23359576
48	0xbe287a5e	-0.1645293
49	0xbd1cf838	-0.038322657
50	0xbe18d69f	-0.14925621
51	0xbe18e903	-0.14932637
52	0xbb41ca54	-0.002957006
53	0xbc925925	-0.017864773
54	0xbe00d118	-0.12579763
55	0xbd9b3f8b	-0.07580479
56	0xbd810e1b	-0.063015185
57	0xbd529e6b	-0.05142061
58	0x3e133b4d	0.1437809
59	0xbde1d51a	-0.11026974
60	0x3e3aab28	0.18229353
61	0xbce2ded1	-0.027694138
62	0x3e436e4f	0.19085048
63	0x3e452563	0.19252543
64	0xbd3c3084	-0.045944706
65	0xbe9e36bc	-0.30901134
66	0xbde34c7d	-0.11098573
67	0x3c278134	0.0102236755
68	0x3e90e0b5	0.28296438
69	0xbe3296e3	-0.17440371
70	0x3e7a9505	0.24470909
71	0x3c193ceb	0.009352903
72	0x3ddc217e	0.10748576
73	0x3c99192e	0.018688764
74	0x3e893093	0.26794872
75	0x3e85c7ff	0.26129147
76	0x3d971f4c	0.07379016
77	0xbd94b213	-0.072605275
78	0xbe3827bf	-0.17983912
79	0x3df94ec0	0.121732235
80	0xbd126adc	-0.03574644
81	0xbe3912ae	-0.18073532
82	0xbd8da494	-0.069161564
83	0xbd231806	-0.039817832
84	0x3e478781	0.19485284
85	0xbdcb44fc	-0.09925267
86	0xbcbd577c	-0.023113005
87	0xbdbd1612	-0.09232725
88	0xbc3d28b7	-0.011545352
89	0x3c5063ce	0.012719108
90	0x3e18567f	0.14876746
91	0xbdd7ae21	-0.10531259
92	0x3e4fbea9	0.20287575
93	0x3e6c2495	0.2306083
94	0x3dd3bfcb	0.10339316
95	0xbd118330	-0.0355255
96	0x3d041017	0.032241907
97	0x3e0575f2	0.13033274
98	0xbdc3141b	-0.09525319
99	0x3de67654	0.11253038
100	0xbe1a9b0d	-0.1509821
101	0x3e3ef69e	0.18648764
102	0xbeac2e1c	-0.3362893
103	0x3e9d0a85	0.30672088
104	0xbd0e6577	-0.034764733
105	0x3d5f21a4	0.05447544
106	0xbc60feee	-0.013732655
107	0xbd84a6c3	-0.0647712
108	0x3e06ad2c	0.13151997
109	0xbe2a091c	-0.16605037
110	0x3e2f7c08	0.17137158
111	0xbe91538a	-0.28384048
112	0x3e8eb7fe	0.2787475
113	0x3e8f6079	0.2800329
114	0x3e51e160	0.2049613
115	0x3e313b04	0.17307669
116	0xbe203bf1	-0.15647866
117	0x3d8c44df	0.068490736
118	0x3e53b7c1	0.20675565
119	0x3ddbf434	0.107399374
120	0x3d2fa829	0.04288498
121	0xbde5a278	-0.11212629
122	0xbd6cb651	-0.057791058
123	0x3e29c9bd	0.16580863
124	0xbe3d7dbc	-0.18504995
125	0xbe06d4ae	-0.13167068
126	0x3cb9d645	0.02268518
127	0xbe393d40	-0.18089771
128	0xbe4ef6d7	-0.2021135
129	0x3cc52d63	0.024069494
130	0x3e50b360	0.20380926
131	0xbd6e56cb	-0.05818824
132	0xbc26a5bd	-0.010171351
133	0xbdd6c36e	-0.10486494
134	0x3e4fe5f6	0.20302567
135	0xbdddf05b	-0.1083686
136	0x3e72c06d	0.23706217
137	0xbe50b207	-0.20380412
138	0x3e8566b6	0.26054925
139	0x3e8f9391	0.28042272
140	0xbe5bdfc2	-0.21472076
141	0xbde01cf9	-0.10943026
142	0xbe5c3504	-0.21504599
143	0x3e384aea	0.17997327
144	0xbe25ecef	-0.16203664
145	0xbe588851	-0.2114575
146	0x3d5e18bc	0.054222807
147	0xbe6f330d	-0.23359318
148	0x3e18e9d7	0.14932953
149	0x3e0b72e4	0.13618046
150	0x3d882de6	0.066493794
151	0xbdb0762d	-0.0861629
152	0xbdbb78f1	-0.09153927
153	0x3caf72ae	0.021416988
154	0x3dca25e1	0.09870506
155	0x3ceafaea	0.028684098
156	0x3c10ac2f	0.008830114
157	0x3da24190	0.07922661
158	0x3e8632fd	0.26210776
159	0x3e37255a	0.17885342
160	0x3de09015	0.109649815
161	0xbe2d0630	-0.16896892
162	0x3dc7de91	0.09759248
163	0xbe81313f	-0.25232884
164	0x3dc8faa0	0.09813428
165	0xbdfa98ea	-0.12236197
166	0x3e242b23	0.1603208
167	0xbd332ef0	-0.043745935
168	0x3e864ed5	0.2623202
169	0xbe9e05c2	-0.30863768
170	0x3e711202	0.23542026
171	0x3e1e3bf5	0.1545256
172	0x3d72aa7f	0.05924463
173	0x3da6ac4e	0.08138333
174	0xbdaa8941	-0.0832696
175	0x3e710278	0.23536098
176	0xbe8e3532	-0.2777496
177	0xbd2ad28e	-0.041704707
178	0xbdccc569	-0.099985905
179	0xbe79d459	-0.2439741
180	0x3cd70a71	0.026250096
181	0xbdc64dfa	-0.096828416
182	0xbe09eca1	-0.13469173
183	0xbd444220	-0.047914624
184	0xbe84bd08	-0.2592547
185	0x3dbe9ed2	0.09307636
186	0x3e22c81c	0.15896648
187	0xbc1fabab	-0.009745519
188	0xbb91dc9d	-0.004451348
189	0x3e93cd9c	0.28867805
190	0x3e0b5e56	0.13610205
191	0x3db6b80b	0.08921822
192	0xbdb3d7e0	-0.08781409
193	0x3e977383	0.29580316
194	0xbe02278a	-0.12710395
195	0x3e85d9f5	0.2614285
196	0xbd407417	-0.046985712
197	0x3e5d2a30	0.21598125
198	0xbe48879c	-0.19582981
199	0x3e7af8d7	0.24508987
200	0xbe388860	-0.18020773
201	0x3c2e855a	0.010651911
202	0xbe589879	-0.21151914
203	0xbcceaad3	-0.02522794
204	0x3e7fe76c	0.24990624
205	0xbe02a5c1	-0.12758543
206	0x3e834ef5	0.25646177
207	0xbebe823d	-0.3720874
208	0x3e0152d4	0.12629253
209	0x3db69dc5	0.08916811
210	0x3cca423d	0.024689788
211	0x3e1c5808	0.15267956
212	0x3b8ae7e4	0.0042390693
213	0xbaf5f396	-0.0018764611
214	0x3e11c7c4	0.14236361
215	0x3e5b8ce9	0.21440472
216	0x3e4fcb14	0.20292312
217	0xbd5b6066	-0.05355873
218	0x3d54fdae	0.05199974
219	0x3d59bb10	0.053156912
220	0xbd803338	-0.06259769
221	0xbe8b6775	-0.2722737
222	0x3d140143	0.036134016
223	0x3bbddc2b	0.0057940683
224	0x3d978ce5	0.073999204
225	0x3e24b1a4	0.1608339
226	0x3b5ca792	0.0033669216
227	0xbd0d9811	-0.03456885
228	0xbe9c720a	-0.30555755
229	0xbc7f940b	-0.015599261
230	0xbe85fbc2	-0.26168638
231	0x3e02ab9e	0.1276078
232	0xbce82d6d	-0.028341973
233	0xbd3b0165	-0.045655627
234	0xbe86496c	-0.2622789
235	0xbe9230e6	-0.28552932
236	0x3d08364f	0.033254918
237	0x3dd05692	0.10172762
238	0x3e8353b5	0.256498
239	0xbe959866	-0.29217833
240	0x3e8f0d07	0.27939627
241	0x3e3cc744	0.18435389
242	0x3e845f17	0.25853798
243	0x3dac269c	0.08405802
244	0xbd86a333	-0.065740965
245	0xbe7110fa	-0.23541632
246	0x3df38e5a	0.11892386
247	0x3e834054	0.25635016
248	0x3cf3d14f	0.029762892
249	0x3d264871	0.04059643
250	0xbe192695	-0.14956124
251	0xbd426d89	-0.047467742
252	0xbd8e7106	-0.06955151
253	0xbe94fca1	-0.2909899
254	0xbe567d7f	-0.2094631
255	0x3d4c8063	0.049927127

fc2.bias f4 [32]
0	0xbe09ac16	-0.13444552
1	0xbdb33102	-0.08749582
2	0xbb117240	-0.0022193342
3	0xbda47d7f	-0.08031749
4	0xbd5dc769	-0.05414525
5	0x3abe8e86	0.0014538325
6	0x3d042115	0.032258112
7	0xbe0288e3	-0.1274753
8	0xbbd0548b	-0.0063577346
9	0xbd6186ea	-0.055060305
10	0x3cc42761	0.023944559
11	0x3df65a8d	0.1202899
12	0x3d40c961	0.04706705
13	0x3c80fca9	0.015745478
14	0xbd9c8334	-0.076422125
15	0xbd436bba	-0.047710158
16	0x3d89bf2e	0.06725918
17	0x3d9d5b19	0.07683391
18	0xbdbd6ac0	-0.092488766
19	0xbd8d8690	-0.069104314
20	0xbc82d4f5	-0.015970686
21	0x3c5817f6	0.0131893065
22	0x3dfb61e6	0.12274532
23	0xbdd9299e	-0.10603641
24	0x3dd69f99	0.104796596
25	0xbdd0f419	-0.10202808
26	0xbc67b866	-0.014143085
27	0x3dee120b	0.11624535
28	0xbd8f37a8	-0.069930375
29	0xbd06c9ff	-0.032907482
30	0x3e10d5b9	0.14144029
31	0x3d02fa38	0.03197691

fc3.weight f4 [1, 32]
0	0x3e82939c	0.25503242
1	0xbe9c847d	-0.3056983
2	0xbe8ec66a	-0.27885753
3	0x3ea0bc61	0.31393722
4	0xbeaa9406	-0.33316058
5	0xbe82338d	-0.25429955
6	0x3e41bfec	0.18920869
7	0x3e53396e	0.20627376
8	0x3e8faf63	0.28063497
9	0x3e91ec75	0.28500715
10	0xbe6f7dde	-0.23387858
11	0xbe8b7ac4	-0.272421
12	0x3e90994a	0.2824195
13	0xbea7af3c	-0.3275088
14	0x3e6ba1b2	0.230109
15	0xbe896648	-0.26835847
16	0xbe9bc6dd	-0.30425158
17	0x3eb46ab5	0.3523766
18	0xbeaa16e5	-0.33220592
19	0xbe939b0a	-0.28829223
20	0xbe425010	-0.18975854
21	0x3e1fdb79	0.15611066
22	0xbea2d16d	-0.31800404
23	0xbe58d3f3	-0.21174602
24	0xbeb051e1	-0.3443747
25	0x3e6e1a4c	0.23252219
26	0x3e6563f0	0.22401404
27	0xbe9acca6	-0.3023426
28	0x3e998808	0.29986596
29	0x3e68cf6d	0.22735377
30	0xbeb28444	-0.34866536
31	0xbe689be5	-0.22715719

fc1.weight f4 [32, 65]
0	0x3e2c8e37	0.16851126
1	0xbddd9393	-0.10819163
2	0xbdc4b1a5	-0.096041955
3	0xbdf60f43	-0.1201463
4	0xbc8a5591	-0.016886504
5	0xbda6dc1b	-0.081474505
6	0x3dd7bc77	0.10533994
7	0xbd743b42	-0.059626825
8	0x3cac52a2	0.021035496
9	0x3d3aa610	0.045568526
10	0xbd212c68	-0.03934899
11	0x3be860f8	0.0070916377
12	0xbd447fa8	-0.047973305
13	0xbd139bec	-0.03603737
14	0xbe0a3d73	-0.13500004
15	0x3d6601a7	0.05615392
16	0xbdc22fbd	-0.094817616
17	0xbcd7e61b	-0.02635484
18	0xbd7aae79	-0.061201546
19	0xbc5600ed	-0.013061744
20	0xbdc23d34	-0.0948433
21	0xbde0b9fc	-0.10972974
22	0xbcc11879	-0.02357124
23	0x3d12e03e	0.035858385
24	0xbdb0ab0f	-0.08626377
25	0xbca55c93	-0.020185744
26	0xbda57122	-0.08078219
27	0x3de1f6e9	0.110334225
28	0x3b32527e	0.0027209814
29	0x3e02a199	0.12756957
30	0x3d6f4b00	0.058421135
31	0xbdf3595b	-0.118822776
32	0x3cc318ee	0.023815598
33	0xbd0a9b62	-0.03383959
34	0xbdfb8c71	-0.122826464
35	0x3c1dc41d	0.009629277
36	0xbd456040	-0.048187494
37	0x3d3867b0	0.04502076
38	0xbd853706	-0.065046355
39	0x3d5b5389	0.053546462
40	0x3dbc0d3b	0.09182211
41	0xbe033c62	-0.12816003
42	0xbe2e89b9	-0.17044725
43	0xbe48a25f	-0.1959319
44	0x3d5389ef	0.051645216
45	0x3defc9a7	0.11708384
46	0xbd91fd44	-0.07128385
47	0xbdbef817	-0.09324663
48	0xbe15d079	-0.14630307
49	0xbd90163f	-0.07035493
50	0xbd6c376e	-0.05767005
51	0xbe255b25	-0.1614805
52	0xbc15c69c	-0.00914159
53	0xbd067d7e	-0.032834522
54	0x3d45a683	0.0482545
55	0xbcb77448	-0.022394314
56	0xbd97b750	-0.07408011
57	0xbd06cff7	-0.032913174
58	0x3c4d6c22	0.012537988
59	0xbd29bc00	-0.041439056
60	0x3d6ddf67	0.05807438
61	0xbd618af9	-0.055064175
62	0xbdd70f7a	-0.10500999
63	0xbe096aef	-0.13419698
64	0x3c77de47	0.015128679
65	0xbdd1e2e9	-0.10248358
66	0xbad6dce8	-0.001639274
67	0xbdcb2b93	-0.099204205
68	0x3d240d96	0.04005202
69	0x3d19f57d	0.03758763
70	0xbd69c5bb	-0.057073336
71	0xbcdff677	-0.027339203
72	0xbcbf8974	-0.023380972
73	0xbd87b8a4	-0.06627014
74	0x3d63e8bb	0.05564187
75	0x3e26c62b	0.16286533
76	0xbdaaad55	-0.08333842
77	0x3da39816	0.079879925
78	0x3d57d22b	0.052690666
79	0xbe4fff3e	-0.20312211
80	0xbd3f05a6	-0.046636246
81	0xbe1603e6	-0.14649925
82	0xbe24b879	-0.16085996
83	0xbde1e3aa	-0.110297516
84	0xbd2d450f	-0.042302188
85	0x3d0b5bb8	0.034023017
86	0xbcc1fe9a	-0.023680974
87	0xbc922681	-0.017840626
88	0x3df78e67	0.12087708
89	0xbdb3eaae	-0.08784996
90	0xbd23beda	-0.039976932
91	0x3ccbd11d	0.024879986
92	0xbd709213	-0.058733057
93	0x3df0646d	0.11737905
94	0xbd005ced	-0.03133862
95	0xbcab0c54	-0.020879902
96	0xbe368324	-0.17823464
97	0x3c1305a4	0.008973513
98	0xbd3be557	-0.045873012
99	0xbdde4985	-0.108538665
100	0x3b09124b	0.0020915444
101	0xbc792765	-0.015207146
102	0xbcd43753	-0.025905287
103	0x3d9aeffe	0.07565306
104	0x3d449ef8	0.048003167
105	0xbd13d4a9	-0.03609148
106	0x3d62639f	0.055270787
107	0x3caed954	0.021343865
108	0xbdf24ef9	-0.11831469
109	0x3c5b9f08	0.013404615
110	0x3db8b6d0	0.09019244
111	0x3d01a20b	0.031648677
112	0xbdee70a9	-0.11642582
113	0xbe051321	-0.12995578
114	0xbd82f065	-0.06393508
115	0xbe25c89e	-0.1618981
116	0xbd79fda7	-0.061032917
117	0xbd3dbf6e	-0.04632514
118	0xbd8fa329	-0.07013542
119	0xbd87b516	-0.06626336
120	0xbe0cd3d3	-0.1375268
121	0x3cee75ef	0.02910897
122	0xbe321d03	-0.1739388
123	0xbe0a7f34	-0.13525087
124	0x3da874db	0.082254134
125	0x3d41c522	0.04730714
126	0x3de13547	0.1099649
127	0xbdb0dc6b	-0.086357914
128	0x3da063de	0.07831548
129	0x3cb94759	0.022617029
130	0x3e0b4d24	0.13603646
131	0x3b63092c	0.0034642918
132	0xbdadbcb1	-0.08483256
133	0xbe354bbc	-0.17704672
134	0xbdd29c94	-0.10283771
135	0x3d861f34	0.0654892
136	0xbe0c0f59	-0.1367773
137	0xbd553830	-0.052055538
138	0x3d448b46	0.047984384
139	0x3d1bf5c4	0.038076177
140	0x3daa368f	0.083111875
141	0x3c4555f0	0.012044415
142	0x3d736c7c	0.05942963
143	0x3d952007	0.07281499
144	0xbd653c15	-0.0559655
145	0xbcaa8745	-0.020816455
146	0xbcafc714	-0.021457233
147	0xbe233812	-0.15939358
148	0xbd353216	-0.04423722
149	0xbcab64a0	-0.020922005
150	0x3d4dd576	0.0502524
151	0xbdbd63f5	-0.09247581
152	0xbdb0713f	-0.0861535
153	0xbc4bbaed	-0.012434703
154	0xbd7f5e44	-0.062345758
155	0x3e1459c5	0.1448737
156	0xbe3e72ac	-0.18598431
157	0xbdc5dd77	-0.09661382
158	0xbde54307	-0.11194425
159	0x3d53473a	0.0515816
160	0xbcac68ca	-0.021046061
161	0xbda9c744	-0.0828996
162	0xbd80f430	-0.06296575
163	0x3d84c975	0.064837374
164	0xbe048a3c	-0.12943357
165	0x3e0152d5	0.12629254
166	0xbd752946	-0.059853815
167	0x3d762470	0.060093343
168	0xbc1141fd	-0.0088658305
169	0x3de30866	0.11085586
170	0x3e0111ea	0.1260449
171	0xbe00c56f	-0.12575315
172	0xbe363379	-0.17793073
173	0xbdb70dcd	-0.08938179
174	0x3df3719e	0.11886905
175	0x3da3048f	0.07959854
176	0xbd2d4cc3	-0.042309534
177	0xbe46cda7	-0.19414388
178	0xbe368e92	-0.17827824
179	0x3dc3b9ff	0.0955696
180	0x3da6d391	0.08145822
181	0xbdefd329	-0.117101975
182	0x3e023bc9	0.12718119
183	0xbe1ee046	-0.15515241
184	0x3e1cc880	0.1531086
185	0xbe0e75d5	-0.13912137
186	0xbe17fd28	-0.14842665
187	0xbe3da10e	-0.18518469
188	0x3c01fd9c	0.007934
189	0xbe01c12a	-0.12671342
190	0x3c74812f	0.014923378
191	0xbd7075ca	-0.058706082
192	0xbe1ba0ee	-0.15198109
193	0x3dc18bc5	0.09450487
194	0x3d47d491	0.048786703
195	0xbc80dff1	-0.015731784
196	0x3d9582f6	0.073003694
197	0xbdc89197	-0.09793394
198	0xbdd30171	-0.10303009
199	0xbd496c28	-0.04917541
200	0x3a5a7983	0.00083341467
201	0x3c9ad79e	0.018901642
202	0x3d27ea8e	0.040995173
203	0x3dacffe4	0.08447245
204	0xbd4d1a55	-0.05007394
205	0xbd8dadce	-0.06917916
206	0x3dc06d0f	0.09395801
207	0xbd5e23e0	-0.05423343
208	0x3da4c2f9	0.080450006
209	0xbe3771cb	-0.17914502
210	0x3db73519	0.089456744
211	0x3d1a0d38	0.037610263
212	0xbdbd8508	-0.09253889
213	0xbdab7297	-0.08371466
214	0xbdb66577	-0.08906072
215	0xbd8c6713	-0.06855597
216	0x3cced5d3	0.025248444
217	0xbd578bc6	-0.052623533
218	0xbd94ee79	-0.072720475
219	0xbcb5630e	-0.02214196
220	0xbd6825e6	-0.056676768
221	0xbe212aa8	-0.15738928
222	0x3d8a4bb3	0.0675272
223	0xbc3a5745	-0.011373346
224	0xbd02e567	-0.031957056
225	0x3a0204bd	0.00049598125
226	0xbd6e167b	-0.058126908
227	0x3cbd165d	0.023081953
228	0xbddd1cf5	-0.10796539
229	0x3d4b09f5	0.049570043
230	0xbd8dc71a	-0.06922741
231	0xbd535060	-0.051590323
232	0xbda80518	-0.082040966
233	0xbe154a26	-0.14579067
234	0xbd6b29d0	-0.057412922
235	0x3deed782	0.116621986
236	0xbd533de7	-0.051572707
237	0xbd900d00	-0.070337296
238	0x3ab7e7f3	0.0014030918
239	0xbd410ea4	-0.047133103
240	0x3d3deea5	0.046370167
241	0x3d2a64f7	0.041600194
242	0xbe600e5b	-0.21880476
243	0x3d5233c0	0.051318884
244	0x3d6bb7e3	0.057548415
245	0xbdb0167c	-0.085980386
246	0x3d568df4	0.05238147
247	0xbd9a4a65	-0.07533721
248	0x3d3c1fdf	0.045928832
249	0x3b821f54	0.0039710198
250	0xbd21181a	-0.039329626
251	0xbe031967	-0.12802659
252	0xbd24a4a7	-0.040196087
253	0xbdf5dd58	-0.120051086
254	0x3dbdc8eb	0.09266838
255	0xbe029e9d	-0.12755819

fc1.bias f4 [32]
0	0x3e9a652f	0.30155322
1	0x3cdb81ed	0.026795352
2	0x3dacf4bb	0.08445116
3	0x3d123045	0.035690565
4	0xbe1302b8	-0.14356506
5	0xbe276c28	-0.16349852
6	0x3da0c2cf	0.07849657
7	0x3e11b300	0.1422844
8	0xbe1cd860	-0.15316916
9	0xbe2a345a	-0.16621533
10	0x3cb38883	0.02191568
11	0xbe00a355	-0.12562306
12	0xbdb2bb16	-0.0872709
13	0xbd0af978	-0.03392932
14	0xbe001221	-0.12506916
15	0x3d9d8d4f	0.07692968
16	0xbd628d72	-0.055310674
17	0x3dd36c41	0.10323382
18	0xbe3a9a4e	-0.18222925
19	0x3dec8c88	0.11550242
20	0x3bbd07aa	0.005768736
21	0xbd2e8bcc	-0.04261379
22	0xbdc49fd1	-0.09600795
23	0x3dac8812	0.08424391
24	0xbc981b43	-0.018567687
25	0xbc1143b6	-0.008866241
26	0x3d89498e	0.067034826
27	0xbd26de5b	-0.0407394
28	0xbd2a5e63	-0.04159392
29	0xbe405e09	-0.18785872
30	0xbddd6026	-0.108093545
31	0xbd587673	-0.052847337

fc2.weight f4 [32, 32]
0	0xbde99ffd	-0.114074685
1	0xbd9c4cc6	-0.07631831
2	0xbe83dfa1	-0.25756553
3	0x3d451447	0.04811504
4	0x3c3715a7	0.011174596
5	0x3e8dbd11	0.2768331
6	0x3d6246ba	0.05524323
7	0xbe8bf3b7	-0.27334377
8	0x3d9d9aaf	0.07695519
9	0x3e4407ff	0.19143675
10	0xbde62c4c	-0.11238918
11	0x3e4bc0e4	0.198978
12	0xbe75fa25	-0.24021204
13	0x3e22e2af	0.15906785
14	0x3e657f0d	0.22411747
15	0xbd6167fb	-0.055030804
16	0x3d598d34	0.053113177
17	0x3e25645f	0.1615157
18	0x3e464b98	0.19364774
19	0x3d24bed6	0.040221058
20	0x3db58c94	0.08864704
21	0xbb8fa3c3	-0.0043835356
22	0xbe180ce0	-0.14848661
23	0xbe634a89	-0.22196402
24	0xbd0604d0	-0.032719433
25	0xbbd2817b	-0.0064241267
26	0xbe64549b	-0.222979
27	0xbc164a82	-0.0091730375
28	0x3e4d3e35	0.20043261
29	0x3ca290bc	0.019844405
30	0xbe47c098	-0.19507062
31	0x3d9233f1	0.07138813
32	0x3e90fa85	0.2831613
33	0x3e6afe58	0.22948587
34	0x3e24e2c7	0.16102134
35	0xbd18d92b	-0.037316483
36	0xbe4d5edb	-0.20055716
37	0xbec72056	-0.38891858
38	0x3da970ef	0.082734935
39	0x3db86420	0.09003472
40	0xbe653183	-0.22382168
41	0x3c37d910	0.011221185
42	0xbe1206db	-0.14260428
43	0x3bc35664	0.0059612263
44	0x3cc7e414	0.024400748
45	0x3db0223a	0.08600278
46	0xbea21de2	-0.31663424
47	0x3cc1784e	0.023616936
48	0xbc263a7b	-0.010145779
49	0xbe3bff93	-0.18359213
50	0xbda099fe	-0.07841872
51	0x3bd1d032	0.0064029926
52	0xbdf59dc7	-0.11992984
53	0x3e3c1f29	0.18371262
54	0x3e6d049e	0.23146293
55	0x3e277398	0.1635269
56	0x3b97d194	0.004633138
57	0x3e8380eb	0.25684294
58	0x3cc26e6f	0.0237343
59	0xbc805999	-0.015667723
60	0xbdcbe1d0	-0.0995518
61	0xbe9a9679	-0.30192927
62	0xbdd12009	-0.10211188
63	0xbe0aa0d0	-0.13537908
64	0xbdc19023	-0.0945132
65	0x3c06483e	0.008195935
66	0xbddd6095	-0.10809437
67	0xbacfaa32	-0.0015843569
68	0xbd34f9a2	-0.04418338
69	0x3e3c605c	0.18396133
70	0x3e0b38e7	0.13595925
71	0xbe9134a0	-0.28360462
72	0x3e8cf87e	0.27533334
73	0x3d1f7a6c	0.03893511
74	0x3daa93c7	0.083289675
75	0xbd74b875	-0.059746224
76	0xbd9c3306	-0.076269194
77	0x3e6d7cbf	0.23192118
78	0x3a700138	0.0009155455
79	0xbe2988f3	-0.16556148
80	0xbe093d32	-0.1340225
81	0x3d2820d3	0.04104693
82	0x3ba7f266	0.0051253317
83	0xbe09e868	-0.13467562
84	0x3e26159f	0.16219185
85	0xbe026992	-0.12735584
86	0xbe6a5471	-0.22883774
87	0xbe0fa1b9	-0.14026536
88	0xbd379cac	-0.04482715
89	0xbdbf5d61	-0.093439825
90	0xbe727a74	-0.23679525
91	0xbe6d50a9	-0.231753
92	0x3c324743	0.010881248
93	0x3d8cc059	0.06872625
94	0xbe60e228	-0.21961272
95	0xbd72085d	-0.059090007
96	0xbdd658c3	-0.10466149
97	0x3de90c78	0.11379331
98	0xbd45c9ae	-0.04828804
99	0xbe518f40	-0.20464802
100	0x3e51673f	0.20449542
101	0x3e082f76	0.13299355
102	0xbcd2cd0b	-0.025732538
103	0xbd5582a4	-0.05212654
104	0x3e651d26	0.223744
105	0x3e127361	0.14301826
106	0x3e6cda08	0.23130047
107	0x3e72f6f2	0.23727015
108	0xbe3b59ea	-0.18296018
109	0xbd905964	-0.070483
110	0xbd14aef1	-0.03629965
111	0xbe530f3f	-0.20611285
112	0xbc8e1c67	-0.017347528
113	0xbdd085ac	-0.10181746
114	0x3ea3f150	0.32020044
115	0x3c1a0b7d	0.009402153
116	0x3e191057	0.1494764
117	0xbdc46144	-0.095888644
118	0xbe07b81d	-0.13253827
119	0xbe29b9e9	-0.16574825
120	0x3cfbf83e	0.03075802
121	0xbe80a673	-0.2512699
122	0xbe617b03	-0.22019581
123	0xbe68614c	-0.22693366
124	0x3e27c924	0.16385323
125	0x3e5a342e	0.21308967
126	0xbdd6aa20	-0.104816675
127	0x3c97f48d	0.018549228
128	0x3e57fe1a	0.21093026
129	0x3dd55336	0.10416262
130	0x3e676f3b	0.22601025
131	0x3e4dd981	0.20102502
132	0xbd291d17	-0.041287508
133	0xbe9d25f4	-0.30693018
134	0xbe3a4ba9	-0.18192925
135	0x3d82e435	0.06391183
136	0xbbcbbe9a	-0.00621779
137	0x3c9a02a4	0.018800087
138	0xbdb723f6	-0.08942406
139	0xbe9b6e3a	-0.30357534
140	0x3e800560	0.250041
141	0xbd76eb46	-0.060282968
142	0xbd0f0c02	-0.03492356
143	0x3e586615	0.21132691
144	0xbd2236a1	-0.03960288
145	0x3b97f1de	0.004636987
146	0xbe5b444c	-0.21412772
147	0x3d16a73b	0.036780577
148	0x3c4fe6fc	0.012689348
149	0x3de22dbd	0.1104388
150	0xbca90715	-0.02063326
151	0xbd5ef521	-0.054432992
152	0xbe83ee3a	-0.2576769
153	0x3e1c66f1	0.15273644
154	0x3e59d9f0	0.21274543
155	0x3e518abb	0.20463078
156	0xbdc53477	-0.096291475
157	0xbe92ff47	-0.28710386
158	0xbd90c4de	-0.070687994
159	0x3daf1fb0	0.08550966
160	0xbe2c2384	-0.16810423
161	0xbd835068	-0.06411821
162	0xbe4387e2	-0.19094804
163	0xbe431f37	-0.19054876
164	0x3d05df7c	0.032683834
165	0x3d99c87b	0.07508942
166	0xbdc8c690	-0.09803498
167	0xbe8eae97	-0.27867576
168	0x3eafe61d	0.3435525
169	0x3e729d87	0.23692904
170	0x3d3bff8b	0.045898
171	0x3d51329c	0.051073655
172	0x3cf5059f	0.029909907
173	0x3e3eb9d0	0.1862557
174	0x3dc350c3	0.095368885
175	0xbe31728c	-0.17328852
176	0xbe5abdf2	-0.21361521
177	0x3e61f68b	0.22066705
178	0x3e5f0315	0.2177852
179	0xbe72a057	-0.23693977
180	0xbd7454bd	-0.059651125
181	0xbd9ff952	-0.07811226
182	0x3d9ed849	0.07756097
183	0xbe450aa0	-0.19242334
184	0x3dc75a86	0.09734063
185	0xbe748e07	-0.23882304
186	0xbe314d08	-0.17314541
187	0xbe3f1445	-0.18660076
188	0x3e0906a8	0.13381445
189	0x3dd27172	0.10275544
190	0xbe2c824a	-0.16846576
191	0xbc7eb298	-0.01554551
192	0xbdc4c244	-0.09607366
193	0xbe5bcb7d	-0.21464343
194	0xbcf0c3a8	-0.029390171
195	0xbb410a1d	-0.002945549
196	0x3d71542f	0.058918174
197	0x3e5ce801	0.21572877
198	0x3e3382c7	0.17530356
199	0x3c9fd27b	0.019509545
200	0x3e1b729d	0.1518044
201	0x3e5dc46a	0.21656957
202	0x3e3e103c	0.1856088
203	0x3e6d2eb7	0.23162352
204	0xbe1b00b6	-0.1513699
205	0xbd15136b	-0.03639547
206	0x3deac654	0.11463609
207	0xbe8977c4	-0.26849186
208	0xbe5f6ca6	-0.2181879
209	0x3e27d70e	0.1639063
210	0x3e5d7706	0.21627435
211	0xbd5c020a	-0.053712882
212	0x3d92bab3	0.07164516
213	0xbca9a9c1	-0.020710828
214	0xbdd2a978	-0.1028623
215	0x3d3dc263	0.04632796
216	0x3e539539	0.20662393
217	0xbd220b29	-0.039561424
218	0xbd82d88a	-0.06388958
219	0x3dab00cc	0.08349761
220	0x3e3cfe0d	0.18456288
221	0xbc807c0e	-0.015684154
222	0xbe129e75	-0.14318259
223	0xbd445dea	-0.047941126
224	0x3e73c6d1	0.23806311
225	0xbd897885	-0.067124404
226	0xbd44f1c0	-0.048082113
227	0x3dcc2627	0.099682145
228	0xbe2dc176	-0.1696833
229	0xbbdc8a16	-0.0067303283
230	0xbe531acd	-0.20615692
231	0x3dd47d69	0.103754826
232	0xbd2ae531	-0.04172248
233	0xbe5bdba5	-0.21470506
234	0xbdda630e	-0.106634244
235	0xbe28bfc7	-0.16479407
236	0x3b98af2c	0.004659554
237	0xbe7277cf	-0.23678516
238	0xbe132a2d	-0.14371558
239	0x3e09674c	0.13418311
240	0xbcfee417	-0.031114621
241	0x3d0baab8	0.034098357
242	0xbcd2132a	-0.025643904
243	0x3e566a4f	0.20938991
244	0xbd4db6db	-0.050223213
245	0x3e84b22b	0.2591718
246	0x3c21966c	0.0098625235
247	0x3e76abd3	0.24088983
248	0xbe5fbecb	-0.21850125
249	0x3e04c55e	0.12965915
250	0x3e7af947	0.24509154
251	0x3e7c4e91	0.24639346
252	0xbdc8d060	-0.098053694
253	0xbe3aeb0c	-0.18253726
254	0xbb91bbf8	-0.0044474564
255	0xbe18dd2a	-0.14928117

fc2.bias f4 [32]
0	0x3e1fa41d	0.15589948
1	0x3e362d5b	0.17790739
2	0xbd306866	-0.043068312
3	0xbd792cd0	-0.060833752
4	0x3dfb203a	0.12262006
5	0xbbc8bc09	-0.006125931
6	0x3e04ccb3	0.12968712
7	0xbd62ce34	-0.055372432
8	0xbe3730c9	-0.17889704
9	0x3d8790e3	0.06619432
10	0x3e100725	0.14065225
11	0x3d4fd113	0.050736498
12	0x3cf9fb27	0.030515267
13	0x3c5356bb	0.012899096
14	0xbaacb0ea	-0.0013175283
15	0xbdd720fd	-0.10504339
16	0x3db274a4	0.08713654
17	0x3e1c2137	0.15247045
18	0xbbe7f171	-0.0070783426
19	0x3dbd0481	0.09229375
20	0xbc972b90	-0.01845339
21	0xbcd8aa96	-0.02644853
22	0xbdcf84b9	-0.10132737
23	0xbdf4b540	-0.11948633
24	0xbcf66392	-0.030076776
25	0xbd790b7d	-0.06080197
26	0x3d69708b	0.056992095
27	0xbdee73ba	-0.11643167
28	0xbcaec710	-0.021335155
29	0x3d2a0010	0.041503966
30	0xbdd186f4	-0.102308184
31	0x3e2f96f3	0.17147426

fc3.weight f4 [1, 32]
0	0xbe9bc6cf	-0.30425116
1	0x3e505cc6	0.2034789
2	0xbe8cc8c2	-0.27496916
3	0xbe9297a8	-0.2863133
4	0x3e44d7e8	0.19222987
5	0xbe35bd7b	-0.17748062
6	0xbe932905	-0.28742233
7	0x3e8a3f4e	0.27001423
8	0x3e942aea	0.2893899
9	0xbe4334f2	-0.19063166
10	0x3e4263ad	0.18983336
11	0xbe7237dd	-0.23654123
12	0xbe5a4795	-0.21316369
13	0xbe227388	-0.15864384
14	0xbe57f9da	-0.21091405
15	0xbea3c1c7	-0.31983778
16	0xbe6504c5	-0.223651
17	0xbe9b46a8	-0.30327344
18	0x3e2bb336	0.16767582
19	0x3e85f39a	0.26162416
20	0x3e7689d2	0.24076012
21	0x3e9b37e0	0.30316067
22	0x3e50e371	0.20399262
23	0x3e0e3fa7	0.13891469
24	0x3e4474f2	0.19185236
25	0x3e8919e5	0.26777568
26	0xbe2681f2	-0.16260508
27	0xbe90e49e	-0.2829942
28	0x3e85a6e9	0.26103905
29	0x3e370c51	0.17875792
30	0x3e5dad7d	0.21648212
31	0xbe9d3ff9	-0.3071287
