amazon/20230719-152239/commr.pt (torch, 28709 bytes, 10 tensors)

fc1.weight f4 [32, 65]
0.12539473 -0.124826126 -0.008898394 -0.14046693 -0.13096437 -0.021744797 0.15934885 0.031124549
-0.1087804 0.057200763 0.054214444 0.04542422 0.0011490402 -0.09587777 0.00966721 -0.05777768
-0.12186666 -0.12532589 -0.13939269 0.008210423 -0.055376098 -0.06242768 0.06608194 -0.15002298
-0.0014241416 -0.07714902 -0.008417142 0.13664784 0.08341793 -0.069261506 -0.12896323 -0.10135904
-0.0070452597 -0.10396072 0.06683276 -0.104900055 0.030990502 -0.16914175 0.037520077 -0.16089614
-0.1475304 -0.114433154 -0.1706879 -0.048706166 0.107670754 0.008031453 -0.14107715 -0.016291503
0.08948132 -0.01845365 0.07276455 -0.11877446 0.06595295 -0.079396755 -0.029835545 0.090239465
0.081590794 -0.0671948 -0.059807584 -0.1259084 -0.015184695 -0.16959931 -0.0657538 -0.10316248
0.061311226 0.088155456 -0.12555836 -0.09533575 0.08183381 -0.051640566 -0.021218047 0.055927537
0.043996327 -0.12773089 -0.07020882 -0.11848494 0.05435206 0.04224418 0.030482277 -0.106736965
-0.0934125 -0.109747365 0.036571994 -0.19793928 -0.1543763 0.06972904 -0.008392979 -0.086218335
-0.15524346 -0.19292225 0.020874642 0.03879702 -0.01940046 0.10813017 0.008297585 -0.15203461
-0.05207778 0.015612644 -0.015857382 0.03884955 -0.05503529 -0.09376392 -0.16149226 -0.023449961
0.048563976 -0.051096216 -0.04227593 -0.056136332 0.035647053 -0.13759369 -0.026118834 -0.100817725
0.05003999 -0.05556748 -0.097259715 0.09657545 -0.1274809 -0.013719086 -0.15834786 0.00799925
-0.0645485 -0.06125031 0.0069404463 -0.06682219 -0.12198545 0.032645617 -0.08621744 0.0147035
-0.021808004 -0.10453323 -0.006777645 0.11476201 0.010025102 0.10203921 0.14507522 -0.035439637
0.00026843033 0.07440378 -0.052302394 0.08409089 0.078772515 -0.08640818 0.046944745 -0.06728598
0.0636468 0.09570348 -0.028971618 0.02599284 0.07097909 -0.023331245 -0.00026690162 -0.11195979
-0.0055838213 0.0846393 0.080777876 0.018394291 -0.053335596 -0.096996516 0.07160473 0.047604237
-0.037941 0.031701297 -0.021874314 0.14902839 -0.0058518252 0.017399278 -0.00030457482 -0.044138864
0.037317242 0.10051498 0.0006894025 -0.0116616 0.03629467 -0.03623379 0.046217825 -0.11439486
0.07258178 0.08725874 -0.0048328824 0.04740024 0.004010719 -0.06482204 0.11122527 0.071679264
-0.07103738 -0.022394365 0.009497767 0.029126009 0.029096218 0.0573669 0.02821437 0.15580706
0.02733055 0.031216385 -0.07906903 0.092726976 0.0123388935 -0.05352452 0.03876948 0.0035125534
-0.13439006 0.091779195 -0.036922928 -0.03707921 0.003368041 0.075992726 0.0531841 0.08337766
-0.11772685 -0.13962716 0.063000254 -0.027263874 -0.16019033 -0.14090915 0.09421342 0.110160425
-0.01946199 -0.11738512 -0.14253643 0.017346658 -0.012770149 -0.054226194 0.01420551 0.017894747
-0.08701621 -0.16432124 -0.076980524 -0.018733213 -0.1259639 -0.089882016 0.14062457 0.0004625659
-0.12971483 0.011948705 -0.15088306 -0.13980426 0.06664046 -0.13372064 0.0004056584 -0.034425333
0.062219195 -0.0077821724 -0.13006097 0.023261566 -0.06544909 -0.022455988 -0.050613966 -0.07617468
-0.17636155 0.015290863 0.00476905 -0.025144361 -0.14401755 0.075026445 -0.04014328 -0.028266702
00000000: 7a67 003e d7a4 ffbd 92ca 11bc 90d6 0fbe
00000010: 861b 06be 2522 b2bc 582c 233e e9f8 fe3c
00000020: 42c8 debd 594b 6a3d f70f 5e3d bf0e 3a3d
00000030: 649b 963a 905b c4bd 3863 1e3c 4aa8 6cbd
00000040: 3a95 f9bd 6e55 00be f5bc 0ebe 0385 063c
00000050: 0cd2 62bd 2bb4 7fbd f855 873d a09f 19be
00000060: 43aa baba 4e00 9ebd 0de8 09bc 69ed 0b3e
00000070: 05d7 aa3d fad8 8dbd f00e 04be 5495 cfbd
00000080: ecdb e6bb 5ce9 d4bd 9ddf 883d d7d5 d6bd
00000090: cbdf fd3c 7f33 2dbe a7ae 193d f5c1 24be
000000a0: 3612 17be ee5b eabd cfc8 2ebe 1e80 47bd
000000b0: 7c82 dc3d 5b96 033c 8776 10be c275 85bc
000000c0: fb41 b73d 1c2c 97bc 9505 953d 0640 f3bd
000000d0: 5712 873d c49a a2bd ac69 f4bc 78cf b83d
000000e0: 1319 a73d 6d9d 89bd ccf8 74bd 22ee 00be
000000f0: 3ac9 78bc 71ab 2dbe eea9 86bd da46 d3bd
00000100: 7b21 7b3d d98a b43d 5f92 00be 643f c3bd
00000110: 7c98 a73d 0f85 53bd 78d1 adbc 4614 653d
00000120: 7e35 343d e3cb 02be a4c9 8fbd 3ba8 f2bd
00000130: 44a0 5e3d 3c08 2d3d f8b5 f93c e998 dabd
00000140: 0e4f bfbd 3ac3 e0bd 84cc 153d 98b0 4abe
00000150: d214 1ebe 19ce 8e3d b582 09bc 3d93 b0bd
00000160: 24f8 1ebe 698d 45be 4c01 ab3c a0e9 1e3d
00000170: b7ed 9ebc 5a73 dd3d 98f2 073c f6ae 1bbe
00000180: 834f 55bd 2dcc 7f3c 57e7 81bc b520 1f3d
00000190: af6c 61bd 4c07 c0bd 3a5e 25be 221a c0bc
000001a0: 05eb 463d 444a 51bd 8729 2dbd 36ef 65bd
000001b0: a502 123d 5ce5 0cbe 2af7 d5bc 8679 cebd
000001c0: bcf6 4c3d ba9a 63bd 1a30 c7bd 59c9 c53d
000001d0: 5a8a 02be 04c6 60bc f125 22be 490f 033c
000001e0: 0132 84bd 9be1 7abd af6c e33b 13da 88bd
000001f0: 82d3 f9bd 69b7 053d c592 b0bd f3e6 703c
00000200: b3a6 b2bc 8515 d6bd 0217 debb 5808 eb3d
00000210: 5340 243c eff9 d03d 998e 143e 2729 11bd
00000220: 1cbc 8c39 0261 983d 093b 56bd d837 ac3d
00000230: 7c53 a13d c6f6 b0bd 2249 403d 3bcd 89bd
00000240: 4159 823d 3000 c43d e355 edbc f0ee d43c
00000250: 7c5d 913d 2b21 bfbc eeee 8bb9 2d4b e5bd
00000260: 7df8 b6bb 5f57 ad3d df6e a53d a0af 963c
00000270: 6d76 5abd 1ca6 c6bd 80a5 923d a9fc 423d
00000280: 0668 1bbd 38d9 013d c331 b3bc e69a 183e
00000290: abc0 bfbb ee88 8e3c 57af 9fb9 f4ca 34bd
000002a0: f7d9 183d ccda cd3d 05b9 343a 4c10 3fbc
000002b0: b8a9 143d e269 14bd e74e 3d3d da47 eabd
000002c0: c2a5 943d b6b4 b23d 285d 9ebb c126 423d
000002d0: 596c 833b 6bc1 84bd 13ca e33d 94cc 923d
000002e0: 0c7c 91bd 6374 b7bc 869c 1b3c ab99 ee3c
000002f0: 315b ee3c 8ef9 6a3d d321 e73c e38b 1f3e
00000300: 51e4 df3c 81b9 ff3c f2ee a1bd a4e7 bd3d
00000310: 1229 4a3c 873c 5bbd bfcc 1e3d de32 663b
00000320: 8c9d 09be bbf6 bb3d 7f3c 17bd 5fe0 17bd
00000330: 5aba 5c3b 13a2 9b3d 92d7 593d e8c1 aa3d
00000340: c61a f1bd 6cfa 0ebe 4706 813d 7d58 dfbc
00000350: ef08 24be 7d4a 10be f7f2 c03d ca9b e13d
00000360: c06e 9fbc 9c67 f0bd 12f5 11be 941a 8e3c
00000370: e339 51bc 491c 5ebd 3abe 683c 0198 923c
00000380: 8e35 b2bd d443 28be f7a7 9dbd 6576 99bc
00000390: aefc 00be 1014 b8bd e3ff 0f3e 8b84 f239
000003a0: f7d3 04be 80c4 433c 1781 1abe d928 0fbe
000003b0: cb7a 883d 10ee 08be 8cae d439 9401 0dbd
000003c0: 8ed9 7e3d 9801 ffbb b42e 05be 0a8f be3c
000003d0: 2c0a 86bd 9ff5 b7bc 9750 4fbd 7801 9cbd
000003e0: 1f98 34be 8786 7a3c b145 9c3b 8cfb cdbc
000003f0: 5679 13be 77a7 993d 486d 24bd 928f e7bc

fc1.bias f4 [32]
0.124570556 0.09774308 -0.026505934 -0.005032145 0.13666676 0.075170964 0.05422032 0.08795269
-0.21150662 -0.10521111 0.037999816 0.098400965 0.15913586 -0.05882321 -0.06345459 0.055738587
0.07794624 -0.08793304 0.06292556 0.0632335 -0.15822855 0.058206808 0.017889 -0.12869519
-0.18842757 -0.012881083 0.10524178 -0.14715672 -0.15216397 0.12530749 -0.0631336 -0.15213633
00000000: d91e ff3d 862d c83d f922 d9bc b1e4 a4bb
00000010: 5ff2 0b3e 3cf3 993d 2016 5e3d 8a20 b43d
00000020: 3195 58be ec78 d7bd b2a5 1b3d 7286 c93d
00000030: 83f4 223e 9bf0 70bd 7bf4 81bd 254e 643d
00000040: 47a2 9f3d 3d16 b4bd 1edf 803d 9180 813d
00000050: aa06 22be 436a 6e3d f48b 923c acc8 03be
00000060: 28f3 40be 2e0b 53bc 0189 d73d 40b0 16be
00000070: dfd0 1bbe 9b50 003e 304c 81bd a0c9 1bbe

fc2.weight f4 [32, 32]
0.07621135 -0.072799616 -0.060174506 0.06740792 0.11300457 0.14677829 0.13579637 0.1692277
-0.04470206 -0.16525687 -0.0005477429 0.18697202 0.037252873 0.18331698 0.05458228 0.10134695
0.12782134 -0.15317814 0.024830133 0.23060754 -0.053591605 0.014243698 0.06100601 -0.05079337
0.060061913 -0.046406116 0.038364753 -0.11401429 -0.102321185 0.07685721 -0.09910108 -0.08409044
0.1194471 0.034355186 -0.09937462 0.043956548 0.03965207 0.18219328 0.22974291 -0.047244225
-0.042078078 -0.22153518 -0.14838591 0.09969085 0.18106268 -0.057135843 0.029010994 0.017338054
0.087703295 -0.15467848 -0.11881666 0.13944808 0.0584076 0.1782665 -0.056681756 -0.0031575481
-0.2483809 0.034827676 0.17753477 -0.15744422 0.08850481 0.03397931 0.08625565 -0.18514217
0.111107245 -0.034295313 -0.13436422 0.16078392 0.106465645 0.24648467 0.12090502 0.06413425
-0.1712877 -0.16921668 -0.06879449 -0.08285085 0.10241945 0.2264346 0.033865355 0.022331575
-0.015861353 -0.21370369 0.073618956 0.033645403 -0.2645101 0.013761505 -0.104983754 -0.21899495
0.073881395 0.06398622 -0.059223108 -0.20231974 -0.06872083 0.15062317 -0.14185195 -0.05785064
0.08454045 -0.018676128 -0.16365401 0.11186622 0.23258956 0.051326003 -0.00029941005 0.24019745
-0.08623396 -0.025520772 -0.23826796 0.005123479 -0.014484991 -0.06939746 0.121699855 0.04565132
0.03948 -0.16036226 -0.08288579 -0.07322666 -0.25360888 0.15322477 0.11327523 -0.17922647
-0.13237065 -0.104760244 0.26538706 0.07742058 -0.1244836 -0.06945796 0.066920504 -0.12196841
0.12927012 0.22918943 0.14444724 -0.065837316 0.21117222 -0.006198002 0.1128567 0.04620492
-0.14019957 -0.25473613 -0.16422038 0.07239225 -0.05299197 0.16838652 0.13326667 0.23346815
0.18257742 -0.06684192 -0.11651963 0.08466737 -0.021936072 0.20030661 -0.064092524 -0.25354332
0.061231516 -0.09876339 0.11306504 -0.04265474 -0.26747972 0.22029004 -0.19755241 -0.2165534
-0.06107705 -0.1265681 0.14196925 0.07889836 -0.08792643 -0.036146395 0.036394797 0.032734852
0.2259431 0.15954946 -0.029769467 0.09601099 0.04112251 -0.0011017201 -0.1107173 -0.24814351
-0.093829565 0.21878755 -0.042093676 0.023438105 0.15595126 -0.16852714 0.18679318 0.14672126
0.16100606 0.18933578 -0.037461095 0.030872839 0.06387875 -0.12570152 0.0756818 -0.036933456
-0.032127928 0.0067663016 -0.053036053 0.11054202 -0.22723947 -0.19311322 -0.07297388 -0.24338047
-0.049436603 0.202854 0.08956901 -0.1969888 0.022986855 -0.023892118 -0.15510722 0.048376977
-0.25167546 0.113454156 0.12458216 -0.17306376 0.25990167 -0.19427803 0.0642892 0.20677505
0.04646352 0.11956277 -0.029667437 -0.1463157 0.23491819 -0.04722194 -0.018887071 0.126984
0.19609922 0.11261365 -0.13832533 0.092740454 0.19919157 0.2111245 0.0041371 0.1599732
-0.23630993 -0.04001798 -0.043851245 0.1311885 0.15388112 -0.09601887 -0.051509175 0.07921008
0.007809352 -0.079867505 -0.109970875 -0.0154457055 0.07440772 0.014969024 -0.21631238 0.054871883
-0.16249064 -0.10469747 -0.08981944 -0.066512406 -0.07978823 -0.011890586 -0.16309343 -0.21472532
00000000: b214 9c3d f717 95bd 8b79 76bd 2a0d 8a3d
00000010: f16e e73d 0c4d 163e 340e 0b3e 074a 2d3e
00000020: 8219 37bd 1939 29be 6796 0fba 9875 3f3e
00000030: 7896 183d 72b7 3b3e ab91 5f3d fd8e cf3d
00000040: 99e3 023e bbda 1cbe 9068 cb3c 6224 6c3e
00000050: df82 5bbd 665e 693c 70e1 793d b50c 50bd
00000060: 7b03 763d 5714 3ebd 5c24 1d3d 5380 e9bd
00000070: c58d d1bd 5067 9d3d 82f5 cabd 9c37 acbd
00000080: aea0 f43d 06b8 0c3d ec84 cbbd c80b 343d
00000090: 356a 223d e090 3a3e ba41 6b3e 2983 41bd
000000a0: 105a 2cbd 1eda 62be 7af2 17be b72a cc3d
000000b0: 7f68 393e 4607 6abd 77a8 ed3c 8908 8e3c
000000c0: c99d b33d 0964 1ebe 2656 f3bd 7acb 0e3e
000000d0: cf3c 6f3d 7e8b 363e 212b 68bd deee 4ebb
000000e0: 9057 7ebe 77a7 0e3d adcb 353e 0f39 21be
000000f0: 0342 b53d e42d 0b3d cda6 b03d e995 3dbe
00000100: 328c e33d 3e79 0cbd c696 09be 8aa4 243e
00000110: a90a da3d 7a66 7c3e 0d9d f73d d158 833d
00000120: 0b66 2fbe 2347 2dbe 20e4 8cbd b5ad a9bd
00000130: 4ac1 d13d 79de 673e 66b6 0a3d b5f0 b63c
00000140: abef 81bc 24d5 5abe 89c5 963d c3cf 093d
00000150: de6d 87be ef77 613c b901 d7bd 3640 60be
00000160: 214f 973d 350b 833d ee93 72bd e82c 4fbe
00000170: 82bd 8cbd f63c 1a3e a341 11be cbf4 6cbd
00000180: 8b23 ad3d aefe 98bc eb94 27be 1e1a e53d
00000190: f52b 6e3e 373b 523d 23fa 9cb9 52f6 753e
000001a0: 6e9b b0bd f010 d1bc 84fc 73be dbe2 a73b
000001b0: 7552 6dbc 4120 8ebd c63d f93d e1fc 3a3d
000001c0: c8b5 213d 0136 24be 06c0 a9bd dcf7 95bd
000001d0: 06d9 81be f4e6 1c3e d8fc e73d 2587 37be
000001e0: 2c8c 07be 8a8c d6bd d0e0 873e ae8e 9e3d
000001f0: 42f1 febd fa3f 8ebd 9e0d 893d 93ca f9bd
00000200: 635f 043e a2b0 6a3e fae9 133e b7d5 86bd
00000210: 883d 583e 9c18 cbbb 6a21 e73d 5f41 3d3d
00000220: 7a90 0fbe c66c 82be 6329 28be 6342 943d
00000230: 1c0e 59bd 846d 2c3e 0f77 083e 4612 6f3e
00000240: 93f5 3a3e 6be4 88bd d8a1 eebd 1666 ad3d
00000250: 47b3 b3bc 2d1d 4d3e f142 83bd 6ed0 81be
00000260: e6cd 7a3d 7644 cabd a58e e73d bdb6 2ebd
00000270: 1af3 88be b693 613e 2e4b 4abe 2dc0 5dbe
00000280: ee2b 7abd 119b 01be 6360 113e 7795 a13d
00000290: c612 b4bd 3e0e 14bd b612 153d fb14 063d
000002a0: a15d 673e ef60 233e 19df f3bc 69a1 c43d
000002b0: 1470 283d 9867 90ba c0bf e2bd 5519 7ebe
000002c0: b729 c0bd d809 603e 6b6a 2cbd 4501 c03c
000002d0: b0b1 1f3e 6192 2cbe b646 3f3e 193e 163e
000002e0: c6de 243e 3de1 413e ce70 19bd 09e9 fc3c
000002f0: ddd2 823d e6b7 00be 0fff 9a3d 8947 17bd
00000300: 9398 03bd dab7 dd3b 553c 59bd db63 e23d
00000310: 77b1 68be 79bf 45be 5473 95bd bb38 79be
00000320: 097e 4abd f5b8 4f3e f56f b73d 6fb7 49be
00000330: ee4e bc3c 67b9 c3bc 6dd4 1ebe f026 463d
00000340: 9bdb 80be a75a e83d ee24 ff3d a037 31be
00000350: d511 853e d2f0 46be 0eaa 833d d7bc 533e
00000360: 8850 3e3d 53dd f43d 2009 f3bc c8d3 15be
00000370: 658e 703e cb6b 41bd 0fb9 9abc 1808 023e
00000380: 3cce 483e fca1 e63d 28a5 0dbe b5ee bd3d
00000390: e0f8 4b3e 0531 583e 8390 873b 04d0 233e
000003a0: 3bfb 71be e5e9 23bd 5d9d 33bd 4756 063e
000003b0: 0393 1d3e 8ba5 c4bd 49fb 52bd e538 a23d
000003c0: 98e5 ff3b 9391 a3bd 6938 e1bd fc0f 7dbc
000003d0: 1363 983d a340 753c fe80 5dbe 57c1 603d
000003e0: f263 26be a16b d6bd 41f3 b7bd a837 88bd
000003f0: 0368 a3bd bcd0 42bc f701 27be f4e0 5bbe

fc2.bias f4 [32]
-0.0921445 0.027592149 0.18494606 0.08054525 0.12034798 -0.19489405 -0.090731665 -0.0766298
-0.07061464 -0.2256263 0.07247305 0.1267595 -0.033830658 -0.11145902 -0.23683909 -0.03862024
0.23297858 0.2400654 -0.014687262 0.20539036 -0.11929645 0.18560357 0.00652296 0.10313226
-0.005019959 0.07552087 -0.15349998 0.14711216 -0.02197304 0.20793119 -0.006990887 -0.11527552
00000000: 41b6 bcbd ee08 e23c 8062 3d3e e8f4 a43d
00000010: 0079 f63d 4e92 47be 86d1 b9bd 16f0 9cbd
00000020: 699e 90bd 950a 67be c06c 943d 3ecd 013e
00000030: 0492 0abd a044 e4bd f285 72be 4230 1ebd
00000040: f091 6e3e b4d3 753e d7a2 70bc da51 523e
00000050: b251 f4bd dd0e 3e3e 8ebe d53b 0237 d33d
00000060: 787e a4bb b0aa 9a3d 192f 1dbe 92a4 163e
00000070: ce00 b4bc eaeb 543e d013 e5bb 9215 ecbd

fc3.weight f4 [1, 32]
0.2595055 0.20212832 0.18186869 0.15632486 0.116805226 -0.20014802 -0.19971693 0.2204904
-0.20794709 -0.18423717 0.15589735 0.23022212 -0.22822344 0.18743716 -0.14881358 0.123199396
0.17990641 0.16623276 -0.13583343 0.23514967 -0.23344885 0.11310653 -0.23537503 0.22093521
-0.24185124 -0.23995687 -0.28729156 0.26052368 0.18438965 0.19667323 -0.23668213 -0.28077802
00000000: e8dd 843e bafa 4e3e c93b 3a3e a013 203e
00000010: 9437 ef3d 9af3 4cbe 9882 4cbe 3cc8 613e
00000020: 15f0 54be aba8 3cbe 8ea3 1f3e 59bf 6b3e
00000030: 68b3 69be 87ef 3f3e 9662 18be f74f fc3d
00000040: 6339 383e ec38 2a3e eb17 0bbe 13cb 703e
00000050: 370d 6fbe 65a4 e73d 2706 71be d73c 623e
00000060: daa7 77be 41b7 75be e117 93be 5c63 853e
00000070: a4d0 3c3e b564 493e cd5c 72be 23c2 8fbe

fc1.weight f4 [32, 65]
0.2102413 0.13702987 0.067896456 -0.08698579 0.06551189 -0.036219697 -0.020926295 -0.094691716
-0.00907005 0.13093258 0.11067201 -0.06870775 0.038901083 0.08064427 0.11880043 0.10677244
0.052450225 -0.011643114 0.0708199 -0.045104384 0.1192246 0.036885273 0.08873906 0.032336112
-0.08082501 -0.02033698 0.14057162 0.10516379 0.087951034 -0.15397611 -0.06342271 0.09444264
0.088999264 0.058774505 0.0742663 0.001109984 0.18417405 -0.04197289 0.11314332 0.10461824
0.09390702 -0.011008179 0.058116823 0.08362199 -0.08462953 0.02874057 0.053275242 0.07150029
0.009010356 0.024291068 0.091157235 0.1293735 -0.031832684 0.21550341 -0.16459383 -0.02680117
-0.09790899 0.10196422 0.056828283 -0.10458577 -0.064815454 -0.006618799 -0.11615246 0.078746386
0.0014721327 -0.107568584 0.19241941 0.066930935 -0.023848385 -0.02918547 0.008113374 0.15019473
0.087189436 -0.1486809 -0.045610327 -0.004483613 0.05092262 0.04016604 0.11680917 0.039116602
0.07792383 0.085849896 0.03934952 -0.045889385 0.19031073 -0.04010125 -0.07990787 -0.11333898
-0.038408503 0.14782923 -0.0076271836 -0.008672506 -0.06491653 0.20150036 -0.002646406 0.032577988
-0.24738863 0.0645696 0.03174838 -0.040550984 -0.06043244 0.015844472 0.17586747 -0.031942494
0.015495458 0.04107283 -0.031272724 -0.17505796 -0.02491376 -0.13605306 0.13528842 0.07726301
-0.03347939 0.055245735 -0.10194622 -0.07069035 -0.14978004 -0.05408765 -0.13186842 0.21949789
0.0356736 0.01370396 -0.12660788 0.021914447 -0.0055115973 -0.10097372 -0.054446705 -0.08793861
-0.10682243 0.0045360294 -0.0062675835 0.05991045 -0.032869235 -0.05387215 -0.12743026 -0.15930943
0.015352944 0.0042670253 -0.044619113 -0.115850896 0.110113874 -0.0025406417 0.0003414171 -0.06050817
0.09103014 -0.013092042 0.026630605 0.00340866 0.1833103 0.15578547 -0.024046842 -0.08910449
-0.01543175 0.00047952723 0.11088979 -0.08364021 0.03628466 0.07028816 0.06417472 0.16321175
0.010011766 -0.17396207 -0.086663626 0.16007316 -0.06350445 -0.04034376 -0.115825556 0.17464708
-0.03602219 -0.08036894 0.09514977 -0.055403683 -0.17987642 0.07386258 -0.09532631 0.09017247
0.16469528 0.003353284 0.13983645 -0.18651013 -0.03128662 0.07674268 0.106802545 -0.14710186
0.08075134 -0.11708979 0.0885159 0.10163723 -0.009270045 -0.032164883 0.13189013 0.12103574
0.02374703 -0.0826324 0.049383163 0.22580533 -0.14202715 -0.07893005 -0.086267546 0.1078947
-0.038903214 0.019706406 0.11592006 0.16165935 0.24333908 0.0038987005 -0.10111594 -0.018685495
-0.12894149 0.04051527 -0.09761774 0.0044048484 -0.055361655 0.062453043 -0.039835013 -0.046370424
0.007959476 0.04998072 0.013074787 -0.035054874 0.023327291 -0.06296997 0.033523995 -0.16416498
-0.081391566 -0.04924111 0.1418226 0.030908853 0.024807433 0.09409667 0.0067359125 0.006887201
-0.05384909 -0.05294146 -0.03898669 -0.025929607 0.09291044 0.15066189 -0.11620253 0.074634485
-0.1194323 -0.07059391 -0.0055492045 -0.047891922 -0.02817687 0.085719146 -0.028879914 -0.10789708
0.030443039 -0.18711695 -0.041188147 -0.17051812 -0.0274041 0.03567555 0.13196367 -0.011844836
00000000: 7f49 573e 8f51 0c3e 4c0d 8b3d 9b25 b2bd
00000010: 192b 863d 1b5b 14bd 9f6d abbc bbed c1bd
00000020: 8c9a 14bc 3113 063e 02a8 e23d a6b6 8cbd
00000030: be56 1f3d d328 a53d a44d f33d 82ab da3d
00000040: 0cd6 563d c2c2 3ebc 060a 913d 60bf 38bd
00000050: 072c f43d 0315 173d d3bc b53d df72 043d
00000060: 9587 a5bd bd99 a6bc 02f2 0f3e 1d60 d73d
00000070: ac1f b43d eaab 1dbe c4e3 81bd 256b c13d
00000080: 3f45 b63d 89bd 703d ee18 983d e27c 913a
00000090: 1f98 3c3e c4eb 2bbd afb7 e73d 1642 d63d
000000a0: 5352 c03d a65b 34bc e80b 6e3d 0242 ab3d
000000b0: 3f52 adbd 5871 eb3c 2437 5a3d be6e 923d
000000c0: 2ca0 133c 10fe c63c a5b0 ba3d 7d7a 043e
000000d0: fd62 02bd edac 5c3e 498b 28be 218e dbbc
000000e0: 8284 c8bd 9ed2 d03d c6c4 683d 1031 d6bd
000000f0: f7bd 84bd 83e2 d8bb 57e1 edbd c945 a13d
00000100: 94f4 c03a eb4c dcbd 9809 453e 1613 893d
00000110: b05d c3bc 5e16 efbc f5ed 043c a6cc 193e
00000120: 6090 b23d ce3f 18be e5d1 3abd 46eb 92bb
00000130: 3d94 503d 2585 243d a539 ef3d bb38 203d
00000140: 8796 9f3d 12d2 af3d f62c 213d 82f6 3bbd
00000150: d1e0 423e 3541 24bd bda6 a3bd 441e e8bd
00000160: 3c52 1dbd 8c60 173e 74ed f9bb 2017 0ebc
00000170: f5f2 84bd 1c56 4e3e 536f 2dbb 7f70 053d
00000180: 7253 7dbe 113d 843d 970a 023d ca18 26bd
00000190: 0288 77bd 44cc 813c 9a16 343e 22d6 02bd
000001a0: a9e0 7d3c fc3b 283d d417 00bd 6542 33be
000001b0: f117 ccbc 7e51 0bbe 0c89 0a3e 123c 9e3d
000001c0: af21 09bd 5a49 623d 2ec9 d0bd 1ac6 90bd
000001d0: f05f 19be 038b 5dbd 8408 07be 0ec4 603e
000001e0: 7b1e 123d 9386 603c 7fa5 01be ed85 b33c
000001f0: a19a b4bb 4fcb cebd 8203 5fbd 2819 b4bd
00000200: b8c5 dabd f9a2 943b 4d60 cdbb a964 753d
00000210: e4a1 06bd 0ba9 5cbd 147d 02be 0322 23be
00000220: ea8a 7b3c 67d2 8b3b 88c2 36bd 3c43 edbd
00000230: 6283 e13d e580 26bb 3a00 b339 6ad7 77bd
00000240: 036e ba3d 0180 56bc 6d28 da3c d363 5f3b
00000250: b2b5 3b3e 3a86 1f3e e2fd c4bc 6a7c b6bd
00000260: 73d5 7cbc 0e69 fb39 301a e33d 8f4b abbd
00000270: 399f 143d 3df3 8f3d 096e 833d fb20 273e
00000280: 6408 243c 1d23 32be b37c b1bd 38ea 233e
00000290: 9f0e 82bd 803f 25bd f335 edbd afd6 323e
000002a0: 018c 13bd 7998 a4bd e2dd c23d f9ee 62bd
000002b0: 8631 38be 4445 973d 713a c3bd 58ac b83d
000002c0: e1a5 283e c5c2 5b3b 4931 0f3e 83fc 3ebe
000002d0: 6626 00bd 442b 9d3d 4bbb da3d dfa1 16be
000002e0: f560 a53d c6cc efbd d347 b53d 2e27 d03d
000002f0: 63e1 17bc 53bf 03bd 350e 073e 96e1 f73d
00000300: 2289 c23c 2d3b a9bd 0046 4a3d 8339 673e
00000310: 916f 11be 14a6 a1bd 0aad b0bd e5f7 dc3d
00000320: fa58 1fbd 546f a13c 7f67 ed3d 078a 253e
00000330: e12d 793e 5781 7f3b e015 cfbd 5312 99bc
00000340: 3d09 04be 57f3 253d cfeb c7bd 8c56 903b
00000350: e7c2 62bd c3ce 7f3d 0a2a 23bd eaee 3dbd
00000360: 7668 023c 95b8 4c3d a237 563c b395 0fbd
00000370: e018 bf3c 66f6 80bd 7550 093d dd1a 28be
00000380: 9fb0 a6bd 0cb1 49bd f239 113e 9034 fd3c
00000390: f538 cb3c c1b5 c03d eeb8 dc3b 08ae e13b
000003a0: dd90 5cbd 25d9 58bd 82b0 1fbd 546a d4bc
000003b0: d447 be3d 1c47 1a3e 98fb edbd f7d9 983d
000003c0: ec98 f4bd 8a93 90bd 1ad6 b5bb 522a 44bd
000003d0: 2ed3 e6bc 858d af3d 9295 ecbc 25f9 dcbd
000003e0: ae63 f93c 969b 3fbe e7b4 28bd 4d9c 2ebe
000003f0: 907e e0bc 8720 123d 7c21 073e d810 42bc

fc1.bias f4 [32]
0.19155551 -0.15704711 -0.1978372 0.21717253 0.19389798 0.1561485 0.21230686 0.21158408
0.14255786 0.17510267 0.14403416 0.037788738 -0.22777592 0.011606519 -0.16559261 -0.2055506
-0.23509154 -0.21123841 -0.21967901 -0.103375606 -0.13319513 -0.11680174 -0.0953886 -0.15904175
-0.1876121 -0.19980736 0.23567407 0.026258236 0.10233466 0.23070768 0.1560919 0.23764932
00000000: 2127 443e f5d0 20be d695 4abe 7a62 5e3e
00000010: 318d 463e 64e5 1f3e f866 593e 7fa9 583e
00000020: b0fa 113e 1d4e 333e b17d 133e 5dc8 1a3d
00000030: 173e 69be 4529 3e3c 1c91 29be db7b 52be
00000040: d6bb 70be e24e 58be 89f3 60be 97b6 d3bd
00000050: 4e64 08be c035 efbd 195b c3bd d7db 22be
00000060: 631d 40be 4d9a 4cbe 8b54 713e 831b d73c
00000070: d694 d13d a23e 6c3e 8ed6 1f3e 585a 733e

fc2.weight f4 [32, 32]
-0.02484535 -0.24784319 -0.10953102 9.1418166e-05 0.36417195 0.19653548 0.28321117 0.06307689
0.3341104 0.1840791 0.021095037 0.3497248 -0.04777371 0.33338633 -0.069240525 -0.28223532
-0.11002191 -0.11897992 -0.3859262 -0.24018991 -0.4731108 -0.27246773 -0.19237888 -0.35507992
-0.10725468 -0.18599802 0.0070484127 -0.0114192525 0.061099995 0.18095094 0.09847576 0.17344664
0.1943698 0.0077378037 -0.23704834 0.32318842 0.3114559 0.26975217 0.3341956 0.1952137
0.030519096 0.2581519 0.1317483 0.278591 -0.26235062 0.022235429 -0.27525085 -0.13762203
-0.049556326 -0.24169435 -0.182198 -0.14328513 -0.35470277 -0.28428626 -0.064913616 -0.036586504
-0.34821033 -0.1557503 0.082859755 0.08840061 0.25708896 0.13479857 0.0453992 0.14356183
-0.15030265 -0.031963732 0.11364287 -0.11098271 -0.13571629 -0.11685302 -0.36373562 -0.13580175
-0.17986754 -0.2200424 -0.19997635 -0.13514702 0.28580523 -0.2589246 0.11624883 0.035448186
0.0017067567 0.013074324 0.28961957 0.04796481 0.3312021 0.08090974 0.007596502 0.21354277
0.24712245 0.25767553 0.021926355 -0.15865561 -0.024066258 -0.2801599 -0.11819254 -0.13110188
-0.15814944 0.21511416 0.26176187 -0.051958382 -0.19180106 -0.27469435 -0.39509228 -0.13773136
-0.12449224 -0.09659235 -0.29055825 -0.16978426 0.30045107 -0.33705267 0.19440137 0.045550242
0.11511339 0.20712999 0.13278276 0.32898465 0.23981336 0.2875016 0.07178493 0.108770356
0.1688677 0.19639179 -0.09578487 -0.16011366 -0.29244924 -0.15311815 -0.051470917 -0.29670292
-0.0029282763 0.30542204 0.0072164056 -0.03462626 -0.29113296 -0.13284032 -0.2663158 0.009273504
-0.1406807 -0.18251257 -0.15912783 -0.1894982 0.110813476 -0.13156648 0.04569063 0.034827154
0.18949783 0.20549014 0.094868965 0.29517132 0.26540482 0.1313134 0.028906172 0.1650749
0.08608668 0.16643217 -0.13247736 -0.09622688 -0.25575486 -0.09009237 -0.0139248585 -0.020883068
-0.20409426 0.18354413 0.1867496 -0.01966898 -0.21292926 -0.0024105646 -0.30026406 -0.27976358
-0.06102794 -0.17230609 -0.22583824 -0.39186403 0.35601765 -0.23672783 0.052988037 0.26669392
0.20358478 0.21829902 0.19465695 0.2908917 0.14900629 0.29708079 0.28896472 0.09382595
0.30280143 0.06477483 -0.030305926 0.028465506 -0.23643777 -0.22739601 -0.25237578 -0.057239775
-0.17488512 0.1627599 0.33229765 -0.21695445 -0.07833757 -0.35325474 -0.11397476 -0.23290835
-0.16265489 -0.30350626 -0.3464588 -0.2940266 0.1917832 -0.19196978 0.25993645 0.20729846
0.3388459 0.07092736 0.14957592 0.35425636 0.35611326 0.19426672 0.27295464 0.19507577
0.22937363 0.037046775 -0.2043155 0.034012508 -0.19735754 -0.018264618 -0.15598363 -0.048435647
-0.16852425 0.09924751 0.33964825 -0.1494384 -0.32956332 -0.07024358 -0.17458014 0.01273621
-0.28038666 -0.32220215 -0.20658115 -0.36945188 0.05596352 -0.050401412 0.17541072 0.21005501
0.14856794 0.15744773 0.38662905 0.16506033 0.3829776 0.2946187 0.240375 0.059024177
0.020876393 0.2039174 -0.047757532 0.011025729 -0.10379449 -0.2750478 -0.06972843 -0.09345116
00000000: 7a88 cbbc 9bca 7dbe cd51 e0bd c1b7 bf38
00000010: bf74 ba3e 9940 493e 0e01 913e 752e 813d
00000020: 8510 ab3e 3b7f 3c3e 80cf ac3c 210f b33e
00000030: 5eae 43bd 9db1 aa3e facd 8dbd 2681 90be
00000040: 2b53 e1bd bfab f3bd 1e98 c5be 58f4 75be
00000050: 943b f2be e480 8bbe f8fe 44be 09cd b5be
00000060: 57a8 dbbd 4476 3ebe 5ff6 e63b d117 3bbc
00000070: fd43 7a3d 344b 393e a9ad c93d ff9b 313e
00000080: e008 473e 678d fd3b cdbc 72be f478 a53e
00000090: 2677 9f3e f51c 8a3e b01b ab3e 1ae6 473e
000000a0: 2f03 fa3c 7c2c 843e 07e9 063e 7ba3 8e3e
000000b0: d252 86be 1327 b63c aeed 8cbe caec 0cbe
000000c0: 93fb 4abd b97e 77be 1d92 3abe 56b9 12be
000000d0: 9a9b b5be f88d 91be 6ef1 84bd bbdb 15bd
000000e0: a048 b2be 027d 1fbe 60b2 a93d 610b b53d
000000f0: 2aa1 833e a308 0a3e 83f4 393d df01 133e
00000100: f0e8 19be 67ec 02bd 98bd e83d e74a e3bd
00000110: 36f9 0abe a350 efbd 8e3b babe 9d0f 0bbe
00000120: 322f 38be cb52 61be 9ac6 4cbe fb63 0abe
00000130: 1055 923e c491 84be de13 ee3d 1e32 113d
00000140: 40b5 df3a b035 563c 0449 943e c076 443d
00000150: 5293 a93e 01b4 a53d 14ec f83b f5aa 5a3e
00000160: ab0d 7d3e 0cee 833e e69e b33c 9e76 22be
00000170: 9a26 c5bc 1e71 8fbe ee0e f2bd 923f 06be
00000180: edf1 21be e346 5c3e a705 863e 50d2 54bd
00000190: 7f67 44be bda4 8cbe 8949 cabe 7309 0dbe
000001a0: caf5 febd 36d2 c5bd 0dc4 94be eddb 2dbe
000001b0: b9d4 993e 2b92 acbe 2711 473e e492 3a3d
000001c0: 92c0 eb3d e219 543e 34f8 073e ad70 a83e
000001d0: a291 753e 6933 933e fa03 933d fec2 de3d
000001e0: a8eb 2c3e ee1a 493e dc2a c4bd d6f4 23be
000001f0: e8bb 95be 01cb 1cbe 2bd3 52bd 72e9 97be
00000200: 53e8 3fbb 4760 9c3e 9977 ec3b 44d4 0dbd
00000210: 610f 95be 4b07 08be 8b5a 88be e5ef 173c
00000220: 9a0e 10be 93e4 3abe 68f2 22be d10b 42be
00000230: 2df2 e23d 5db9 06be 1926 3b3d eba6 0e3d
00000240: b80b 423e 026c 523e a94a c23d b220 973e
00000250: 24e3 873e 0577 063e a3cc ec3c 6509 293e
00000260: 374e b03d 326d 2a3e 25a8 07be 9912 c5bd
00000270: 4df2 82be 5982 b8bd 1725 64bc f812 abbc
00000280: 16fe 50be fef2 3b3e 4a3b 3f3e d720 a1bc
00000290: 210a 5abe 90fa 1dbb 36bc 99be 2c3d 8fbe
000002a0: 6ff8 79bd 0271 30be 2442 67be 67a2 c8be
000002b0: f247 b63e c868 72be fc09 593d 1b8c 883e
000002c0: 8778 503e c789 5f3e 2754 473e c2ef 943e
000002d0: 1b95 183e f91a 983e 2ff3 933e d227 c03d
000002e0: ca08 9b3e aba8 843d 2244 f8bc 7e30 e93c
000002f0: be1c 72be 80da 68be 6637 81be 4174 6abd
00000300: 1615 33be 88aa 263e eb22 aa3e 4f29 5ebe
00000310: 736f a0bd cedd b4be 996b e9bd 877f 6ebe
00000320: 018f 26be 2c65 9bbe 0c63 b1be a88a 96be
00000330: d162 443e ba93 44be 6416 853e 0c46 543e
00000340: 367d ad3e 5d42 913d 6e2a 193e 1761 b53e
00000350: 7a54 b63e dbed 463e b6c0 8b3e f1c1 473e
00000360: ece0 6a3e 5cbe 173d 1538 51be b350 0b3d
00000370: 1818 4abe ae9f 95bc 2cba 1fbe 7564 46bd
00000380: 9f91 2cbe 4742 cb3d 60e6 ad3e 6106 19be
00000390: 86bc a8be dedb 8fbd 23c5 32be 89ab 503c
000003a0: d78e 8fbe aef7 a4be 028a 53be cc28 bdbe
000003b0: 013a 653d b671 4ebd de9e 333e a918 573e
000003c0: 3222 183e fa39 213e 3ef4 c53e 9305 293e
000003d0: a415 c43e 43d8 963e dd24 763e 56c3 713d
000003e0: f804 ab3c b9cf 503e 679d 43bd 42a5 343c
000003f0: 3592 d4bd 11d3 8cbe c7cd 8ebd 5263 bfbd

fc2.bias f4 [32]
0.10023087 0.04443872 0.0038909914 -0.1319032 -0.16927782 -0.03559661 -0.1402828 0.03980127
-0.21368091 -0.1630547 0.2683285 0.03274376 0.105221905 0.08161956 0.14278562 -0.18013425
0.19870429 0.23204693 0.20965765 -0.02882877 0.19073983 -0.007141468 0.06428502 -0.09532901
-0.0212646 -0.15030755 -0.019712748 0.015055436 0.14676723 -0.017247658 -0.00048074333 0.18332882
00000000: d845 cd3d 6005 363d 0100 7f3b a211 07be
00000010: 2a57 2dbe c0cd 11bd 4ba6 0fbe a806 233d
00000020: 2bcf 5abe d0f7 26be 5a62 893e 521e 063d
00000030: 957e d73d 2828 a73d 6536 123e 1d75 38be
00000040: 2379 4b3e b69d 6d3e 7fb0 563e 502a ecbc
00000050: 4d51 433e fa02 eabb dda7 833d db3b c3bd
00000060: 1933 aebc 39ea 19be a17c a1bc 13ab 763c
00000070: 264a 163e f64a 8dbc 470c fcb9 8dba 3b3e

fc3.weight f4 [1, 32]
-0.32514465 -0.35786006 0.358266 0.26136297 0.3676354 0.32268196 0.2772818 0.35108677
0.2769568 0.37308443 -0.35510954 -0.36789554 -0.2572612 -0.3788134 -0.4149357 0.3488278
-0.309467 -0.2516368 -0.37527665 -0.2594798 -0.22303566 0.28742433 -0.36804804 0.3619935
0.2647308 0.3408258 -0.3659964 -0.38814834 -0.3727041 -0.29451582 -0.31954765 -0.2944958
00000000: 5c79 a6be 6f39 b7be a46e b73e 5ed1 853e
00000010: b53a bc3e 9236 a53e e1f7 8d3e a5c1 b33e
00000020: 48cd 8d3e ec04 bf3e ebd0 b5be ce5c bcbe
00000030: bdb7 83be d4f3 c1be 7472 d4be 8f99 b23e
00000040: 7572 9ebe 8ad6 80be 4324 c0be 89da 84be
00000050: 7663 64be 4829 933e cb70 bcbe 3657 b93e
00000060: cc8a 873e b880 ae3e e163 bbbe 61bb c6be
00000070: 12d3 bebe c7ca 96be c09b a3be 27c8 96be
