amazon/20230728-044037/commm.pt (torch, 253910 bytes, 15 tensors)

encoder.learnable_skip f4 [2, 2]
0.99811435 1.0 0.99825364 0.99828064
00000000: 6c84 7f3f 0000 803f 8d8d 7f3f 528f 7f3f

encoder.pre_mp.0.weight f4 [64, 5]
-0.005418689 0.23777017 -0.36598265 -0.3270193 -0.17014942 0.12138605 -0.008924847 0.35313764
-0.0410738 0.116885304 -0.13479982 -0.08632875 -0.42685837 -0.29592004 -0.18404026 0.016610593
0.17839608 0.26843435 -0.30350608 -0.1947639 0.16434124 0.37328255 -0.09391652 0.33277428
-0.073964246 0.045828335 0.40535253 -0.41331437 -0.28000394 -0.11168474 -0.17635879 0.3843047
-0.28779373 -0.20378801 -0.3103603 -0.4181217 -0.2593253 0.3841443 0.19934294 0.21640693
0.021524115 -0.23130548 0.07767856 -0.41553727 -0.32112336 -0.22845384 0.28429657 0.26009727
-0.20045736 -0.018252632 0.28374034 0.44244242 0.17976934 0.06270045 0.30212694 -0.26575935
0.08413275 -0.34427646 -0.307494 -0.2285675 0.20449401 0.18194973 -0.2670273 0.1329907
0.24338815 -0.054604948 0.018897666 0.10178824 0.27560392 0.42757806 -0.3428226 -0.16190389
0.1738941 0.36866271 0.38729712 0.3924699 0.0869295 -0.38674423 0.043272626 -0.27763823
-0.41439205 0.39958498 0.3376394 -0.4485221 0.08130313 -0.07332691 -0.071545005 -0.20674402
0.16994886 -0.26691556 0.16574346 0.22700824 0.31836477 0.1654314 -0.4444052 -0.28799883
0.22538327 0.09152282 -0.3509432 -0.25959304 0.42220393 0.30280656 -0.19610432 -0.11359299
-0.4271299 -0.006156011 -0.33850545 -0.3469977 -0.026504688 0.06516684 -0.18121998 0.26729178
-0.27409196 0.40384048 0.30452988 -0.37876543 -0.11325873 0.02184396 0.0670321 0.10779744
0.17768069 0.029140595 -0.22040208 0.20940174 -0.4311899 -0.2639694 -0.11442991 -0.2188563
-0.15726861 -0.36748824 -0.0928415 0.0971616 -0.29358253 -0.02518916 0.31790504 -0.043887414
0.014620707 -0.040677138 0.0884078 0.28225732 0.42568967 0.2861348 0.4225335 -0.0344081
-0.40380514 -0.20989527 0.3065644 -0.0050389683 -0.2244161 -0.34484088 -0.41750038 -0.37518555
-0.091182575 0.24426141 0.2410609 -0.4294446 0.28050476 -0.35177895 -0.096361116 -0.1831546
-0.08714793 -0.08789149 -0.40027094 -0.38515812 -0.06896501 0.0079642115 -0.20100904 0.16626978
-0.4047263 -0.032382827 0.39105427 -0.18157372 0.40609086 0.16428767 -0.4013157 0.28450724
-0.049564123 -0.20128289 0.35591573 -0.36306375 0.049918275 -0.09163081 0.3174005 0.12286982
0.21292558 0.15995507 -0.10543749 -0.09608584 -0.3705768 0.24028346 0.3528543 0.30377084
-0.31318864 0.022199221 -0.312992 -0.2442162 -0.2585315 0.1508368 -0.26850256 -0.011756045
0.01680717 0.29007083 -0.33600992 -0.3049683 -0.2576305 0.31497762 -0.1587683 0.3752352
0.15973215 0.054644294 -0.005277756 -0.09035747 0.05805765 -0.10017203 -0.0011952267 0.058617637
-0.34835386 -0.23592375 0.35958648 -0.3644608 -0.034074765 0.44045126 0.1635433 0.014652363
-0.38556775 0.22362085 -0.3164462 -0.12906532 -0.15215163 -0.068342455 0.0033709384 0.3667325
0.05684519 0.4026559 0.27505097 -0.2848277 0.19863327 -0.31403103 -0.18744141 0.13363494
0.14899772 0.33414873 -0.14534563 -0.00029098807 0.22895297 -0.4343788 0.3224793 -0.36790156
0.008065867 -0.07412868 -0.23752625 0.057104163 0.3718191 -0.12872143 -0.26349863 -0.16394114
00000000: 428f b1bb 067a 733e 1462 bbbe 136f a7be
00000010: a63b 2ebe 4099 f83d 8539 12bc 75ce b43e
00000020: 003d 28bd 9061 ef3d f708 0abe 21cd b0bd
00000030: 2e8d dabe d582 97be 0d75 3cbe f012 883c
00000040: 76ad 363e 3a70 893e 2665 9bbe 3070 47be
00000050: 1249 283e e41e bf3e 4e57 c0bd 6461 aa3e
00000060: 917a 97bd 7eb6 3b3d 5e8a cf3e f19d d3be
00000070: ad5c 8fbe f8ba e4bd 6697 34be 96c3 c43e
00000080: b359 93be cead 50be 8ce7 9ebe 0c14 d6be
00000090: 49c6 84be 90ae c43e 8e20 4c3e c799 5d3e
000000a0: 5753 b03c 58db 6cbe f015 9f3d 4dc1 d4be
000000b0: 486a a4be ceef 69be 528f 913e 782b 853e
000000c0: b244 4dbe 8b86 95bc 6a46 913e d087 e23e
000000d0: 7415 383e 1869 803d 62b0 9a3e 9c11 88be
000000e0: cb4d ac3d 0145 b0be db6f 9dbe 990d 6abe
000000f0: e166 513e 0851 3a3e cdb7 88be b72e 083e
00000100: be3a 793e 70a9 5fbd 47cf 9a3c 5a76 d03d
00000110: f51b 8d3e 83eb da3e 7286 afbe 22ca 25be
00000120: 4c11 323e 5cc1 bc3e cf4b c63e d1f1 c83e
00000130: 1808 b23d 5703 c6be a33e 313d 9926 8ebe
00000140: 322b d4be 6796 cc3e 12df ac3e b0a4 e5be
00000150: 4182 a63d 6b2c 96bd 3086 92bd b4b4 53be
00000160: 1307 2e3e 28a9 88be a7b8 293e d974 683e
00000170: b500 a33e d966 293e 1489 e3be 9574 93be
00000180: dfca 663e 5170 bb3d d4ae b3be 61e9 84be
00000190: 1d2b d83e 7609 9b3e 92cf 48be 71a3 e8bd
000001a0: c5b0 dabe 5db8 c9bb 9650 adbe afa9 b1be
000001b0: 5c20 d9bc 3176 853d bb91 39be 78da 883e
000001c0: c855 8cbe 2ec4 ce3e 57eb 9b3e 8bed c1be
000001d0: 31f4 e7bd 1bf2 b23c 2048 893d e7c4 dc3d
000001e0: edf1 353e 42b8 ee3c 15b1 61be 696d 563e
000001f0: ecc4 dcbe ff26 87be 3b5a eabd de1b 60be
00000200: 060b 21be 6b27 bcbe af23 bebd a9fc c63d
00000210: 7350 96be 7f59 cebc 73c4 a23e 4ac3 33bd
00000220: b18b 6f3c 129d 26bd 260f b53d 0884 903e
00000230: fff3 d93e 4380 923e 5056 d83e 82ef 0cbd
00000240: 8cbf cebe c9ee 56be 02f6 9c3e ee1d a5bb
00000250: 56cd 65be fc8e b0be 9cc2 d5be 5218 c0be
00000260: eebd babd aa1f 7a3e abd8 763e 2ae0 dbbe
00000270: 529e 8f3e 5f1c b4be fa58 c5bd e18c 3bbe
00000280: 9d7a b2bd 7400 b4bd 50f0 ccbe 7233 c5be
00000290: 873d 8dbd 537c 023c 50d5 4dbe a042 2a3e
000002a0: 4938 cfbe dba3 04bd 4438 c83e 76ee 39be
000002b0: 24eb cf3e 073b 283e 4079 cdbe efaa 913e
000002c0: c003 4bbd 1a1d 4ebe 963a b63e 7ee3 b9be
000002d0: 1b77 4c3d efa8 bbbd 5182 a23e 2ca3 fb3d
000002e0: 2a09 5a3e 43cb 233e 9cef d7bd a7c8 c4bd
000002f0: 3ebc bdbe de0c 763e 52a9 b43e da87 9b3e
00000300: 435a a0be 24db b53c 7d40 a0be d013 7abe
00000310: 3e5e 84be f674 1a3e 2b79 89be 6d9c 40bc
00000320: 31af 893c 2a84 943e 7e09 acbe ce24 9cbe
00000330: 25e8 83be bf44 a13e 2894 22be d41e c03e
00000340: d390 233e b2d2 5f3d 07f1 acbb 560d b9bd
00000350: dccd 6d3d fe26 cdbd 27a9 9cba 0c19 703d
00000360: 705b b2be ff95 71be b81b b83e 9b9a babe
00000370: fb91 0bbd d482 e13e e577 273e 7710 703c
00000380: 2369 c5be ddfc 643e 3c05 a2be b329 04be
00000390: a3cd 1bbe 21f7 8bbd f6ea 5c3b 5dc4 bb3e
000003a0: 80d6 683d ea28 ce3e 7bd3 8c3e f0d4 91be
000003b0: 8566 4b3e adc8 a0be a4f0 3fbe 99d7 083e
000003c0: dc92 183e 8b15 ab3e 7cd5 14be c28f 98b9
000003d0: a672 6a3e e666 debe 021c a53e 985d bcbe
000003e0: b326 043c c7d0 97bd 153a 73be 0ee6 693d
000003f0: 135f be3e 8dcf 03be 4be9 86be 30e0 27be

encoder.pre_mp.0.bias f4 [64]
0.03942372 0.05438948 -0.3518153 0.035179675 0.30777842 0.40451849 0.26488158 0.05934267
0.21084881 -0.21965496 -0.36831397 -0.38213283 0.444006 0.28204513 -0.31092468 0.1771052
0.3353241 0.44503185 0.38924092 0.34436855 -0.10400422 -0.15896346 0.3652576 0.25216267
-0.27129602 0.40089712 0.21378641 0.24170929 -0.28235918 0.12618215 -0.1574806 0.3475599
-0.07944572 0.17193474 0.08165001 0.18876553 -0.15390125 0.2160363 -0.31014422 0.09904235
-0.30057472 -0.44314998 -0.35718888 0.35150194 0.24392213 0.41750446 0.35949215 -0.3972838
-0.30657858 -0.070374705 -0.28844458 0.3090405 -0.335826 -0.21615803 -0.43014786 -0.25194946
0.36607775 0.3640405 0.32229778 0.34349263 0.39598194 -0.11544256 0.19824274 0.39755973
00000000: c47a 213d 81c7 5e3d 2321 b4be 9018 103d
00000010: 2295 9d3e 0c1d cf3e 8f9e 873e 4d11 733d
00000020: c0e8 573e 3bed 60be a693 bcbe eaa6 c3be
00000030: c154 e33e 3868 903e 8531 9fbe 115b 353e
00000040: 9aaf ab3e 37db e33e 964a c73e 1351 b03e
00000050: 2a00 d5bd 51c7 22be 0b03 bb3e 771b 813e
00000060: 50e7 8abe 6342 cd3e d3ea 5a3e a482 773e
00000070: 6291 90be e535 013e 9842 21be 5ff3 b13e
00000080: 70b4 a2bd a90f 303e 1f38 a73d c04b 413e
00000090: 4a98 1dbe 9f38 5d3e 39cb 9ebe b7d6 ca3d
000000a0: eee4 99be 8ee4 e2be 76e1 b6be 10f8 b33e
000000b0: b9c6 793e 25c3 d53e 5b0f b83e c868 cbbe
000000c0: def7 9cbe 9d20 90bd 02af 93be 8e3a 9e3e
000000d0: 63f1 abbe 8858 5dbe 573c dcbe 85ff 80be
000000e0: 8b6e bb3e 8463 ba3e 3704 a53e 44de af3e
000000f0: 25be ca3e 266d ecbd 2500 4b3e f38c cb3e

encoder.convs.0.bias f4 [64]
-0.0018818649 0.0016890736 0.0016166073 -0.0018117757 0.0020890268 0.0014417333 0.0020391652 0.0019081767
0.0019598394 0.0005293834 0.0 -0.001783245 -0.0023638585 0.0 -0.0020081792 0.0
-0.0020480752 -0.0021203142 0.0 0.0 -0.001677237 -0.0021853843 -0.001025703 -0.0011002619
-0.0019211351 -0.0021565983 0.0 -0.0014125339 0.0 0.0 0.0008046051 0.0
0.0 -0.0016754521 0.0 -0.0014848125 -0.0017220816 -0.0017936165 0.0 -0.0015410617
0.0019633404 0.0016308785 -0.0019337116 0.0014637493 0.0011315872 -0.0016095196 0.0021245163 0.0
0.0 0.002017412 -0.0017342173 0.0019274285 0.0017960423 -0.002199308 0.0018167378 -0.0019867956
0.0 0.0020076165 0.0 0.0 -0.0010163799 0.0010829582 -0.0008897286 -0.0018214246
00000000: e8a8 f6ba e863 dd3a 57e4 d33a 1b79 edba
00000010: 0ee8 083b 8bf8 bc3a 84a3 053b c91b fa3a
00000020: a670 003b 52c6 0a3a 0000 0000 c6bb e9ba
00000030: f7ea 1abb 0000 0000 a89b 03bb 0000 0000
00000040: 0039 06bb f8f4 0abb 0000 0000 0000 0000
00000050: bcd6 dbba aa38 0fbb e270 86ba aa36 90ba
00000060: 99ce fbba b755 0dbb 0000 0000 c624 b9ba
00000070: 0000 0000 0000 0000 22ec 523a 0000 0000
00000080: 0000 0000 d89a dbba 0000 0000 0a9e c2ba
00000090: 78b7 e1ba c817 ebba 0000 0000 73fd c9ba
000000a0: 63ab 003b 34c3 d53a 9874 fdba 47db bf3a
000000b0: c451 943a 84f6 d2ba 783b 0b3b 0000 0000
000000c0: 0000 0000 8f36 043b ad4e e3ba c5a1 fc3a
000000d0: 2e69 eb3a 4422 10bb 9b1f ee3a e634 02bb
000000e0: 0000 0000 3792 033b 0000 0000 0000 0000
000000f0: 0d38 85ba 0cf2 8d3a ad3c 69ba debc eeba

encoder.convs.0.lin.weight f4 [64, 64]
0.0057755653 -0.17617193 -0.12441973 -0.08482473 0.021212267 0.08164302 -0.04042899 -0.08732292
0.09308026 -0.20862392 0.15317225 -0.023292841 0.14877272 0.16172059 0.021691991 0.0702905
-0.12433449 0.1532419 0.12484065 -0.03588701 0.086265594 -0.010245899 0.16727681 0.08724148
0.15972324 -0.19868699 0.20907134 0.07879102 0.10714494 0.050099343 0.14035632 0.2019375
-0.016573768 -0.17952193 0.19692379 -0.047541317 -0.106197976 0.13140221 0.122702576 0.027115485
-0.011715778 -0.0395264 0.20039527 0.13003293 0.12704016 0.13618109 -0.11518857 0.04708236
-0.185416 0.12765253 -0.2127249 -0.21825707 -0.21212631 0.13502479 0.024407985 0.0023674946
0.032557443 -0.08381479 -0.067629695 -0.14771971 -0.054754067 -0.13134933 0.0038147832 0.16823184
-0.180889 0.10834528 -0.16284934 -0.09158006 0.04408122 0.037812892 0.17556353 0.0017590029
-0.08260196 -0.091202766 0.004841834 -0.16413997 -0.16804153 -0.09082657 0.007632787 -0.14830041
-0.12189367 0.15619345 0.20177853 -0.06642345 -0.18757096 -0.08473329 0.08914948 0.0720012
-0.068897374 -0.18934491 -0.06341073 -0.046644058 0.1229887 -0.10939478 0.13187997 0.031296905
-0.038175087 -0.19149154 0.21553954 -0.03712683 0.13832991 -0.11045336 -0.21260935 -0.17100191
-0.112754375 -0.07043136 -0.03227239 0.18217719 -0.19815265 0.109645665 0.18398453 -0.00034899908
-0.13668084 0.005098778 0.049675163 0.09737359 -0.06682687 -0.072375245 -0.1039211 -0.2111329
0.0777296 -0.16199897 -0.102302216 -0.00065887993 0.16858374 0.19401819 -0.15573703 0.18949488
0.19551139 0.17649634 0.01754005 0.17547113 0.10645434 -0.15383863 -0.11261334 0.002639858
-0.15105546 -0.069890484 0.1753957 0.09957668 0.1899657 0.0027160277 -0.11202668 0.14472099
0.017512402 0.03813785 -0.09029686 0.09053555 -0.15854478 0.17136927 0.1905882 0.080342405
0.16688097 0.13334325 -0.08120127 -0.18633552 0.029646277 0.13745843 -0.023631489 0.019732332
0.16059385 0.09173352 0.16045593 0.029904127 0.02265403 -0.049771715 -0.03621374 -0.1151969
0.14617099 0.19587438 0.07887108 0.0047630565 -0.0700479 -0.21201928 -0.038851094 -0.1557482
-0.15914235 -0.041605093 -0.04383858 0.04332087 -0.15934722 0.15394302 -0.1986266 -0.10139766
-0.08364102 0.015265094 0.09102096 -0.055677757 0.035288807 -0.053568598 -0.083272144 -0.031182885
0.04541067 -0.21212097 -0.14888121 0.17096251 0.0960903 -0.0075416714 0.008675627 0.028067991
0.048553497 -0.14600343 -0.057213772 -0.19688904 -0.17202465 -0.042552017 -0.030428046 0.17116714
0.035483066 -0.03691199 -0.0078083756 0.11912181 -0.06376679 -0.038653646 -0.045245424 -0.17640005
-0.028442226 -0.20194444 -0.11818398 -0.13962187 0.16309446 -0.19760625 0.20678829 0.079391316
-0.14449477 0.17757379 -0.049531024 -0.18517455 -0.031897377 0.10519736 -0.20869285 -0.018028302
0.089908145 -0.08257204 0.02152872 -0.08666052 -0.14706631 0.16774888 -0.155546 -0.00072561926
0.07392039 -0.11917855 0.106347226 -0.18160631 0.20855992 0.0945348 -0.028837325 -0.17828661
0.004866672 0.074986994 -0.1194011 -0.029068243 -0.2175742 -0.21830875 -0.025329435 0.17934854
00000000: f440 bd3b 6a66 34be c5cf febd 97b8 adbd
00000010: 59c5 ad3c 7534 a73d de98 25bd 5cd6 b2bd
00000020: dda0 be3d 82a1 55be 30d9 1c3e a1d0 bebc
00000030: e057 183e 159a 253e 67b3 b13c 77f4 8f3d
00000040: 15a3 febd 72eb 1c3e 74ac ff3d 42fe 12bd
00000050: 04ac b03d 6ade 27bc 9d4a 2b3e a9ab b23d
00000060: 7d8e 233e 9a74 4bbe cc16 563e 305d a13d
00000070: ce6e db3d f834 4d3d 91b9 0f3e b4c8 4e3e
00000080: b6c5 87bc 99d4 37be 64a6 493e afba 42bd
00000090: 537e d9bd 4d8e 063e 7d4b fb3d 4b21 de3c
000000a0: 89f3 3fbc 6fe6 21bd 6b34 4d3e 5a27 053e
000000b0: d116 023e 0e73 0b3e fce7 ebbd 6fd9 403d
000000c0: b1dd 3dbe 58b7 023e 8ed4 59be c87e 5fbe
000000d0: a437 59be f043 0a3e 41f3 c73c f827 1b3b
000000e0: f45a 053d 17a7 abbd 7081 8abd d643 17be
000000f0: cd45 60bd 7080 06be 7101 7a3b f844 2c3e
00000100: f73a 39be 21e4 dd3d fac1 26be 548e bbbd
00000110: 828e 343d b1e1 1a3d edc6 333e 588e e63a
00000120: 372b a9bd 84c8 babd 3fa8 9e3b 4f14 28be
00000130: 1413 2cbe 4803 babd 751c fa3b 10dc 17be
00000140: 63a3 f9bd 2df1 1f3e 089f 4e3e 0509 88bd
00000150: 9a12 40be a688 adbd 0194 b63d 5d75 933d
00000160: 111a 8dbd a2e3 41be 7cdd 81bd d70d 3fbd
00000170: 80e1 fb3d 5f0a e0bd 8b0b 073e 2f31 003d
00000180: 7b5d 1cbd 5c16 44be 66b6 5c3e 4e12 18bd
00000190: 5ba6 0d3e 5f35 e2bd 44b6 59be 201b 2fbe
000001a0: c4eb e6bd 513e 90bd 0e30 04bd a88c 3a3e
000001b0: 87e8 4abe e88d e03d 7166 3c3e ddf9 b6b9
000001c0: 10f6 0bbe a613 a73b 2f78 4b3d ce6b c73d
000001d0: 87dc 88bd 7939 94bd 96d4 d4bd 3933 58be
000001e0: b230 9f3d 0fe3 25be d383 d1bd afb8 2cba
000001f0: 37a1 2c3e b4ac 463e 8779 1fbe f20a 423e
00000200: 2334 483e 75bb 343e 27b0 8f3c b4ae 333e
00000210: bc04 da3d e087 1dbe d3a1 e6bd 7801 2d3b
00000220: 48ae 1abe be22 8fbd ee9a 333e dcee cb3d
00000230: 5e86 423e 62ff 313b 3e6e e5bd bd31 143e
00000240: 2b76 8f3c 6f36 1c3d 8fed b8bd b46a b93d
00000250: 9059 22be 6d7b 2f3e 8e29 433e 8f8a a43d
00000260: d8e2 2a3e 228b 083e da4c a6bd bdce 3ebe
00000270: c0dc f23c e7c1 0c3e d396 c1bc b3a5 a13c
00000280: b772 243e c9de bb3d 8f4e 243e 80f9 f43c
00000290: f294 b93c 6ddd 4bbd dc54 14bd 5aec ebbd
000002a0: d9ad 153e 4b93 483e 2987 a13d 6a13 9c3b
000002b0: 4675 8fbd 951b 59be 5322 1fbd 757c 1fbe
000002c0: 36f6 22be 1a6a 2abd 1590 33bd 3971 313d
000002d0: eb2b 23be 3da3 1d3e c564 4bbe 94a9 cfbd
000002e0: fc4b abbd 721a 7a3c 3269 ba3d 5c0e 64bd
000002f0: ff8a 103d bf6a 5bbd 968a aabd 4073 ffbc
00000300: 8a00 3a3d 3d36 59be 5174 18be cc10 2f3e
00000310: feca c43d 2020 f7bb 3824 0e3c d8ee e53c
00000320: 08e0 463d ec81 15be fd58 6abd 489d 49be
00000330: 3b27 30be 064b 2ebd 3d44 f9bc 7046 2f3e
00000340: b156 113d 0731 17bd 67dd ffbb 23f6 f33d
00000350: 2a98 82bd 4953 1ebd 4453 39bd 37a2 34be
00000360: acff e8bc 86ca 4ebe 710a f2bd 09f9 0ebe
00000370: 3c02 273e 4b59 4abe 4fc0 533e ea97 a23d
00000380: 70f6 13be e7d5 353e 0be1 4abd 669e 3dbe
00000390: d3a6 02bd b771 d73d 94b3 55be 17b0 93bc
000003a0: c321 b83d 881b a9bd 005d b03c 127b b1bd
000003b0: 8d98 16be 5dc6 2b3e 7347 1fbe 7c37 3eba
000003c0: 9363 973d e213 f4bd 93cc d93d 01f7 39be
000003d0: bb90 553e 769b c13d 413c ecbc c490 36be
000003e0: 9b78 9f3b c892 993d 9088 f4bd 8620 eebc
000003f0: c5cb 5ebe 548c 5fbe ad7f cfbc 25a7 373e

encoder.convs.1.bias f4 [64]
-0.0019896887 0.0 -0.00023077027 -0.001911523 -0.0017886726 0.0012668109 -0.0021779563 -0.0021501172
-0.0016807442 0.0020587586 -0.0015294513 -0.00037892725 0.0013102009 0.0020001945 -0.0017103967 -0.001905784
0.0020786256 0.001594206 0.0017995945 0.0018015625 -0.0012511661 -0.0014721062 0.0 -0.00161068
-0.0019381172 -0.0017848646 0.0010090945 0.0021279438 0.0017608792 -0.0019834682 0.0019780204 0.0023237045
0.00049092143 -0.0018505098 0.00032081932 -0.0013964055 0.0 0.0 0.0021606735 0.0024858436
-0.00016074936 0.0019601039 -0.0020011235 0.0 0.0009934171 -0.0018052646 0.0023663025 -0.0021951168
0.0019046204 0.0023237874 -0.0014394312 -0.0009814677 0.0005288302 -0.0015361587 -0.0019459345 0.0013404634
0.0022751433 -0.0018600812 0.0021307617 0.0015345475 0.001430898 -0.001660742 0.0015274197 -0.00146643
00000000: 7065 02bb 0000 0000 ecfa 71b9 128c faba
00000010: e571 eaba 1f0b a63a 0bbc 0ebb fbe8 0cbb
00000020: 6b4c dcba 3dec 063b df77 c8ba c1aa c6b9
00000030: 0cbb ab3a b215 033b 642f e0ba 80cb f9ba
00000040: 8d39 083b adf4 d03a 5fe0 eb3a 6822 ec3a
00000050: 2bfe a3ba b0f3 c0ba 0000 0000 741d d3ba
00000060: 6c08 feba 1ef2 e9ba 9843 843a f974 0b3b
00000070: 4dcd e63a 13fd 01bb ada1 013b 4b49 183b
00000080: 2eb1 003a ce8c f2ba a433 a839 9807 b7ba
00000090: 0000 0000 0000 0000 169a 0d3b 89e9 223b
000000a0: d48e 28b9 1675 003b 4825 03bb 0000 0000
000000b0: 8c35 823a a19e ecba f813 1b3b f3db 0fbb
000000c0: 75a4 f93a af4a 183b 4cab bcba 97a4 80ba
000000d0: 32a1 0a3a ef58 c9ba ba0e ffba 7db2 af3a
000000e0: 921a 153b f8cd f3ba 40a4 0b3b df22 c93a
000000f0: f88c bb3a 41ad d9ba b333 c83a 3a35 c0ba

encoder.convs.1.lin.weight f4 [64, 128]
-0.027264781 -0.09871905 -0.066996865 -0.08165706 0.1586359 -0.012793518 0.13987142 -0.12192457
0.08739193 -0.16173966 -0.060213003 -0.07021614 -0.16668949 -0.13372488 -0.11679657 -0.032758083
-0.06038709 -0.16510133 0.026647585 0.07460694 0.028424202 0.1362927 -0.017315537 0.13882466
-0.009436545 -0.014960135 -0.012196768 -0.07298528 -0.07006261 0.04063704 -0.094714575 0.059063308
-0.13950603 -0.01965282 -0.023574838 -0.077074476 0.12827395 -0.14523211 0.082409404 -0.15674147
0.102825135 0.1691114 -0.0393343 -0.011004865 -0.0071675912 0.10355261 0.008702923 -0.041476008
0.15427317 0.13378845 -0.009764904 -0.08828539 0.09952241 -0.07641641 -0.09815898 -0.11175263
0.013538848 -0.07729706 0.11662735 0.12150475 -0.07743605 -0.07194864 0.12612908 -0.08874995
0.1100022 -0.012869692 0.12463462 0.08792648 -0.1281201 -0.12831283 0.07565248 -0.08818739
0.012258492 0.032006145 -0.14289707 -0.011572057 0.12069659 0.006937623 -0.111992955 0.1541834
0.14925449 0.04037885 -0.107182026 0.07610448 0.04807703 -0.10660288 -0.12956043 -0.07528392
0.16534878 0.01707027 -0.0025682151 0.079664424 -0.09931989 -0.0559043 0.028511008 0.15412872
-0.012352467 0.037507087 -0.14708291 -0.16729946 0.03509829 -0.0037157156 0.13870646 0.03843492
0.15687834 -0.03567066 -0.050128046 -0.01713182 -0.083693884 0.009514557 -0.14796165 0.020034507
-0.012070924 0.05484438 0.16945755 0.06120272 0.02739708 -0.117443554 -0.06290821 -0.071134396
-0.14940344 0.0924839 0.16795252 0.11740132 0.13731445 -0.09908109 -0.07467692 -0.057359044
-0.07966035 -0.13940397 -0.14541626 -0.00840804 -0.10481386 -0.13307713 0.1724735 -0.16545095
-0.055479795 0.11412431 -0.090479 0.082055494 -0.12649524 -0.0016793609 0.06453732 -0.054965876
-0.12593004 0.034655035 -0.029541194 0.15431137 -0.02713193 0.13656701 -0.074996755 -0.068882026
0.00050739944 0.09913142 0.1630949 0.08277191 -0.079475634 0.012113348 0.11741121 0.14101858
0.12691258 0.05963944 -0.021778703 0.12095906 0.059261844 -0.15280053 0.17309277 -0.012940407
0.16911818 0.10476951 -0.011144131 -0.15103076 -0.16929114 -0.084773265 0.07364051 0.01363638
0.01732111 -0.14410233 0.097325936 -0.043784216 0.092779145 -0.14393207 0.003035009 0.08953519
0.05240868 -0.1758409 0.14876242 -0.13157564 -0.1628829 -0.12256919 -0.16748725 0.064542204
0.13323174 0.14215074 0.06212926 -0.04742968 0.037316337 0.054768473 -0.17523524 -0.0010914803
0.044165254 0.14310183 0.106403306 -0.049884796 -0.008027136 0.11260103 0.16054593 -0.090546265
0.17524754 -0.030259386 -0.07890328 -0.0009886771 0.13856874 -0.10094748 0.0061759204 -0.10174323
-0.004425615 0.123466894 -0.08749865 -0.079439685 0.049036577 0.08322461 -0.013543636 -0.040705904
-0.011193439 0.053731516 0.15738238 0.07967512 0.028685823 0.058691844 0.052969992 -0.008339867
-0.1188186 -0.08358915 0.061957493 0.062064767 -0.08992123 -0.0975151 0.09962879 -0.031968117
0.10766961 0.047037274 0.0343253 -0.020035237 -0.07691694 0.044713408 -0.11082547 -0.07800964
-0.12738931 -5.6535006e-05 -0.095676064 -0.06520035 -0.057165116 0.07785945 0.09794332 0.11949457
00000000: 645a dfbc 372d cabd a735 89bd d13b a7bd
00000010: 7371 223e e79b 51bc 743a 0f3e 97b3 f9bd
00000020: 8afa b23d 159f 25be e9a1 76bd 7bcd 8fbd
00000030: a6b0 2abe 2def 08be 0a33 efbd 572d 06bd
00000040: 7458 77bd 5310 29be 094c da3c 86cb 983d
00000050: dfd9 e83c 5090 0b3e 50d9 8dbc 0d28 0e3e
00000060: bd9b 1abc 5b1b 75bc f4d4 47bc 4e79 95bd
00000070: fc7c 8fbd 0673 263d b7f9 c1bd 5eec 713d
00000080: abda 0ebe f3fe a0bc 0520 c1bc 39d9 9dbd
00000090: 3f5a 033e bab7 14be 43c6 a83d d680 20be
000000a0: fc95 d23d 8a2b 2d3e 011d 21bd c04d 34bc
000000b0: 1dde eabb 6413 d43d b496 0e3c bfe2 29bd
000000c0: c9f9 1d3e d7ff 083e fafc 1fbc f8ce b4bd
000000d0: 68d2 cb3d 3580 9cbd 9307 c9bd 90de e4bd
000000e0: 0bd2 5d3c ec4d 9ebd 52da ee3d 7bd7 f83d
000000f0: cb96 9ebd cf59 93bd fb27 013e 89c2 b5bd
00000100: d548 e13d 67db 52bc 7040 ff3d cc12 b43d
00000110: ea31 03be 7064 03be b0ef 9a3d 979b b4bd
00000120: d8d7 483c e018 033d 9c53 12be ba98 3dbc
00000130: c62f f73d 0055 e33b 905c e5bd 41e2 1d3e
00000140: 2bd6 183e 4b64 253d 4082 dbbd aadc 9b3d
00000150: 6bec 443d 9c52 dabd 7dab 04be 752e 9abd
00000160: 3151 293e f3d6 8b3c 804f 28bb 1a27 a33d
00000170: 3a68 cbbd e8fb 64bd eb8f e93c ebd3 1d3e
00000180: 0062 4abc 08a1 193d e79c 16be 8d50 2bbe
00000190: 39c3 0f3d 5d83 73bb 1109 0e3e ef6d 1d3d
000001a0: b7a4 203e 661b 12bd 1153 4dbd 0858 8cbc
000001b0: b367 abbd f2e2 1b3c 4283 17be 681f a43c
000001c0: 20c5 45bc 80a4 603d 4886 2d3e b4af 7a3d
000001d0: d76f e03c 3f86 f0bd 05d6 80bd e9ae 91bd
000001e0: 37fd 18be 3368 bd3d bffb 2b3e 1a70 f03d
000001f0: 299c 0c3e 07eb cabd 37f0 98bd 51f1 6abd
00000200: f724 a3bd eabf 0ebe 00e8 14be e0c1 09bc
00000210: a6a8 d6bd 5f45 08be e59c 303e f96b 29be
00000220: c83e 63bd 02ba e93d 0e4d b9bd b60c a83d
00000230: f887 01be 001e dcba 242c 843d e623 61bd
00000240: cef3 00be 70f2 0d3d 6000 f2bc cd03 1e3e
00000250: c843 debc 39d8 0b3e e697 99bd 0512 8dbd
00000260: 0003 053a 6a05 cb3d 5902 273e 5284 a93d
00000270: 1fc4 a2bd 1077 463c 4a75 f03d 2d67 103e
00000280: 5ff5 013e 7c48 743d 4069 b2bc 62b9 f73d
00000290: 8cbc 723d be77 1cbe 3b3f 313e 0004 54bc
000002a0: 512d 2d3e 6691 d63d e095 36bc cfa7 1abe
000002b0: a85a 2dbe 9b9d adbd d6d0 963d 206b 5f3c
000002c0: 00e5 8d3c 908f 13be d252 c73d 1457 33bd
000002d0: fe02 be3d ee62 13be 00e7 463b 3a5e b73d
000002e0: 7caa 563d a30f 34be 2d55 183e c4bb 06be
000002f0: c6ca 26be 8e05 fbbd c781 2bbe b42e 843d
00000300: e76d 083e f78f 113e 407b 7e3d a045 42bd
00000310: 04d9 183d e854 603d de70 33be 0010 8fba
00000320: a0e6 343d 4989 123e fae9 d93d 0054 4cbd
00000330: 4084 03bc 5e9b e63d 2766 243e 5270 b9bd
00000340: 1774 333e 88e2 f7bc 0b98 a1bd 8096 81ba
00000350: f7e4 0d3e 8dbd cebd 605f ca3b c15e d0bd
00000360: c004 91bb 36dc fc3d 7e32 b3bd 46b1 a2bd
00000370: 94da 483d aa71 aa3d 20e6 5dbc 3cbb 26bd
00000380: b064 37bc 9415 5c3d d928 213e b62c a33d
00000390: 88fe ea3c dc66 703d 10f7 583d f0a3 08bc
000003a0: 2b57 f3bd ca30 abbd 24c7 7d3d a037 7e3d
000003b0: 9f28 b8bd ffb5 c7bd 2e0a cc3d 00f1 02bd
000003c0: e281 dc3d 28aa 403d b098 0c3d f020 a4bc
000003d0: a186 9dbd 6825 373d 77f8 e2bd 85c3 9fbd
000003e0: 5872 02be 0020 6db8 d0f1 c3bd c387 85bd
000003f0: f825 6abd c674 9f3d 8296 c83d 92b9 f43d

encoder.post_mp.0.weight f4 [64, 192]
0.010948149 -0.017534481 0.039975155 -0.0001065336 0.034842186 -0.026009163 -0.031435862 0.015133643
-0.0027445753 -0.060364384 0.051784858 -0.06497674 0.05458326 -0.06002868 -0.061939865 0.046587218
0.032864284 0.04266371 -0.03427718 -0.012586747 0.007531611 0.029398607 -0.0046854434 -0.07288016
-0.016914243 0.04742711 -0.005952589 -0.0011832673 0.032095894 -0.008008249 0.04467087 -0.03218836
0.010843736 0.009862075 0.05882564 -0.004989891 -0.044357754 -0.016086912 -0.0028046204 -0.016162314
-0.0072119962 -0.018300008 0.034764986 -0.070778534 0.024680467 -0.048583057 0.06600523 0.002177178
0.008884105 -0.049793765 -0.014747052 0.04522161 0.037123 -0.047009032 0.05992053 -0.0054149735
0.057007194 0.003175801 -0.029834626 0.008740239 0.03916166 -0.06873335 -0.037677873 0.04878017
0.0045681554 -0.038709443 -0.007283762 0.036956374 0.00014609058 -0.06006984 -0.0725725 0.06152641
-0.022095677 -0.0554626 -0.010921363 0.027824283 0.053228904 -0.044510856 0.03858403 -0.029219724
0.0132706165 -0.008043155 -0.052892044 -0.013691157 -0.06673271 -0.0646166 -0.031143276 -0.02817244
-0.04397127 0.022528132 -0.012418307 0.05724702 0.058184013 -0.0069606006 -0.015021682 -0.0008460954
-0.0026574358 0.01659474 -0.0064685047 0.061377022 0.010722385 0.014833073 -0.058910664 -0.06994418
0.0019409205 0.04606417 -0.02266257 0.019407928 -0.06833368 0.010841864 -0.017960882 -0.028998256
-0.034396343 -0.006989782 0.036504123 0.062026918 -0.056899924 0.01635473 -0.06962126 0.019658392
0.04851328 0.0075424523 0.043184936 -0.059606828 0.019111184 -0.03906509 0.010948624 0.0014286101
0.04449293 0.0025632307 0.03100076 0.04247505 -0.016641205 -0.05356012 -0.005079474 0.02770113
-0.067666724 -0.04203983 0.03394856 -0.050092634 0.062713966 -0.048555225 0.05779093 -0.057477392
0.0042371103 -0.0040375674 0.02588179 0.007786307 0.06089325 -0.01727756 0.06457372 -0.020513164
-0.060519457 0.051222593 0.012745211 0.01622264 0.019822586 0.04179469 0.034175247 0.022582179
0.008627689 0.0033607674 0.03749272 0.06460956 -0.01974105 -0.06457128 0.015042954 0.035392538
-0.05088573 -0.049580164 -0.059031837 -0.0035528988 -0.04367655 0.020630928 0.033523794 -0.03507783
-0.04711644 -0.06962624 -0.049160153 0.012184355 -0.004632768 -0.028606048 -0.004765484 -0.029101653
-0.07396736 -0.058026966 -0.020495795 -0.067246236 0.03946934 -0.036572054 -0.049756594 -0.00688696
-0.062819846 0.054135308 0.042558473 0.013228904 -0.05226216 0.04057044 -0.05658132 0.059751324
-0.014445884 -0.006088835 -0.06615397 0.02157605 -0.016090654 -0.010794962 -0.021986997 -0.028905611
0.011222355 0.019981792 0.053199757 -0.009034809 0.040518813 -0.07221163 0.01859946 0.0047835354
-0.020957792 0.028313478 -0.00023549942 -0.005369778 0.06558983 -0.06618368 -0.04266366 -0.026179476
0.060924023 -0.021318605 0.012885666 -0.012639061 0.049445476 0.048022665 -0.0512052 0.008381814
-0.07127851 -0.033190392 -0.055697624 -0.019978387 0.0018546444 -0.023273222 -0.026109008 -0.025190517
0.008797716 -0.061282504 0.056530617 -0.031339213 -0.0032158422 -0.055136092 -0.06597837 -0.046974078
-0.058274206 -0.06896666 0.051065873 0.07159184 -0.041433416 0.0651966 0.010553122 0.07033519
00000000: dd5f 333c 79a4 8fbc fdbc 233d ca6a dfb8
00000010: aeb6 0e3d 2b11 d5bc e4c2 00bd 19f3 773c
00000020: 55de 33bb a540 77bd 5c1c 543d 8612 85bd
00000030: b292 5f3d a2e0 75bd a8b4 7dbd 3dd2 3e3d
00000040: b39c 063d 24c0 2e3d 3a66 0cbd a538 4ebc
00000050: bbcb f63b 59d5 f03c 5988 99bb 3142 95bd
00000060: bd8f 8abc ee42 423d f00d c3bb dd17 9bba
00000070: fc76 033d 0835 03bc cdf8 363d f1d7 03bd
00000080: eda9 313c 8a94 213c 27f3 703d 3d82 a3bb
00000090: 7ab0 35bd b3c8 83bc b9cd 37bb d466 84bc
000000a0: 9c52 ecbb e6e9 95bc bb65 0e3d 56f4 90bd
000000b0: b12e ca3c 07ff 46bd c02d 873d fcae 0e3b
000000c0: a38e 113c 8cf4 4bbd 9f9d 71bc 4c3a 393d
000000d0: 490e 183d 8b8c 40bd 3b6f 753d 1770 b1bb
000000e0: 6080 693d 1921 503b bf67 f4bc 3833 0f3c
000000f0: fa67 203d 12c4 8cbd 1d54 1abd b7cd 473d
00000100: 77b0 953b cb8d 1ebd a0ac eebb 915f 173d
00000110: e42f 1939 cb0b 76bd e4a0 94bd 1e03 7c3d
00000120: fe01 b5bc c02c 63bd 84ef 32bc c0ef e33c
00000130: 8d06 5a3d 0451 36bd 4a0a 1e3d 345e efbc
00000140: 006d 593c 70c7 03bc 54a5 58bd e050 60bc
00000150: 29ab 88bd b555 84bd 2f20 ffbc e4c9 e6bc
00000160: 381b 34bd eb8c b83c 2876 4bbc da7b 6a3d
00000170: 5c52 6e3d c015 e4bb 801d 76bc 80cc 5dba
00000180: 6028 2ebb b1f1 873c c0f5 d3bb 7966 7b3d
00000190: f1ac 2f3c 6b06 733c 4f4c 71bd e53e 8fbd
000001a0: 7c66 fe3a c8ad 3c3d dba6 b9bc 60fd 9e3c
000001b0: 87f2 8bbd 13a2 313c b322 93bc c08d edbc
000001c0: 2ee3 0cbd 8b0a e5bb 5985 153d f00f 7e3d
000001d0: e50f 69bd 5bfa 853c 9795 8ebd a30a a13c
000001e0: dcb5 463d ad26 f73b b0e2 303d 4a26 74bd
000001f0: 0f8f 9c3c b702 20bd dc61 333c 3340 bb3a
00000200: 383e 363d e0fb 273b 4ef5 fd3c 51fa 2d3d
00000210: 2353 88bc db61 5bbd b771 a6bb 7bed e23c
00000220: da94 8abd f531 2cbd a50d 0b3d ef2d 4dbd
00000230: 2e70 803d d8e1 46bd 2fb6 6c3d 6a6d 6bbd
00000240: 75d7 8a3b 924d 84bb 0c06 d43c 4724 ff3b
00000250: 336b 793d ab89 8dbc 3a3f 843d 390b a8bc
00000260: 40e3 77bd c8ce 513d 4ad1 503c 58e5 843c
00000270: fa62 a23c e930 2b3d 58fb 0b3d 43fe b83c
00000280: 275b 0d3c 5240 5c3b f791 193d 0452 843d
00000290: fcb7 a1bc f23d 84bd b976 763c c4f7 103d
000002a0: 8e6d 50bd 9214 4bbd 5ecb 71bd c0d7 68bb
000002b0: 2fe6 32bd 3102 a93c 3f50 093d c5ad 0fbd
000002c0: 2bfd 40bd 3498 8ebd 285c 49bd e4a0 473c
000002d0: 7ace 97bb 3b57 eabc c727 9cbb 9766 eebc
000002e0: 337c 97bd afad 6dbd cce6 a7bc 65b8 89bd
000002f0: 9aaa 213d 94cc 15bd 92cd 4bbd 02ac e1bb
00000300: b1a7 80bd fcbc 5d3d cb51 2e3d 0cbe 583c
00000310: d910 56bd 312d 263d d0c1 67bd cebd 743d
00000320: 6eae 6cbc da84 c7bb bc7b 87bd 42c0 b03c
00000330: 8cd0 83bc 5add 30bc 131e b4bc 76cb ecbc
00000340: f8dd 373c dbb0 a33c fde7 593d bc06 14bc
00000350: 0ef7 253d b1e3 93bd e55d 983c 34bf 9c3b
00000360: adaf abbc abf1 e73c 65f0 76b9 f6f4 afbb
00000370: f653 863d 4f8b 87bd 17c0 2ebd 5776 d6bc
00000380: 788b 793d 5ba4 aebc 671e 533c 1014 4fbc
00000390: 5787 4a3d 6ab3 443d 8bbc 51bd e053 093c
000003a0: 78fa 91bd a6f2 07bd 3123 64bd b7a9 a3bc
000003b0: 8a17 f33a 7ca7 bebc 8fe2 d5bc 585c cebc
000003c0: 4c24 103c 5d03 7bbd a68c 673d 8c5d 00bd
000003d0: e1c0 52bb 62d6 61bd ab1f 87bd e467 40bd
000003e0: efb0 6ebd 643e 8dbd 732a 513d be9e 923d
000003f0: 16b6 29bd cc85 853d 00e7 2c3c e50b 903d

encoder.post_mp.0.bias f4 [64]
0.061490193 -0.02799183 -0.048330653 0.06356531 -0.057478916 -0.055775687 0.040160045 0.044744745
0.03211884 -0.009477094 -0.0071648345 -0.0551555 -0.023403337 -0.055719424 0.068060495 -0.000695906
-0.0011259656 0.022417989 0.011781312 -0.025603915 -0.024668794 -0.07102237 -0.022673814 -0.015457797
-0.006932633 -0.0041026617 0.025634358 -0.06912728 -0.06828502 -0.045964926 0.024836196 0.051340926
-0.06297521 -0.033152267 -0.016411133 -0.02380605 -0.00041566338 -0.026997915 -0.037831686 0.008945523
-0.021556705 0.05764994 0.043189164 -0.019335544 -0.043740485 0.06393932 0.010231376 -0.03181606
0.025539676 -0.0025696212 0.03946257 0.013081092 0.0659083 0.029892085 -0.030415637 -0.0120162405
0.039241526 -0.04441021 -0.037614707 -0.026918018 0.063398205 0.017797211 0.019739978 -0.053965807
00000000: 24dd 7b3d 1f4f e5bc 5df6 45bd 872e 823d
00000010: 036f 6bbd 0c75 64bd dc7e 243d 4446 373d
00000020: 0b8f 033d d045 1bbc fdc6 eabb bcea 61bd
00000030: 5bb8 bfbc 0d3a 64bd 4d63 8b3d 766d 36ba
00000040: 2395 93ba eea5 b73c 6706 413c 4dbf d1bc
00000050: 3616 cabc 2d74 91bd 6fbe b9bc b342 7dbc
00000060: 242b e3bb 9f6f 86bb 25ff d13c 9a92 8dbd
00000070: 04d9 8bbd b845 3cbd 4775 cb3c dd4a 523d
00000080: 26f9 80bd acca 07bd a470 86bc e804 c3bc
00000090: 65ed d9b9 bb2a ddbc 66f5 1abd 3e90 123c
000000a0: b097 b0bc 5822 6c3d 1fe7 303d 9365 9ebc
000000b0: 3929 33bd 9ef2 823d 80a1 273c 8f51 02bd
000000c0: 9538 d13c 1767 28bb 81a3 213d 1452 563c
000000d0: eefa 863d 3fe0 f43c 372a f9bc c4df 44bc
000000e0: b9bb 203d 7be7 35bd e111 1abd 2d83 dcbc
000000f0: ebd6 813d 75cb 913c bcb5 a13c 400b 5dbd

encoder.post_mp.3.weight f4 [64, 64]
-0.11537609 -0.06983278 -0.06483742 0.09198474 0.023113053 0.10276108 -0.07511388 -0.016031701
-0.06557272 0.056074444 -0.07586999 0.045168586 0.037575386 -0.11059329 -0.026057143 0.028410818
0.121370286 -0.12162639 -0.08322161 0.11637624 -0.10276575 -0.030485885 0.08684152 0.07285022
0.01923974 0.043129 -0.04402266 -0.077256285 -0.0022363742 -0.12189888 0.08795144 0.052021433
0.1075253 -0.049678896 -0.061548926 0.013761053 -0.10465583 0.09044336 0.015612133 0.050584536
-0.082180224 0.0700748 -0.1064144 -0.099477746 -0.08433007 0.044344455 -0.033743806 0.06224669
0.014822628 -0.020681 0.033353046 -0.05514842 -0.024510218 0.096491516 0.11366293 0.053974938
-0.013499326 -0.08349507 -0.0040077376 -0.118589744 0.09778907 -0.019817958 0.024669152 -0.03020158
0.037653502 0.07249724 -0.03621468 0.08924383 -0.09939212 0.06049703 0.08193784 0.06334955
0.08288239 -0.10463782 -0.030497927 0.07273756 0.06623246 -0.122319125 -0.04042845 0.00097352156
-0.0013146462 -0.031956185 -0.106371455 0.03791664 0.11500018 0.018402455 0.06734211 -0.08874526
-0.12665848 -0.08467896 -0.008975768 -0.11132109 0.11686094 0.014205507 0.045924313 -0.015425936
0.121108495 -0.06218403 -0.05380663 0.050714906 0.008133496 -0.04790678 -0.12184074 0.07666822
-0.056304682 0.09296816 -0.113874614 0.05504789 0.113738656 0.11506755 -0.105261795 -0.08039835
0.08794078 -0.015533837 0.005594986 -0.00039805417 -0.04424029 0.03822307 -0.0375805 0.0790695
-0.10002541 0.09893149 -0.0060690893 -0.027165871 0.11493311 0.05547225 0.0742835 0.10251194
0.08023989 0.04380523 -0.025825964 -0.0053585204 -0.04275389 -0.023400424 0.08435467 -0.12580298
-0.09349343 -0.019625127 0.07316388 0.05434206 0.022080863 -0.0019501866 -0.10815184 -0.04647887
0.10150522 0.0349291 -0.021497274 0.009204015 0.10756693 -0.02527009 -0.019337293 0.07646035
-0.11097419 0.038955666 0.07186238 0.08755158 -0.05178176 -0.1128958 0.11367173 0.12244676
-0.106686816 0.120595224 -0.07626564 0.07152882 -0.0025794527 -0.029173855 0.08024543 -0.009513108
-0.08477227 -0.099237755 0.07381066 0.030448515 -0.07204062 0.06629005 -0.09365878 0.11753636
0.028802311 0.091767386 -0.047305766 0.092568286 0.055350523 0.09580331 -0.07833294 -0.11407654
0.06212239 0.018299095 -0.012506975 -0.048415493 0.06389722 0.03144349 0.05804539 0.0045724665
0.058727413 0.09209585 -0.114370815 -0.0031593735 -0.10535937 0.08482354 -0.030740768 0.031643316
0.0660814 -0.06558586 0.08012463 -0.06807128 0.111849904 -0.04393831 -0.018911753 0.10401272
-0.057717275 -0.04122219 0.059544876 -0.06305246 0.099377334 0.04848291 0.02333077 0.012943646
-0.099472195 -0.021529837 0.03305604 -0.049750067 -0.05361019 -0.007329436 -0.09299482 0.050521042
-0.10207537 -0.08728079 0.013259433 -0.014729664 -0.078099005 0.05111105 -0.107538484 0.07979504
0.10714527 0.09478644 0.10157474 -0.016299168 0.05518906 -0.10988172 0.060707647 -0.08316133
-0.066376366 -0.10555371 0.0016163634 0.10948247 -0.008101091 0.023695827 -0.018574173 0.017738547
0.115822725 -0.0015655318 0.03973678 0.013709039 -0.036735665 -0.08247968 0.009362924 0.014029024
00000000: 4d4a ecbd 7d04 8fbd 7bc9 84bd 7f62 bc3d
00000010: 9657 bd3c 6774 d23d 4ed5 99bd ea54 83bc
00000020: fd4a 86bd 51ae 653d ba61 9bbd b202 393d
00000030: a6e8 193d bc7e e2bd ca75 d5bc cebd e83c
00000040: fc90 f83d 4217 f9bd 1770 aabd ab56 ee3d
00000050: d976 d2bd 89bd f9bc f8d9 b13d 7f32 953d
00000060: a99c 9d3c 09a8 303d 1b51 34bd 8b38 9ebd
00000070: 2290 12bb 1fa6 f9bd e21f b43d 6d14 553d
00000080: 3936 dc3d 197c 4bbd ba1a 7cbd 0a76 613c
00000090: cc55 d6bd 5e3a b93d 08ca 7f3c bb31 4f3d
000000a0: 1b4e a8bd 6083 8f3d cbef d9bd fdba cbbd
000000b0: 3eb5 acbd 88a2 353d f236 0abd 63f6 7e3d
000000c0: 9cda 723c 336b a9bc 349d 083d 4fe3 61bd
000000d0: a7c9 c8bc 589d c53d 1cc8 e83d d314 5d3d
000000e0: 472c 5dbc 77ff aabd 5753 83bb 2edf f2bd
000000f0: a345 c83d 4559 a2bc f616 ca3c 4e69 f7bc
00000100: 8f3a 1a3d 6f79 943d d855 14bd 78c5 b63d
00000110: 198e cbbd bccb 773d 07cf a73d 69bd 813d
00000120: 3ebe a93d 5a4c d6bd cad6 f9bc 6ef7 943d
00000130: e2a4 873d 7382 fabd 4d98 25bd ed33 7f3a
00000140: 3550 acba 7de4 02bd 47d9 d9bd 7b4e 1b3d
00000150: 3785 eb3d bfc0 963c a9ea 893d 13c0 b5bd
00000160: c3b2 01be 2a6c adbd 1a0f 13bc 50fc e3bd
00000170: ca54 ef3d 37be 683c 221b 3c3d 11bd 7cbc
00000180: bb07 f83d aeb4 7ebd 5764 5cbd 6fba 4f3d
00000190: 5b42 053c e639 44bd a387 f9bd 3a04 9d3d
000001a0: bd9f 66bd 1766 be3d 1837 e9bd e579 613d
000001b0: d0ef e83d 89a8 eb3d 7f93 d7bd e4a7 a4bd
000001c0: 4c1a b43d a281 7ebc 2556 b73b edb1 d0b9
000001d0: 4e35 35bd cb8f 1c3d 03ee 19bd 31ef a13d
000001e0: 1fda ccbd 989c ca3d 36df c6bb f68a debc
000001f0: 0d62 eb3d df36 633d f321 983d c8f1 d13d
00000200: d054 a43d 1d6d 333d f990 d3bc 8796 afbb
00000210: b41e 2fbd 3fb2 bfbc 24c2 ac3d 7fd2 00be
00000220: 7c79 bfbd e0c4 a0bc f2d6 953d c895 5e3d
00000230: ede2 b43c 679d ffba b67e ddbd a160 3ebd
00000240: f8e1 cf3d d111 0f3d 0d1b b0bc 70cc 163c
00000250: 0d4c dc3d 3803 cfbc 3e69 9ebc 3e97 9c3d
00000260: 7046 e3bd fa8f 1f3d 952c 933d 3e4e b33d
00000270: 1c19 54bd ea35 e7bd b9cc e83d 5ec5 fa3d
00000280: 9e7e dabd a1fa f63d 2931 9cbd b47d 923d
00000290: 090c 29bb 02fe eebc b757 a43d dedc 1bbc
000002a0: 159d adbd 2a3d cbbd 0b2a 973d 2a6f f93c
000002b0: 088a 93bd 14c3 873d 2dd0 bfbd e7b6 f03d
000002c0: d3f2 eb3c 8af0 bb3d b1c3 41bd 7194 bd3d
000002d0: 3bb7 623d 8734 c43d 056d a0bd f6a0 e9bd
000002e0: 0c74 7e3d fce7 953c 0eea 4cbc 534f 46bd
000002f0: 8cdc 823d e4ca 003d 01c1 6d3d a1d4 953b
00000300: 288c 703d c09c bc3d 3f3b eabd 7e0d 4fbb
00000310: a7c6 d7bd f7b7 ad3d 10d4 fbbc 6c9c 013d
00000320: af55 873d e151 86bd 6218 a43d f568 8bbd
00000330: 9011 e53d a8f8 33bd d2ec 9abc 9f04 d53d
00000340: f368 6cbd 99d8 28bd 54e5 733d a621 81bd
00000350: 5886 cb3d 0496 463d 2c20 bf3c 9611 543c
00000360: 14b8 cbbd 575f b0bc c565 073d bac6 4bbd
00000370: 5c96 5bbd c42b f0bb 1174 bebd 27ef 4e3d
00000380: e40c d1bd 45c0 b2bd 183e 593c b054 71bc
00000390: 5ff2 9fbd d259 513d 233d dcbd 956b a33d
000003a0: fb6e db3d 651f c23d 6b06 d03d d585 85bc
000003b0: ec0d 623d ab09 e1bd 95a8 783d 7d50 aabd
000003c0: 55f0 87bd 8b2c d8bd 28dc d33a 5838 e03d
000003d0: 70ba 04bc c01d c23c dd28 98bc 6e50 913c
000003e0: 7734 ed3d 8832 cdba 09c3 223d e19b 603c
000003f0: 2378 16bd 1beb a8bd f366 193c fed9 653c

encoder.post_mp.3.bias f4 [64]
0.09036032 -0.058877654 0.09894821 -0.11500332 0.015568398 0.11323302 0.097104765 -0.087153405
0.037613377 0.10106999 -0.04857506 0.07441332 -0.09776128 -0.049153052 -0.11441236 0.01706989
0.028874224 0.092845574 0.07436492 0.036585122 0.075243145 -0.02547872 0.024185177 0.06953402
-0.03750249 0.111496545 0.04532878 -0.06826444 0.114756644 0.03341409 -0.082586326 0.06252928
0.01707587 -0.050162755 0.013436972 -0.07784643 -0.101522915 -0.059896003 0.09265109 0.037537273
-0.054262936 -0.10872943 -0.100552544 -0.12645651 -0.0669754 0.1001214 0.06324917 -0.120829195
-0.05179983 -0.0874861 0.0783495 -0.039252587 0.05822977 -0.06861193 0.0021322453 0.119590305
-0.076146975 -0.12526304 0.007237987 0.05309585 0.123787634 -0.033340447 0.037307367 -0.08148374
00000000: d50e b93d b229 71bd 5ca5 ca3d dc86 ebbd
00000010: 9812 7f3c b7e6 e73d ddde c63d 7c7d b2bd
00000020: 7c10 1a3d c8fd ce3d a4f6 46bd 0366 983d
00000030: 1137 c8bd b654 49bd 0751 eabd 27d6 8b3c
00000040: a389 ec3c d225 be3d a34c 983d 48da 153d
00000050: 1419 9a3d c0b8 d0bc fe1f c63c da67 8e3d
00000060: 369c 19bd 4d58 e43d acaa 393d 3ace 8bbd
00000070: 8805 eb3d 36dd 083d 0523 a9bd 5a0f 803d
00000080: b2e2 8b3c 7677 4dbd bf26 5c3c f36d 9fbd
00000090: 3feb cfbd 8355 75bd dbbf bd3d afc0 193d
000000a0: d042 5ebd 89ad debd 7eee cdbd d17d 01be
000000b0: 662a 89bd 730c cd3d c888 813d 4c75 f7bd
000000c0: 0f2c 54bd ea2b b3bd b475 a03d 52c7 20bd
000000d0: 5782 6e3d 6984 8cbd 24bd 0b3b c3eb f43d
000000e0: f2f2 9bbd f444 00be a32c ed3b 097b 593d
000000f0: 5f84 fd3d fe8f 08bd 9ccf 183d f2e0 a6bd

encoder.post_mp.5.weight f4 [256, 64]
0.04775758 -0.051817268 -0.07654391 -0.049212266 -0.10246912 0.09639681 -0.01613405 -0.033323396
0.0011659369 -0.020858146 0.07310929 -0.0817316 -0.089698754 0.013776545 -0.022822909 0.08907401
-0.010884069 0.09095798 -0.050452415 -0.05926382 -0.0023751971 -0.03862729 -0.12025722 -0.016436288
-0.0893941 -0.05660152 -0.112665735 0.07214472 -0.030455057 -0.013105053 -0.10512445 -0.047629695
-0.10119255 -0.056765355 -0.104009084 0.0019662103 -0.024084827 -0.05382453 -0.02688433 -0.08404296
0.11572592 -0.02989781 0.0043964535 -0.041654643 -0.042894647 0.08500489 0.011609242 -0.067011945
-0.01280487 0.057481606 -0.02034883 -0.018250134 -0.04263589 -0.04619868 -0.060043484 0.074639596
0.043899667 0.036274925 0.072522044 -0.00023959391 -0.031360492 0.045205288 0.0072370633 0.120197095
-0.10472297 0.09876763 -0.009076637 -0.0066115973 0.011390215 0.021344913 5.881641e-05 0.07472823
0.030085864 -0.062006906 -0.019187517 0.06370628 -0.11750567 0.107840426 0.049457 0.117275946
-0.100231186 0.0183288 0.10053193 0.03016135 -0.060428802 -0.11050988 0.043514438 0.08975746
0.0721171 0.021240223 0.1119409 0.056429673 0.053885896 0.03639008 -0.07840294 0.018115029
-0.056484748 0.07120334 -0.00132255 -0.061428644 -0.09369301 0.08440163 0.033308983 -0.04210044
0.092192605 0.009049481 -0.1057542 0.11874794 0.06664422 -0.111159205 -0.047388967 -0.09129624
0.1049716 -0.038804527 0.10939479 -0.010604599 0.11782475 0.059125602 0.11888946 0.086670496
-0.10931624 0.05036577 -0.048502933 0.10370952 -0.08807909 -0.105760306 -0.046755873 -0.04223294
0.04668205 -0.042478453 0.03142683 0.118879676 0.026294168 0.109954566 -0.077750355 0.03621151
-0.090167314 0.04776408 0.09937011 -0.12688445 -0.067533545 -0.019610485 0.07274695 -0.07371503
-0.0656641 -0.06658478 0.0019285526 0.0049489043 0.027148511 0.03154803 -0.06360538 -0.039444763
-0.086509325 -0.050559174 -0.11305699 -0.03912741 0.10814369 0.1076243 -0.10297883 0.04475502
-0.118925765 0.11917478 0.07651777 -0.024873786 -0.05263334 0.036043115 -0.08268138 0.10507658
0.017388662 0.022907497 -0.1123386 -0.093654916 -0.034884922 0.037371043 0.0794898 0.08355733
0.10684175 0.013400472 0.04537567 0.06640379 0.0398866 -0.09392015 0.044655543 0.027368175
-0.05820519 0.014717166 0.026173845 -0.070525676 -0.015435465 0.024631297 0.043453872 0.04881883
-0.07341554 0.119375214 -0.014454126 -0.07052769 0.020833008 0.08677831 -0.122494556 0.027107362
0.11761279 -0.0017177653 0.08256634 -0.07657565 0.12740044 0.050067384 0.11146688 0.12635636
-0.025180008 -0.09322108 0.020945184 -0.107788295 -0.03660954 0.07103205 -0.046972323 -0.046904482
-0.06318059 -0.04766897 0.077966385 -0.043952037 0.027564526 0.01248845 -0.10075515 -0.019733999
0.123069316 0.081527136 -0.0064548957 0.07248549 0.11293039 -0.0025756739 -0.02950336 0.05429444
-0.024437485 0.041160583 -0.020090073 0.049743656 -0.08075253 0.10651968 -0.0943227 0.075549714
0.009543282 0.11557042 -0.09840926 0.1079883 -0.053889982 -0.040302437 -0.07617635 -0.09887561
-0.07405814 0.11437043 0.055083074 -0.04555554 -0.11339661 -0.10758868 -0.11130501 0.021827225
00000000: 749d 433d 583e 54bd 0ec3 9cbd cd92 49bd
00000010: 54db d1bd b16b c53d 8e2b 84bc 1d7e 08bd
00000020: 5ad2 983a b4de aabc 53ba 953d e662 a7bd
00000030: fbb3 b7bd 05b7 613c 1cf7 babc 6f6c b63d
00000040: 1853 32bc 2d48 ba3d 31a7 4ebd 9fbe 72bd
00000050: 32a9 1bbb a637 1ebd 6b49 f6bd 65a5 86bc
00000060: 4114 b7bd ffd6 67bd 4bbd e6bd 9cc0 933d
00000070: e27c f9bc 94b6 56bc 7d4b d7bd 5b17 43bd
00000080: 0a3e cfbd ca82 68bd b702 d5bd 89db 003b
00000090: 8b4d c5bc 1c77 5cbd 873c dcbc b71e acbd
000000a0: b601 ed3d 41ec f4bc 2010 903b 0f9e 2abd
000000b0: 4cb2 2fbd 0b17 ae3d b134 3e3c 8f3d 89bd
000000c0: 84cb 51bc d571 6b3d 97b2 a6bc 4e81 95bc
000000d0: f9a2 2ebd d43a 3dbd 28f0 75bd a5dc 983d
000000e0: 23d0 333d 0495 143d 7086 943d 803b 7bb9
000000f0: dc73 00bd 2e29 393d e324 ed3b e529 f63d
00000100: ff78 d6bd af46 ca3d 2db6 14bc 19a6 d8bb
00000110: 069e 3a3c 87db ae3c a4b1 7638 1d0b 993d
00000120: a176 f63c f4fa 7dbd 242f 9dbc 7078 823d
00000130: d0a6 f0bd 71db dc3d 6c93 4a3d 5f2e f03d
00000140: 0246 cdbd 4826 963c afe3 cd3d ef14 f73c
00000150: 3184 77bd 0153 e2bd 323c 323d c2d2 b73d
00000160: 21b2 933d faff ad3c 4541 e53d cd22 673d
00000170: 75b7 5c3d c40d 153d b891 a0bd f865 943c
00000180: 8d5c 67bd 0fd3 913d 6a59 adba 9a9c 7bbd
00000190: 1fe2 bfbd c3da ac3d 006f 083d 8371 2cbd
000001a0: 7acf bc3d 4644 143c a895 d8bd 1f32 f33d
000001b0: c47c 883d 70a7 e3bd ef1a 42bd 86f9 babd
000001c0: 5afb d63d 7ff1 1ebd 600a e03d e9be 2dbc
000001d0: 1a4e f13d b02d 723d 517c f33d 4d80 b13d
000001e0: 31e1 dfbd 564c 4e3d 03ab 46bd a865 d43d
000001f0: cf62 b4bd dc98 d8bd 1683 3fbd 73fc 2cbd
00000200: ad35 3f3d e3fd 2dbd 6bb9 003d 3077 f33d
00000210: de66 d73c dc2f e13d 943b 9fbd 8552 143d
00000220: a4a9 b8bd 45a4 433d 8e82 cb3d ffed 01be
00000230: 074f 8abd 2ba6 a0bc 5afc 943d e8f7 96bd
00000240: e67a 86bd 9a5d 88bd 7dc7 fc3a 6b2a a23b
00000250: 8e66 de3c 8238 013d 8a43 82bd d590 21bd
00000260: cd2b b1bd 2317 4fbd 6c8a e7bd 1044 20bd
00000270: 707a dd3d 216a dc3d 91e6 d2bd 0a51 373d
00000280: 5a8f f3bd e811 f43d 59b5 9c3d 1cc4 cbbc
00000290: 0f96 57bd f2a1 133d db54 a9bd 6432 d73d
000002a0: ab72 8e3c 81a8 bb3c c811 e6bd 26ce bfbd
000002b0: 7ee3 0ebd 6112 193d 8ccb a23d 1b20 ab3d
000002c0: d9cf da3d a78d 5b3c d7db 393d b6fe 873d
000002d0: 2260 233d 3559 c0bd bbe8 363d 3933 e03c
000002e0: 9168 6ebd 4520 713c 886a d63c c46f 90bd
000002f0: 08e5 7cbc 93c7 c93c b0fc 313d 41f6 473d
00000300: e35a 96bd fe7a f43d 00d1 6cbc d270 90bd
00000310: fca9 aa3c d4b8 b13d 6dde fabd 4210 de3c
00000320: f9de f03d a426 e1ba 8b18 a93d b2d3 9cbd
00000330: 4375 023e 7513 4d3d bf48 e43d 9063 013e
00000340: 4e46 cebc b2ea bebd 3c95 ab3c 1cc0 dcbd
00000350: e3f3 15bd 4079 913d 0d66 40bd ea1e 40bd
00000360: d364 81bd 8a40 43bd d7ac 9f3d 0d07 34bd
00000370: 00cf e13c 5b9c 4c3c b758 cebd 32a9 a1bc
00000380: c40b fc3d b3f7 a63d 9783 d3bb 4673 943d
00000390: 0c48 e73d a3cc 28bb 08b1 f1bc d963 5e3d
000003a0: 1f31 c8bc 0098 283d f093 a4bc 01c0 4b3d
000003b0: 9561 a5bd fd26 da3d 422c c1bd cfb9 9a3d
000003c0: 6d5b 1c3c 2fb0 ec3d cb8a c9bd f828 dd3d
000003d0: bebb 5cbd 2b14 25bd 5902 9cbd 4c7f cabd
000003e0: cbab 97bd 0b3b ea3d ca9e 613d 7298 3abd
000003f0: 7b3c e8bd 7457 dcbd e2f3 e3bd 02cf b23c
