amazon/20230629-213010/commm.pt (torch, 253910 bytes, 15 tensors)

encoder.learnable_skip f4 [2, 2]
00000000: 4679 7f3f 0000 803f 3772 7f3f 9b06 803f
0.99794424 1.0 0.99783653 1.0002016

encoder.pre_mp.0.weight f4 [64, 5]
00000000: a0a9 22bb 166a 773e c06f bbbe 1a79 a7be
00000010: c562 2ebe 328e f23d faf3 18bc 851a b53e
00000020: d6de 25bd 7cc1 f03d 2dd8 08be 1195 b3bd
00000030: 8c98 dabe 027f 97be 3186 3cbe 5f9a 793c
00000040: f23c 363e b747 893e cbf6 9abe add2 47be
00000050: 00cf 233e a922 bd3e 1cf7 c0bd 1f37 aa3e
00000060: 6add 97bd f616 3b3d 7b72 cf3e f8fa d4be
00000070: b793 90be 7e48 eabd 478d 30be 1749 c63e
00000080: d368 93be fcc5 50be d3ed 9ebe c894 d6be
00000090: ff57 85be d2c7 c43e f1bd 4c3e 27e3 5d3e
000000a0: 5f87 d63c 919c 68be 2f27 a03d 7284 d4be
000000b0: 1134 a4be d0b4 69be 1449 913e 9d62 873e
000000c0: ead3 48be d11e 69bc 706e 923e 576d e33e
000000d0: d0c7 353e ab70 773d 009b 993e 081f 86be
000000e0: 8f90 ac3d ecec b0be a40b 9ebe 3257 6bbe
000000f0: ba6d 4c3e d9d9 363e f4c4 88be be38 083e
00000100: bc14 793e 445a 65bd ac2f 983c 2059 d33d
00000110: 1c04 8e3e 7264 db3e 603c b0be 62f9 26be
00000120: ca45 333e 9bb2 bd3e cdcd c63e b9c6 c93e
00000130: a0ce b63d 20e5 c6be 1755 2a3d 02f5 8ebe
00000140: c276 d6be 6691 ca3e 6c1c ad3e 6354 e5be
00000150: 0acb a73d 9293 9fbd 6100 9bbd 1228 54be
00000160: 929b 2d3e dcdc 88be d4f1 243e c3fa 643e
00000170: 6389 a23e 976a 283e 4df2 e3be 7735 95be
00000180: 529e 653e c490 be3d 9b4e b2be b108 84be
00000190: 6906 d63e e0df 983e 660b 4abe f48f ebbd
000001a0: f323 dbbe fde4 1fbc 0434 adbe 5a8c b1be
000001b0: 7b0f d9bc db32 863d 0f6e 3ebe 13aa 863e
000001c0: b5ae 8cbe 856f ce3e f39e 9b3e 863f c1be
000001d0: f556 e4bd b3e2 a53c 4515 853d a660 d93d
000001e0: 3ff2 313e e698 db3c 4714 61be 1b4b 573e
000001f0: 6883 dcbe 2381 87be ec31 e7bd 0cc0 5fbe
00000200: 3bf9 20be c4db bbbe f466 c7bd 7b78 c03d
00000210: 3610 96be 7733 cabc e12b a33e 882e 47bd
00000220: a8e6 4b3c 7f22 28bd f948 b53d e25b 903e
00000230: 3fbd d73e 1360 903e a495 d83e 0a6f 0bbd
00000240: 554f cebe bc48 57be 41cd 9c3e a725 9fba
00000250: 44d4 61be f9b9 aebe 2b7d d5be b751 c0be
00000260: 8fff b6bd cfcc 7c3e 7979 783e af60 ddbe
00000270: f8b3 8e3e 570a b4be b4a1 c4bd 745a 3bbe
00000280: 64a8 afbd 4dce b1bd 0813 cdbe f620 c5be
00000290: db1f 8ebd ad8e 5a3b bc26 52be e50a 2a3e
000002a0: 4b4f cfbe e8db 04bd 3fdb c83e 7bdf 39be
000002b0: b6f5 ce3e 5508 273e dc90 cebe e0af 903e
000002c0: c3c3 5bbd 690d 4ebe e3fb b53e 88c5 b9be
000002d0: e83f 403d 4ad2 c2bd b8ad a23e c3fb fb3d
000002e0: 6c5b 5a3e 411f 1f3e bb4c debd 2290 c5bd
000002f0: 37e1 bdbe 58a9 753e 21ce b53e a3b6 9c3e
00000300: e930 a1be 1f58 a73c 01fb a0be de53 7cbe
00000310: 5b9e 84be 6e27 1c3e 5d67 88be abe0 2bbc
00000320: 02be 8a3c 3034 933e 116b adbe 2bb3 9dbe
00000330: 982b 85be d1d8 9e3e 3731 27be e6d0 bf3e
00000340: 2a07 233e 1524 5e3d 187d 73ba 5033 b3bd
00000350: 7e6f 6f3d 26cf ccbd 7177 87ba e009 623d
00000360: 9992 b3be 976c 71be 902a b83e 9f5e babe
00000370: 5ef3 0bbd 2504 e23e 13cb 233e 251d 3a3c
00000380: 0138 c7be f6ca 643e e48d a2be daae ffbd
00000390: 335f 17be 9528 84bd 248c 5d3b 4f6b bc3e
000003a0: ab99 5c3d 7902 cc3e ea1e 8b3e c75e 8fbe
000003b0: 2ac4 4f3e 26ad a0be 36a6 3fbe 2ab0 083e
000003c0: 1988 193e 4ce6 ac3e 92d1 10be 8ffb 4f3b
000003d0: 4548 6e3e 8e1b dcbe d291 a63e e201 bcbe
000003e0: 2e79 0e3c 9092 96bd 0966 6ebe 4a35 7c3d
000003f0: fbaf be3e 3426 03be 029e 86be b807 29be
-0.0024820343 0.24161562 -0.36608696 -0.3270958 -0.17029865 0.11843528 -0.009335512 0.35371795
-0.040495716 0.11755654 -0.13363715 -0.087686665 -0.4269451 -0.29589087 -0.18410565 0.015234559
0.17796686 0.26812527 -0.30266413 -0.1951396 0.15996933 0.36940506 -0.094221324 0.3324518
-0.07415278 0.045676194 0.4051703 -0.41597724 -0.28237697 -0.11439608 -0.17241393 0.38727638
-0.28790912 -0.20388025 -0.3104082 -0.41910386 -0.26043698 0.384337 0.19994332 0.21668683
0.026187597 -0.22715975 0.07819974 -0.41507298 -0.32070974 -0.2282288 0.28376067 0.26442423
-0.19612089 -0.014228539 0.28599882 0.44419357 0.17752004 0.060410183 0.30001068 -0.2619555
0.0842601 -0.34555757 -0.30868256 -0.22982481 0.19963732 0.1785654 -0.26712763 0.13302895
0.24324316 -0.055994287 0.01857742 0.103197336 0.2773751 0.4285007 -0.34421062 -0.1630607
0.17507091 0.37050328 0.3882889 0.39409426 0.08926129 -0.38846684 0.041585054 -0.279213
-0.4188748 0.39564055 0.33810747 -0.44790944 0.081930235 -0.07791819 -0.07568432 -0.2071841
0.16953877 -0.26731002 0.16107875 0.22361283 0.31745443 0.16446911 -0.44520798 -0.29142353
0.22423676 0.093049556 -0.34825596 -0.2578788 0.41801766 0.29858303 -0.1973091 -0.11502066
-0.42800865 -0.009759185 -0.33828747 -0.34677392 -0.02649664 0.06552669 -0.18596672 0.2630163
-0.2747704 0.40319458 0.30394706 -0.37743777 -0.11149398 0.0202497 0.064981975 0.10614137
0.17377566 0.026806306 -0.21980391 0.21024744 -0.43069005 -0.2646571 -0.11288819 -0.21850604
-0.15720074 -0.36691105 -0.097364336 0.0939798 -0.29309243 -0.024682743 0.31869414 -0.04862836
0.012445129 -0.041048523 0.08851809 0.281951 0.4213657 0.281983 0.42301667 -0.034041442
-0.402949 -0.2102384 0.30625346 -0.0012141959 -0.22053629 -0.3412626 -0.41697058 -0.37562343
-0.08935463 0.24687503 0.24265088 -0.43237826 0.2787168 -0.3516414 -0.09601155 -0.18296224
-0.0857704 -0.08681927 -0.40053582 -0.3850171 -0.0693967 0.0033349202 -0.20522588 0.16605718
-0.40490183 -0.03243628 0.39229771 -0.18151657 0.40421838 0.16311772 -0.40344894 0.28259182
-0.05365349 -0.20122303 0.35543737 -0.36283517 0.046935946 -0.09512766 0.31773162 0.12303879
0.21323937 0.15539266 -0.10854479 -0.09646632 -0.37085888 0.23990381 0.35508826 0.3060809
-0.31482628 0.020427762 -0.314415 -0.24641368 -0.25902066 0.15249416 -0.2664136 -0.010490577
0.016936306 0.28750753 -0.33870748 -0.30800757 -0.26009822 0.31024793 -0.16327368 0.37464064
0.15920702 0.05423363 -0.0009288355 -0.087500215 0.058455937 -0.10000448 -0.0010335279 0.0551852
-0.35072783 -0.2357658 0.35969973 -0.36400315 -0.03416764 0.44143787 0.15995435 0.011359488
-0.38909915 0.22343048 -0.3174888 -0.12484522 -0.1478241 -0.06453053 0.0033805454 0.3680062
0.053857487 0.39845636 0.27172023 -0.28001997 0.20289674 -0.31382102 -0.18715748 0.13348451
0.14993323 0.33769453 -0.14142445 0.0031735634 0.23269756 -0.42989773 0.32533127 -0.36720186
0.008695884 -0.07352173 -0.23281111 0.061574258 0.37243637 -0.12807542 -0.26292425 -0.1650685

encoder.pre_mp.0.bias f4 [64]
00000000: d878 223d b8b9 5c3d a6ba b2be 4ba0 0d3d
00000010: e440 9d3e 5869 cd3e cadc 873e 7c60 793d
00000020: e0b8 583e e2c2 5cbe 0915 bdbe 4d97 c3be
00000030: 542f e33e e64f 913e a105 9ebe 5315 343e
00000040: caa1 ab3e c7ad e33e 10eb c63e 93a0 b03e
00000050: c45f d6bd 9ecd 22be 34ba ba3e 5140 7e3e
00000060: 33f5 8abe 1eec ce3e 3c17 5b3e 1d44 773e
00000070: 1886 90be a1c1 043e f7d7 1ebe 89b9 b23e
00000080: a097 a7bd 53ee 2f3e 593a a73d 6cc1 413e
00000090: 3578 1dbe 78a9 5c3e 80d5 9ebe e5c1 ca3d
000000a0: eac2 9bbe 361b e3be 12e0 b6be db2f b43e
000000b0: 4071 753e 8df2 d53e 0406 b73e 1416 cbbe
000000c0: fc75 9bbe 130d 8fbd 736d 93be 2c72 9f3e
000000d0: e974 acbe 2313 62be 840c dcbe 59a3 80be
000000e0: 017b bb3e 1f87 ba3e ad37 a53e 9605 b03e
000000f0: fe47 cc3e 6884 e9bd 1295 473e 6d84 cb3e
0.039666027 0.053888053 -0.34908026 0.034576695 0.3071357 0.40119433 0.26535636 0.06088303
0.21164274 -0.21558717 -0.3693011 -0.3820137 0.44372046 0.2838127 -0.3086367 0.1758626
0.33521873 0.4446852 0.38851213 0.34497508 -0.104674846 -0.15898749 0.36470187 0.24829222
-0.27140197 0.40414518 0.21395582 0.24147077 -0.28227305 0.12964489 -0.15512072 0.34907177
-0.08183217 0.17180757 0.08165426 0.18921441 -0.15377887 0.21549022 -0.31022263 0.09900264
-0.30422145 -0.44356698 -0.35717827 0.3519276 0.23968983 0.41786614 0.35746777 -0.39665282
-0.30363452 -0.069849156 -0.2879444 0.31141794 -0.33682945 -0.22077613 -0.429783 -0.25124624
0.36617282 0.36431214 0.3226904 0.34379262 0.39898676 -0.114022076 0.1949046 0.3974947

encoder.convs.0.bias f4 [64]
00000000: dfe2 2ebb 0561 b8ba b958 7e39 4367 c7ba
00000010: d33d 183b 6067 903a f334 77ba 6221 183a
00000020: cdd2 b13a 4479 10bb 197a 07bb 0c88 95b9
00000030: 8b47 7eb9 dcda e639 bb33 1abb febc 2eba
00000040: 53a0 d1ba da5f 07bb ce9e b23a 89ba c5ba
00000050: 9812 28ba 6d1a 03bb 0eab f2ba 702b 373b
00000060: 0000 0000 446d 11bb 2586 a8ba f160 c0ba
00000070: bab3 e0ba 6b00 8b3a 817f f8ba e611 e6ba
00000080: aef4 8c3a 17ec 223b 0000 0000 3e17 183b
00000090: 1bb5 cdba c2d4 efba 9696 253b fab3 1b3b
000000a0: 1dc8 06ba 1cd3 b739 8aad 8dba 52b1 dbba
000000b0: cf5f 173a ee21 a6ba c822 063b b46f c539
000000c0: fb02 faba d602 283b 9399 813a 5021 f13a
000000d0: 094d 903a 16fb daba 10dc b8ba e2bc 8eba
000000e0: 970e 193b a874 213b b005 1b3b 0000 0000
000000f0: 4625 063b c924 f23a 101e 9a3a 74f3 0bbb
-0.0026685519 -0.0014067 0.0002425638 -0.001521327 0.002323021 0.0011017136 -0.00094301923 0.0005803314
0.0013566852 -0.0022044936 -0.002067214 -0.00028520857 -0.0002424998 0.00044032081 -0.002352937 -0.0006665735
-0.0015993215 -0.0020656497 0.001362765 -0.0015085499 -0.0006411462 -0.0020004765 -0.0018514113 0.0027949475
0.0 -0.0022190372 -0.0012857361 -0.0014677328 -0.0017143406 0.0010604983 -0.0018958898 -0.0017552942
0.0010754073 0.0024859959 0.0 0.0023207213 -0.0015694232 -0.001829766 0.0025266758 0.0023758397
-0.00051415135 0.0003506177 -0.0010809165 -0.001676122 0.00057744695 -0.0012674907 0.0020467509 0.00037657993
-0.0019074375 0.0025636456 0.0009887688 0.0018396769 0.0011009286 -0.001670691 -0.001410367 -0.0010890032
0.0023354643 0.0024636183 0.0023654513 0.0 0.0020468994 0.0018474098 0.0011758227 -0.0021354826

encoder.convs.0.lin.weight f4 [64, 64]
00000000: 9f6c d73b ce44 35be 4a15 fdbd 02bc afbd
00000010: f3f4 a63c 8667 aa3d b510 1bbd 807b b3bd
00000020: cc27 c73d 0bd1 54be 7955 183e b3da b7bc
00000030: 7c7e 173e 66c0 243e c997 ca3c 4c0d 883d
00000040: b548 ffbd 0ca4 1c3e 0b00 fe3d dfec 01bd
00000050: 4335 b13d 552c 1abc 1f78 2a3e 9991 b43d
00000060: 1c5a 243e 9bf8 46be fa6d 553e f7b1 9f3d
00000070: a380 d23d 3e93 503d 5e5f 143e 7072 533e
00000080: 17d9 80bc 0596 37be 1ec3 483e 33b8 45bd
00000090: 9826 dbbd eed0 053e 1fbc fc3d eac9 013d
000000a0: c651 32bc 16bf 32bd 3404 4e3e 50d0 043e
000000b0: e994 013e 9bb7 0a3e b39e edbd fe4f 443d
000000c0: e5bf 3dbe 8b9b 033e 92fb 58be 796e 5cbe
000000d0: 6c75 59be cd7c 093e a7dc ce3c 0232 533b
000000e0: 9c52 023d 5260 adbd f8be 8bbd 8387 13be
000000f0: f39b 62bd cbac 05be cbdf bb3b ed68 2b3e
00000100: 8a43 37be a659 d83d 88e4 23be 5b07 bbbd
00000110: 40dd 273d 30ab 123d 4265 353e 7c5c 053a
00000120: 62a6 abbd 7339 b4bd 4b29 ee3b b425 25be
00000130: a73d 2fbe 6b48 bfbd e48b ea3b ad2f 17be
00000140: 851f ffbd 1cab 1c3e ec4c 4b3e 5559 8dbd
00000150: 4ca6 3ebe aba9 a7bd d00b b13d fd7d 8f3d
00000160: e2e4 87bd 332c 44be bb99 87bd bf47 4abd
00000170: aaa0 ff3d 7ac8 dbbd 75ca 063e 6bda f43c
00000180: 24d4 12bd 3c27 47be a459 593e 7a62 24bd
00000190: 0ce3 0b3e d262 e8bd fe7b 57be 6ac9 30be
000001a0: 017c e1bd 4506 8bbd 8889 eebc a94c 373e
000001b0: 26e7 4dbe 89f6 d93d ce95 393e 344b 343b
000001c0: 8ead 08be 923e 043c 5224 583d f42c c13d
000001d0: 665c 83bd c3d0 94bd 55d2 cebd a8fa 54be
000001e0: e4cd 983d 3523 29be 27ef d7bd 6801 45bb
000001f0: 7873 293e 95df 463e 6641 21be c3d9 3e3e
00000200: ab0b 473e a6d3 323e eafb 9b3c 3d9e 323e
00000210: 7cc8 d73d e17c 1ebe 088d e8bd c0ca 723b
00000220: be9a 1cbe 3c6d 92bd 6431 323e f1d0 ce3d
00000230: 6444 413e 5ca9 b83a b20a e3bd 2320 133e
00000240: 4fe2 893c e58f 173d d55c bbbd 9a88 b73d
00000250: 9365 23be c7d0 303e 06d6 413e 4c65 a13d
00000260: 98c6 2c3e c028 073e 1870 a8bd 556d 40be
00000270: d04a e83c d7bd 0b3e 027e b7bc 0fea 993c
00000280: e5a5 243e 0fed b73d a9d2 253e c75b 033d
00000290: 27ab c23c 8b02 53bd f92c 15bd 61d4 eabd
000002a0: bd76 143e 2f87 493e c5f4 a33d aed1 d83b
000002b0: de78 91bd c38a 5abe 98f5 24bd aa85 1dbe
000002c0: 8e3b 24be 6776 2fbd 491f 2fbd dd0f 353d
000002d0: b626 21be 3cce 1e3e aef0 49be b634 d2bd
000002e0: c1b2 a7bd 8298 5d3c 1d93 b83d b216 67bd
000002f0: 49df 0c3d 9ee0 52bd de89 adbd 36e2 f6bc
00000300: dde4 373d 70c9 58be bed9 18be c3d2 2d3e
00000310: 4b6f c53d 2328 a8bb 8914 043c 01b2 eb3c
00000320: b799 513d bbad 15be 600d 76bd c5fd 49be
00000330: 12de 2fbe 7387 2cbd 183d eabc 0a73 2d3e
00000340: 8206 133d 1a88 17bd 1ae0 f8bb 98c0 f93d
00000350: f20f 84bd abf0 1fbd c7a4 37bd 63cf 33be
00000360: a3a0 ecbc ddcf 4bbe ec3e f1bd 8c92 0ebe
00000370: bc68 243e cbe6 4abe d257 573e 8de5 a83d
00000380: a86c 14be ce3f 363e 14d4 49bd fa84 3dbe
00000390: 9f31 00bd 9def d73d 5a31 56be a4ac 78bc
000003a0: ee4c b73d 8efc aebd 717b ae3c dda7 b1bd
000003b0: 0ceb 15be 64d7 2b3e ffdc 1ebe 2758 84ba
000003c0: 7b0b 973d 62cb f4bd a742 d93d d3bf 38be
000003d0: e843 553e af55 c53d d618 efbc 99d5 36be
000003e0: 5a28 a63b e70b 9a3d f32d f4bd fe38 d6bc
000003f0: 4ba4 5ebe 2ad3 5bbe 3c0f c8bc 73ed 373e
0.006574228 -0.17702028 -0.12357576 -0.085807815 0.020380473 0.08320527 -0.03785773 -0.0876379
0.097243875 -0.20782869 0.14876355 -0.022443151 0.14794344 0.16089019 0.02473058 0.06643161
-0.1246504 0.15296954 0.12402352 -0.03172004 0.08652737 -0.009409984 0.16647385 0.08816833
0.16049999 -0.19430773 0.20842734 0.07797616 0.10278442 0.05092167 0.14489505 0.20649123
-0.015728517 -0.17928322 0.19605681 -0.04827137 -0.107007205 0.13067982 0.12340569 0.0316867
-0.010883754 -0.043639265 0.20118791 0.1297009 0.12654461 0.13546602 -0.11602535 0.04792785
-0.18530233 0.12852304 -0.21189716 -0.21526517 -0.21236199 0.13426514 0.0252517 0.0032225852
0.031817064 -0.08465637 -0.06823534 -0.14407162 -0.055324506 -0.13054197 0.0057334653 0.16739245
-0.17896858 0.10563974 -0.16005147 -0.09132262 0.040982485 0.03580779 0.17714408 0.00050873286
-0.083813444 -0.0880002 0.007268106 -0.16127664 -0.17113362 -0.093399845 0.0071577895 -0.1476428
-0.12457184 0.15299648 0.19853562 -0.06901804 -0.18618125 -0.081866585 0.08644831 0.07006452
-0.06635453 -0.19157486 -0.06621119 -0.04938483 0.12481816 -0.10731597 0.13163169 0.029889306
-0.035846844 -0.1944856 0.21225601 -0.040132977 0.1366083 -0.113469735 -0.21043393 -0.17264333
-0.1100998 -0.06788305 -0.029118314 0.17900337 -0.20107707 0.10642726 0.18123552 0.0027510645
-0.13347456 0.008071559 0.052769013 0.09432402 -0.06414108 -0.07266381 -0.100987114 -0.20798743
0.074611455 -0.16517337 -0.105436616 -0.0030060653 0.16547954 0.19421227 -0.15747604 0.18637757
0.19438045 0.1746355 0.01904102 0.17443176 0.10536286 -0.15477325 -0.113550246 0.0037047118
-0.15293404 -0.07149741 0.17401654 0.10098446 0.18873745 0.0014088559 -0.11086024 0.14367728
0.016831545 0.037002463 -0.09148566 0.089616016 -0.15956716 0.17267142 0.189293 0.07880649
0.16872633 0.13199139 -0.08224505 -0.18791707 0.028355986 0.13646637 -0.022398952 0.018788366
0.16078909 0.08980762 0.16193642 0.032069948 0.023763252 -0.051516097 -0.036419842 -0.11466289
0.1449842 0.19680475 0.080056705 0.0066167926 -0.07103132 -0.21341996 -0.04027328 -0.1538302
-0.16038343 -0.042837527 -0.042754445 0.04420458 -0.15737423 0.1550836 -0.19720718 -0.1026396
-0.081883915 0.01352513 0.09012435 -0.05641813 0.03439263 -0.051483743 -0.08473562 -0.030137163
0.044895995 -0.21170592 -0.14926812 0.1697493 0.09640368 -0.005131738 0.008061537 0.028771402
0.051171985 -0.14617054 -0.06007135 -0.19725712 -0.17174557 -0.042121362 -0.028593585 0.16938415
0.03589488 -0.03699503 -0.0075950744 0.121949375 -0.06448354 -0.03904788 -0.04483488 -0.1755958
-0.028885191 -0.19903512 -0.117795795 -0.1392309 0.16055578 -0.19814603 0.21029595 0.08246908
-0.14494574 0.17797777 -0.04927452 -0.18507758 -0.031297322 0.105437495 -0.20917264 -0.0151778795
0.0895022 -0.08544265 0.021299096 -0.086745955 -0.14640445 0.16781384 -0.15513991 -0.0010097072
0.073752366 -0.11952855 0.10608416 -0.18041925 0.20826685 0.096354835 -0.029186647 -0.17854919
0.0050707282 0.075218014 -0.119228266 -0.026150223 -0.2174236 -0.21467271 -0.024421327 0.17961673

encoder.convs.1.bias f4 [64]
00000000: d687 07bb 189e 0aba c88a 033b ac88 36bb
00000010: 8adf b7b9 d191 873a bfb5 3e3a c933 8bba
00000020: f063 163b 380f 363b d547 933a 0c3a 95ba
00000030: 13b4 163b f733 1e3b cc84 343a 2058 12bb
00000040: c68d 4eba e2ee 083b 3b1e 013b 90e1 cb3a
00000050: c85b a3ba 124d bb3a d906 913a 6ce2 b4ba
00000060: 57eb b0ba 83c5 b738 e970 0a3b 69f9 8e3a
00000070: fa57 daba 153e f9ba 00c5 083b 8fd6 9eba
00000080: c289 8a3a 56b2 2bbb 0de3 bb39 5a7f f938
00000090: 4d07 5cba c45a 26ba fa3f 4fb9 9692 d63a
000000a0: 02d3 04ba 7960 d03a 845e 20bb 02c0 57ba
000000b0: 8ef2 8bb9 b62e aaba f972 143a b5fe 02ba
000000c0: 2be2 243b 63fb 48b9 85aa 29bb 6881 4d3a
000000d0: 9124 473a 0e63 7738 4fd6 08bb 5fdb c9ba
000000e0: 157f 57ba 8ed4 b7ba 00d0 433a e1af bdba
000000f0: 1ac6 61ba 70b9 00bb 9016 f13a fca6 af3a
-0.002068033 -0.000528784 0.0020071734 -0.002785246 -0.0003507103 0.0010343139 0.0007275007 -0.0010620292
0.002294775 0.0027780067 0.0011236618 -0.0011385097 0.0022995516 0.002413986 0.00068862434 -0.0022330359
-0.0007879402 0.0020894338 0.0019701857 0.0015554894 -0.0012463266 0.0014289937 0.0011064663 -0.0013800389
-0.0013497871 8.7629094e-05 0.0021124429 0.001090807 -0.0016658299 -0.0019015694 0.0020869374 -0.0012118387
0.001056962 -0.0026198826 0.00035836585 0.00011896966 -0.0008393422 -0.00063459226 -0.00019764891 0.001637059
-0.0005066843 0.0015897892 -0.0024470398 -0.00082302105 -0.00026692863 -0.0012983892 0.0005662884 -0.0004997061
0.002515922 -0.00019167135 -0.002588899 0.00078394124 0.00075966964 5.898164e-05 -0.002087969 -0.0015400461
-0.0008220536 -0.0014025138 0.0007469654 -0.0014471972 -0.0008612588 -0.001964178 0.0018393565 0.0013401206

encoder.convs.1.lin.weight f4 [64, 128]
00000000: 4605 cebc 261e c9bd 6c49 89bd 8dff a6bd
00000010: a865 223e 415d 50bc a0cb 0f3e a68c fabd
00000020: acd6 ac3d 6982 21be 9212 6cbd 51c7 8fbd
00000030: 91c5 2abe 019f 08be e36b efbd 94e3 05bd
00000040: 6dba 77bd 3f10 29be 8ceb d93c 8088 993d
00000050: 8b7b eb3c ed85 0b3e fa75 8ebc 6fad 0f3e
00000060: 18e9 1fbc a3e4 67bc 27be 4abc aa9d 95bd
00000070: 409f 8dbd f3d9 2b3d 7ef4 c1bd 234f 763d
00000080: 585e 0fbe c7cf bbbc 9487 e1bc 6d22 a6bd
00000090: 474a 023e 64b3 14be b703 af3d 38f4 20be
000000a0: a531 da3d 76be 2c3e 8ec0 20bd 0fd1 74bc
000000b0: 79f3 ebbb 64f2 cb3d 45c7 0e3c bc48 29bd
000000c0: f2e8 213e b9f3 0c3e 95fe 1dbc c847 bbbd
000000d0: 367b d33d d8d2 9cbd 71fd c8bd 1caa dcbd
000000e0: da2b 1b3c 8068 9ebd 49a3 ee3d cafd f83d
000000f0: f7c8 9ebd 625f 8bbd 7fa0 043e 091d bebd
00000100: 7735 e13d 2268 51bc 6982 003e 0fc5 b33d
00000110: 5169 02be 20a3 03be e551 9b3d ca5e b3bd
00000120: 5de2 5a3c 81b3 043d 37f9 12be 8a88 3ebc
00000130: 5e61 f53d 8a54 c33b f977 e6bd d0b5 1c3e
00000140: 826d 183e 0c81 253d 715b dbbd 51d3 983d
00000150: a73e 463d 17bc dabd 672f 05be 1a53 98bd
00000160: 13ea 2a3e 90a4 8b3c ef21 8fbb 9dcc a23d
00000170: 3a68 cbbd 7d63 6cbd 769b e93c c02c 1c3e
00000180: 3418 59bc 5497 1a3d e79c 16be e4a6 29be
00000190: a793 103d 9840 6dbb fc2b 0c3e 8eb7 1d3d
000001a0: 1edc 203e 2ba9 11bd 47ff 4dbd 2be8 8bbc
000001b0: 3d34 aabd c5ba 1d3c 3776 17be 681f a43c
000001c0: f198 56bc bfa6 583d a461 2d3e fac8 7a3d
000001d0: b701 e23c 9670 f0bd 7df7 80bd ee75 91bd
000001e0: c367 1abe 12fd bd3d 5f93 2a3e 1a70 f03d
000001f0: 2e1e 0f3e 8258 c8bd 2e93 98bd 5b17 6bbd
00000200: c93e a4bd f62a 0ebe 0b8a 15be 6483 0fbc
00000210: 20e2 d4bd 37c8 08be 9116 303e a021 29be
00000220: 0295 65bd 22b9 ea3d 8d18 b8bd 28c5 a63d
00000230: 7ea0 01be 8678 95ba ce1f 853d 0991 62bd
00000240: 1b9d 01be 45dc 0b3d 721c e7bc 4b71 1d3e
00000250: 5c5c d7bc ff2a 0b3e a812 98bd 2677 8ebd
00000260: 28ef d53a 7ade c93d 9f5f 263e ef93 a93d
00000270: 0567 a1bd 3b00 3e3c c91b ed3d 79d4 0f3e
00000280: 2957 013e 95c1 713d 9130 acbc d509 f83d
00000290: 00ec 743d a216 1dbe d735 323e 5608 5fbc
000002a0: 48a6 2c3e 1eba d73d 67ed 2fbc de29 1bbe
000002b0: 54d4 2bbe 7fbb aebd fb23 983d e893 4f3c
000002c0: 76b1 923c eb2c 14be 0a3f c83d 5dca 35bd
000002d0: fd21 bf3d d4da 12be 2e7d 1c3b 76e7 b43d
000002e0: 7270 543d bf66 34be cec6 173e d63c 07be
000002f0: 1c5d 27be 1307 fabd e842 2cbe 6eca 833d
00000300: 807f 083e f78f 113e 407b 7e3d a045 42bd
00000310: 5f50 133d 125a 5d3d f4cb 33be 4511 04bb
00000320: ff97 303d e588 123e fae9 d93d a6c1 4ebd
00000330: 213b 0dbc 5e9b e63d 2766 243e 5270 b9bd
00000340: 8875 323e 69aa fcbc d817 a2bd 8096 81ba
00000350: 1fb7 0c3e 2ec0 cfbd 571e b83b 1d65 d1bd
00000360: c004 91bb 0829 fc3d 7e32 b3bd 46b1 a2bd
00000370: 74e9 433d 4c98 a93d f10d 6fbc 3cbb 26bd
00000380: b064 37bc ca11 5b3d d928 213e 4913 a13d
00000390: 88fe ea3c 2213 6f3d 10f7 583d e934 0dbc
000003a0: 2b57 f3bd bfd5 abbd c34a 7b3d 335a 7c3d
000003b0: 9f28 b8bd 870c c8bd 2e0a cc3d 00f1 02bd
000003c0: e281 dc3d f4bb 3b3d 23a6 093d b37b aebc
000003d0: 78ef 9ebd 82eb 323d 77f8 e2bd c164 a0bd
000003e0: 5872 02be 411a 07ba 0a2d c6bd c387 85bd
000003f0: 6094 6cbd c674 9f3d 8296 c83d f730 f53d
-0.025148999 -0.098202035 -0.06703457 -0.08154211 0.15859091 -0.012717546 0.1404252 -0.12233858
0.08439383 -0.15772404 -0.057634898 -0.070204385 -0.16676928 -0.13341905 -0.116905 -0.03268774
-0.060480524 -0.16510104 0.026601575 0.074967384 0.028745433 0.13625307 -0.01739024 0.14031003
-0.009760164 -0.014153632 -0.012374437 -0.07305463 -0.0691514 0.0419559 -0.09470461 0.060134064
-0.14000833 -0.022926224 -0.027530469 -0.08112035 0.12723647 -0.14521557 0.085456304 -0.15718162
0.10654 0.1686953 -0.039246134 -0.014942422 -0.007200655 0.09958342 0.008714502 -0.04132913
0.15811518 0.13764848 -0.009643217 -0.091445506 0.10326235 -0.07657403 -0.09813965 -0.10774633
0.009470904 -0.077347755 0.11652238 0.121577814 -0.07753175 -0.06805302 0.1295185 -0.09282882
0.10996526 -0.012781175 0.12549748 0.0877782 -0.12735488 -0.12855196 0.075839795 -0.08758314
0.013359633 0.03239775 -0.1435288 -0.011629233 0.11981462 0.0059610056 -0.11253352 0.15303731
0.14885524 0.04040627 -0.107108004 0.074621804 0.048399594 -0.106804065 -0.13006364 -0.07437725
0.16690855 0.017046243 -0.004368059 0.07949183 -0.09931989 -0.057712067 0.028516512 0.15251446
-0.013250399 0.037741974 -0.14708291 -0.1656757 0.035297062 -0.003620183 0.13688654 0.03850513
0.15708968 -0.03556172 -0.05029228 -0.01707848 -0.08310745 0.009627049 -0.14791189 0.020034507
-0.0130979875 0.052893396 0.16931778 0.061226822 0.027588708 -0.11740224 -0.06297205 -0.071025714
-0.15078644 0.09276785 0.1665778 0.11740132 0.13976356 -0.097825065 -0.07449947 -0.05739532
-0.08019788 -0.13883576 -0.1460344 -0.008759353 -0.103946924 -0.13357626 0.17196108 -0.16516733
-0.056050308 0.114610925 -0.08989058 0.08143073 -0.12658879 -0.0011403717 0.06500207 -0.055314098
-0.12657587 0.034145612 -0.028211806 0.15375249 -0.026289158 0.1359062 -0.074254334 -0.069563195
0.0016321884 0.09856887 0.16247414 0.08280169 -0.078809775 0.011596735 0.11577565 0.14045896
0.12630905 0.059022505 -0.021019252 0.1211125 0.05979538 -0.15340665 0.17403351 -0.013612827
0.16860306 0.10533546 -0.0107377535 -0.1515269 -0.16780216 -0.08531856 0.07428738 0.012669541
0.017906886 -0.1447026 0.09777649 -0.04438244 0.093326546 -0.14341289 0.0023878324 0.0883321
0.05186505 -0.1761732 0.14821932 -0.13206801 -0.16344112 -0.122083806 -0.16822398 0.06435095
0.13329887 0.14215074 0.06212926 -0.04742968 0.03596532 0.054040976 -0.1755827 -0.0020151895
0.043113705 0.14310034 0.106403306 -0.050477646 -0.008620054 0.11260103 0.16054593 -0.090546265
0.17427647 -0.030842977 -0.07914704 -0.0009886771 0.1374173 -0.10144077 0.005618851 -0.10224364
-0.004425615 0.123125136 -0.08749865 -0.079439685 0.04783006 0.082810014 -0.014590726 -0.040705904
-0.011193439 0.05348376 0.15738238 0.078650065 0.028685823 0.058367856 0.052969992 -0.008618572
-0.1188186 -0.08390378 0.061350595 0.06160946 -0.08992123 -0.097680144 0.09962879 -0.031968117
0.10766961 0.045833543 0.033605706 -0.021299219 -0.07760519 0.04368163 -0.11082547 -0.07831717
-0.12738931 -0.00051537534 -0.09676559 -0.06520035 -0.05775869 0.07785945 0.09794332 0.1197223

encoder.post_mp.0.weight f4 [64, 192]
00000000: ec17 3d3c 1e53 96bc 6a6b 263d d928 baba
00000010: 348a 0d3d cac6 b9bc 8798 e2bc d8b0 773c
00000020: aab0 c63a 746c 7bbd 4cbd 413d 94c9 83bd
00000030: 9759 5f3d ce88 78bd ae57 80bd 1fa7 373d
00000040: 8c9f 0e3d a669 393d c4d1 0cbd f73a 09bc
00000050: 7f86 df3b 3ebe f53c a2de a0bb 6f23 8ebd
00000060: 97b6 87bc 5169 543d 5616 7fbb 1882 c9ba
00000070: aeab e13c f414 f6bb c56a 473d 697e e2bc
00000080: 1544 3e3c 4089 5d3c 5ba2 6e3d d69d 8dbb
00000090: 86cc 37bd c8b8 61bc e5bd 41bb 863f 3cbc
000000a0: ce5b d7bb edce b8bc a201 0d3d 1691 8bbd
000000b0: 4525 cf3c 7573 3ebd ee00 863d 3163 263b
000000c0: 1f58 b63b a4e1 48bd 7bbe 75bc f107 4a3d
000000d0: d5c8 093d 16cf 4cbd 52be 773d 5c0d a6bb
000000e0: 4dc0 6f3d cfde 4c3b 9920 e9bc 5491 483c
000000f0: a907 293d 6c06 8dbd f042 0abd 0b44 473d
00000100: 1455 a13b 533d 20bd 5061 01bc f737 143d
00000110: b207 5e3a 6964 6cbd 6cfd 8bbd 87dd 7c3d
00000120: a395 98bc 723d 5dbd 626f 44bc f06c ee3c
00000130: 7249 683d 0cfc 39bd f7e7 1b3d 2127 f3bc
00000140: 565f 4f3c 7012 a4bb 6a53 4dbd dbdf 74bc
00000150: 9c3d 89bd 0f71 7fbd 1628 e2bc fec9 c2bc
00000160: 0c03 2ebd e5d3 db3c 9e38 74bc 440f 683d
00000170: 0a75 693d 2991 aabb 62e2 3abc 248a 23bb
00000180: 4220 60bb dddc aa3c c0f5 d3bb 8486 843d
00000190: a2b5 313c 5d73 933c 32bc 75bd 9631 86bd
000001a0: f90a 003b dc7c 433d 9d6d a3bc 0032 b93c
000001b0: 829b 8cbd 555a 713c 902e 91bc 8e37 f1bc
000001c0: 47c5 11bd d132 efbb 3675 193d 22b7 7d3d
000001d0: 78a3 59bd c024 823c 3374 8ebd a7c3 bf3c
000001e0: d20a 3f3d 471b 463c 077f 2f3d 4a26 74bd
000001f0: af0f ba3c 4b61 1bbd 9626 313c e32c ec3a
00000200: 659d 373d 4c4c 1b3b 3451 fc3c d3cb 2d3d
00000210: b0d9 85bc b7a6 59bd fe82 89ba 3e4e e33c
00000220: 2da6 8abd 9715 2cbd b72e 193d 4c67 50bd
00000230: 16a3 893d e44b 47bd b597 723d ad18 66bd
00000240: b24d c33b d832 0abb f30a ed3c 5e8e 163c
00000250: 9b32 853d f64f 75bc 56e6 813d 778d 89bc
00000260: 949b 79bd 5a99 623d 098d 863c d692 823c
00000270: c6a1 c53c 30d2 313d d141 0e3d 4a4f d53c
00000280: 0123 1a3c d1e9 413b 3073 253d 0b8d 873d
00000290: e50c 98bc ced0 82bd 593e 743c a1b0 183d
000002a0: acee 4ebd 7930 3cbd b4e6 72bd d1b0 a6ba
000002b0: 86c4 32bd 04ce b73c b6b2 0b3d 19c7 0fbd
000002c0: a01e 3ebd af7a 8ebd 2d81 4abd 106a 473c
000002d0: e5a2 4fba 7069 e0bc 689c 31bb 44f4 d6bc
000002e0: e8b9 95bd a8fb 6bbd 456c 99bc 0b8d 7ebd
000002f0: 9846 2c3d 5bd3 06bd b56a 3abd 2865 b1bb
00000300: 27ef 75bd 82e8 513d 6c1f 3a3d 4119 723c
00000310: 8b12 62bd 3e16 203d ec7d 69bd eb83 693d
00000320: 7b0f 7dbc f0f7 8dbb 0394 84bd e6a5 c73c
00000330: a7b7 99bc 8f76 5ebc 8fa8 c0bc 8a7d d6bc
00000340: 51eb 033c 6257 933c 690e 4e3d e5e2 34bc
00000350: e6a9 303d 2855 8dbd 1109 813c 4cb4 0f3b
00000360: df53 95bc 7462 dd3c a3c6 30bb 317c 04bc
00000370: c949 8a3d 57a0 82bd 2729 36bd 5fe8 e1bc
00000380: 80d1 823d 2b99 bdbc 5ee8 263c 1df6 66bc
00000390: 6b43 3f3d 8c6c 3c3d 5ae4 46bd 9573 d93b
000003a0: 9d65 8cbd 90c8 00bd bffb 58bd 4ec4 aebc
000003b0: b70c fab9 4202 cebc 52ec edbc cc0b b8bc
000003c0: 06ac 313c ef29 70bd 48f6 703d b251 07bd
000003d0: d89e 03bb 5c15 60bd 4a35 81bd ad30 36bd
000003e0: 633c 77bd 7161 92bd c8d9 443d 3cc5 8e3d
000003f0: 0814 34bd 84e9 813d c293 013c 63dd 8a3d
0.011541348 -0.01835018 0.04062978 -0.0014202847 0.03455563 -0.022677798 -0.027660621 0.015117846
0.0015158851 -0.061382726 0.04729967 -0.06434932 0.0545288 -0.060677342 -0.062667236 0.044837113
0.034820125 0.04526677 -0.034379736 -0.008375875 0.006821453 0.029997941 -0.0049093524 -0.06940352
-0.016566558 0.05185825 -0.0038923225 -0.0015373854 0.027547684 -0.007509822 0.048685808 -0.027648168
0.011612912 0.0135214925 0.058260303 -0.004321794 -0.044872783 -0.013776965 -0.002956265 -0.011489755
-0.0065722233 -0.022559607 0.034425385 -0.06814782 0.025286326 -0.046496827 0.06543146 0.0025388713
0.005564704 -0.049043313 -0.014999027 0.04932398 0.033638794 -0.05000218 0.060484238 -0.0050675105
0.058533 0.0031260734 -0.028457927 0.01224168 0.04126707 -0.068859905 -0.033755243 0.048648875
0.004923472 -0.039120983 -0.007896736 0.036186185 0.00084697746 -0.057712946 -0.06835446 0.061734702
-0.01862604 -0.054013677 -0.011989446 0.02910468 0.056710668 -0.045406386 0.038063016 -0.029681744
0.012657007 -0.0050070807 -0.050128378 -0.014945949 -0.06701204 -0.06236368 -0.027607005 -0.023777958
-0.042483374 0.026834438 -0.014906077 0.056655183 0.056996383 -0.0052052927 -0.011406513 -0.0024954164
-0.0034198915 0.020857269 -0.0064685047 0.06470969 0.010846527 0.017999345 -0.05999393 -0.065524265
0.001953779 0.047726497 -0.019949729 0.02260685 -0.06865598 0.0147310095 -0.017722398 -0.029445436
-0.03558853 -0.007299759 0.037465297 0.061942227 -0.05313441 0.015886664 -0.06955757 0.023408724
0.04664118 0.012091464 0.042845752 -0.059606828 0.022712557 -0.037934583 0.010812422 0.0018018748
0.044827837 0.00236966 0.03080044 0.04243071 -0.016339153 -0.053137507 -0.0010491309 0.02774727
-0.06769977 -0.042012777 0.037398066 -0.05087976 0.06720559 -0.04865636 0.05922671 -0.056175876
0.0059601897 -0.0021087434 0.028935885 0.009189216 0.06503793 -0.014972677 0.06342761 -0.016791089
-0.060939386 0.05532203 0.016424673 0.015939157 0.024124991 0.04341334 0.034730736 0.026038785
0.00940776 0.0029588828 0.040393054 0.06618699 -0.018560836 -0.063874826 0.014907443 0.03727782
-0.050520584 -0.045944665 -0.059302047 -0.001271749 -0.04364445 0.022437103 0.03410598 -0.035101984
-0.046415925 -0.06956994 -0.049439598 0.012171283 -0.00079206965 -0.027394027 -0.0027101282 -0.026239522
-0.073108494 -0.057613045 -0.018728385 -0.062146228 0.04205951 -0.032916408 -0.04551192 -0.00541367
-0.060042527 0.051247127 0.045440122 0.014776529 -0.055193465 0.03908371 -0.057004854 0.057010572
-0.015445585 -0.004332535 -0.064735435 0.024371099 -0.01876433 -0.013578071 -0.023517875 -0.026182909
0.008051709 0.017986003 0.05030671 -0.011040424 0.043130778 -0.06901008 0.015751394 0.0021927534
-0.01822847 0.027024485 -0.0026973865 -0.00808625 0.06752355 -0.06378239 -0.04447284 -0.027576623
0.06387615 -0.023144325 0.010187237 -0.014096764 0.046695154 0.046001956 -0.048557617 0.006636093
-0.06855319 -0.03144127 -0.05297446 -0.02133384 -0.0004769319 -0.025147561 -0.02904335 -0.022466563
0.010844236 -0.05863374 0.058828622 -0.033036895 -0.0020083692 -0.05470787 -0.06308992 -0.044480015
-0.060360324 -0.07147492 0.048059255 0.06971213 -0.043964416 0.06343368 0.007908763 0.067805074

encoder.post_mp.0.bias f4 [64]
00000000: 4faf 803d f4d1 efbc 1ca7 48bd 2feb 8a3d
00000010: f6ae 72bd 35d9 61bd 3fc6 1b3d 2eae 363d
00000020: 9fb3 123d 66b5 2dbc 9356 d6bb 310c 55bd
00000030: fe2a bebc ca38 73bd cbcc 8b3d bcd1 403a
00000040: 9f16 1bbb 6f1f 9b3c 2783 473c b037 d3bc
00000050: 6b9d e1bc df15 8ebd 4177 d8bc 25c6 6cbc
00000060: b4e9 26bb e7ea 6dbb ef63 af3c 33d7 91bd
00000070: 9827 8dbd 89aa 2ebd 0c8c b83c e7ec 3f3d
00000080: 5d3f 7bbd 928a 0dbd 8a9d 45bc 23c2 dbbc
00000090: 4070 9c3a 9b8e c0bc 9982 1fbd 1823 2b3c
000000a0: a7cf 8bbc 90b4 6b3d d0ad 3d3d 9c98 9abc
000000b0: 01fa 3bbd 5816 813d 0012 233c a417 f4bc
000000c0: 3454 e43c 0efc f839 ae73 203d ac3a 403c
000000d0: d465 8b3d bc41 f13c ad37 ecbc 0d3b 63bc
000000e0: 7b4d 2d3d 8c75 37bd b9ff 21bd 645d d3bc
000000f0: 4300 753d e329 8c3c b0d0 9f3c 7355 52bd
0.062834375 -0.029274918 -0.048987493 0.06783139 -0.059248887 -0.055138785 0.03803086 0.044599704
0.03581583 -0.010602331 -0.006541082 -0.05201358 -0.02321386 -0.05938033 0.068261705 0.00073554716
-0.0023664606 0.018935887 0.012177265 -0.02578339 -0.027540883 -0.06937765 -0.026424052 -0.014451538
-0.0025468888 -0.0036303343 0.021409957 -0.07121124 -0.068923175 -0.042643104 0.022527717 0.046856787
-0.061339725 -0.03455598 -0.012061486 -0.02682597 0.0011935309 -0.0235055 -0.038942907 0.010445379
-0.01706679 0.057545245 0.04630834 -0.018871598 -0.04589272 0.0630309 0.009953022 -0.029796429
0.027872182 0.00047490041 0.03917282 0.011732738 0.068065315 0.02945029 -0.028835142 -0.013869059
0.04231022 -0.044789836 -0.039550517 -0.025801368 0.059814703 0.017109817 0.01950869 -0.051351022

encoder.post_mp.3.weight f4 [64, 64]
00000000: d2f4 eabd ed7d 89bd ee44 7ebd f4c6 b83d
00000010: e137 bf3c cdb3 d33d 17aa 97bd 0472 79bc
00000020: 8780 89bd b74a 5c3d e9ac 98bd 431d 3c3d
00000030: 2c45 1e3d e288 e1bd 744c cbbc 3f3c eb3c
00000040: b043 fa3d a55b f4bd 665d a8bd d3bb eb3d
00000050: d26e d6bd ae39 f5bc 843c b03d 2783 8f3d
00000060: b2c7 a23c 4b58 323d 8221 33bd 84a3 9bbd
00000070: 81f8 48ba 86ed f4bd e759 b53d fd85 4e3d
00000080: 3b7d de3d f7d1 46bd d358 80bd ff1c 893c
00000090: 1318 dabd dff1 b33d 0204 8d3c 486c 593d
000000a0: 0f85 a5bd d563 923d 16a0 d7bd 1202 d1bd
000000b0: 0384 aabd 6c95 2e3d d4db 0dbd ed84 803d
000000c0: 234a 643c d2a7 acbc 427d 0d3d ffa5 5ebd
000000d0: d053 cbbc 6a1c c23d db91 ec3d 1edb 533d
000000e0: bfcf 60bc 4c89 a9bd 5816 c5bb 1668 f7bd
000000f0: 9aea c63d 5290 b0bc 2433 ce3c cc99 02bd
00000100: b8a8 083d e44f 983d 4d67 11bd 776c b53d
00000110: 0a4d d3bd 61a7 7d3d 9f8f a83d 19a6 813d
00000120: 7986 a73d cbc1 dabd 39ab f4bc 7ed7 943d
00000130: 3647 873d ed49 f9bd f57c 25bd 9dec ce3a
00000140: 45b7 b6b9 e535 03bd 34cb d8bd d24d 163d
00000150: 3814 e93d 265a a53c 710f 893d e669 b9bd
00000160: ce25 01be 2faf abbd 76df febb c870 e3bd
00000170: 0c3b ef3d 87da 7b3c d89f 363d 3e70 8cbc
00000180: 7f6d f93d 4291 83bd 82f5 69bd 2ca6 513d
00000190: 3412 f43b ed71 45bd e190 f7bd 6e3d 9c3d
000001a0: 9f57 67bd c68d c03d 52ff e8bd f22a 573d
000001b0: 49b7 e93d 808e e63d 66ef d9bd fa66 a4bd
000001c0: 8642 b43d 6a08 93bc a518 b63b 0ba7 9eb9
000001d0: beb9 37bd b861 1c3d bbc2 17bd 814f 9c3d
000001e0: 3e2d d5bd be23 ca3d 40cb d2bb 76b3 01bd
000001f0: 23b6 eb3d ea53 563d 3e62 983d 81ff cd3d
00000200: 5d97 9d3d 38b7 3c3d 63e5 c0bc e9fd f4bb
00000210: 8cc5 37bd 5809 afbc 37a8 af3d b97c 00be
00000220: bc12 c0bd 1399 b4bc d362 963d 2223 663d
00000230: adb8 ba3c 051c d5b9 4904 dabd ea3a 3ebd
00000240: c92d d13d 0789 0c3d 5803 afbc 8a76 163c
00000250: 61e6 da3d 0d27 c3bc b83c a5bc 5da7 973d
00000260: 94b3 e2bd 302b 1f3d 1e12 943d 9c7d b33d
00000270: d9aa 4dbd 8139 e4bd 050a e73d 9e7a f73d
00000280: c81f d7bd f7fb f53d 4a4c a0bd fe9b 943d
00000290: a0a1 66bb 920b f1bc 0754 a53d e50c 16bc
000002a0: d579 acbd 555d c9bd b63e 983d a632 e83c
000002b0: f366 8ebd 1804 813d c22a c1bd 965a f23d
000002c0: f187 e03c ee5e b53d 31a7 38bd 977a be3d
000002d0: 6d1a 633d 5353 c13d 0ef0 9ebd e52b ecbd
000002e0: ba0c 703d de0b a13c 252f 67bc a3a8 4ebd
000002f0: 31b3 813d 9d55 fc3c dc99 6d3d 673a 003b
00000300: 87f0 793d 87a5 b93d 1a8a ecbd 5331 a9ba
00000310: 0d9a d7bd 0bb6 ac3d 63f5 f0bc c053 003d
00000320: 69d3 883d 7bec 89bd bbdf a43d 563a 88bd
00000330: 6a5a e53d 9574 2fbd 6d87 8abc 23b3 d63d
00000340: 4ff8 66bd c147 25bd c2a9 763d ac5a 80bd
00000350: 7ecb c13d 4b7c 463d db0f c83c 8ac7 8b3c
00000360: 9e16 ccbd 63e5 b2bc b0dd 043d e0cd 4bbd
00000370: a3f4 57bd 6f4d 0dbc b4bf b8bd 1463 573d
00000380: 4987 d2bd 08fc abbd 1422 763c 77f3 6fbc
00000390: d939 a2bd 1290 4f3d d497 dabd 2854 a83d
000003a0: 1503 e13d b9de c13d d2cc d13d c0d3 86bc
000003b0: ffc5 5c3d e9ca e3bd ac1f 863d 64c2 abbd
000003c0: 0282 88bd dd68 d6bd 5562 033b eab4 df3d
000003d0: cbf8 0dbc b74f b93c 7313 9cbc b30d a83c
000003e0: 7826 f43d f596 853a fea9 2a3d 388c 8c3c
000003f0: ded9 19bd 6da2 a4bd 1223 293c a68e 533c
-0.11472477 -0.067134716 -0.062077455 0.09022322 0.023342075 0.10337029 -0.07405489 -0.015224937
-0.06713968 0.05378219 -0.07454855 0.045926344 0.038640186 -0.110124364 -0.02481673 0.028715251
0.122199416 -0.11931542 -0.08220939 0.11510434 -0.10470356 -0.02993473 0.086052924 0.07007437
0.019870613 0.043541234 -0.043733127 -0.075995475 -0.00076664245 -0.119593665 0.08855038 0.05042075
0.108637296 -0.04854008 -0.06266942 0.01673746 -0.10649123 0.087863676 0.017213825 0.05308178
-0.080820195 0.07147948 -0.10528581 -0.10205473 -0.083259605 0.04262297 -0.034633473 0.062753536
0.013933691 -0.021076117 0.034543283 -0.054357525 -0.024820238 0.09478076 0.11551257 0.05172264
-0.0137214055 -0.082781404 -0.0060146265 -0.120804 0.097127154 -0.021553192 0.02517087 -0.031884953
0.033364028 0.07437113 -0.035498906 0.08858579 -0.103174284 0.061927203 0.082305185 0.06330509
0.081799455 -0.10681494 -0.029866802 0.072676644 0.06605379 -0.12172303 -0.04040237 0.0015787069
-0.00034850292 -0.03203382 -0.10585633 0.03669531 0.113808095 0.020184588 0.06692398 -0.09053402
-0.12612078 -0.08383023 -0.0077781035 -0.11105496 0.11681184 0.015371925 0.044586033 -0.017143365
0.12179088 -0.0642419 -0.0571189 0.051183864 0.007448459 -0.04820435 -0.1208818 0.07628904
-0.056480046 0.09402041 -0.113768235 0.05253119 0.11411912 0.112576485 -0.10641365 -0.08027454
0.08801751 -0.017948348 0.005557137 -0.00030260565 -0.044854872 0.03817913 -0.037050944 0.07632352
-0.1040902 0.098700985 -0.0064329207 -0.031665288 0.11509349 0.05232612 0.07440613 0.10058499
0.07694886 0.04607317 -0.02354688 -0.0074765575 -0.04486613 -0.02136676 0.08577006 -0.12547578
-0.09378573 -0.022045648 0.07343068 0.05618585 0.022793138 -0.00040647402 -0.106453486 -0.046442904
0.10213811 0.034310367 -0.0213639 0.009183535 0.106884725 -0.023822332 -0.020170555 0.07404969
-0.11069408 0.038859546 0.07230018 0.087641925 -0.05021176 -0.111437805 0.11281208 0.12083934
-0.10504109 0.12010949 -0.07827051 0.07256316 -0.003519155 -0.029424462 0.080726676 -0.009158348
-0.08421675 -0.09832255 0.07433836 0.028344464 -0.0695323 0.06299609 -0.094319835 0.11833684
0.027408572 0.08855997 -0.04508132 0.09300726 0.055445123 0.09439721 -0.077606305 -0.1153181
0.058605887 0.019658979 -0.014110361 -0.050453793 0.06333006 0.030802542 0.05800806 0.001956606
0.0610204 0.09064775 -0.11549778 -0.0012908377 -0.1052743 0.084331594 -0.029413885 0.03132987
0.06680948 -0.06734558 0.08050486 -0.06651752 0.11198886 -0.04283579 -0.01691028 0.10483386
-0.05638915 -0.040351633 0.060220487 -0.06267294 0.09462641 0.04845838 0.024421623 0.017062921
-0.099652514 -0.021837896 0.03243798 -0.049756885 -0.052723538 -0.008624419 -0.090209395 0.052584723
-0.1027971 -0.083976805 0.015022773 -0.014645449 -0.0792119 0.050674506 -0.1067349 0.082191765
0.10986916 0.09466309 0.102441445 -0.016458392 0.05389976 -0.111226864 0.0654901 -0.083866864
-0.06665422 -0.1046922 0.0020047624 0.109231785 -0.008665274 0.022621019 -0.019052243 0.020514345
0.119214 0.0010192083 0.041666023 0.017156705 -0.03756129 -0.08038793 0.010323303 0.012912428

encoder.post_mp.3.bias f4 [64]
00000000: c638 b93d d110 73bd ec38 c33d 93ea eabd
00000010: 44b5 8e3c 3235 ea3d f526 d23d 3ad9 aebd
00000020: 609b 113d 54bc ce3d 75ea 41bd 5637 993d
00000030: 5c61 c1bd 7022 59bd 0ffa eebd b416 8a3c
00000040: beb6 f43c 80d0 c33d a573 963d 392a 1b3d
00000050: 6111 963d f08b b6bc 866b c43c b7be 8e3d
00000060: 8c9f 1cbd 52f1 e13d 5fc8 373d c2d9 85bd
00000070: aaf7 e93d 78d3 f73c 6523 a9bd 8ffe 7a3d
00000080: 2d0b a43c df3c 3abd c24a 663c b647 a2bd
00000090: 3436 cdbd 1840 84bd 08ef bd3d 0a8b 273d
000000a0: 209b 70bd cd54 e4bd 3f8a cfbd 2a42 fbbd
000000b0: 43b8 8abd e2d1 c43d e15c 803d ccad f8bd
000000c0: 5db3 47bd 2448 b5bd 9c60 983d 1608 28bd
000000d0: a385 783d c927 8cbd 6561 983a 8d9b f73d
000000e0: 865d a3bd 8a24 fcbd c78a 8c3b 01a7 603d
000000f0: 3535 f73d 756a 0bbd 3b83 193d 2ef2 a2bd
0.09044032 -0.05934221 0.09532341 -0.11470523 0.017420419 0.114359275 0.10261337 -0.085375264
0.035548568 0.100945145 -0.047342736 0.074812576 -0.09442398 -0.053011358 -0.11668789 0.016856529
0.029872295 0.095612526 0.07346276 0.037882064 0.073275335 -0.022283524 0.023977052 0.0696997
-0.038238093 0.11032356 0.044868823 -0.06535675 0.11424191 0.030252203 -0.08258704 0.061277922
0.02002486 -0.045468207 0.01405591 -0.07923834 -0.10020104 -0.064575374 0.09274107 0.040904082
-0.05874169 -0.11148987 -0.1013379 -0.12268479 -0.067734264 0.096103445 0.06267715 -0.12142524
-0.04875504 -0.0885165 0.07440302 -0.041023336 0.06067432 -0.06843526 0.0011625706 0.12090216
-0.079768226 -0.12311657 0.0042890045 0.054846767 0.12070695 -0.034037072 0.037478667 -0.07956348

encoder.post_mp.5.weight f4 [256, 64]
00000000: 6736 3c3d 2711 61bd e0fe 95bd c674 4bbd
00000010: 486e d4bd 2468 be3d 2d6c 82bc 916a 05bd
00000020: ec57 6f3b 9ddd a2bc ea1e 8e3d 9f13 a4bd
00000030: 9e2a b9bd 108c 403c ec33 c5bc e856 b23d
00000040: 32d4 67bc a86f b53d 21b6 4abd d97c 73bd
00000050: af3c afbb 1a5c 2cbd 1208 f4bd b8f9 9abc
00000060: 6912 bebd d0bb 66bd 0e9e e8bd 61f2 8b3d
00000070: 944a 03bd 2030 1abc c060 d3bd aefb 45bd
00000080: 634a cbbd 6ad5 78bd da21 dcbd 929c 5739
00000090: 0abb d1bc 0316 63bd c3a4 bcbc f590 b0bd
000000a0: aff7 e73d fa2a 07bd 1173 6b3b 86cf 36bd
000000b0: b403 36bd cff6 b33d cf9a 213c 1c3b 8cbd
000000c0: 3c69 54bc 6783 6f3d 5a5c b2bc 4b65 9dbc
000000d0: 1674 36bd da4d 3bbd f804 80bd 42df 9e3d
000000e0: c2fd 263d 0173 093d bc77 993d a184 c93a
000000f0: a80f f4bc 400a 383d 2689 bb3b 96c1 f13d
00000100: 28b8 d3bd df71 cb3d 7980 0ebc fc9f cebb
00000110: 7430 403c 67fb ba3c b585 e839 8539 9a3d
00000120: 56ca e53c 45ba 74bd e195 81bc 0215 873d
00000130: 03f4 e9bd 6cca df3d aa77 503d 6b67 f23d
00000140: 65d9 c8bd eb43 a03c 87c9 cc3d 90c8 ee3c
00000150: e825 6cbd 856c ddbd 4a43 353d 418e ba3d
00000160: 1844 953d 9551 a13c 7095 e63d 8bfd 6b3d
00000170: df8d 5c3d adb3 123d 484e 9fbd b453 a83c
00000180: f07f 63bd e773 923d 30bb b4b9 5b5d 75bd
00000190: 1eb9 bbbd 23ab b13d 3672 083d adc1 26bd
000001a0: c71a c23d f162 193c a2c5 dabd e730 f43d
000001b0: a02f 8b3d fd21 debd e2e1 40bd 2994 b8bd
000001c0: 536f d73d 59a4 14bd af84 df3d bda7 1ebc
000001d0: 6443 f43d 293c 773d efd5 f43d e563 b03d
000001e0: f085 dbbd bae3 4f3d bbd7 47bd 5203 d63d
000001f0: 4e43 b6bd 2de8 d6bd ca22 37bd 32a1 2cbd
00000200: 8d42 453d f330 25bd 7098 0e3d 2c8b f83d
00000210: 9487 d83c d72d e43d 2d32 95bd acdc 273d
00000220: ac67 bcbd 5913 4b3d 52c1 cb3d ac0d febd
00000230: d1d7 80bd fa40 96bc 7dac 943d 5e8f 96bd
00000240: 4a8a 80bd 2f62 82bd 55c1 433b 3d61 8f3b
00000250: aaf2 eb3c 5586 033d 02f0 73bd 8256 1cbd
00000260: 1fb4 b0bd 4193 51bd 7ea9 e6bd d94d 18bd
00000270: 949e e53d 5e2c de3d 466b cfbd a857 383d
00000280: 86d6 f2bd be83 f43d e578 a23d 8d78 bebc
00000290: f5b1 4bbd 59b1 1a3d d942 a1bd e119 dc3d
000002a0: ac3b 973c 3148 c13c c8f2 e3bd 0ebe bbbd
000002b0: 2958 ffbc bca8 233d 5188 aa3d 5544 b03d
000002c0: 57b3 e53d 0818 9b3c 5ddc 3d3d a1d0 903d
000002d0: 204d 323d b7a2 c2bd 7b75 3e3d 2831 e03c
000002e0: 1f3c 6ebd 92fe 883c 0fe5 e83c 03b7 8fbd
000002f0: 1e34 94bc 35e3 f23c aa86 3a3d 7c17 533d
00000300: cd24 9dbd 3e40 ec3d 3fcb 77bc b5a9 94bd
00000310: f0a5 893c a28f ac3d 5930 fcbd 807b ce3c
00000320: 18de f43d e2b6 60bb 02d2 9f3d f584 a1bd
00000330: 0823 023e 5572 413d a208 e23d 4172 fa3d
00000340: 8c4f e5bc ced8 c2bd 31d6 ab3c 68ec ddbd
00000350: 5d95 26bd c552 893d 6c9b 43bd 059b 49bd
00000360: 131f 89bd ebce 38bd 726e 973d 1e7b 41bd
00000370: 5dc2 d43c e2d9 473c 521c d0bd 4680 b8bc
00000380: 4195 f93d 73a7 9c3d 60a2 f5bb 95eb 923d
00000390: a166 e13d bffb cdbb 9577 f2bc 3f6f 4e3d
000003a0: afdd f1bc ce39 1c3d 41d5 9abc 0faa 3b3d
000003b0: c3ab a9bd 72b2 d83d 494d c4bd 1b78 943d
000003c0: 3a7c 173c 123c eb3d 3f75 cebd 74db da3d
000003d0: 05ca 69bd 52e4 29bd 371c a2bd 265f cabd
000003e0: 769d 9dbd bf0f e33d c867 5d3d b280 3bbd
000003f0: da39 e3bd 8523 dcbd 1dc6 e8bd 5886 a23c
0.04595032 -0.054948 -0.07324004 -0.04967191 -0.10372597 0.09297207 -0.015920723 -0.032572333
0.0036520911 -0.019881064 0.0693949 -0.08011555 -0.09041332 0.0117521435 -0.02407261 0.08707982
-0.014149712 0.08859187 -0.049490098 -0.059445236 -0.00534781 -0.042080022 -0.11915602 -0.018917903
-0.09280855 -0.056331456 -0.113582715 0.068333395 -0.032053545 -0.009410888 -0.10321188 -0.048335724
-0.099262975 -0.060750403 -0.10748644 0.00020562325 -0.025601882 -0.055440914 -0.023027783 -0.08621398
0.11326539 -0.03299997 0.003592674 -0.044631504 -0.044437125 0.087873094 0.009863569 -0.06847212
-0.012964543 0.058474924 -0.021772552 -0.01921334 -0.044544302 -0.045728542 -0.06250948 0.07757427
0.040769346 0.033556942 0.07493541 0.001537461 -0.029792622 0.04493165 0.0057231365 0.11804502
-0.103378594 0.099338286 -0.008697622 -0.0063056927 0.011730302 0.022824956 0.00044350108 0.07530502
0.028050583 -0.059747953 -0.015818538 0.06595804 -0.11423495 0.10927281 0.05089537 0.11836132
-0.0980709 0.019563636 0.09999376 0.02914837 -0.057653338 -0.10811714 0.044253625 0.09109164
0.072883785 0.019692222 0.11258972 0.057614844 0.053846236 0.035815883 -0.07778603 0.020547725
-0.055541933 0.07151013 -0.0003447174 -0.059903484 -0.09166168 0.0867522 0.033312045 -0.040712047
0.094777636 0.009361968 -0.10682227 0.1192339 0.06796193 -0.108463265 -0.04709042 -0.09012634
0.1051928 -0.036289547 0.10913979 -0.009683547 0.11926916 0.060360108 0.11954867 0.08612803
-0.10718906 0.050754286 -0.04878972 0.10449852 -0.08899556 -0.10493503 -0.04471091 -0.042145915
0.04815917 -0.040329885 0.034813344 0.1213592 0.026431836 0.11141556 -0.07284961 0.040981933
-0.09199461 0.049579 0.09948982 -0.124049515 -0.06291164 -0.01834153 0.07259462 -0.07351564
-0.062763765 -0.06366383 0.0029869874 0.0043756054 0.028802235 0.03211053 -0.05955506 -0.038168438
-0.08628105 -0.051165823 -0.11262797 -0.037183616 0.11211887 0.10848306 -0.10127883 0.04500547
-0.11857323 0.1193919 0.07933215 -0.023250842 -0.04973026 0.03776679 -0.07874078 0.107471235
0.018461071 0.023593994 -0.11130291 -0.091671094 -0.031169968 0.03995584 0.083267815 0.08606783
0.11215847 0.018932357 0.046352733 0.07071043 0.043530583 -0.09503692 0.046498757 0.02736719
-0.058162805 0.016722951 0.028429536 -0.070173286 -0.018091258 0.029649356 0.045538582 0.05153607
-0.07673035 0.11535691 -0.015124141 -0.072589315 0.016802758 0.08425833 -0.12313909 0.025205374
0.119564235 -0.0034288694 0.07803728 -0.07886688 0.12708676 0.047228176 0.11036803 0.122288235
-0.027992032 -0.095140085 0.020976158 -0.108361065 -0.040669788 0.0670524 -0.047755644 -0.049220104
-0.0669538 -0.045119207 0.07394113 -0.047236554 0.025971586 0.012197943 -0.10161652 -0.022522103
0.12186671 0.07649126 -0.0074961632 0.0717384 0.11005903 -0.006286114 -0.029598037 0.05039906
-0.029524652 0.038141064 -0.018900516 0.045816477 -0.08284714 0.10580911 -0.095850535 0.07249471
0.0092459265 0.11486067 -0.10080957 0.106863886 -0.057077426 -0.04147751 -0.07915538 -0.098814294
-0.07696049 0.11086988 0.05405405 -0.04577703 -0.11095019 -0.10748962 -0.11365912 0.01983945
