amazon/20230719-201745/commr.pt (torch, 28709 bytes, 10 tensors)

fc1.weight f4 [32, 65]
-0.14151207 -0.11659186 0.12115699 -0.036199912 0.05435178 0.16603708 -0.06861704 -0.093605414
0.07775793 0.15618713 -0.09906343 0.07467357 -0.064529695 -0.022625938 0.08981691 0.12880585
-0.013097149 0.093575835 0.16603693 -0.010523562 0.0073230946 0.121346496 -0.067122966 0.05998749
0.076581135 0.07213977 0.106548876 0.13819341 0.030382793 -0.091046065 0.05074105 -0.061429664
0.030028107 -0.0068222973 0.11170693 0.07514882 -0.0020476496 -0.14434531 -0.12631004 0.15915948
-0.053447165 0.13263305 -0.10994739 0.114246555 0.10204419 -0.07079499 -0.0858502 0.048890155
-0.09152374 0.07521337 -0.030953784 0.025035834 0.05130127 -0.015578104 0.019356143 -0.05316926
0.13892005 0.12411901 0.09587308 0.036623236 -0.02335771 0.07337857 0.12628908 0.17311266
0.14187352 -0.20433156 -0.020189494 0.09739411 0.01825865 0.10878988 0.19027849 0.06313721
-0.051101875 -0.053095262 0.08408751 -0.0977451 -0.08808922 -0.033872984 -0.07399824 -0.074480414
0.12718183 -0.06807067 -0.04397293 -0.037251808 0.12436268 -0.013053913 -0.044777397 0.017659532
-0.06376855 0.042860664 -0.07594349 0.029486485 0.11898966 0.13856526 0.105276726 0.13610019
-0.044638705 -0.04042253 0.08288685 0.051991813 0.077088445 0.093866386 -0.013425137 0.09359428
-0.01766396 -0.0633626 0.13950537 -0.0073097455 0.12033029 -0.06157872 0.048479397 -0.036907118
0.13730793 0.047625802 0.032809522 -0.037658513 0.031062685 -0.16487049 -0.06468597 -0.0051204828
0.057222858 0.16815339 -0.043041658 0.026941674 0.03528487 -0.047509428 0.029495487 -0.057791255
0.16424878 0.029936638 -0.16530466 0.02749154 -0.043738835 -0.06705093 -0.031047454 0.11248441
-0.08516275 0.020872887 0.014595944 0.1102311 -0.00067050266 0.007597594 0.10923962 -0.08890989
-0.02412437 0.060884684 -0.099277385 0.12804541 0.16444077 0.03644382 -0.036672466 0.055460006
-0.038821254 -0.025819201 -0.06595483 -0.062124968 0.06842799 0.119591065 0.046710677 0.104487844
-0.018839082 -0.09234857 -0.08292064 0.09088383 0.037911475 0.077992514 -0.089174025 -0.109183766
-0.07610161 -0.059604008 0.1272149 0.13189544 -0.039002154 0.0670347 0.120682456 0.0761901
0.074775875 0.048181813 -0.028456975 0.04416965 0.035568576 0.09592696 0.099123135 0.01570218
0.051641624 0.04704182 0.068775676 0.043823723 0.07651543 0.019132119 0.10812498 0.10351277
0.044845738 -0.0058586844 0.0727486 0.021196857 -0.030349953 -0.06446422 0.06572634 -0.032291006
0.0073293354 -0.0070667146 -0.029708378 0.024179008 0.10093724 -0.025720323 0.088447854 -0.07611906
0.08471049 -0.10593708 -0.06956392 -0.10622718 0.038211554 -0.1285905 -0.058217954 -0.098365285
-0.013839927 0.11949939 0.103323124 0.02052685 0.084017746 -0.11713898 0.011516766 0.036920037
-0.08298403 -0.05775688 0.049682483 -0.05846993 -0.0153400935 0.0016097908 0.07312172 0.10572872
0.05678776 -0.038224682 -0.10470012 0.017203404 0.025897881 -0.064979665 0.029840901 0.07215304
-0.09195063 0.11046239 0.053349826 0.014193479 -0.021005664 0.038976353 -0.08422809 0.018751264
-0.07454894 -0.10553814 0.0645161 0.04776558 0.08441018 0.035038546 -0.060455974 -0.09555467
00000000: 8ae8 10be b7c7 eebd 2821 f83d 5c46 14bd
00000010: f99f 5e3d a005 2a3e 1787 8cbd 32b4 bfbd
00000020: 8d3f 9f3d 85ef 1f3e c5e1 cabd 75ee 983d
00000030: 2528 84bd 085a b9bc eef1 b73d aee5 033e
00000040: 6d95 56bc b0a4 bf3d 9605 2a3e 056b 2cbc
00000050: 92f6 ef3b 8384 f83d c477 89bd 71b5 753d
00000060: 92d6 9c3d 04be 933d 4c36 da3d 9382 0d3e
00000070: 56e5 f83c 5c76 babd d9d5 4f3d ac9d 7bbd
00000080: 81fd f53c 948d dfbb 9ac6 e43d a0e7 993d
00000090: dc31 06bb 42cf 13be 6b57 01be b4fa 223e
000000a0: 6aeb 5abd f5d0 073e 192c e1bd 19fa e93d
000000b0: 8bfc d03d f7fc 90bd 3bd2 afbd 0b41 483d
000000c0: cc70 bbbd 7809 9a3d ca92 fdbc f317 cd3c
000000d0: 4821 523d 4e3b 7fbc c690 9e3c 03c8 59bd
000000e0: 0f41 0e3e 1c32 fe3d 1b59 c43d 3f02 163d
000000f0: ab58 bfbc 8147 963d ed51 013e 7244 313e
00000100: 4b47 113e 4b3c 51be 7064 a5bc 9076 c73d
00000110: 2a93 953c 3bcd de3d 5dd8 423e 154e 813d
00000120: 3350 51bd 6b7a 59bd 1336 ac3d 952e c8bd
00000130: 1f68 b4bd 66be 0abd 648c 97bd 3089 98bd
00000140: f43b 023e a368 8bbd f61c 34bd 5a95 18bd
00000150: dcb1 fe3d 14e0 55bc 8168 37bd b9aa 903c
00000160: 1699 82bd aa8e 2f3d 4388 9bbd a48d f13c
00000170: dab0 f33d 0de4 0d3e 539b d73d d95d 0b3e
00000180: 13d7 36bd 1892 25bd 95c0 a93d 5ef5 543d
00000190: 8ce0 9d3d 053d c03d 1bf5 5bbc 5cae bf3d
000001a0: 02b4 90bc 40c4 81bd 7fda 0e3e 9786 efbb
000001b0: ba6f f63d f839 7cbd 5592 463d eb2b 17bd
000001c0: 739a 0c3e 4613 433d 4763 063d d03f 1abd
000001d0: 2c77 fe3c cfd3 28be 147a 84bd b9c9 a7bb
000001e0: 8462 6a3d 6730 2c3e 734c 30bd c9b4 dc3c
000001f0: de86 103d 3f99 42bd 85a0 f13c 86b6 6cbd
00000200: d530 283e ae3d f53c a045 29be f035 e13c
00000210: 7e27 33bd ff51 89bd 3b57 febc 3a5e e63d
00000220: cf69 aebd 9efd aa3c d423 6f3c d8c0 e13d
00000230: acc4 2fba 3df5 f83b 06b9 df3d 6316 b6bd
00000240: 79a0 c5bc 3862 793d f151 cbbd 561e 033e
00000250: 2963 283e 1d46 153d de35 16bd 082a 633d
00000260: 0903 1fbd ca82 d3bc 5313 87bd c076 7ebd
00000270: f923 8c3d 29ec f43d b253 3f3d b9fd d53d
00000280: 6b54 9abc 3f21 bdbd 4cd2 a9bd 4d21 ba3d
00000290: 1049 1b3d 8aba 9f3d dfa0 b6bd bd9b dfbd
000002a0: 29db 9bbd 5523 74bd 9f44 023e 990f 073e
000002b0: b9c0 1fbd 7d49 893d 5d28 f73d 8e09 9c3d
000002c0: 1824 993d 4b5a 453d 9a1e e9bc 3ceb 343d
000002d0: 5bb0 113d 5b75 c43d 1201 cb3d dca1 803c
000002e0: 2b86 533d ecae 403d 43da 8c3d 8180 333d
000002f0: 1fb4 9c3d f6ba 9c3c a170 dd3d 81fe d33d
00000300: 2ab0 373d 35fa bfbb 38fd 943d 08a5 ad3c
00000310: 77a0 f8bc d105 84bd 889b 863d 9343 04bd
00000320: ec2a f03b e68f e7bb fc5e f3bc 0e13 c63c
00000330: 2fb8 ce3d 6db3 d2bc 2624 b53d 4fe4 9bbd
00000340: b27c ad3d 8af5 d8bd 8777 8ebd a38d d9bd
00000350: b883 1c3d 3aad 03be f375 6ebd bd73 c9bd
00000360: dcc0 62bc 19bc f43d 139b d33d ed27 a83c
00000370: 7f11 ac3d 90e6 efbd d1b0 3c3c 7739 173d
00000380: 88f3 a9bd 7a92 6cbd dc7f 4b3d 2a7e 6fbd
00000390: 0455 7bbc 9eff d23a d7c0 953d 4d88 d83d
000003a0: 489a 683d 7c91 1cbd 046d d6bd 27ee 8c3c
000003b0: cb27 d43c 0f14 85bd e874 f43c f9c4 933d
000003c0: 9d50 bcbd 1b3a e23d 5985 5a3d c48b 683c
000003d0: 1214 acbc aba5 1f3d c77f acbd 409c 993c
000003e0: 1dad 98bd 6124 d8bd 0421 843d d7a5 433d
000003f0: 3fdf ac3d 9484 0f3d afa0 77bd 2bb2 c3bd

fc1.bias f4 [32]
-0.13275778 -0.08344789 -0.08497247 0.16172886 0.004575701 0.11875162 0.1998217 0.04564569
-0.18508925 0.054123253 -0.20907174 0.04276262 -0.006166552 -0.020024128 -0.0178328 0.13218
-0.11926636 -0.093648076 0.022804035 0.059387825 -0.0060518123 -0.13004877 -0.1158664 -0.14702952
0.18761228 0.15906419 -0.11496818 -0.090899274 -0.010124781 -0.051822454 0.17523652 -0.18161198
00000000: a8f1 07be bae6 aabd 0c06 aebd 409c 253e
00000010: c3ef 953b 0d34 f33d 0f9e 4c3e faf6 3a3d
00000020: 0988 3dbe 58b0 5d3d e716 56be db27 2f3d
00000030: ca10 cabb a409 a4bc 1816 92bc 325a 073e
00000040: ec41 f4bd 90ca bfbd 87cf ba3c a640 733d
00000050: 484e c6bb 812b 05be 5d4b edbd e88e 16be
00000060: 6f1d 403e b9e1 223e 7074 ebbd 6629 babd
00000070: 69e2 25bc c843 54bd 3471 333e 7ef8 39be

fc2.weight f4 [32, 32]
0.02056117 0.022624029 -0.0023381535 -0.007503409 0.064548664 0.16644667 0.08833287 0.028038919
-0.21882412 -0.094629325 0.04059619 0.10995597 -0.028922282 -0.04969766 0.13824582 0.17236294
-0.049728394 -0.06322715 0.038742322 -0.08091909 -0.098492265 -0.07448787 -0.17204106 -0.2281873
-0.061033387 -0.09957075 -0.17339307 -0.22111814 -0.047770556 0.006920101 0.17479944 -0.23537923
0.1257227 0.15416579 0.23807055 -0.118 0.193505 -0.09118206 0.09675309 0.07858314
0.08032246 -0.14341852 -0.06448179 -0.15672141 0.02251422 -0.13785006 -0.20675834 -0.2741213
-0.09511673 0.1403973 0.13241789 -0.13928236 0.12478206 0.011805506 -0.04455033 0.08916281
0.07632284 -0.10692074 0.1668533 0.072767586 -0.0011677039 0.07368158 -0.03942807 -0.059200734
0.09974392 0.015399243 0.15757643 0.03174222 -0.02077607 -0.09735459 -0.080246575 0.099812806
0.06009884 0.101902425 0.2091281 -0.24419987 -0.18927301 -0.12686667 -0.11155263 -0.25741687
0.04475358 0.061196573 -0.11474501 -0.026082946 -0.12204877 -0.011172183 0.1985767 0.057483416
0.1179271 -0.07832206 0.013232602 -0.05975814 0.16849516 0.083386235 -0.012246963 0.23309587
-0.18396772 -0.13618684 0.024861928 -0.13244541 -0.19148707 0.0524404 0.030784737 0.007904537
-0.1418144 0.19046348 -0.08069984 0.02591813 0.19413912 0.17717767 0.111758344 0.19233888
0.0127816135 -0.2011833 -0.036598176 -0.10426022 -0.11252656 -0.12315785 -0.22186907 0.066367514
0.14719862 -0.013010907 0.10054735 -0.14017105 0.0082594035 -0.20337299 0.20195456 0.04824741
0.07653071 -0.11223401 -0.054405592 -0.019996516 -0.20697582 0.009627632 0.027028292 -0.19715466
0.09364879 0.110767916 -0.060678024 -0.09959016 0.20652382 0.1613107 -0.10381918 0.10275146
-0.115062445 -0.016115898 -0.12175313 0.06735534 -0.046035733 0.06583148 -0.014759134 -0.15385956
0.18253888 0.013104246 -0.21920237 -0.1340707 -0.10913412 -0.22206317 0.148358 -0.2089144
0.06396469 -0.05080846 -0.18302302 -0.1956018 -0.18649416 0.08447203 -0.0039985226 -0.19667095
-0.025155677 0.10390692 -0.09802765 -0.0034382644 0.038487263 0.01200488 0.03224041 0.095919795
0.06865999 -0.051776852 0.08635623 -0.060777072 -0.18223426 0.065678686 -0.1786307 0.0472582
0.1918534 0.096930526 0.08650569 0.085772954 -0.19538982 -0.03049838 0.05995767 -0.22453749
0.21201426 0.24145406 0.20513625 -0.1508003 0.13453409 -0.105312936 0.040204976 0.1945407
0.12216473 -0.24958433 -0.028859181 -0.08595883 -0.067209095 -0.12285956 -0.22223127 0.079097
-0.018809179 -0.06431898 -0.06872534 -0.024892516 0.17177282 0.1597869 -0.0770834 0.10889792
0.04995224 -0.19855191 0.17897306 -0.08398126 0.09591239 0.04522846 -0.04948795 0.20537081
0.07343947 0.20042683 0.22383726 -0.10507552 0.18589143 0.044729725 0.097867906 0.045436546
0.101224154 -0.04833872 0.22224413 -0.21824731 0.01575788 -0.12522028 -0.00045141802 -0.06489739
0.059597958 0.038371317 -0.06308596 0.13924332 0.22513229 -0.011743652 0.10174874 -0.10008223
-0.15687573 0.05742066 0.21490104 0.16315654 0.23370564 0.02151861 -0.06353723 0.16301744
00000000: e66f a83c 0756 b93c b53b 19bb 28df f5bb
00000010: 1732 843d ff70 2a3e dde7 b43d e0b1 e53c
00000020: 6e13 60be 05cd c1bd 3148 263d 9830 e13d
00000030: 6cee ecbc c68f 4bbd 5090 0d3e e97f 303e
00000040: 00b0 4bbd 3c7d 81bd 45b0 1e3d e8b8 a5bd
00000050: 50b6 c9bd 198d 98bd 882b 30be eea9 69be
00000060: 25fe 79bd c0eb cbbd f48d 31be cb6c 62be
00000070: 0fab 43bd 04c2 e23b a0fe 323e 4107 71be
00000080: 74bd 003e a3dd 1d3e c4c8 733e fca9 f1bd
00000090: 2d26 463e a9bd babd 7c26 c63d 33f0 a03d
000000a0: 1a80 a43d 4edc 12be 070f 84bd 947b 20be
000000b0: be6f b83c 9128 0dbe 75b8 53be a159 8cbe
000000c0: 8fcc c2bd 4fc4 0f3e 8e98 073e 09a0 0ebe
000000d0: bd8d ff3d e26b 413c 687a 36bd fe9a b63d
000000e0: 264f 9c3d 43f9 dabd 97db 2a3e 2c07 953d
000000f0: a40d 99ba 5ee6 963d 547f 21bd 787c 72bd
00000100: 8a46 cc3d 1b4d 7c3c b75b 213e 2104 023d
00000110: 9432 aabc d861 c7bd 5158 a4bd a86a cc3d
00000120: 342a 763d 38b2 d03d ad25 563e 880f 7abe
00000130: c9d0 41be 56e9 01be b575 e4bd 25cc 83be
00000140: 884f 373d 42a9 7a3d 6fff eabd e7ab d5bc
00000150: b5f4 f9bd 880b 37bc b157 4b3e bb73 6b3d
00000160: c383 f13d 5167 a0bd 8ecd 583c f4c4 74bd
00000170: ff89 2c3e 67c6 aa3d 7ca7 48bc afb0 6e3e
00000180: 0962 3cbe 9074 0bbe 3eab cb3c c59f 07be
00000190: 3015 44be bfcb 563d 4630 fc3c 0882 013c
000001a0: cb37 11be dc08 433e f545 a5bd 4252 d43c
000001b0: 68cc 463e 106e 353e 8fe1 e43d 7cf4 443e
000001c0: f969 513c ff02 4ebe f8e7 15bd 6286 d5bd
000001d0: 5374 e6bd 2f3a fcbd a531 63be b1eb 873d
000001e0: 3cbb 163e b32b 55bc c5eb cd3d 0089 0fbe
000001f0: 7352 073c 0241 50be 2dcd 4e3e 149f 453d
00000200: 22bc 9c3d f2da e5bd 66d8 5ebd bccf a3bc
00000210: 78f1 53be 37bd 1d3c 706a dd3c e9e2 49be
00000220: f0ca bf3d 4ada e23d 8589 78bd edf5 cbbd
00000230: fb7a 533e a22e 253e 269f d4bd 5c6f d23d
00000240: dca5 ebbd 7d05 84bc b459 f9bd 99f1 893d
00000250: f78f 3cbd a8d2 863d 4bd0 71bc 5c8d 1dbe
00000260: 79eb 3a3e 31b3 563c 9676 60be d449 09be
00000270: b681 dfbd 8764 63be 29eb 173e a8ed 55be
00000280: ebff 823d 881c 50bd 636a 3bbe d74b 48be
00000290: 53f8 3ebe acff ac3d 0a06 83bb 1c64 49be
000002a0: 4713 cebc 27cd d43d b8c2 c8bd 8154 61bb
000002b0: d2a4 1d3d 1eb0 443c 850e 043d 9971 c43d
000002c0: 9c9d 8c3d f713 54bd 89db b03d 61f1 78bd
000002d0: 9e9b 3abe 8c82 863d f7ea 36be d091 413d
000002e0: 3875 443e 8383 c63d e529 b13d bba9 af3d
000002f0: 4514 48be bdd7 f9bc 2c96 753d 28ed 65be
00000300: 441a 593e bc3f 773e 3d0f 523e 656b 1abe
00000310: 4ec3 093e 4fae d7bd f9ad 243d ad35 473e
00000320: 8131 fa3d 0993 7fbe 176a ecbc 2f0b b0bd
00000330: eca4 89bd cb9d fbbd 9890 63be 9cfd a13d
00000340: b515 9abc abb9 83bd dfbf 8cbd 64eb cbbc
00000350: 37e5 2f3e 2d9f 233e e7dd 9dbd df05 df3d
00000360: b89a 4c3d 3151 4bbe b744 373e 5efe abbd
00000370: b76d c43d 7a41 393d e0b3 4abd ba4c 523e
00000380: 6f67 963d b13c 4d3e 9835 653e d631 d7bd
00000390: 535a 3e3e 8436 373d f86e c83d ac1b 3a3d
000003a0: 9c4e cf3d d2fe 45bd f793 633e 397c 5fbe
000003b0: ab16 813c bf39 00be 4dac ecb9 ece8 84bd
000003c0: fd1c 743d 3e2b 1d3d 3633 81bd cd95 0e3e
000003d0: 1489 663e 7268 40bc a561 d03d eaf7 ccbd
000003e0: 08a4 20be ed31 6b3d 050f 5c3e 8212 273e
000003f0: 8850 6f3e cc47 b03c cf1f 82bd 0bee 263e

fc2.bias f4 [32]
-0.04567415 -0.19507115 -0.03446484 0.1942496 0.17631699 0.08084619 -0.14422207 -0.12073125
0.122210756 0.02521982 0.0497939 0.11476098 -0.13959315 0.027953604 0.102332056 -0.11166298
0.20456913 -0.047269076 -0.04684297 -0.021730894 -0.006094108 -0.20397292 0.0729206 -0.03307978
-0.03667631 -0.004422208 -0.045164973 0.009565963 -0.16177353 -0.111235246 0.02992194 -0.09748455
00000000: d114 3bbd bbc0 47be 012b 0dbd 5ee9 463e
00000010: 718c 343e b092 a53d f3ae 13be f241 f7bd
00000020: a249 fa3d cc99 ce3c b0f4 4b3d ce07 eb3d
00000030: 82f1 0ebe f5fe e43c 7893 d13d 8faf e4bd
00000040: 927a 513e 389d 41bd 6ade 3fbd fd04 b2bc
00000050: 15b1 c7bb 47de 50be 6557 953d aa7e 07bd
00000060: e639 16bd 2be8 90bb e8fe 38bd 8fba 1c3c
00000070: f6a7 25be 4ecf e3bd db1e f53c fba5 c7bd

fc3.weight f4 [1, 32]
0.20470756 -0.1823765 -0.16320302 0.14450654 0.23299284 0.20284699 -0.269661 -0.16223045
0.23540066 0.1221884 0.25135022 0.23764363 -0.10093027 -0.18479683 0.07700309 -0.2241429
0.19299434 -0.20018692 0.2223804 -0.12939408 -0.15929917 -0.27547252 -0.1849898 -0.25684878
0.22901586 0.20313436 0.21849841 0.18672585 -0.09399845 -0.17759326 0.17573988 -0.15815307
00000000: dc9e 513e e8c0 3abe b11e 27be 86f9 133e
00000010: ad95 6e3e 1fb7 4f3e 0211 8abe bd1f 26be
00000020: df0c 713e e93d fa3d fab0 803e da58 733e
00000030: 88b4 cebd 613b 3dbe ccb3 9d3d b785 65be
00000040: 4fa0 453e cdfd 4cbe b0b7 633e e27f 04be
00000050: 521f 23be bc0a 8dbe f76d 3dbe af81 83be
00000060: 2283 6a3e 7402 503e 0cbe 5f3e 1035 3f3e
00000070: 4282 c0bd 02db 35be 28f5 333e e1f2 21be

fc1.weight f4 [32, 65]
-0.0419161 -0.030160457 -0.08716185 -0.123768486 0.056114446 -0.013792979 -0.03411775 -0.014577228
-0.124587625 -0.21841618 0.07050826 0.021991234 0.12215521 -0.0629596 0.06464977 -0.078762636
0.13275291 -0.0045160223 -0.028158557 -0.0133558875 0.019479066 -0.01916107 -0.023870775 0.18137123
-0.0018530207 0.14898582 -0.11653954 0.013311273 0.03872838 0.02239327 -0.116507135 -0.03815803
0.032847807 -0.118439995 -0.028593868 0.041598093 -0.0968489 -0.021687312 0.23197581 -0.012402457
0.053533576 0.047095906 0.010050445 -0.09690239 -0.046791807 -0.11583095 -0.07446766 0.01989733
-0.12565833 0.02652221 -0.0063419887 0.1494993 -0.16170496 0.044252787 -0.04207017 -0.06691756
0.045644317 0.11465638 0.056439843 0.14255038 -0.03042977 -0.05433457 -0.04509816 0.032244794
-0.1087397 -0.06174544 -0.08469411 0.11081585 -0.049965397 -0.0388507 0.037424956 0.14146312
0.08066001 -0.029595977 -0.07105365 0.007297365 -0.15636252 0.18373261 -0.013293229 0.044492457
0.01258877 0.012750708 -0.18549764 0.19553834 -0.08061051 -0.038276266 -0.021676207 -0.017059507
0.081944205 -0.11402919 0.09938174 0.08835933 -0.19795996 -0.012756767 -0.012862143 0.13237421
0.07675342 0.05252459 -0.08173606 -0.003928856 0.0016881356 0.05292529 0.028363839 -0.024232807
0.11583256 -0.11069239 -0.13355578 -0.14660506 -0.03495128 0.09713639 0.016977793 -0.26356748
-0.076012 -0.13799067 -0.16314077 -0.0165813 0.10994666 -0.17695256 0.21496524 0.22079666
-0.15846638 -0.05889125 0.01852217 0.060579337 0.019867366 0.06605863 -0.10089943 -0.06577905
-0.056521226 -0.10059631 0.07959469 -0.020900303 -0.09995677 0.19268368 0.054612063 -0.05944975
0.067445524 -0.024029164 0.06206154 0.22891566 -0.054078743 0.085718885 -0.1843644 0.03249091
0.042530768 0.010380195 -0.19270204 0.18279096 -0.024774812 0.012032766 -0.018387457 -0.0037661325
0.1646981 -0.11390053 0.188738 -0.10250978 0.0915575 0.10550737 -0.04770377 0.09091872
0.049136456 -0.12724923 -0.010850353 0.014273405 -0.0870778 -0.13011658 0.011587641 -0.16732922
-0.03670978 0.044980686 0.14853097 -0.020525789 0.041085314 -0.0704364 -0.04350037 0.10246677
0.15912999 0.14613055 0.06887583 0.07478946 0.012522318 -0.1833836 0.2038872 -0.09103316
0.0066834297 0.05315526 0.06406194 -0.0506179 -0.070834056 -0.14740938 0.027907789 0.0012475778
-0.022935249 0.107367 0.05000586 0.11875868 -0.09054995 0.055059355 0.07250032 0.024678757
-0.06794495 0.09591416 0.023275282 0.062021658 0.1005778 -0.06346372 0.0068238657 -0.10945538
-0.051107824 -0.079347454 -0.0028719178 -0.09338603 0.010276471 -0.16811192 0.07078235 0.04064126
0.09482564 -0.03991942 -0.03204705 -0.0007628298 -0.17387642 0.07070302 0.08770132 -0.031656493
-0.03941746 -0.10814935 -0.07356753 0.10964986 0.03640176 0.080658056 -0.06844372 0.0908507
-0.1864575 -0.092552274 -0.09487066 0.13278791 0.07004376 0.06658777 0.090969935 -0.041853897
0.09422106 0.1957488 -0.047614347 0.024957037 0.07777135 0.1324547 -0.15586437 0.076606326
0.04555824 -0.11652146 0.13354029 0.18618423 0.046988882 -0.012170864 0.024368899 -0.09097816
00000000: 37b0 2bbd 1013 f7bc e981 b2bd 557a fdbd
00000010: 43d8 653d f2fb 61bc 0ebf 0bbd 53d5 6ebc
00000020: cc27 ffbd 7ea8 5fbe a266 903d f626 b43c
00000030: 832c fa3d f6f0 80bd 1967 843d 4e4e a1bd
00000040: 61f0 073e 24fb 93bb c6ac e6bc a7d2 5abc
00000050: 9092 9f3c adf7 9cbc a58c c3bc 61b9 393e
00000060: 0fe1 f2ba bd8f 183e 48ac eebd 8717 5a3c
00000070: a6a1 1e3d 1772 b73c 4b9b eebd 984b 1cbd
00000080: 6c8b 063d ab90 f2bd b03d eabc c362 2a3d
00000090: b758 c6bd 97a9 b1bc 118b 6d3e ad33 4bbc
000000a0: 0646 5b3d a3e7 403d 9faa 243c c374 c6bd
000000b0: c4a8 3fbd c738 edbd 8082 98bd baff a23c
000000c0: 94ac 00be 1b45 d93c 75d0 cfbb 5816 193e
000000d0: fc95 25be 6942 353d c551 2cbd 130c 89bd
000000e0: 89f5 3a3d f7d0 ea3d 772d 673d baf8 113e
000000f0: da47 f9bc ed8d 5ebd d9b8 38bd 1e13 043d
00000100: ebb2 debd c9e8 7cbd 1b74 adbd 6cf3 e23d
00000110: 84a8 4cbd e921 1fbd e94a 193d b5db 103e
00000120: 1331 a53d 4373 f2bc 9384 91bd bc1e ef3b
00000130: 7f1d 20be 6724 3c3e d8cb 59bc b93d 363d
00000140: 2141 4e3c 58e8 503c 18f3 3dbe 343b 483e
00000150: 2017 a5bd 93c7 1cbd 4d92 b1bc 61c0 8bbc
00000160: 5dd2 a73d 2388 e9bd a788 cb3d bdf5 b43d
00000170: 04b6 4abe c201 51bc bdbb 52bc 1b8d 073e
00000180: e630 9d3d 0624 573d 3c65 a7bd a2bd 80bb
00000190: 6e44 dd3a 30c8 583d 485b e83c e183 c6bc
000001a0: 9f39 ed3d b1b2 e2bd d9c2 08be a31f 16be
000001b0: 1329 0fbd 72ef c63d 0315 8b3c 51f2 86be
000001c0: 2eac 9bbd 6d4d 0dbe 600e 27be 82d5 87bc
000001d0: b72b e13d 0d33 35be d91f 5c3e 8518 623e
000001e0: 0345 22be f437 71bd cebb 973c 0a22 783d
000001f0: e3c0 a23c bf49 873d 5ca4 cebd 2bb7 86bd
00000200: cd82 67bd 7005 cebd 8a02 a33d 1d37 abbc
00000210: 23b6 ccbd df4e 453e e6b0 5f3d 9581 73bd
00000220: e120 8a3d cfd8 c4bc 3e34 7e3d de68 6a3e
00000230: ac81 5dbd 628d af3d 05ca 3cbe 3015 053d
00000240: be34 2e3d b211 2a3c af53 45be 8e2d 3b3e
00000250: 8cf4 cabc 1425 453c 4ba1 96bc 38d1 76bb
00000260: 9ea6 283e ae44 e9bd 8944 413e a6f0 d1bd
00000270: 8082 bb3d 3f14 d83d 0765 43bd 9833 ba3d
00000280: 4f43 493d 9f4d 02be aec5 31bc 00db 693c
00000290: d855 b2bd 483d 05be 17da 3d3c 5a58 2bbe
000002a0: ff5c 16bd ab3d 383d 8118 183e b325 a8bc
000002b0: 1349 283d f640 90bd 722d 32bd 19da d13d
000002c0: f9f2 223e 3fa3 153e c50e 8d3d 372b 993d
000002d0: 692a 4d3c e9c8 3bbe cec7 503e 986f babd
000002e0: ac00 db3b 54b9 593d e832 833d b754 4fbd
000002f0: 7211 91bd 7cf2 16be e09e e43c c485 a33a
00000300: b4e2 bbbc 3be3 db3d f2d2 4c3d c037 f33d
00000310: 4172 b9bd eb85 613d 0c7b 943d 1b2b ca3c
00000320: b926 8bbd a56e c43d ceab be3c 6c0a 7e3d
00000330: bcfb cd3d 44f9 81bd bc9a df3b 242a e0bd
00000340: 7056 51bd eb80 a2bd c936 3cbb 2d41 bfbd
00000350: a55e 283c 8825 2cbe 56f6 903d 7377 263d
00000360: f233 c23d 8c82 23bd c443 03bd a4f8 47ba
00000370: a90c 32be bfcc 903d c09c b33d 3daa 01bd
00000380: 3474 21bd 687d ddbd 93aa 96bd 1b90 e03d
00000390: 031a 153d 0d30 a53d 392c 8cbd ef0f ba3d
000003a0: b7ee 3ebe 0c8c bdbd 8c4b c2bd 8ef9 073e
000003b0: 1a73 8f3d 2b5f 883d 724e ba3d fe6e 2bbd
000003c0: f9f6 c03d 6072 483e 4307 43bd b372 cc3c
000003d0: 9646 9f3d 34a2 073e e99a 1fbe c7e3 9c3d
000003e0: 479b 3a3d cea2 eebd c9be 083e 14a7 3e3e
000003f0: 6a77 403d 4e68 47bc 49a1 c73c c252 babd

fc1.bias f4 [32]
-0.037268996 -0.10309677 0.08731424 0.16942364 0.046271447 -0.11304109 -0.17197055 -0.077970065
-0.16917339 -0.043221854 -0.22758453 0.20417729 -0.15605743 -0.08762071 -0.14316627 0.24773991
0.20976473 -0.10470066 -0.23131777 0.10959678 -0.14586239 0.19093674 0.14942363 -0.06816194
0.11466375 0.06184104 0.0844661 0.20713897 0.13315047 -0.13083497 0.12726112 0.11282239
00000000: 60a7 18bd 6624 d3bd cfd1 b23d 647d 2d3e
00000010: 2187 3d3d 1682 e7bd 0c19 30be c5ae 9fbd
00000020: ca3b 2dbe 6609 31bd eb0b 69be da13 513e
00000030: 85cd 1fbe 7d72 b3bd 2e9a 12be 88af 7d3e
00000040: 91cc 563e 4d6d d6bd 91de 6cbe 4774 e03d
00000050: f35c 15be ec84 433e 8202 193e 7d98 8bbd
00000060: d4d4 ea3d 084d 7d3d 90fc ac3d 3d1c 543e
00000070: 9958 083e 9af9 05be bd50 023e 6d0f e73d

fc2.weight f4 [32, 32]
-0.27905717 -0.07444695 0.1885845 0.0072900364 0.16721743 -0.15916069 -0.114246525 -0.2973447
-0.0013569738 -0.09842224 0.031026399 0.17811008 -0.0030224586 -0.2961528 -0.053443927 0.24244347
0.27360827 -0.34060067 -0.15932126 0.016429331 -0.2827549 0.12006933 0.11117011 -0.17483036
0.37186423 0.1648469 0.31008184 0.2287861 0.081317045 -0.18724635 0.32888046 0.056347016
0.093755364 0.28293496 -0.030937064 0.025171231 -0.08710855 0.1936616 -0.015268853 0.052263822
0.28882876 0.18070032 0.23130643 0.04041897 0.23858875 -0.02889697 -0.06104247 -0.20807923
-0.2787772 0.19579442 0.106194094 -0.2754328 0.056853358 -0.1549713 -0.27484456 0.17447548
-0.2874681 -0.28845847 -0.075120844 0.06731339 -0.15963414 0.18394488 -0.23136231 -0.15502477
-0.19714855 -0.1507163 0.10533213 0.18504274 0.027097918 -0.006135738 -0.17275657 -0.20550442
-0.32229114 -0.10414099 -0.07880797 0.022598272 -0.2031744 -0.33819872 0.0036676913 0.2484766
0.2716491 -0.10413677 -0.21978094 0.18540457 -0.10087044 0.2280375 0.2100598 -0.15546462
0.34496287 0.16357584 0.112042375 0.2081428 0.12836273 -0.21377967 0.21718273 0.20455392
0.23284346 -0.057323057 -0.25655046 0.010098131 -0.15334001 0.14580631 0.056113735 0.019973826
0.073320396 0.29558623 0.10682977 -0.22097407 0.20329383 0.22487377 0.25599447 -0.025318043
-0.2394849 0.066601194 0.09304906 0.007303859 0.2789441 -0.15818527 -0.28110692 0.15915267
-0.1733728 0.0128402645 0.008141444 -0.016491603 -0.046556097 0.13070674 -0.1786765 -0.071789436
0.3182964 0.10835473 -0.02083336 -0.15943748 -0.28829506 -0.057755854 0.2063374 0.11365602
0.3138467 0.09399312 0.2158088 -0.02881058 0.119971015 0.2774141 0.29224044 -0.21914239
-0.31393233 0.19176419 0.23600104 -0.11533959 0.28260118 -0.19417007 -0.0854803 0.020702919
-0.107060894 -0.10402065 -0.25380716 0.008540966 -0.15229544 0.2114956 -0.118827894 -0.22338077
-0.19742246 -0.19206654 0.11065666 0.11051964 0.011095529 -0.10571465 -0.16134582 -0.08815646
-0.21314147 -0.011889711 0.037628055 0.03757929 -0.23984285 -0.22310889 -0.03096613 0.2719259
0.24216424 -0.0011021908 -0.17385155 0.00704865 -0.24531864 0.17600171 0.23591469 -0.20394386
0.06217238 0.2444341 0.26583 0.1848595 0.085779525 -0.075993195 0.13824138 0.06058772
-0.16887341 -0.26384476 0.2363575 -0.03599635 0.1878335 -0.085689984 -0.15206227 -0.17730969
-0.28813082 0.0006197055 -0.048637517 0.0815546 0.08804103 -0.24423294 -0.13754463 0.037417326
0.2450492 -0.3291954 -0.23495702 -0.064484864 -0.1736655 0.2980154 0.10751784 -0.23009728
0.2950397 0.2501468 0.24896425 -0.06452379 0.26010156 -0.29513893 0.18723881 0.11160172
-0.044116285 0.09798536 -0.14681324 -0.16097793 -0.08082134 0.15506847 0.06508836 0.24719018
0.17868115 0.0394841 0.076732896 -0.16102107 -0.0472391 0.12893738 0.23897767 -0.2895339
-0.16460088 0.16675286 0.08044227 -0.34205213 0.30586302 -0.14795558 -0.34493846 0.15234098
-0.14572166 -0.31830263 -0.072879456 -0.25027466 -0.20363143 0.294973 -0.17742749 -0.09807808
00000000: 95e0 8ebe a477 98bd 4c1c 413e 42e1 ee3b
00000010: 0c3b 2b3e 05fb 22be 15fa e9bd 913d 98be
00000020: 7cdc b1ba 9991 c9bd 132b fe3c 7d62 363e
00000030: 7114 46bb 57a1 97be 05e8 5abd 1a43 783e
00000040: 6216 8c3e 3663 aebe 1d25 23be ce96 863c
00000050: 40c5 90be e9e6 f53d 28ad e33d bb06 33be
00000060: fd64 be3e a0cd 283e 0cc3 9e3e e746 6a3e
00000070: 8d89 a63d 82bd 3fbe 0563 a83e 21cc 663d
00000080: d002 c03d dadc 903e ba6f fdbc e633 ce3c
00000090: f865 b2bd 3a4f 463e 362a 7abc 9712 563d
000000a0: 5de1 933e 8109 393e 98db 6c3e 5d8e 253d
000000b0: 9c50 743e 57b9 ecbc ab07 7abd b912 55be
000000c0: e3bb 8ebe 557e 483e 4a7c d93d 8705 8dbe
000000d0: 11df 683d ccb0 1ebe 6db8 8cbe b3a9 323e
000000e0: 052f 93be d4b0 93be f5d8 99bd 9adb 893d
000000f0: 2277 23be 0c5c 3c3e 3eea 6cbe d0be 1ebe
00000100: 4fe1 49be 6055 1abe 5fb8 d73d d87b 3d3e
00000110: 74fc dd3c 4d0e c9bb 19e7 30be c06f 52be
00000120: 5803 a5be df47 d5bd 1366 a1bd 0320 b93c
00000130: f30c 50be 6228 adbe a65d 703b a670 7e3e
00000140: 9715 8b3e a945 d5bd 410e 61be b2da 3d3e
00000150: 2995 cebd aa82 693e eb19 573e 1e32 1fbe
00000160: f99e b03e 6d80 273e 7976 e53d 6323 553e
00000170: 8571 033e 0fe9 5abe 2665 5e3e 9576 513e
00000180: 846e 6e3e 95cb 6abd 955a 83be a272 253c
00000190: 2a05 1dbe 404e 153e 84d7 653d 26a0 a33c
000001a0: 0129 963d 1457 973e 91c9 da3d 0747 62be
000001b0: 422c 503e 4f45 663e b511 833e c967 cfbc
000001c0: 883b 75be 3566 883d 8190 be3d 3655 ef3b
000001d0: c3d1 8e3e 52fb 21be 3fed 8fbe ebf8 223e
000001e0: a488 31be f95f 523c b163 053c 6619 87bc
000001f0: 9bb1 3ebd fdd7 053e f9f6 36be 5706 93bd
00000200: bff7 a23e 16e9 dd3d b9aa aabc 9443 23be
00000210: 699b 93be 6791 6cbd 1d4a 533e 7dc4 e83d
00000220: 84b0 a03e 777f c03d fbfc 5c3e 2a04 ecbc
00000230: 5db3 f53d 3909 8e3e 8aa0 953e dd66 60be
00000240: bdbb a0be d55d 443e 42aa 713e 2a37 ecbd
00000250: 1ab1 903e 85d4 46be 4c10 afbd 2b99 a93c
00000260: be42 dbbd c708 d5bd 03f3 81be 68ef 0b3c
00000270: 56f3 1bbe 4d92 583e 0a5c f3bd eebd 64be
00000280: 1d29 4abe 17ad 44be f59f e23d 1f58 e23d
00000290: 06ca 353c ec80 d8bd d737 25be 608b b4bd
000002a0: c241 5abe 10cd 42bc e01f 1a3d beec 193d
000002b0: 5d99 75be a876 64be aeac fdbc df39 8b3e
000002c0: e7f9 773e 6377 90ba 2406 32be 5df8 e63b
000002d0: cf34 7bbe cb39 343e 9f93 713e a9d6 50be
000002e0: 77a8 7e3d ef4c 7a3e df1a 883e cf4b 3d3e
000002f0: 2dad af3d 52a2 9bbd 268f 0d3e d42a 783d
00000300: 27ed 2cbe a916 87be b307 723e e970 13bd
00000310: 6d57 403e 3b7e afbd 36b6 1bbe ac90 35be
00000320: e285 93be bb73 223a 2238 47bd 1906 a73d
00000330: db4e b43d 3318 7abe 80d8 0cbe e942 193d
00000340: 2dee 7a3e 4d8c a8be 9398 70be a410 84bd
00000350: 5ed5 31be 7995 983e 5032 dc3d 9f9e 6bbe
00000360: 720f 973e 3e13 803e 7cf0 7e3e 0c25 84bd
00000370: 082c 853e 731c 97be 88bb 3f3e 718f e43d
00000380: 47b3 34bd 8cac c83d 3656 16be 66d7 24be
00000390: a985 a5bd 45ca 1e3e 0c4d 853d 6c1f 7d3e
000003a0: 31f8 363e 14ba 213d 2326 9d3d b5e2 24be
000003b0: c97d 41bd 2908 043e 90b6 743e ca3d 94be
000003c0: 228d 28be 43c1 2a3e ebbe a43d 7521 afbe
000003d0: 149a 9c3e ab81 17be c69b b0be 46ff 1b3e
000003e0: 0f38 15be 90f8 a2be d341 95bd 0024 80be
000003f0: c284 50be b306 973e 8daf 35be 29dd c8bd

fc2.bias f4 [32]
0.111532666 -0.04202878 0.1654287 -0.17436838 -0.22510195 0.064186 -0.047458775 -0.012316297
-0.060832117 -0.22654222 0.020586774 0.16601394 -0.026544236 -0.10000198 0.19034182 -0.04159775
0.042058133 -0.28474426 -0.043396443 0.13810301 0.19888106 0.1606074 0.029879004 -0.20423627
0.021421649 0.23010293 0.064503945 0.022471994 0.032375056 0.15602443 0.1448438 -0.008544688
00000000: 3d6b e43d 5f26 2cbd 2466 293e a08d 32be
00000010: 2081 66be f373 833d 2264 42bd 4bca 49bc
00000020: 192b 79bd affa 67be 98a5 a83c 8fff 293e
00000030: 4c73 d9bc d7cd ccbd f7e8 423e 6762 2abd
00000040: 2645 2c3d 00ca 91be 78c0 31bd e06a 0d3e
00000050: 7aa7 4b3e 4476 243e d0c4 f43c 5023 51be
00000060: 747c af3c 1aa0 6b3e a51a 843d 3017 b83c
00000070: b59b 043d dec4 1f3e ef51 143e 05ff 0bbc

fc3.weight f4 [1, 32]
-0.16291381 0.32026193 -0.17516737 0.31367743 0.16173512 -0.22779039 -0.3357396 0.18111399
0.25060683 0.31856433 -0.23418757 -0.18248917 -0.17415461 0.18771702 -0.31244147 -0.20719646
-0.2095052 0.26716876 0.2054592 -0.21443313 -0.24145772 -0.20902169 -0.27380994 0.1669882
0.25500593 -0.2941306 -0.3259129 -0.25729135 0.26911363 -0.3107521 -0.29697785 -0.31131718
00000000: e1d2 26be 5ff9 a33e 135f 33be 549a a03e
00000010: e49d 253e e241 69be 10e6 abbe f275 393e
00000020: 8a4f 803e dd1a a33e dece 6fbe 71de 3abe
00000030: 9655 32be e438 403e 54f8 9fbe 4f2b 54be
00000040: 8888 56be 58ca 883e e663 523e 5c94 5bbe
00000050: b140 77be c809 56be d130 8cbe f4fe 2a3e
00000060: 2390 823e 4998 96be 0ede a6be b1bb 83be
00000070: 43c9 893e e61a 9fbe 7b0d 98be f764 9fbe
