amazon/20230719-201745/commm.pt (torch, 253910 bytes, 15 tensors)

encoder.learnable_skip f4 [2, 2]
00000000: db73 7f3f 0000 803f c280 7f3f b185 7f3f
0.99786156 1.0 0.99805844 0.9981337

encoder.pre_mp.0.weight f4 [64, 5]
00000000: 4190 bebb 50f9 723e 562c bbbe 0838 a7be
00000010: 40cf 2dbe fb45 f93d 853b 09bc 22a6 b43e
00000020: 93ad 29bd afb5 ee3d 53c0 0abe a608 b1bd
00000030: b40b dabe b9ff 96be 8472 3bbe cc23 8e3c
00000040: 0b0a 373e e914 893e 61cc 9bbe f42d 48be
00000050: b4d3 283e 435a bf3e 2364 c1bd 591f aa3e
00000060: e985 98bd 5d68 3a3d 8db7 cf3e 6e72 d3be
00000070: 0a34 8fbe 0512 e4bd bce4 34be 1596 c43e
00000080: 872f 93be 7d59 50be 4cbd 9ebe 2d66 d6be
00000090: aebe 84be c12f c53e bf1a 4d3e fb91 5e3e
000000a0: f832 ad3c ea47 6dbe 49e7 9f3d 678c d4be
000000b0: d035 a4be e77b 69be b2d6 913e 4cef 843e
000000c0: ffbe 4dbe a44f 99bc cbf7 903e 2f42 e23e
000000d0: e3ac 383e 979d 813d 36fc 9a3e 6d73 88be
000000e0: b793 ab3d 83e1 afbe f006 9dbe 8d42 69be
000000f0: b1d7 513e 7a98 3a3e a3ed 88be 73c6 073e
00000100: 22d0 783e b7c6 5ebd 3c24 9d3c b707 d03d
00000110: eeff 8c3e a2cf da3e ce77 afbe dc89 25be
00000120: 0feb 313e 7dad bc3e 1f38 c63e 2ebe c83e
00000130: 591a b13d 66cf c5be 5dde 323d 6bf2 8dbe
00000140: 07c5 d3be 11ee cc3e 0d78 ac3e 970d e6be
00000150: 0ce6 a43d b881 95bd b5c6 91bd 220d 54be
00000160: 4eae 2d3e 74d5 88be 9006 2a3e ba17 683e
00000170: 23e1 a23e f228 293e 11a8 e3be 8a20 93be
00000180: f64e 673e 6123 ba3d b6ff b3be 4e3b 85be
00000190: 457b d83e 861c 9b3e dc3e 49be 0363 e9bd
000001a0: 76e5 dabe 5eef aebb 2c6b adbe f60e b2be
000001b0: 9f3d e0bc 9cba 833d 6542 39be 4203 893e
000001c0: 0e7f 8cbe d09a ce3e 0dc2 9b3e 48bb c1be
000001d0: 827d e8bd 9c6d b03c a5f4 883d d148 dc3d
000001e0: f077 363e 90c2 f33c 2739 62be 6ce1 553e
000001f0: 8a09 ddbe 7f40 87be 076d ecbd acda 5fbe
00000200: 50ac 20be 2301 bcbe c3a1 bcbd 515c c83d
00000210: 2db0 96be 4751 d4bc b264 a23e 1e2e 32bd
00000220: af4a 773c 4f2d 28bd 4145 b43d ba51 903e
00000230: 7132 da3e b0d3 923e ea1a d83e 48d3 0ebd
00000240: 73fb cebe 1c81 56be 2b2b 9d3e 7553 b4bb
00000250: 0245 66be 72cb b0be b069 d5be f1d1 bfbe
00000260: f701 bcbd 1366 793e f729 763e fdc7 dbbe
00000270: b291 8f3e 392e b4be c597 c5bd 9dae 3bbe
00000280: 4e67 b2bd d8d9 b2bd d4f6 ccbe 213e c5be
00000290: 455e 8dbd 7003 0a3c 651b 4dbe 3ac8 293e
000002a0: 9576 cfbe e291 06bd c3f4 c73e 0d2b 3abe
000002b0: 742f d03e 39d0 283e 3533 cdbe 36a8 913e
000002c0: a651 49bd 3a3c 4ebe 2a25 b63e cff5 b9be
000002d0: 0150 4d3d f00e bbbd b164 a23e 2829 fb3d
000002e0: 3acd 593e 3f30 243e bc03 d7bd 5b98 c5bd
000002f0: 5ff0 bdbe a2a4 753e 4e63 b43e a543 9b3e
00000300: d80f a0be 5f64 ba3c 7df6 9fbe 10d7 79be
00000310: 123d 84be 9638 1a3e 2897 89be 6564 44bc
00000320: 4ad7 883c 27ad 943e 6af3 abbe 7d0e 9cbe
00000330: 86d2 83be de71 a13e 3f2b 22be 28ee bf3e
00000340: c12e 233e 674c 5e3d ba38 b7bb 7ca4 b9bd
00000350: 0209 6f3d 788a ccbd 4bba 6aba c7f5 6f3d
00000360: f25a b2be 8c8c 71be ff1d b83e 8a96 babe
00000370: d5dc 0cbd b957 e13e 74d6 273e deee 753c
00000380: 0b3a c5be 666f 653e 5ac7 a1be daa7 04be
00000390: 1249 1cbe a1f2 8cbd 5b0e d53a 2863 bb3e
000003a0: 3daa 6f3d ef02 cf3e 92b0 8d3e 630e 92be
000003b0: a30f 4b3e f48c a0be 9b79 3fbe 634e 093e
000003c0: 5da2 193e f513 ab3e 5de2 15be da1b a7ba
000003d0: 3e68 693e 5493 debe 4b2e a53e 012f bcbe
000003e0: b0e2 093c 0a18 97bd fb8b 73be 47a3 683d
000003f0: 608a be3e ed79 03be 26be 86be f876 27be
-0.0058155362 0.23727918 -0.36557263 -0.32659936 -0.16973591 0.12171551 -0.008376007 0.35283
-0.0414253 0.11655747 -0.13549928 -0.08644228 -0.42587054 -0.29491976 -0.18305403 0.017351054
0.17874925 0.26773766 -0.30429366 -0.1954878 0.16487008 0.37373552 -0.09442928 0.3322704
-0.07447416 0.045509685 0.40569726 -0.4129824 -0.2796939 -0.111362495 -0.1766538 0.38395754
-0.28747198 -0.20346637 -0.31003797 -0.4187483 -0.25926727 0.38512996 0.20029734 0.21735375
0.021142468 -0.23171964 0.07807786 -0.41513368 -0.32072306 -0.22801171 0.28484112 0.2596382
-0.2009239 -0.018714733 0.2831405 0.4419112 0.18034701 0.06328886 0.30270547 -0.26650563
0.08377784 -0.3435174 -0.30669355 -0.22779293 0.20492436 0.18222228 -0.26743802 0.13259296
0.24298146 -0.054388728 0.019182317 0.101577215 0.2753901 0.42736536 -0.3427109 -0.1616587
0.17374824 0.3685111 0.38714692 0.39207596 0.086476035 -0.38634795 0.043669093 -0.27724013
-0.41361257 0.4002538 0.3368534 -0.44932243 0.080516905 -0.073001325 -0.071179785 -0.20708135
0.16961023 -0.26725352 0.16604066 0.22665301 0.3181239 0.16519526 -0.44464162 -0.28735763
0.22588715 0.09088779 -0.3515603 -0.26021808 0.42281547 0.302952 -0.19652885 -0.11395838
-0.4275319 -0.0053385934 -0.33870828 -0.3477704 -0.027373133 0.06432077 -0.18091734 0.26760298
-0.27440685 0.40352488 0.30421486 -0.37838197 -0.11352064 0.02153664 0.06687287 0.10756076
0.1781919 0.02975586 -0.22092114 0.20886773 -0.4317134 -0.26416394 -0.11544233 -0.2186076
-0.15690732 -0.36719617 -0.09210541 0.09783233 -0.29431286 -0.025917662 0.3171745 -0.043501012
0.01509349 -0.041058835 0.08802272 0.28187352 0.4261661 0.2867713 0.42208034 -0.034869462
-0.40426216 -0.20947689 0.30696997 -0.005503113 -0.22487262 -0.34530216 -0.41682196 -0.3746486
-0.09180062 0.24355344 0.24039446 -0.42926016 0.28040844 -0.35191515 -0.09648088 -0.18328328
-0.0871111 -0.08732957 -0.40032065 -0.38523963 -0.06902746 0.008423671 -0.20029981 0.16580287
-0.40520158 -0.03285397 0.39053926 -0.18180485 0.40661204 0.1648568 -0.4007813 0.28448647
-0.04915013 -0.20140162 0.3557523 -0.3632035 0.050125126 -0.091337085 0.31717446 0.12263709
0.21269694 0.1603403 -0.10498759 -0.096482 -0.3709745 0.23988584 0.35232013 0.30325046
-0.31262088 0.022752939 -0.31242743 -0.24398446 -0.25827843 0.15060648 -0.26873136 -0.011986827
0.01670422 0.29038355 -0.33584148 -0.30479804 -0.25746554 0.31532186 -0.1583681 0.37486386
0.15935804 0.05427208 -0.005591479 -0.09064576 0.0583582 -0.09987348 -0.00089541514 0.058584
-0.3483501 -0.2358877 0.35960385 -0.36442977 -0.03439029 0.4401224 0.16390401 0.015010564
-0.38520846 0.22405776 -0.31597406 -0.12954655 -0.15262249 -0.06882215 0.0016254889 0.36599088
0.05851196 0.40431926 0.27673775 -0.285266 0.19830184 -0.3135754 -0.18698733 0.13408808
0.15003343 0.33413664 -0.14637132 -0.0012749389 0.22793671 -0.43471777 0.3226188 -0.3675461
0.008415863 -0.07377632 -0.23783867 0.05679634 0.37214947 -0.1283948 -0.26316947 -0.16353977

encoder.pre_mp.0.bias f4 [64]
00000000: 7b16 233d c088 5d3d 6cc2 b3be 6d1f 0d3d
00000010: 724f 9d3e 7948 cf3e d5c4 873e cee8 753d
00000020: 684c 583e 0160 61be 9044 bcbe 9247 c3be
00000030: 181c e33e 2b4c 903e af3e 9fbe a5c1 353e
00000040: b248 ab3e beb0 e33e d422 c73e cefa af3e
00000050: 3a53 d6bd 2e7f 23be 6adb ba3e c1da 803e
00000060: 8829 8bbe 9e56 cd3e 842b 5a3e 441e 773e
00000070: fcce 90be fac7 003e 31ea 21be e9d9 b13e
00000080: 4dbf a2bd 1799 2f3e a440 a83d 775a 413e
00000090: 66cd 1dbe b1d4 5c3e 1f85 9ebe dc5e ca3d
000000a0: 94d5 99be 8411 e3be 48b8 b6be dffc b33e
000000b0: 5419 7a3e 228a d53e aff3 b83e cb2e cbbe
000000c0: 9b80 9dbe 0e6d 8fbd 0b86 93be 1f03 9e3e
000000d0: 05db abbe b33e 5dbe 0124 dcbe 8abe 80be
000000e0: ed5c bb3e 0d22 ba3e 334b a53e 8ab0 af3e
000000f0: 7685 ca3e b58d ecbd 7a28 4b3e 048b cb3e
0.03981636 0.054085493 -0.3510927 0.034453798 0.30724674 0.4048498 0.26517358 0.060036473
0.21122897 -0.22009279 -0.3677106 -0.3814054 0.4435737 0.28183112 -0.3110251 0.17749651
0.334539 0.4447078 0.3889376 0.34371036 -0.10465093 -0.15966484 0.36495525 0.25166896
-0.27180123 0.40105146 0.21305662 0.24132639 -0.28282917 0.12576285 -0.15811993 0.34736565
-0.07946644 0.17148243 0.08215454 0.18882166 -0.15410385 0.2156551 -0.30960938 0.09881374
-0.3004576 -0.443493 -0.3568747 0.35153863 0.24423724 0.4170695 0.36123416 -0.39684138
-0.3076218 -0.070032224 -0.28813204 0.30861756 -0.33565536 -0.21605949 -0.4299622 -0.2514537
0.36594334 0.36354104 0.32283935 0.34314376 0.39554948 -0.11550466 0.1983966 0.39754498

encoder.convs.0.bias f4 [64]
00000000: 4202 0bbb 06f2 183b 0d4c c33a de08 fcba
00000010: d1cb 233b 12a8 383b 98ec 353b 9d33 163b
00000020: 73d5 1a3b 7ea2 5d3a 0000 0000 ccc3 05bb
00000030: b2ce 3abb 0000 0000 fdcf 18bb 0000 0000
00000040: 20cc 1ebb 97a4 2fbb 0000 0000 0000 0000
00000050: d511 08bb d9fc 27bb 5ab5 8cba de33 e8ba
00000060: cfe5 0abb 1e9f 31bb 0000 0000 c003 b0ba
00000070: 0000 0000 0000 0000 01c3 0b3a 0000 0000
00000080: 0000 0000 4a0f e6ba 0000 0000 080a c1ba
00000090: 96e8 f7ba 6731 07bb 0000 0000 d82b f4ba
000000a0: eb9e 113b 932a ea3a 58b8 16bb a27c e73a
000000b0: ae72 613a 9e6a 08bb 3e94 303b 0000 0000
000000c0: 0000 0000 ef5c 1c3b a523 2abb 832f 0d3b
000000d0: f005 113b 16e0 33bb a25f f93a 3ec2 1cbb
000000e0: 0000 0000 a3a4 1c3b 0000 0000 0000 0000
000000f0: 0167 aeba 440d 8e3a cd7f faba af46 06bb
-0.0021211063 0.0023337617 0.0014899984 -0.0019228717 0.002499331 0.002817635 0.002775943 0.0022918948
0.002362576 0.0008454694 0.0 -0.0020410893 -0.0028504548 0.0 -0.002331733 0.0
-0.0024230555 -0.0026800984 0.0 0.0 -0.0020762582 -0.0025632887 -0.0010735199 -0.0017715653
-0.0021194106 -0.0027102898 0.0 -0.0013428852 0.0 0.0 0.0005331487 0.0
0.0 -0.0017552164 0.0 -0.0014727721 -0.001891392 -0.0020628811 0.0 -0.0018628789
0.0022219967 0.0017865471 -0.002299806 0.0017661045 0.00086001575 -0.0020815502 0.0026943828 0.0
0.0 0.0023859104 -0.0025961187 0.0021543212 0.0022128783 -0.0027446798 0.0019025693 -0.0023919488
0.0 0.0023901842 0.0 0.0 -0.0013305844 0.0010837694 -0.0019111574 -0.0020488908

encoder.convs.0.lin.weight f4 [64, 64]
00000000: cbe5 c43b 84a3 34be 5c53 febd 223b adbd
00000010: 54d3 ab3c 8bb2 a63d 6a04 26bd 2f52 b3bd
00000020: 7b19 be3d f461 55be 0318 1d3e 35e0 bcbc
00000030: 8719 183e 105c 253e 46ab b03c a462 903d
00000040: b01e ffbd b9ac 1c3e bd2f ff3d e0f7 13bd
00000050: 9928 b13d 17f6 23bc 540c 2b3e 162e b23d
00000060: 01cd 233e fbb3 4bbe c5d8 553e 24e1 a03d
00000070: edec db3d 2d2d 4e3d 8f7d 0f3e af89 4e3e
00000080: 49d8 85bc 4012 38be dc66 493e 34b7 43bd
00000090: 01ea d9bd 6050 063e 90c7 fb3d 7434 dc3c
000000a0: 3e12 3cbc dfe7 20bd c172 4d3e 71e8 043e
000000b0: e1d6 013e 7534 0b3e e764 ecbd 5cd2 413d
000000c0: bc9e 3dbe abf4 023e 2c96 59be 68bd 5fbe
000000d0: 6df8 58be 0b72 0a3e 58e3 c93c ffaf 2a3b
000000e0: 8c60 043d 9323 acbd 5bff 8abd 9382 17be
000000f0: bf3f 61bd 4d31 06be ec58 6a3b 7706 2c3e
00000100: d9f6 39be 1b56 df3d 9676 27be 9008 bdbd
00000110: 6b40 373d a4a7 1b3d d008 333e c51d 213b
00000120: 324c a9bd 9419 bcbd 49f0 8b3b dac6 28be
00000130: 0769 2bbe d99b b8bd 2871 093c 7ba3 18be
00000140: c354 f8bd 4a91 203e eb47 4f3e cdf8 86bd
00000150: ffc8 40be 11fb aebd 05f3 b73d 9ad1 943d
00000160: a07f 8ebd 4b5e 41be 3a90 80bd 5751 3cbd
00000170: df8c fa3d 06a4 e1bd 2cc9 073e 131c 023d
00000180: d84a 1fbd e587 43be d66c 5d3e feca 15bd
00000190: 566f 0e3e 1206 e1bd 4266 5abe 747f 2ebe
000001a0: b951 e8bd 6d69 91bd 2bd3 06bd 422d 3b3e
000001b0: 324e 4abe 52c9 e13d d31b 3d3e e372 84ba
000001c0: 889d 0cbe ca7a 903b a0d9 483d aea7 c83d
000001d0: 6b9f 89bd 10ac 92bd 5636 d6bd cede 58be
000001e0: 0582 a03d c43b 25be e62b d0bd 4df7 8cb8
000001f0: 3b48 2d3e 494f 473e acca 1ebe 0ab7 423e
00000200: 0807 483e 2994 343e 3f18 933c 1885 333e
00000210: 6018 d93d 77c3 1dbe ad1f e7bd 8813 403b
00000220: 92d9 19be cfca 8fbd c8df 323e 23ef cc3d
00000230: cc30 423e b4d1 093b 3131 e5bd 54e1 133e
00000240: 10dc 8d3c 9dd0 1b3d 6b8c b9bd db1c b93d
00000250: 74b7 22be 21d3 2f3e 63a1 423e 8c9e a53d
00000260: 40ec 2a3e ffbd 083e fed6 a6bd 271f 3fbe
00000270: a6b2 ee3c 5b87 0c3e 2881 bfbc 93be 9f3c
00000280: df8e 253e 8d5e bd3d 00a2 243e 798d f33c
00000290: 1aac ba3c b6a6 4abd 2913 18bd 07dd e9bd
000002a0: 0c62 153e fbbd 483e d515 a23d f0b7 a63b
000002b0: fa18 90bd adf6 57be 470e 21bd 8df0 1fbe
000002c0: 69c2 23be 3435 2cbd 5c93 31bd 4941 353d
000002d0: b51c 24be 9bbc 1d3e 6926 4bbe b5bc d0bd
000002e0: cebc aabd 110f 7d3c 08f2 b93d 8b83 65bd
000002f0: 717e 0f3d 215d 5ebd 2844 aabd 1b6f fabc
00000300: 5371 3a3d ad52 59be aa57 18be 8d2c 2f3e
00000310: 3691 c43d ac8e fbbb 92bd 0f3c 500b e53c
00000320: 7f4f 463d d664 15be 5ee2 69bd 9280 49be
00000330: 3c44 30be 75bd 2ebd 330a fabc 5961 2f3e
00000340: a4e1 103d 67a6 17bd dbc0 01bc 64b9 f33d
00000350: 1c5f 82bd 37e1 1dbd 35c6 39bd 23bf 34be
00000360: 7b19 e8bc b6e8 4ebe 9944 f2bd d415 0fbe
00000370: 371f 273e 023e 4abe 82a4 533e da5a a23d
00000380: 30da 13be d2b7 353e 5954 4bbd 02bc 3dbe
00000390: db10 03bd 4736 d73d c696 55be 019c 94bc
000003a0: 1a5b b83d efdf a8bd 7345 b13c 9ab5 b1bd
000003b0: b9b6 16be e1a8 2b3e f763 1fbe a34a 21ba
000003c0: ca9d 973d 96da f3bd ab06 da3d 7714 3abe
000003d0: faaf 553e 5d6e c13d b455 ebbc c273 36be
000003e0: c4d8 9b3b 6958 993d a4c2 f4bd 2d0c efbc
000003f0: e1e8 5ebe 5393 5fbe 2567 d0bc 318a 373e
0.006008839 -0.17640501 -0.12418243 -0.08458544 0.020974793 0.08139523 -0.040531553 -0.0875591
0.09282204 -0.20838147 0.15341191 -0.023056129 0.14853488 0.161484 0.021566045 0.07050064
-0.12457025 0.15300263 0.12460277 -0.036125064 0.086503215 -0.010007403 0.16703922 0.087001964
0.15996172 -0.19892876 0.20883472 0.07855442 0.107385494 0.05033605 0.1401274 0.2016971
-0.016338484 -0.17975712 0.19668144 -0.047782138 -0.10640336 0.13116598 0.12293923 0.02688048
-0.011478959 -0.03928363 0.20063306 0.12979294 0.12679626 0.1359423 -0.11542683 0.047319755
-0.18517584 0.12788646 -0.21248692 -0.21849597 -0.21188517 0.13520066 0.024644539 0.0026044843
0.032318637 -0.08405223 -0.067869864 -0.14795904 -0.054992434 -0.13104744 0.0035758568 0.16799341
-0.18160571 0.10905095 -0.1635383 -0.09230149 0.044739168 0.03800167 0.1748383 0.0024584394
-0.08266486 -0.09184566 0.0042705876 -0.16482106 -0.16739284 -0.090141006 0.008388795 -0.14906113
-0.12125542 0.15680423 0.20242278 -0.06590424 -0.18826674 -0.08543981 0.08981899 0.07266541
-0.06957936 -0.18883626 -0.06277509 -0.04597601 0.122339 -0.11017613 0.13260335 0.031765055
-0.038889736 -0.19094808 0.21623549 -0.03657054 0.13909659 -0.10987486 -0.21328071 -0.17040807
-0.11343712 -0.071001865 -0.03291623 0.18278983 -0.19756392 0.11024727 0.18467645 -0.001010504
-0.13731968 0.004409169 0.04903567 0.09797607 -0.0671986 -0.071617246 -0.104595825 -0.21178743
0.07837299 -0.1613608 -0.10164623 -6.7217836e-05 0.16922085 0.19463839 -0.15507 0.19015136
0.19533932 0.17634644 0.017955897 0.1753124 0.10600352 -0.15406595 -0.112853386 0.0029308517
-0.15024403 -0.070211045 0.17468178 0.10006549 0.18963927 0.0021029534 -0.11191023 0.14441425
0.017316848 0.038040746 -0.09059986 0.09038707 -0.15890294 0.17170383 0.19006877 0.08086881
0.16691685 0.13353728 -0.08146475 -0.18664227 0.02913792 0.13723509 -0.023377016 0.019500053
0.16167782 0.0924655 0.16077423 0.029730545 0.022787143 -0.049475394 -0.037127648 -0.11419111
0.14588183 0.19603722 0.079143204 0.005087845 -0.07036014 -0.21090193 -0.039320257 -0.15619107
-0.1599213 -0.042042926 -0.043353423 0.044251714 -0.16026576 0.15403979 -0.19838871 -0.10192243
-0.08336793 0.015445487 0.09079367 -0.056033652 0.035032693 -0.054288033 -0.08313781 -0.030570557
0.04551823 -0.21222945 -0.14877191 0.17106839 0.09598009 -0.00767692 0.008773224 0.027959496
0.048415657 -0.14589247 -0.057100646 -0.19677952 -0.1721353 -0.04266115 -0.030522441 0.17126979
0.035371438 -0.037023928 -0.0079195155 0.11900595 -0.06365797 -0.03854486 -0.04535504 -0.17651038
-0.028332463 -0.2020596 -0.1182949 -0.1397317 0.16320501 -0.19750217 0.20668224 0.07927485
-0.144387 0.17745903 -0.049640987 -0.1852875 -0.031998497 0.105083995 -0.20858297 -0.018140795
0.09001751 -0.08245837 0.021639561 -0.08677216 -0.1471814 0.16763641 -0.15565477 -0.00061527843
0.07403143 -0.11906926 0.10645803 -0.18171869 0.20867911 0.09444878 -0.02872739 -0.17817596
0.004756065 0.07487566 -0.11951187 -0.02918061 -0.21768524 -0.21833543 -0.025439808 0.1792381

encoder.convs.1.bias f4 [64]
00000000: 7c7f 1bbb 0000 0000 a997 3dba b6ef 12bb
00000010: 1046 f6ba c7a6 f33a 1e58 27bb b627 1dbb
00000020: 7bbd e4ba f43f 223b d441 ddba 93af 08ba
00000030: 5b7f 253b e157 163b 6b22 02bb ea71 10bb
00000040: 85ef 313b 41df ec3a b82a 073b fcce 543b
00000050: 6dad e7ba 1cca d5ba 0000 0000 2669 e4ba
00000060: 01b3 12bb c0bd 05bb 4d22 5a3a 381e 2b3b
00000070: a406 f43a c2fd 1bbb 92cb 153b defa 433b
00000080: 3083 cf3a d5b7 06bb aeba ac39 b439 c9ba
00000090: 0000 0000 0000 0000 0dbc 2d3b 6eb5 683b
000000a0: f75c b5b9 c9ac 313b 5209 1bbb 0000 0000
000000b0: a82c f83a e143 02bb b191 503b 7613 3abb
000000c0: 973f 053b ef35 323b 8c42 dbba 8f8e cfba
000000d0: 4ac2 6a3a e901 deba 6e79 15bb e788 933a
000000e0: 7624 2e3b eb60 0ebb 8cd3 283b 9606 cc3a
000000f0: c953 303b e5c6 fbba 5bf6 dc3a edfe 47bb
-0.002372711 0.0 -0.0007232377 -0.002242071 -0.0018789191 0.0018589132 -0.00255347 -0.0023979968
-0.0017451489 0.0024757357 -0.001688058 -0.0005214151 0.0025252912 0.0022940564 -0.001985694 -0.0022040554
0.0027150821 0.0018071906 0.0020624828 0.0032472005 -0.0017675586 -0.0016310844 0.0 -0.0017426356
-0.0022384527 -0.002040729 0.0008321151 0.002611054 0.0018617702 -0.0023802374 0.0022856933 0.0029904167
0.0015831944 -0.002055635 0.00032945484 -0.001535228 0.0 0.0 0.0026509792 0.003550853
-0.00034592274 0.0027111045 -0.0023656678 0.0 0.0018934207 -0.0019876885 0.003182512 -0.0028392947
0.0020332092 0.0027192791 -0.0016728207 -0.0015835332 0.0008955343 -0.0016937825 -0.0022807973 0.001125601
0.0026572025 -0.0021725248 0.0025760857 0.0015565928 0.0026905409 -0.0019209055 0.0016858088 -0.0030516938

encoder.convs.1.lin.weight f4 [64, 128]
00000000: 94bb e2bc 6eee cabd b374 88bd d70f a8bd
00000010: 400d 223e c619 58bc 58d2 0e3e efda f8bd
00000020: 34ad b33d 6908 26be 9d35 78bd ca1a 8fbd
00000030: 8514 2bbe 894c 09be 835e eebd d6d0 07bd
00000040: 22f5 78bd 0973 29be 5a24 d73c acfa 973d
00000050: 217c e53c 16f6 0b3e 64ec 90bc 66d9 0d3e
00000060: 6162 14bc 10ed 7bbc 1c1f 4ebc 1c3b 96bd
00000070: 1750 90bd 30cf 243d ae2a c1bd 974e 703d
00000080: 417e 0ebe 2f47 9ebc efdc bdbc 84ea 9cbd
00000090: b8c5 033e c42c 15be 3fe5 a73d 341e 20be
000000a0: c49f d13d c192 2d3e 7c8c 1fbd 9abc 2dbc
000000b0: cfa9 f7bb 66dc d43d 886a 083c cdd2 28bd
000000c0: ad93 1d3e 4997 083e 919d 1abc 7a05 b4bd
000000d0: 7f15 cb3d cdaa 9bbd 373e c8bd 1faf e5bd
000000e0: 9499 643c 4113 9fbd 890f ee3d 5f0c f83d
000000f0: 115f 9fbd 0e0f 94bd 5cc3 003e 32c4 b4bd
00000100: 6792 e03d c707 59bc 45fd fc3d b799 b33d
00000110: 1ea7 03be e7aa 03be 8d17 9a3d a6af b5bd
00000120: 59f9 3f3c c43a 003d 9c53 12be a985 43bc
00000130: 9303 f73d 0055 e33b 8180 e5bd 41e2 1d3e
00000140: 03c7 183e 75d6 233d 4082 dbbd aadc 9b3d
00000150: 54ac 433d f7fe dabd 64c1 04be 84ff 9abd
00000160: 4434 293e 4f83 883c 804f 28bb fe93 a23d
00000170: 3a68 cbbd e8fb 64bd 4833 e63c ebd3 1d3e
00000180: 0062 4abc 9612 183d e79c 16be cfb7 2bbe
00000190: 5b56 0e3d e102 86bb 1109 0e3e 64e5 1b3d
000001a0: dd39 203e a6bd 13bd 8f7f 4ebd 9783 8fbc
000001b0: 9e44 acbd ca6f 153c 60f7 17be 681f a43c
000001c0: 20c5 45bc 80a4 603d 4f27 2d3e 8717 793d
000001d0: 61f5 dc3c 4a4a f1bd 75a4 81bd f02f 92bd
000001e0: 37fd 18be 6383 bc3d bffb 2b3e 1a70 f03d
000001f0: d933 0c3e 79bb cbbd 6782 99bd 7f7f 6cbd
00000200: f724 a3bd eabf 0ebe 00e8 14be e0c1 09bc
00000210: a6a8 d6bd 5f45 08be e59c 303e f96b 29be
00000220: c83e 63bd 02ba e93d 0e4d b9bd b60c a83d
00000230: f887 01be 001e dcba 242c 843d e623 61bd
00000240: cef3 00be 70f2 0d3d 6000 f2bc cd03 1e3e
00000250: c843 debc 39d8 0b3e e697 99bd 0512 8dbd
00000260: 0003 053a 6a05 cb3d 5902 273e 5284 a93d
00000270: 1fc4 a2bd 1077 463c 4a75 f03d 2d67 103e
00000280: 5ff5 013e 7c48 743d 4069 b2bc 62b9 f73d
00000290: 8cbc 723d be77 1cbe 3b3f 313e 0004 54bc
000002a0: 512d 2d3e 6691 d63d e095 36bc cfa7 1abe
000002b0: a85a 2dbe 9b9d adbd d6d0 963d 206b 5f3c
000002c0: 00e5 8d3c 908f 13be d252 c73d 1457 33bd
000002d0: fe02 be3d ee62 13be 00e7 463b 3a5e b73d
000002e0: 7caa 563d a30f 34be 2d55 183e c4bb 06be
000002f0: c6ca 26be 8e05 fbbd c781 2bbe b42e 843d
00000300: e76d 083e f78f 113e 407b 7e3d a045 42bd
00000310: 04d9 183d e854 603d de70 33be 0010 8fba
00000320: a0e6 343d 4989 123e fae9 d93d 0054 4cbd
00000330: 4084 03bc 5e9b e63d 2766 243e 5270 b9bd
00000340: 1774 333e 88e2 f7bc 0b98 a1bd 8096 81ba
00000350: f7e4 0d3e 8dbd cebd 605f ca3b c15e d0bd
00000360: c004 91bb 36dc fc3d 7e32 b3bd 46b1 a2bd
00000370: 94da 483d aa71 aa3d 20e6 5dbc 3cbb 26bd
00000380: b064 37bc 9415 5c3d d928 213e b62c a33d
00000390: 88fe ea3c dc66 703d 10f7 583d f0a3 08bc
000003a0: 2b57 f3bd ca30 abbd 24c7 7d3d a037 7e3d
000003b0: 9f28 b8bd ffb5 c7bd 2e0a cc3d 00f1 02bd
000003c0: e281 dc3d 28aa 403d b098 0c3d f020 a4bc
000003d0: a186 9dbd 6825 373d 77f8 e2bd 85c3 9fbd
000003e0: 5872 02be 0020 6db8 d0f1 c3bd c387 85bd
000003f0: f825 6abd c674 9f3d 8296 c83d 92b9 f43d
-0.027677335 -0.09908758 -0.066628836 -0.08206146 0.15825367 -0.013189739 0.13947427 -0.12151133
0.0877327 -0.16214146 -0.060598005 -0.069875315 -0.16707046 -0.13408102 -0.116391204 -0.033158146
-0.060780652 -0.16547789 0.026262451 0.07420859 0.02801329 0.13668093 -0.017690845 0.13852462
-0.0090566585 -0.015376344 -0.012580659 -0.07335493 -0.07046526 0.040236652 -0.09431969 0.0586687
-0.1391535 -0.019321052 -0.023176638 -0.07661918 0.12868392 -0.14567858 0.08198022 -0.15636522
0.10235551 0.16950513 -0.038952336 -0.010604048 -0.0075580846 0.103936 0.00832618 -0.04121666
0.15388365 0.1333896 -0.009436981 -0.08790107 0.099162094 -0.07600937 -0.097774915 -0.11215042
0.0139526315 -0.07767344 0.11624057 0.121117346 -0.07781804 -0.07229434 0.12574524 -0.08826484
0.10965424 -0.013246483 0.12352995 0.08769553 -0.12856719 -0.12858163 0.07524023 -0.08871393
0.011717164 0.031306043 -0.14289707 -0.0119337225 0.120612286 0.006937623 -0.11206151 0.1541834
0.14919667 0.039999444 -0.107182026 0.07610448 0.047771767 -0.10693162 -0.12964398 -0.07568267
0.16523844 0.016664175 -0.0025682151 0.079383835 -0.09931989 -0.0559043 0.028100625 0.15412872
-0.012352467 0.0371271 -0.14708291 -0.16769336 0.034750324 -0.0040896987 0.13870646 0.03806056
0.15647073 -0.036069535 -0.050414618 -0.017518802 -0.08411525 0.009120891 -0.1484046 0.020034507
-0.012070924 0.05484438 0.16909526 0.060813453 0.026972475 -0.11781748 -0.06330196 -0.071380496
-0.14940344 0.092047475 0.16795252 0.11740132 0.13691653 -0.09947867 -0.074955754 -0.057738777
-0.07966035 -0.13940397 -0.14541626 -0.00840804 -0.10481386 -0.13307713 0.1724735 -0.16545095
-0.055479795 0.11412431 -0.090479 0.082055494 -0.12649524 -0.0016793609 0.06453732 -0.054965876
-0.12593004 0.034655035 -0.029541194 0.15431137 -0.02713193 0.13656701 -0.074996755 -0.068882026
0.00050739944 0.09913142 0.1630949 0.08277191 -0.079475634 0.012113348 0.11741121 0.14101858
0.12691258 0.05963944 -0.021778703 0.12095906 0.059261844 -0.15280053 0.17309277 -0.012940407
0.16911818 0.10476951 -0.011144131 -0.15103076 -0.16929114 -0.084773265 0.07364051 0.01363638
0.01732111 -0.14410233 0.097325936 -0.043784216 0.092779145 -0.14393207 0.003035009 0.08953519
0.05240868 -0.1758409 0.14876242 -0.13157564 -0.1628829 -0.12256919 -0.16748725 0.064542204
0.13323174 0.14215074 0.06212926 -0.04742968 0.037316337 0.054768473 -0.17523524 -0.0010914803
0.044165254 0.14310183 0.106403306 -0.049884796 -0.008027136 0.11260103 0.16054593 -0.090546265
0.17524754 -0.030259386 -0.07890328 -0.0009886771 0.13856874 -0.10094748 0.0061759204 -0.10174323
-0.004425615 0.123466894 -0.08749865 -0.079439685 0.049036577 0.08322461 -0.013543636 -0.040705904
-0.011193439 0.053731516 0.15738238 0.07967512 0.028685823 0.058691844 0.052969992 -0.008339867
-0.1188186 -0.08358915 0.061957493 0.062064767 -0.08992123 -0.0975151 0.09962879 -0.031968117
0.10766961 0.047037274 0.0343253 -0.020035237 -0.07691694 0.044713408 -0.11082547 -0.07800964
-0.12738931 -5.6535006e-05 -0.095676064 -0.06520035 -0.057165116 0.07785945 0.09794332 0.11949457

encoder.post_mp.0.weight f4 [64, 192]
00000000: 1178 393c 84b3 92bc 8149 253d a5f1 8d39
00000010: 112d 0d3d 7134 d8bc f81d 02bd 76c3 713c
00000020: f9cf 4ebb 49ac 75bd 92a9 553d 044d 84bd
00000030: 7f07 5e3d 976b 77bd 0e83 7dbd 0937 403d
00000040: 3a13 053d 9633 2d3d 9bf1 0dbd c85f 54bc
00000050: f89f 013c 66f5 f33c 54e0 a5bb 250a 96bd
00000060: 3170 87bc 64b3 403d fa51 cfbb b75f ccba
00000070: 8308 053d 984b fabb 4aa0 353d 4762 05bd
00000080: f2d0 373c bd73 1b3c 745a 6f3d 7ad1 afbb
00000090: 2c02 37bd 10db 86bc 6e15 1fbb 1778 87bc
000000a0: 15f6 dfbb 25c5 92bc 0af1 0f3d 2cbb 91bd
000000b0: 0a0a c73c cd8b 48bd b766 863d a56b 273b
000000c0: 36d5 173c d06c 4abd 9272 6bbc edab 373d
000000d0: 739a 193d 8362 3fbd 89fa 763d 5c15 a5bb
000000e0: a5f3 673d 4169 373b 8089 f7bc 4108 093c
000000f0: eedb 1e3d d236 8cbd 3de4 1bbd 4e40 463d
00000100: f030 8a3b a81c 20bd 150e 04bc e4a0 163d
00000110: f799 95b9 59a6 77bd e5b5 95bd 8846 7a3d
00000120: 259c b8bc ba49 65bd 84ef 32bc 7201 e13c
00000130: 6ce2 583d 0451 36bd 70cc 1c3d 345e efbc
00000140: 9c5f 553c 848c 09bc 54a5 58bd e050 60bc
00000150: 575b 89bd a508 85bd fb6f ffbc aaec e9bc
00000160: 7e88 34bd eaeb b53c 2876 4bbc bf44 693d
00000170: 5c52 6e3d c015 e4bb 3472 7cbc 80cc 5dba
00000180: 6028 2ebb 3a01 853c c0f5 d3bb 14eb 793d
00000190: 3eee 293c f57c 6d3c 4f4c 71bd 15de 8fbd
000001a0: b36d cb3a a6d9 3a3d c3af bcbc b29f 9b3c
000001b0: 55b5 8cbd dc2a 2c3c 6ba0 96bc c08d edbc
000001c0: 2ee3 0cbd 750a f7bb e01f 143d e15d 7c3d
000001d0: e0fc 6abd 1514 833c 2087 8fbd 8afb 9e3c
000001e0: dcb5 463d 1ff0 e93b b0e2 303d 4a26 74bd
000001f0: b967 993c 98ae 21bd ac5d 2e3c ee97 8b3a
00000200: e5d8 343d e0fb 273b 0a05 fb3c 36c4 2c3d
00000210: 29eb 8abc 55d9 5dbd ed14 b1bb a121 e03c
00000220: 6035 8bbd f508 2ebd 2d99 093d 47ec 4dbd
00000230: d712 7e3d 84fb 48bd c043 6c3d 8cc1 6cbd
00000240: a707 693b 76a8 92bb 164b d03c 2616 ec3b
00000250: 5cf5 773d 5ffb 8fbc 3a3f 843d fbb6 aabc
00000260: a553 79bd 6e62 503d 1569 493c 25b8 7e3c
00000270: 3aa8 9e3c ffc2 293d d7a6 093d d385 b43c
00000280: b7bc 063c 3012 453b 5b64 173d 98eb 833d
00000290: fcb7 a1bc f23d 84bd 0ce0 6f3c 263e 0d3d
000002a0: 64ca 50bd 0834 4dbd e400 73bd c0d7 68bb
000002b0: b785 34bd 761a a73c 5986 053d c2ae 10bd
000002c0: 9bd3 42bd 1280 8fbd 5fca 4abd 82e8 413c
000002d0: e1c8 a5bb fef5 eabc c3e0 a7bb 2919 f2bc
000002e0: fe00 99bd 7531 6fbd a30a abbc 4ccf 8abd
000002f0: 12fa 1f3d a7c5 16bd 11df 4ebd 1441 eabb
00000300: e56a 81bd 462c 5f3d 49eb 2c3d f9ea 513c
00000310: eebd 54bd 351c 273d ec7c 68bd 1c32 763d
00000320: ab33 6bbc 9a80 d2bb 4e1b 88bd 6af5 ad3c
00000330: 752a 81bc 7843 2bbc b59e afbc 0e64 f0bc
00000340: 89ee 3c3c 6b42 a63c 6537 5b3d ce7b 0fbc
00000350: 3085 243d 4c93 94bd bc15 9b3c 7dac a73b
00000360: 3073 aebc 8240 ea3c dd7e ab38 c908 a5bb
00000370: 40a6 853d 7598 88bd 9dd2 2cbd 3243 d4bc
00000380: d515 783d 364a acbc e312 593c 9a14 4abc
00000390: b781 4c3d 1bec 453d e71e 53bd 5264 0e3c
000003a0: 0faf 92bd 3c29 09bd 0175 65bd 0708 a1bc
000003b0: 32a9 0c3b b818 bcbc b11a d3bc 4318 d1bc
000003c0: efc5 0a3c 617a 7cbd 2f38 663d 6828 febc
000003d0: 2bb1 62bb 8dcc 60bd b4cd 87bd 86c8 41bd
000003e0: a356 6dbd 2495 8cbd 547e 523d b63c 933d
000003f0: 8f66 28bd acc1 863d 9f56 323c 5dba 903d
0.01132013 -0.017907865 0.040353302 0.00027073655 0.034466807 -0.026392194 -0.03176686 0.014756074
-0.0031557067 -0.059978757 0.052163668 -0.06460002 0.054206368 -0.06040534 -0.06189256 0.046927486
0.03248904 0.042285524 -0.03465424 -0.012962289 0.007911675 0.029780101 -0.0050621424 -0.07326154
-0.01653299 0.04704608 -0.006326911 -0.001559249 0.03247882 -0.007638406 0.044342317 -0.032564428
0.01121925 0.009488043 0.058435872 -0.0053655477 -0.044679806 -0.016461879 -0.0024274248 -0.016536755
-0.006834755 -0.017916271 0.035141982 -0.07115778 0.02429678 -0.04896145 0.0656256 0.002554634
0.009267142 -0.049420178 -0.014370577 0.044841696 0.03750081 -0.046724807 0.060297523 -0.0050379466
0.056628842 0.002798632 -0.030216932 0.008363784 0.03878396 -0.06846394 -0.03805946 0.04840117
0.0042172596 -0.03908983 -0.008059998 0.03677453 -0.00028534207 -0.060461376 -0.07310084 0.06110242
-0.022535393 -0.055978514 -0.010921363 0.02746651 0.052950308 -0.044510856 0.038280904 -0.029219724
0.013023283 -0.008395318 -0.052892044 -0.013691157 -0.06706875 -0.064957894 -0.031181326 -0.028555233
-0.04407548 0.02220722 -0.012418307 0.056950327 0.058184013 -0.0069606006 -0.0154080875 -0.0008460954
-0.0026574358 0.016235936 -0.0064685047 0.061015204 0.010371743 0.014495124 -0.058910664 -0.07024781
0.0015520364 0.045617722 -0.023033028 0.018997047 -0.06870524 0.010508265 -0.01838704 -0.028998256
-0.034396343 -0.0075390884 0.03616321 0.061612967 -0.057370067 0.016000787 -0.07008195 0.019407053
0.04851328 0.0071392204 0.043184936 -0.059606828 0.018726217 -0.039473146 0.01064245 0.0010650137
0.04415216 0.0025632307 0.030642051 0.04217931 -0.016957836 -0.054162342 -0.005404106 0.027359786
-0.0679729 -0.04248901 0.033593345 -0.05027416 0.062029686 -0.04906799 0.0576818 -0.05780177
0.003555754 -0.0044756485 0.025426429 0.0072047887 0.060536727 -0.017575918 0.06457372 -0.020839205
-0.060870785 0.05087512 0.01229312 0.015546833 0.019367326 0.04144573 0.033606376 0.022036469
0.008223704 0.0030070655 0.03696094 0.0644142 -0.01974105 -0.06457128 0.014640819 0.034483097
-0.050974265 -0.05009845 -0.05932702 -0.0035528988 -0.044072833 0.02039836 0.032598827 -0.035322912
-0.047565084 -0.07006849 -0.049509402 0.011835219 -0.005059347 -0.028681751 -0.005123229 -0.029553013
-0.07470892 -0.058396775 -0.020879095 -0.0677782 0.039056845 -0.03680959 -0.0505057 -0.007148871
-0.06319217 0.05448558 0.042216573 0.0128123695 -0.051938944 0.040798385 -0.05675976 0.06010638
-0.01435558 -0.006424022 -0.06645833 0.021235187 -0.015767315 -0.0104530975 -0.021437982 -0.029344585
0.011531481 0.020295342 0.053519625 -0.008757545 0.04016608 -0.07254657 0.018931262 0.0051169978
-0.02129516 0.028595213 8.1775455e-05 -0.0050364477 0.0652585 -0.06669704 -0.042193044 -0.025910947
0.060567696 -0.02103148 0.013249132 -0.012334013 0.049928393 0.04832087 -0.051543143 0.00869091
-0.07162296 -0.03348659 -0.056019787 -0.019657148 0.0021463153 -0.022961006 -0.025769563 -0.025524264
0.008470043 -0.061640147 0.056205925 -0.031025127 -0.0034590464 -0.054882575 -0.06631032 -0.047310375
-0.05794395 -0.06864384 0.051390007 0.07189314 -0.041113432 0.06579909 0.01088491 0.07066796

encoder.post_mp.0.bias f4 [64]
00000000: 058f 793d 3f93 e2bc 9683 42bd 6f1d 813d
00000010: ff7f 67bd 376f 65bd 2f6c 2d3d e392 333d
00000020: 5a07 013d 2b84 11bc b39c 0cbc a240 64bd
00000030: 4a90 c8bc 8e34 67bd e57a 893d 4e3c 8bba
00000040: 9e90 e4ba 5c7b bb3c d301 403c 7278 ddbc
00000050: a4a8 bcbc 3049 93bd e163 b0bc ba78 69bc
00000060: 98cd f9bb 9cc6 abbb 5b67 d33c 7f37 8ebd
00000070: 20b4 8cbd 6263 3ebd b66f cc3c 14b6 543d
00000080: 6757 82bd 29b2 07bd c904 8fbc 4523 cabc
00000090: 91a0 9fba 17fc e5bc dd4e 22bd 9b4a 0c3c
000000a0: a26f b5bc cfa9 693d 4e55 2f3d 86db 9bbc
000000b0: 68a4 38bd 3bea 843d 87e2 263c b4fa 04bd
000000c0: 7d7b cb3c 35dc 5abb dc97 1f3d 09df 593c
000000d0: 2612 893d 72ad fa3c e64a 03bd c4ae 5bbc
000000e0: 4749 1d3d b71c 34bd 96cf 1abd 781f e2bc
000000f0: 3b88 833d 8f37 9f3c cf19 9f3c 78e8 62bd
0.06092741 -0.027658103 -0.04748877 0.06304442 -0.05651855 -0.056014266 0.0423395 0.043841254
0.03150115 -0.008881609 -0.008582282 -0.0557257 -0.024482865 -0.056446604 0.067128934 -0.0010622831
-0.0017438119 0.02288597 0.011719185 -0.027034972 -0.023029633 -0.07191694 -0.021532001 -0.014249975
-0.0076233856 -0.005242182 0.02580612 -0.06944179 -0.068702936 -0.046481498 0.024955612 0.051931456
-0.06364327 -0.03312889 -0.017458336 -0.024675021 -0.001217859 -0.028074307 -0.03962599 0.008562709
-0.022147957 0.057046708 0.042805962 -0.019025575 -0.045078665 0.064899884 0.010185844 -0.03246565
0.024839157 -0.0033395414 0.038963184 0.013297805 0.06692915 0.030600283 -0.03205385 -0.013408367
0.03839996 -0.043972697 -0.037795626 -0.027602896 0.06422468 0.019435672 0.019421486 -0.05539748

encoder.post_mp.3.weight f4 [64, 64]
00000000: c3cf ebbd e0a8 8fbd c87f 85bd a5d2 bc3d
00000010: b692 be3c a35d d23d 433e 9abd 39fe 84bc
00000020: a3f3 85bd 8c31 663d e9a7 9bbd 7c86 383d
00000030: 843e 193d 1beb e2bd 5c30 d6bc 2477 e73c
00000040: f55b f83d 9b1b f9bd 9fba aabd e676 ee3d
00000050: 0ecf d2bd ad97 fabc 1f2a b23d 289c 953d
00000060: b5d2 9c3c 261d 303d a4b8 34bd 5e5a 9ebd
00000070: df6c 20bb 852e fabd 5e1b b43d 4616 553d
00000080: f4e2 db3d c531 4bbd 4a23 7bbd b0bb 5e3c
00000090: 38f3 d5bd b77b b93d 5478 7d3c 62b7 4e3d
000000a0: e95e a8bd d819 8f3d 732d dabd 7441 cbbd
000000b0: 350d adbd a10e 363d 32cd 09bd 987e 7e3d
000000c0: 65e3 753c a16d a7bc 0b06 083d ae5f 62bd
000000d0: a4c5 c7bc 54e9 c53d 2c50 e83d 1af3 5d3d
000000e0: 166a 59bc c62e abbd ad4f 7dbb b67b f2bd
000000f0: a287 c83d 54f7 a0bc c517 c93c 0558 f6bc
00000100: 1809 1b3d 8fd0 933d bfea 14bd bc11 b73d
00000110: 5e23 cbbd db86 773d d5d7 a73d fc36 813d
00000120: 712e aa3d 2dea d5bd b044 fbbc 7889 943d
00000130: 001b 873d 5abe f9bd 7c30 26bd 0a11 5e3a
00000140: cf08 c3ba 542b 03bd 2333 dabd 001c 1e3d
00000150: edd7 ec3d 2735 953c 375a 8a3d 7952 b5bd
00000160: 75e2 01be b159 adbd 6b78 15bc 3ebd e3bd
00000170: e673 ee3d 157c 623c c546 3c3d 424f 6dbc
00000180: b080 f73d aa27 7ebd e3c5 5bbd ab6f 4f3d
00000190: 34fb 083c c05f 43bd 8dfe f9bd 689b 9c3d
000001a0: 8ab1 65bd 4315 be3d 5488 e9bd d341 623d
000001b0: bd15 e83d a5d1 eb3d 6c7f d7bd 5209 a5bd
000001c0: a044 b43d af7b 7cbc 6b47 b03b 833a 13ba
000001d0: 737f 34bd 9b29 1d3d e963 1bbd 3f66 a23d
000001e0: a874 ccbd 6b4c ca3d 7088 c1bb 0f7f ddbc
000001f0: 60bc eb3d 2000 643d aebb 973d 1a49 d23d
00000200: 512d a63d 70b1 2c3d 8028 ddbc 455f 96bb
00000210: 9da6 2dbd e635 bfbc c8f2 a93d fc07 01be
00000220: dfaa bebd 8629 9ebc 110b 953d e749 5d3d
00000230: 54f9 b13c 65be 36bb aee9 ddbd 3fbc 3fbd
00000240: be9f cf3d fc6f 103d 64a2 b2bc 5ba5 063c
00000250: e21a d73d f8f8 cebc cdb5 99bc d5f3 9d3d
00000260: b56f e3bd 09eb 1d3d 9c0f 933d b159 b23d
00000270: 16a9 56bd 246d e9bd 2b0f e93d d396 f73d
00000280: e908 dbbd 6086 f73d ab99 9abd 9915 913d
00000290: 397b 01bb 8fb5 ecbc 5a9f a33d e32c 1fbc
000002a0: e644 aebd 2b6e ccbd b5d7 963d ea34 ff3c
000002b0: cfc6 94bd 10af 883d 8ed6 bdbd f321 f03d
000002c0: b9f8 f03c 0b5b be3d cce4 42bd cc3c bd3d
000002d0: a015 643d 8278 c53d 85f5 a1bd 8648 e8bd
000002e0: 2e8f 813d 94e5 943c 6e82 46bc 5333 43bd
000002f0: 9f96 833d 488f 023d 6d6e 6c3d 03dd a23b
00000300: 877f 683d bb57 c03d 9c3a e6bd 57fd a6bb
00000310: f9b8 d9bd 77b5 ac3d 6095 e7bc a3ef 053d
00000320: 901c 853d 8ad1 87bd ba10 a63d 65e1 89bd
00000330: ac27 e73d 9ff8 2dbd 7a82 97bc 9110 d63d
00000340: d9cf 6bbd 4061 2dbd e5fb 763d 31f2 78bd
00000350: 3b1e d23d cd19 473d 0ef4 b33c d89d 393c
00000360: f1c5 cabd 1733 a9bc e82b 083d 5e9b 48bd
00000370: 5b81 54bd d867 b2bb ac31 c1bd cc37 5a3d
00000380: 3eb7 cebd 4405 b6bd 07a5 3c3c 1a4b 54bc
00000390: a6a5 a2bd e422 4e3d aeaa dabd 214b a43d
000003a0: a88c db3d 7ff4 c43d c005 d13d a67d 92bc
000003b0: a369 663d 1923 e3bd 003e 713d 3180 a8bd
000003c0: ce80 8abd 225c dcbd 913b 253b ff7c e13d
000003d0: cea0 12bc 70fd b63c ccdb 86bc ccb3 843c
000003e0: ea55 e93d a786 c3ba 8b42 1e3d 409f 453c
000003f0: 1ebd 19bd 60f9 aabd 895d 283c ca7a 533c
-0.11514237 -0.07014632 -0.06518513 0.09219865 0.023263317 0.10271766 -0.07531407 -0.016234504
-0.06540611 0.056199595 -0.07600386 0.04505013 0.037413135 -0.11079999 -0.026146106 0.028255053
0.121269144 -0.121634685 -0.083363764 0.11643772 -0.10293399 -0.030589903 0.0869944 0.07305175
0.019143442 0.042996548 -0.0441214 -0.0773208 -0.0024478955 -0.12215904 0.087942824 0.052023195
0.10736647 -0.04960801 -0.06131295 0.013594553 -0.10446781 0.090568 0.015470583 0.050467856
-0.08221228 0.06987351 -0.106532 -0.099245936 -0.08449785 0.044447545 -0.033642955 0.062132448
0.015007828 -0.020438017 0.033208888 -0.05526703 -0.024386235 0.096636444 0.113434166 0.054186918
-0.013269922 -0.08358531 -0.0038652227 -0.11840002 0.09791495 -0.019649185 0.024547467 -0.030071268
0.03785047 0.07217514 -0.036356684 0.089389294 -0.09918855 0.060431343 0.081954636 0.063093156
0.08309639 -0.10445056 -0.030672401 0.072527826 0.06596947 -0.1219451 -0.040573582 0.0008471167
-0.0014879945 -0.032023743 -0.10654285 0.03860092 0.11564622 0.018213822 0.06755488 -0.08853621
-0.12684043 -0.08464373 -0.009122948 -0.111200795 0.116431996 0.013823529 0.04596593 -0.014484229
0.12085092 -0.062049545 -0.053655516 0.050643604 0.008360673 -0.047698736 -0.12206755 0.07646829
-0.056077518 0.09281399 -0.11402956 0.055238556 0.11332271 0.11514596 -0.10522351 -0.08058418
0.08802152 -0.015410348 0.0053796074 -0.0005616324 -0.044066858 0.038369756 -0.03793708 0.07929658
-0.09983188 0.09877857 -0.005906157 -0.027038125 0.11510539 0.05566418 0.07408844 0.10267849
0.08114112 0.042161405 -0.026996851 -0.0045889937 -0.042395223 -0.02334113 0.0829826 -0.12600702
-0.09309935 -0.01930691 0.072775014 0.054025557 0.021725334 -0.002788448 -0.108355865 -0.046810385
0.1013789 0.035263047 -0.02180595 0.008218135 0.10503174 -0.025265202 -0.018763447 0.07712523
-0.11105291 0.038554225 0.071807116 0.087085135 -0.052407347 -0.1139777 0.11379846 0.12089314
-0.10695059 0.12086177 -0.07548841 0.070841976 -0.0019757284 -0.028895168 0.07989378 -0.009715292
-0.08509235 -0.0998195 0.073653616 0.031153161 -0.07264482 0.066740155 -0.09269439 0.11725225
0.029415475 0.09294709 -0.04758148 0.09240112 0.055684686 0.09642126 -0.07908157 -0.11341958
0.063261375 0.018175878 -0.012116058 -0.04765637 0.06425213 0.031874925 0.057722498 0.0049701943
0.056762245 0.09391733 -0.112416476 -0.0050961184 -0.10630984 0.08433049 -0.02826947 0.03269924
0.064995885 -0.06631763 0.08108659 -0.06732444 0.11286864 -0.04247343 -0.018494833 0.104523785
-0.057571266 -0.042329073 0.06029882 -0.060777847 0.10259672 0.04860859 0.02196696 0.011329137
-0.099010356 -0.020654244 0.033244997 -0.048976295 -0.051881175 -0.005444508 -0.09433302 0.05327587
-0.100935444 -0.08887723 0.011513955 -0.012957359 -0.07941751 0.050326243 -0.10677086 0.08022142
0.107201874 0.096169464 0.10206175 -0.01788218 0.056253087 -0.11090679 0.05889702 -0.082275756
-0.06762849 -0.107597604 0.0025212506 0.11010169 -0.008949472 0.022337645 -0.01646223 0.016199015
0.1139334 -0.0014917449 0.03863768 0.012061894 -0.03753387 -0.08348346 0.010276207 0.012907693

encoder.post_mp.3.bias f4 [64]
00000000: 0307 b93d 3622 6ebd 0748 cb3d ff85 e9bd
00000010: 011a 783c babb e63d c56a c43d c17c b4bd
00000020: 986d 153d d6c7 cb3d 3ff1 4cbd f0fd 963d
00000030: b17d c8bd bbcb 43bd cb71 eebd 660c 863c
00000040: 4211 da3c efa6 bc3d 6ade 9a3d ace3 103d
00000050: 9ca0 963d 08c0 d7bc d71f c03c 0e78 903d
00000060: b544 1bbd 3553 e63d 8556 393d a058 8dbd
00000070: 1d7c e73d c55d 0f3d 96e1 acbd 0ece 803d
00000080: 4694 873c c51e 55bd 4610 5d3c 6278 9ebd
00000090: 8fc2 d0bd 8460 70bd 07e3 be3d cf33 1a3d
000000a0: fc4e 5abd 86ad e0bd 49d5 cebd 49bc 01be
000000b0: c650 8cbd cc39 ce3d 6435 7f3d b504 f8bd
000000c0: 7e3b 56bd a4cc b1bd 4fdf a13d c1c4 1abd
000000d0: 99fe 6b3d fc64 8cbd 8627 403b fec0 f53d
000000e0: 6922 9bbd 8343 01be 22dc d83b 6021 573d
000000f0: 705e 003e 1725 06bd ae0b 123d ba52 a8bd
0.090345405 -0.058138095 0.099258475 -0.11402511 0.015142919 0.11266275 0.09590677 -0.088128574
0.03648147 0.09950225 -0.050034758 0.073726535 -0.09789599 -0.047801714 -0.11642798 0.016363334
0.026619557 0.092115276 0.07561953 0.035373375 0.073548526 -0.026336685 0.023452682 0.070541486
-0.03790732 0.11246339 0.045248527 -0.069016695 0.113029696 0.035001535 -0.084414646 0.06289302
0.016550194 -0.052031297 0.013492649 -0.07737805 -0.10193359 -0.058685794 0.09320646 0.037647065
-0.05329798 -0.10970597 -0.10099275 -0.12669481 -0.06851344 0.10069618 0.062306777 -0.12110273
-0.05230283 -0.0868161 0.07903921 -0.037785295 0.05761585 -0.06855199 0.0029320433 0.11999701
-0.075749226 -0.1262341 0.0066180388 0.052522063 0.12536025 -0.032750215 0.03565567 -0.08218904

encoder.post_mp.5.weight f4 [256, 64]
00000000: 9ad5 423d 1bcb 4fbd 9f7b 9dbd 8620 46bd
00000010: 5e06 d2bd 3400 c73d 58fe 84bc 53e8 07bd
00000020: e9ba 99ba f719 aebc 83e7 963d afc1 a7bd
00000030: a358 b6bd a492 663c 7339 b8bc 265b b73d
00000040: 6f2d eebb 4d66 bb3d 1bd4 4dbd 00ce 6fbd
00000050: 597d c4ba 5c2d 1cbd 6f89 f6bd 0d32 87bc
00000060: 2d27 b6bd 2313 69bd 76b3 e6bd ae66 953d
00000070: ab8c f3bc 5fb6 64bc 15be d7bd 329c 44bd
00000080: e911 cfbd 0345 63bd 710b d3bd fc8c 223b
00000090: dc6c c3bc 12ff 5abd 8501 debc 353a abbd
000000a0: 173e f33d 730c f1bc 2010 903b 18dc 26bd
000000b0: ac06 27bd edc9 ac3d aeb2 423c 8dc6 88bd
000000c0: 5e2d 49bc 54fc 6d3d 7b64 a6bc 7f07 8ebc
000000d0: 5edd 2dbd d43a 3dbd 66b2 72bd 994a 983d
000000e0: db9f 373d 5463 163d 7d84 943d 133f 9eba
000000f0: 8379 06bd 8778 3b3d de2b 043c cf3b f73d
00000100: f958 d6bd d6b4 c83d ed28 1abc 68b5 e4bb
00000110: 1a72 373c 9d23 ac3c 4f76 2fb9 f781 983d
00000120: 873e ee3c 9821 7ebd ae9b 9dbc f4f0 803d
00000130: 7826 f1bd 69eb da3d d4ba 463d c2d9 ef3d
00000140: 3125 cabd 7740 943c 3a6d cb3d 2aa9 e93c
00000150: be0f 7abd 6c53 e2bd ce3b 313d 5f6f b73d
00000160: 0d53 933d 0f5a b03c ab94 e43d 2cef 643d
00000170: 2188 5b3d a69b 0e3d 3939 a2bd 571b 943c
00000180: 4aab 66bd 0d9d 903d 96f1 c2ba f9e3 7abd
00000190: fc5a c0bd 7d1d ac3d ae1c 083d 6d21 2ebd
000001a0: ff0c ba3d 637d 113c 2112 dabd 3bb8 f13d
000001b0: db12 843d 36e9 e4bd 1f70 43bd 967e bbbd
000001c0: 3eff d53d c6ba 22bd 6615 df3d 4eab 41bc
000001d0: 573a f03d 13d3 6e3d 2d9e f23d ac34 b13d
000001e0: 6f00 debd 161b 4d3d c463 47bd 7468 d43d
000001f0: 0589 b2bd 2257 d9bd d9d5 41bd 58e3 2dbd
00000200: e905 3f3d 91d1 31bd 590f 013d 3c7c f23d
00000210: c58b d63c 4835 e03d c730 9fbd 8fa1 143d
00000220: dc14 b4bd 06d4 443d e5ed ca3d a40a 02be
00000230: dbc2 8abd 6361 79bc e767 963d 9c0e 97bd
00000240: ea87 8bbd 1936 89bd 43dc 873a af58 ce3b
00000250: d707 db3c f5e8 fe3c 4f65 82bd 75c7 21bd
00000260: ecac b1bd e288 4ebd 03a9 e7bd 6319 24bd
00000270: 9f94 dc3d 9f60 e13d b8be cabd c1c2 3d3d
00000280: fe70 f4bd 8f9a f33d f76e 9b3d b359 c5bc
00000290: 8a46 58bd ca5d 143d 6868 a9bd 1bd8 d63d
000002a0: 32d9 8d3c 5f01 b93c 82ba e4bd c5ee bdbd
000002b0: fa85 0fbd 5b4b 1d3d 645b a23d 81ae aa3d
000002c0: 8211 da3d 11c0 5c3c eca3 3a3d cb3c 8d3d
000002d0: 6784 243d c24f bdbd ddb2 343d 77be dd3c
000002e0: bc11 6abd d2ea 6c3c 2ed6 d63c 1313 8dbd
000002f0: 051d 8dbc aa01 c53c 66df 2f3d 23d6 463d
00000300: bb7d 96bd 5647 f83d 3e51 67bc 8671 8ebd
00000310: 7f28 ad3c 3e13 b43d 8c52 fabd 635d e03c
00000320: 258c f23d e110 04bb 9e36 aa3d ded6 9bbd
00000330: be3c 033e 6295 543d f58c e73d 0eb7 013e
00000340: f1cd a9bc 2670 bdbd 91f4 bd3c 0299 d7bd
00000350: 946b 12bd bb59 923d 16af 3dbd 86dc 3ebd
00000360: be6c 80bd 3e72 46bd 33c5 a03d 580e 2ebd
00000370: 8cb8 e83c 830a 5e3c 561e ccbd 7573 a2bc
00000380: c915 fd3d 53fc a93d 0cf3 a5bb 93f4 933d
00000390: 3a2f e83d 7af9 f6ba 4034 f1bc 9893 613d
000003a0: 00a3 aebc c3a7 2a3d 728a 9dbc d68e 503d
000003b0: ce02 a0bd e0bc da3d 2a40 bfbd f5b6 9b3d
000003c0: c51c 2b3c 348a ef3d f63a c7bd 2e05 e13d
000003d0: 6e8b 58bd 7a9e 24bd 89c6 99bd 9abb cabd
000003e0: 238f 94bd 4b75 eb3d aece 633d b99b 39bd
000003f0: f9f5 e5bd ecc0 dabd c817 e1bd 089e b73c
0.047566988 -0.050730806 -0.076895945 -0.04837086 -0.10255121 0.097168356 -0.016234562 -0.033180546
-0.0011728677 -0.021252615 0.07368376 -0.08191239 -0.08903625 0.014073048 -0.022488331 0.08952932
-0.0072685997 0.09150372 -0.050251108 -0.058546066 -0.001499097 -0.038129196 -0.12037932 -0.016503358
-0.08894191 -0.056903016 -0.11264698 0.07294975 -0.029730162 -0.013959496 -0.10534302 -0.048000522
-0.10110838 -0.055485737 -0.10304917 0.0024803272 -0.02385562 -0.05346591 -0.027100334 -0.083607115
0.11877077 -0.029424882 0.0043964535 -0.04073724 -0.040777847 0.08436952 0.011883421 -0.066784956
-0.012278883 0.058101967 -0.020311585 -0.017337559 -0.04244744 -0.04619868 -0.059252165 0.074361034
0.044830184 0.03671582 0.07251833 -0.0012073241 -0.032830726 0.04576924 0.008067099 0.120719545
-0.10466189 0.09800117 -0.0094091715 -0.006979633 0.0111966375 0.021013075 -0.00016733374 0.07446664
0.02908255 -0.062043756 -0.019239273 0.06295958 -0.117749155 0.10689432 0.048518017 0.11711456
-0.09870375 0.018097145 0.09932943 0.028523047 -0.06105017 -0.11051068 0.043269925 0.08956789
0.07193575 0.021527318 0.11161169 0.055892155 0.05359662 0.034816407 -0.079210706 0.018079443
-0.056315698 0.07061205 -0.0014873024 -0.061252568 -0.09392354 0.08404062 0.033230476 -0.042512346
0.0908451 0.008879992 -0.10647989 0.11802717 0.06448909 -0.11177294 -0.04771435 -0.09155004
0.10449074 -0.039728902 0.10892753 -0.011820627 0.117298774 0.058306765 0.11846576 0.086526245
-0.108399265 0.05007466 -0.04867913 0.10371485 -0.08717541 -0.106123224 -0.04732308 -0.04245314
0.046636496 -0.04341275 0.031508777 0.11840102 0.026189694 0.109476626 -0.077729754 0.036286887
-0.08793041 0.048053764 0.09908656 -0.12699372 -0.06775447 -0.015220973 0.073440365 -0.073758334
-0.06813033 -0.066997714 0.0010365326 0.006297193 0.026737137 0.031116942 -0.06366979 -0.039496858
-0.0867556 -0.05042351 -0.11311533 -0.040063273 0.10770535 0.11004757 -0.09899658 0.04632831
-0.11935614 0.11894714 0.07589524 -0.024090623 -0.052801646 0.036222257 -0.08271867 0.104904376
0.01731548 0.022583662 -0.11168386 -0.09274057 -0.03503988 0.038401943 0.07927588 0.08334065
0.106478706 0.013473527 0.045566484 0.06896361 0.04016533 -0.09243728 0.04411589 0.02706836
-0.05714582 0.014460282 0.026225176 -0.06888404 -0.017225752 0.024048645 0.04293766 0.04854406
-0.073482 0.12122981 -0.014118491 -0.069552466 0.021137474 0.08792733 -0.12222776 0.02738828
0.11843137 -0.0020151662 0.08311199 -0.07609342 0.1281614 0.051900275 0.11306182 0.12667486
-0.020728083 -0.09249906 0.023187907 -0.10527231 -0.035747126 0.07146021 -0.046309553 -0.046597026
-0.06270741 -0.048448794 0.07850113 -0.042494148 0.028408311 0.013552311 -0.099667236 -0.019830445
0.12357671 0.0830008 -0.005064374 0.07224383 0.11337133 -0.001884266 -0.02944386 0.055072397
-0.021317959 0.041663896 -0.019231055 0.05091747 -0.07813035 0.10680556 -0.0933841 0.07603256
0.010443871 0.11696282 -0.09728043 0.10987316 -0.052867346 -0.040190198 -0.07508571 -0.098990634
-0.07253864 0.11496981 0.055617027 -0.045314524 -0.11228556 -0.10681328 -0.10990864 0.022414222
