amazon/20230807-130642/commm.pt (torch, 253910 bytes, 15 tensors)

encoder.learnable_skip f4 [2, 2]
0.9984693 1.0 0.99819994 0.9981735
00000000: af9b 7f3f 0000 803f 088a 7f3f 4c88 7f3f

encoder.pre_mp.0.weight f4 [64, 5]
-0.005545254 0.2377067 -0.36589515 -0.32693955 -0.17006439 0.1187232 -0.010433322 0.3563147
-0.037931863 0.12007269 -0.13632783 -0.08912324 -0.42557094 -0.2945071 -0.18267658 0.015059991
0.17522472 0.26825625 -0.3032406 -0.19482714 0.16367088 0.37255865 -0.092296675 0.33442628
-0.0723322 0.046704806 0.40443432 -0.41605604 -0.2827318 -0.114416234 -0.17646176 0.3842728
-0.28780356 -0.20379727 -0.31037113 -0.4211473 -0.2633229 0.38681263 0.20192948 0.21913701
0.021462236 -0.23131202 0.07767272 -0.41555226 -0.3211313 -0.22804849 0.28467566 0.25986564
-0.20068625 -0.018482678 0.28349584 0.4420355 0.17769773 0.060541186 0.30002996 -0.2653773
0.08130999 -0.34458447 -0.30781487 -0.22888052 0.20438963 0.18189117 -0.26675043 0.13326484
0.24366628 -0.054440632 0.019090228 0.10157809 0.27539623 0.427368 -0.3427783 -0.16202343
0.17393652 0.36871412 0.3873451 0.39204043 0.08644394 -0.3863845 0.043643743 -0.27727434
-0.41520253 0.3983661 0.34223887 -0.44392914 0.08589778 -0.07322312 -0.07148935 -0.20677723
0.16991936 -0.26694748 0.1657751 0.228013 0.31842697 0.16549389 -0.44434446 -0.2878267
0.22601448 0.094633155 -0.34790185 -0.2565026 0.4211526 0.30212852 -0.19250111 -0.110070005
-0.4235222 -0.0058146166 -0.33461347 -0.3470672 -0.0267381 0.065044224 -0.18107408 0.26744434
-0.27421862 0.4037158 0.3044036 -0.37653157 -0.1107991 0.01924126 0.06431805 0.1051304
0.17768028 0.028966581 -0.2203307 0.20949529 -0.43111092 -0.26312843 -0.10999138 -0.21580353
-0.15440848 -0.36450395 -0.09327085 0.097551614 -0.29180008 -0.02343483 0.3196783 -0.043708626
0.014691871 -0.04076028 0.08832974 0.28217727 0.4260102 0.2864138 0.42239398 -0.034543134
-0.40393832 -0.20958813 0.30688936 -0.0053408192 -0.22472279 -0.3451452 -0.41975784 -0.3786688
-0.089631274 0.24634889 0.24286382 -0.42932826 0.28096917 -0.3501159 -0.09474258 -0.18150246
-0.087721944 -0.089426614 -0.39983132 -0.38465026 -0.06850006 0.007910492 -0.20100264 0.16648594
-0.40449536 -0.03215903 0.3913735 -0.18412882 0.40554944 0.16365711 -0.4018874 0.28480494
-0.04976097 -0.20168446 0.35557142 -0.36343652 0.050057646 -0.091558956 0.31727517 0.12275038
0.21280217 0.1597802 -0.10568256 -0.095810086 -0.37029767 0.24056195 0.3529319 0.3038733
-0.31337103 0.02202827 -0.3131729 -0.24401939 -0.25842217 0.15072343 -0.26861385 -0.0118672205
0.018651724 0.28881565 -0.3382255 -0.3071652 -0.2598506 0.31508654 -0.15868618 0.3752262
0.15972346 0.054635897 -0.0054027364 -0.09046513 0.057985716 -0.100250326 -0.001269844 0.058900632
-0.3479677 -0.23499991 0.36058214 -0.36351275 -0.034182694 0.44037133 0.1637979 0.0149039775
-0.38531396 0.22360998 -0.31647423 -0.12905645 -0.15215464 -0.0683349 0.0060283644 0.37000486
0.05418844 0.39896578 0.2719333 -0.28487343 0.19845018 -0.31410387 -0.18751316 0.13356368
0.14616898 0.33392295 -0.14249277 0.0022048224 0.23171404 -0.43457016 0.32124817 -0.36780015
0.008173775 -0.07402349 -0.2376005 0.05703873 0.37188843 -0.12864812 -0.26342836 -0.16782786
00000000: f6b4 b5bb 6369 733e 9c56 bbbe 9f64 a7be
00000010: 5c25 2ebe 2625 f33d 86f0 2abc e16e b63e
00000020: 715e 1bbd ace8 f53d 8699 0bbe 3f86 b6bd
00000030: 6fe4 d9be a2c9 96be 920f 3bbe 2ebe 763c
00000040: 1c6e 333e e258 893e 5a42 9bbe c480 47be
00000050: 5799 273e 02c0 be3e 0a06 bdbd ec39 ab3e
00000060: e822 94bd 8a4d 3f3d 0412 cf3e 4c05 d5be
00000070: 39c2 90be 0f53 eabd 64b2 34be 68bf c43e
00000080: fd5a 93be 3bb0 50be f7e8 9ebe 9ea0 d7be
00000090: 42d2 86be 4e0c c63e 9ac6 4e3e 7465 603e
000000a0: 92d1 af3c 0fdd 6cbe e012 9f3d 44c3 d4be
000000b0: 526b a4be 8b85 69be 02c1 913e 1c0d 853e
000000c0: b280 4dbe fc68 97bc 5e26 913e 7a52 e23e
000000d0: 65f6 353e 09fa 773d 879d 993e 89df 87be
000000e0: da85 a63d 606d b0be e999 9dbe a85f 6abe
000000f0: 844b 513e ae41 3a3e 8393 88be 9476 083e
00000100: a783 793e 24fd 5ebd 1c63 9c3c 2c08 d03d
00000110: bc00 8d3e facf da3e a380 afbe 78e9 25be
00000120: 6a1c 323e 19c8 bc3e 1952 c63e 86b9 c83e
00000130: 8509 b13d 30d4 c5be c8c3 323d e7f6 8dbe
00000140: 6d95 d4be a4f6 cb3e ef39 af3e ae4a e3be
00000150: 2deb af3d 01f6 95bd 0269 92bd 69bd 53be
00000160: 57ff 2d3e 57ad 88be f3c0 293e 3d7c 693e
00000170: dc08 a33e 3b77 293e 1e81 e3be 055e 93be
00000180: 5770 673e 07cf c13d 3120 b2be 4f54 83be
00000190: 50a1 d73e 97b0 9a3e 031f 45be 626c e1bd
000001a0: e7d7 d8be 8a88 bebb 7552 abbe cbb2 b1be
000001b0: dc09 dbbc e835 853d 7c6b 39be 77ee 883e
000001c0: 6266 8cbe d6b3 ce3e cada 9b3e bfc8 c0be
000001d0: a3ea e2bd d99f 9d3c 2fb9 833d 9b4e d73d
000001e0: d2f1 353e 534b ed3c 5f9e 61be ef85 563e
000001f0: 92ba dcbe c5b8 86be 2943 e1bd 9afb 5cbe
00000200: 421d 1ebe 43a0 babe ca04 bfbd 24c9 c73d
00000210: d266 95be 67fa bfbc e0ac a33e d107 33bd
00000220: 2cb6 703c 40f4 26bd 39e6 b43d 8a79 903e
00000230: 021e da3e d4a4 923e 0644 d83e 1a7d 0dbd
00000240: 01d1 cebe 459e 56be 9a20 9d3e 0a02 afbb
00000250: bb1d 66be dfb6 b0be 80ea d6be e1e0 c1be
00000260: 9a90 b7bd e242 7c3e 4bb1 783e ead0 dbbe
00000270: 31db 8f3e 6442 b3be 6608 c2bd c8db 39be
00000280: 90a7 b3bd 4d25 b7bd b1b6 ccbe e1f0 c4be
00000290: c249 8cbd 029b 013c a3d3 4dbe 4a7b 2a3e
000002a0: 041a cfbe 30b9 03bd 1b62 c83e 448c 3cbe
000002b0: 2da4 cf3e bb95 273e 2fc4 cdbe f4d1 913e
000002c0: 29d2 4bbd 5f86 4ebe 750d b63e 5a14 babe
000002d0: 3f09 4d3d 4383 bbbd e471 a23e 8d64 fb3d
000002e0: d0e8 593e 6c9d 233e 1970 d8bd 1438 c4bd
000002f0: a897 bdbe df55 763e 7db3 b43e 4895 9b3e
00000300: 2b72 a0be a174 b43c 3358 a0be 38e0 79be
00000310: e94f 84be 3e57 1a3e c187 89be bb6e 42bc
00000320: 80cb 983c a5df 933e e52b adbe c244 9dbe
00000330: 230b 85be 0653 a13e a17e 22be a61d c03e
00000340: 8c8e 233e e4c9 5f3d 7009 b1bb c845 b9bd
00000350: 6e82 6d3d 0b50 cdbd e570 a6ba ca41 713d
00000360: d328 b2be d1a3 70be 399e b83e 581e babe
00000370: 2703 0cbd 5a78 e13e a3ba 273e d02f 743c
00000380: df47 c5be 04fa 643e e908 a2be 6027 04be
00000390: 6dce 1bbe 2bf3 8bbd 9689 c53b 4771 bd3e
000003a0: b3f4 5d3d 3e45 cc3e d73a 8b3e eeda 91be
000003b0: 8636 4b3e 39d2 a0be 7303 40be ebc4 083e
000003c0: 52ad 153e f3f7 aa3e a0e9 11be c87e 103b
000003d0: 7246 6d3e fb7f debe a47a a43e 4d50 bcbe
000003e0: 4ceb 053c a199 97bd 8c4d 73be 71a1 693d
000003f0: 2968 be3e 55bc 03be 15e0 86be 11db 2bbe

encoder.pre_mp.0.bias f4 [64]
0.039552853 0.056870304 -0.35038617 0.036633022 0.3084482 0.40358603 0.26498947 0.062249713
0.21091427 -0.22005641 -0.36808532 -0.38250768 0.4441097 0.28188202 -0.31097904 0.17752145
0.33611402 0.44492513 0.38921654 0.34439254 -0.10293424 -0.159179 0.36511192 0.24998419
-0.2713047 0.400123 0.21422532 0.2415267 -0.28268677 0.12587386 -0.15555194 0.34746376
-0.07890625 0.17198338 0.081369065 0.18841502 -0.15404207 0.21620719 -0.31021783 0.09884531
-0.30236384 -0.44325927 -0.35706213 0.35122442 0.24404088 0.4175089 0.35704872 -0.39724272
-0.3037177 -0.070189305 -0.288371 0.3129807 -0.33571616 -0.2157355 -0.43053788 -0.25184003
0.36645144 0.36407802 0.32232514 0.34370655 0.39855456 -0.114798956 0.19713897 0.39727163
00000000: 2c02 223d d6f0 683d d165 b3be 820c 163d
00000010: ecec 9d3e d4a2 ce3e b3ac 873e 8ef9 7e3d
00000020: e9f9 573e 7856 61be ae75 bcbe 0cd8 c3be
00000030: 5962 e33e d752 903e a538 9fbe 2fc8 353e
00000040: 2317 ac3e 3acd e33e 6447 c73e 3854 b03e
00000050: 30cf d2bd d2ff 22be f3ef ba3e dbfb 7f3e
00000060: 73e8 8abe ecdc cc3e e25d 5b3e c652 773e
00000070: 52bc 90be 14e5 003e 0249 1fbe c5e6 b13e
00000080: 9a99 a1bd 691c 303e d3a4 a63d deef 403e
00000090: 34bd 1dbe 6b65 5d3e dfd4 9ebe 696f ca3d
000000a0: 6fcf 9abe e1f2 e2be d9d0 b6be b0d3 b33e
000000b0: dae5 793e bac3 d53e 17cf b63e 6663 cbbe
000000c0: e380 9bbe 69bf 8fbd 5da5 93be 023f a03e
000000d0: fde2 abbe c4e9 5cbe 766f dcbe 2df1 80be
000000e0: 869f bb3e 6f68 ba3e cd07 a53e 4efa af3e
000000f0: 580f cc3e b71b ebbd ccde 493e 3067 cb3e

encoder.convs.0.bias f4 [64]
-0.0019383624 0.0018850754 0.0019458798 -0.0016813971 0.0021534485 0.00075334305 0.0021525829 0.0021764932
0.0019822961 -0.0018212842 -0.0019013303 0.0014181454 -0.0013205864 -0.0007247826 -0.0022160364 -0.0019529392
-0.002332277 -0.00045407732 0.0020604534 -0.0015981587 -0.0017189996 -0.0021119136 -0.0020713334 -0.0021976756
0.0 -0.0021057604 0.0026556987 -0.0020775113 0.0 0.0025023762 0.0011678697 -0.0019032012
0.0023203264 -0.0021765872 0.0 -0.0023262352 -0.0017861271 0.0018515654 0.00206518 0.0014407813
0.0024693515 0.0020817544 -0.0016962254 -0.00070902944 0.0014687233 -0.0014408656 0.001856109 -0.00042185868
-0.0010949225 0.0021332102 -0.0024473872 0.002180557 0.0016284861 -0.0020675517 0.0017758192 -0.002306911
0.0 -0.001390985 0.0019409574 0.0 -0.0020474212 0.0020911696 -0.0022527042 -0.001911421
00000000: a610 feba a214 f73a e40c ff3a 5362 dcba
00000010: df20 0d3b ff7b 453a 5912 0d3b 7fa3 0e3b
00000020: 69e9 013b 28b8 eeba 0f36 f9ba 10e1 b93a
00000030: 8717 adba 56ff 3dba ec3a 11bb c4f9 ffba
00000040: 1dd9 18bb 3a11 eeb9 ac08 073b 4f79 d1ba
00000050: 0e50 e1ba 0868 0abb 35bf 07bb e106 10bb
00000060: 0000 0000 cc00 0abb 3b0b 2e3b db26 08bb
00000070: 0000 0000 e8fe 233b 3413 993a d674 f9ba
00000080: 9e10 183b 13a5 0ebb 0000 0000 c073 18bb
00000090: 7b1c eaba 3ab0 f23a f957 073b 99d8 bc3a
000000a0: d8d4 213b 0b6e 083b e153 deba 29de 39ba
000000b0: 2d82 c03a 6ddb bcba af48 f33a ea2c ddb9
000000c0: 8183 8fba 54cd 0b3b 5864 20bb ade7 0e3b
000000d0: ed72 d53a c37f 07bb 9bc2 e83a 8b2f 17bb
000000e0: 0000 0000 b651 b6ba b967 fe3a 0000 0000
000000f0: 072e 06bb 010c 093b 1ba2 13bb a588 faba

encoder.convs.0.lin.weight f4 [64, 64]
0.0057032793 -0.1761409 -0.12443003 -0.08493353 0.021180447 0.08294243 -0.03892003 -0.08728338
0.096394025 -0.20855062 0.15337512 -0.023297414 0.14872894 0.16173172 0.021666337 0.07008019
-0.12439447 0.15313809 0.12479144 -0.03610249 0.08623204 -0.010251436 0.16726293 0.08721849
0.15972862 -0.19887826 0.209015 0.07877997 0.107202925 0.049938146 0.14074422 0.20178948
-0.016619217 -0.17971438 0.1969247 -0.04770123 -0.10606642 0.13126616 0.12270556 0.026978841
-0.0117247095 -0.039328884 0.20044465 0.1299271 0.12691054 0.1360639 -0.11518368 0.047104593
-0.18534546 0.12762636 -0.21267183 -0.21839881 -0.21354316 0.13211675 0.024417875 0.0023944841
0.03250687 -0.08386989 -0.06767986 -0.14785028 -0.054817952 -0.13444552 0.0037937043 0.16819833
-0.18086292 0.10836087 -0.16292433 -0.091576 0.044225097 0.035411663 0.17569003 0.0018068989
-0.08431897 -0.091429695 0.008068738 -0.1642301 -0.16786835 -0.090748645 0.00742343 -0.14808083
-0.12169913 0.15623406 0.20196019 -0.069574855 -0.18763337 -0.08478563 0.08927041 0.07215345
-0.06901072 -0.19249977 -0.06322082 -0.04652339 0.12278428 -0.109238215 0.13180761 0.028205173
-0.038169023 -0.19469982 0.2156483 -0.040130295 0.13809365 -0.1126349 -0.21272776 -0.17350002
-0.11284528 -0.06725024 -0.03245557 0.18222512 -0.20008793 0.109314874 0.18406239 -0.0004942976
-0.13688189 0.00504309 0.049485154 0.095767096 -0.06396086 -0.07243348 -0.10403002 -0.21129349
0.07792254 -0.16180298 -0.10211466 -0.0023132178 0.16878347 0.19435637 -0.15559098 0.18966085
0.19610077 0.1726913 0.021062346 0.17599761 0.10692897 -0.15325841 -0.11199997 0.0018832743
-0.15132393 -0.073297784 0.17247507 0.10298164 0.19043604 -0.00055280345 -0.11251002 0.14542365
0.01788191 0.038504723 -0.089813784 0.091005325 -0.15770546 0.17493626 0.1898704 0.07973263
0.16986725 0.13350353 -0.08074082 -0.18799877 0.026533872 0.13806626 -0.024250267 0.020310106
0.1626578 0.09146206 0.15978242 0.033878677 0.022138486 -0.049736347 -0.034590174 -0.113012165
0.14696513 0.19538887 0.07842662 0.008204417 -0.069427244 -0.21171425 -0.042232126 -0.15504031
-0.16183837 -0.040664863 -0.044539582 0.04572597 -0.15902954 0.15348507 -0.19691062 -0.10406571
-0.08026128 0.0152884545 0.091413856 -0.05499909 0.035766672 -0.053364374 -0.08362915 -0.028526934
0.045260865 -0.21197775 -0.14902352 0.1708102 0.09622327 -0.0041412385 0.008497112 0.028211942
0.051979322 -0.14612882 -0.060523853 -0.19702974 -0.17189291 -0.04241065 -0.030246712 0.17100154
0.035607997 -0.03678674 -0.00767748 0.12248986 -0.063912645 -0.038796432 -0.045108657 -0.17626141
-0.028581778 -0.19851333 -0.11805561 -0.13948426 0.16296531 -0.19777368 0.20694713 0.082819164
-0.14464219 0.18092406 -0.049388845 -0.1837704 -0.031730086 0.10537854 -0.208832 -0.01778814
0.08976776 -0.08585544 0.021397652 -0.086533904 -0.14693525 0.16787949 -0.15540467 -0.0008618545
0.07378929 -0.11932313 0.10621635 -0.18147813 0.20512068 0.094761856 -0.02897574 -0.17842276
0.0049983067 0.07511788 -0.119270794 -0.028930264 -0.21744607 -0.21809624 -0.025190735 0.17948316
00000000: 93e2 ba3b 485e 34be 2cd5 febd a1f1 adbd
00000010: 9e82 ad3c b9dd a93d 9c6a 1fbd a1c1 b2bd
00000020: 3b6a c53d 4b8e 55be 5e0e 1d3e 38da bebc
00000030: 664c 183e 009d 253e 9a7d b13c 3486 8f3d
00000040: 87c2 febd 3bd0 1c3e a892 ff3d 34e0 13bd
00000050: 6c9a b03d a4f5 27bc f946 2b3e 9c9f b23d
00000060: e68f 233e bea6 4bbe 0708 563e 6557 a13d
00000070: 358d db3d f18b 4c3d 411f 103e e7a1 4e3e
00000080: 0625 88bc 0c07 38be a1a6 493e 5d62 43bd
00000090: 5a39 d9bd a36a 063e 0d4d fb3d bb02 dd3c
000000a0: ff18 40bc 5317 21bd 5d41 4d3e 9c0b 053e
000000b0: d6f4 013e 5654 0b3e 6ce5 ebbd bff0 403d
000000c0: 33cb 3dbe 7cb0 023e a5c6 59be f0a3 5fbe
000000d0: 0fab 5abe 9d49 073e ff07 c83c c7ec 1c3b
000000e0: ec25 053d fac3 abbd bd9b 8abd 1066 17be
000000f0: ca88 60bd 16ac 09be cc9f 783b 2f3c 2c3e
00000100: 2134 39be 4eec dd3d a3d5 26be 338c bbbd
00000110: 6025 353d d20b 113d 16e8 333e 77d5 ec3a
00000120: 6daf acbd 7e3f bbbd bd32 043c ef2b 28be
00000130: aee5 2bbe 6dda b9bd 3f40 f33b 80a2 17be
00000140: 653d f9bd d2fb 1f3e a7ce 4e3e 437d 8ebd
00000150: f622 40be 17a4 adbd 68d3 b63d 30c5 933d
00000160: 7e55 8dbd a91e 45be eb79 81bd 4f8f 3ebd
00000170: 5376 fb3d 49b8 dfbd 93f8 063e 890e e73c
00000180: 1f57 1cbd 645f 47be e8d2 5c3e aa5f 24bd
00000190: 6c68 0d3e 20ad e6bd 4ed5 59be fda9 31be
000001a0: 6d1b e7bd 7eba 89bd 22f0 04bd 3999 3a3e
000001b0: dae3 4cbe 7ae0 df3d da7a 3c3e c093 01ba
000001c0: c42a 0cbe 8140 a53b f2b0 4a3d 8a21 c43d
000001d0: e9fd 82bd 0158 94bd b10d d5bd 525d 58be
000001e0: da95 9f3d aeaf 25be 7e21 d1bd 5b99 17bb
000001f0: 93d5 2c3e 5b05 473e 3e53 1fbe 7436 423e
00000200: a4ce 483e fdd5 303e f18a ac3c b838 343e
00000210: 93fd da3d c6ef 1cbe 3e60 e5bd 33d8 f63a
00000220: a9f4 1abe 261d 96bd 4e9d 303e 0ae8 d23d
00000230: aa01 433e 03ea 10ba a76b e6bd f0e9 143e
00000240: 157d 923c 21b7 1d3d 4af0 b7bd 0061 ba3d
00000250: 8a7d 21be 7e22 333e 636d 423e dc4a a33d
00000260: aef1 2d3e 26b5 083e 715b a5bd c082 40be
00000270: 905d d93c 3e61 0d3e 7fa8 c6bc 6161 a63c
00000280: c48f 263e 7650 bb3d 019e 233e 5ec4 0a3d
00000290: c55b b53c 57b8 4bbd 6dae 0dbd ec72 e7bd
000002a0: 077e 163e 0514 483e 239e a03d d26b 063c
000002b0: df2f 8ebd 9fcb 58be 98fb 2cbd e3c2 1ebe
000002c0: f5b8 25be 3390 26bd 236f 36bd 284b 3b3d
000002d0: a4d8 22be 312b 1d3e f0a2 49be 6720 d5bd
000002e0: 0760 a4bd 6d7c 7a3c 3037 bb3d ba46 61bd
000002f0: 1380 123d 9a94 5abd c345 abbd 51b1 e9bc
00000300: 7563 393d b210 59be 9f99 18be dee8 2e3e
00000310: b510 c53d 3ab3 87bb 7937 0b3c bb1c e73c
00000320: 45e8 543d cba2 15be dce7 77bd 2ac2 49be
00000330: b204 30be cab6 2dbd f4c7 f7bc 071b 2f3e
00000340: b1d9 113d b1ad 16bd 5f93 fbbb f7db fa3d
00000350: a2e4 82bd 02e9 1ebd dbc3 38bd df7d 34be
00000360: 5524 eabc 1447 4bbe 24c7 f1bd f6d4 0ebe
00000370: 61e0 263e 2f85 4abe f3e9 533e 189d a93d
00000380: 151d 14be 2844 393e f54b 4abd 4f2e 3cbe
00000390: 68f7 01bd b4d0 d73d 0ed8 55be 6fb8 91bc
000003a0: 29d8 b73d fad4 afbd 214a af3c b038 b1bd
000003b0: 3276 16be 9ae8 2b3e 6722 1fbe 14ee 61ba
000003c0: d71e 973d af5f f4bd f587 d93d 67d5 39be
000003d0: 280b 523e 8112 c23d 885e edbc 75b4 36be
000003e0: d6c8 a33b 67d7 993d 3f44 f4bd 29ff ecbc
000003f0: 2faa 5ebe 9f54 5fbe cd5c cebc 6fca 373e

encoder.convs.1.bias f4 [64]
-0.0023774393 -0.0016419633 0.0016181588 -0.0019534735 -0.0019500329 0.0006821981 -0.0023365144 -0.0025726047
-0.0019077314 0.0020467392 -0.0021661932 -0.0015462781 -0.0020852142 0.0021353494 -0.0018186424 -0.002010308
0.0021009548 0.0020924318 0.0017774109 0.0020539942 0.0012104084 0.0022946058 0.0014342946 -0.0017128505
-0.0019075859 -0.001745027 0.0014099091 0.0015691299 0.001435757 -0.0018043134 0.002133244 0.0023014185
0.0008584996 -0.001938046 0.000460903 -0.0020160046 0.0023776372 0.00040571552 0.0022272842 0.002939897
-0.00035022962 0.0021532744 -0.002135523 0.002464098 -0.001204808 -0.0017635245 0.0023066797 -0.0020860673
0.0018490276 0.000719889 -0.0016167804 0.0019851848 0.0024298595 -0.0008324003 -0.0020868105 -0.002328648
0.0023660413 -0.0017658653 0.002358213 0.0018400635 -0.0005644207 -0.0015577541 0.0021616472 0.001561507
00000000: d0ce 1bbb 2537 d7ba 6618 d43a d905 00bb
00000010: 3f98 ffba 8ad5 323a 3520 19bb 2599 28bb
00000020: d80c faba 9622 063b b1f6 0dbb 7cac caba
00000030: 17a8 08bb 38f1 0b3b 835f eeba 5fbf 03bb
00000040: 2cb0 093b 2e21 093b 03f8 e83a 4e9c 063b
00000050: 91a6 9e3a 1961 163b f1fe bb3a ba81 e0ba
00000060: f607 faba 64b9 e4ba b3cc b83a 43ab cd3a
00000070: 0330 bc3a b67e ecba e5cd 0b3b 65d3 163b
00000080: ef0c 613a 0806 feba 5aa5 f139 f21e 04bb
00000090: 22d2 1b3b 37b6 d439 a1f7 113b 49ab 403b
000000a0: 069f b7b9 f31d 0d3b 21f4 0bbb b47c 213b
000000b0: a6ea 9dba 1026 e7ba aa2b 173b 67b6 08bb
000000c0: 125b f23a efb6 3c3a 26ea d3ba e019 023b
000000d0: 473e 1f3b 7035 5aba dfc2 08bb 3b9c 18bb
000000e0: 960f 1b3b 9b74 e7ba 408c 1a3b 492e f13a
000000f0: a2f5 13ba 8e2d ccba 6caa 0d3b 7bab cc3a

encoder.convs.1.lin.weight f4 [64, 128]
-0.027685795 -0.094290145 -0.07143686 -0.08206754 0.1583135 -0.013211856 0.13945039 -0.12148752
0.08304226 -0.15734339 -0.055816222 -0.074639454 -0.16706637 -0.12929925 -0.116383195 -0.03318801
-0.06074731 -0.16552447 0.0262643 0.0742018 0.027987791 0.13180473 -0.013123316 0.13849446
-0.013947875 -0.015363331 -0.012584785 -0.068502784 -0.06568543 0.040214 -0.0942949 0.058645397
-0.14390427 -0.023969226 -0.023078587 -0.08155427 0.1286907 -0.14560395 0.08191119 -0.16112246
0.10240387 0.16952407 -0.03894751 -0.0154149365 -0.007573241 0.09917362 0.013158361 -0.04139767
0.15865318 0.13334084 -0.009320398 -0.09266909 0.10389443 -0.0760061 -0.10264267 -0.10755083
0.009146226 -0.077682704 0.11625539 0.121089555 -0.077837385 -0.06759536 0.12592366 -0.093105435
0.10953855 -0.012527256 0.1248813 0.08787033 -0.12810442 -0.12893909 0.07521952 -0.08806429
0.012202214 0.031742044 -0.14289707 -0.012011071 0.12034499 0.0052118 -0.11251774 0.1541834
0.14889023 0.03998909 -0.10972398 0.07436418 0.047934365 -0.10706706 -0.13053319 -0.075693995
0.16690855 0.016692284 -0.002723783 0.07946034 -0.09931989 -0.05842495 0.028152978 0.15412872
-0.012352467 0.037082203 -0.14708291 -0.16774681 0.035051096 -0.004201302 0.13662794 0.037942644
0.15642084 -0.03609641 -0.05070326 -0.017476182 -0.08375249 0.009160852 -0.14821807 0.019205036
-0.012070924 0.052645188 0.16900466 0.0613977 0.026990233 -0.11717725 -0.06294536 -0.07175952
-0.14940344 0.092117354 0.16795252 0.11740132 0.13695249 -0.09710147 -0.07479573 -0.05777096
-0.0813039 -0.13775809 -0.14706069 -0.010051419 -0.10645537 -0.1347208 0.17083028 -0.16380583
-0.05712286 0.11576526 -0.088836044 0.08041095 -0.12813818 -3.517906e-05 0.06618064 -0.056609105
-0.12756893 0.033011265 -0.031184405 0.15266894 -0.028774966 0.13491873 -0.07335377 -0.070522755
-0.0011426959 0.09748875 0.16145265 0.0844151 -0.077835 0.010468765 0.119055435 0.1393748
0.12526874 0.05799526 -0.020127745 0.11931427 0.06090509 -0.15444459 0.17144807 -0.014585424
0.1674728 0.10641243 -0.009500714 -0.1526744 -0.17093298 -0.086417004 0.07528491 0.0152154695
0.01896475 -0.14574575 0.09896998 -0.04542648 0.09442312 -0.14228867 0.0013888468 0.09117458
0.05076535 -0.17748415 0.14712246 -0.13321868 -0.1645266 -0.12092663 -0.16913739 0.0629007
0.13158408 0.14215074 0.06041574 -0.04742968 0.037316337 0.053116303 -0.17680593 -0.0010914803
0.042947784 0.14147437 0.106403306 -0.05149558 -0.0094605 0.11260103 0.16054593 -0.090546265
0.17524754 -0.03189636 -0.08058661 -0.0009886771 0.13856874 -0.10259291 0.0045442632 -0.10336524
-0.004425615 0.12182415 -0.08749865 -0.079439685 0.049036577 0.0815504 -0.015205942 -0.040705904
-0.011193439 0.05209348 0.15738238 0.078052625 0.028685823 0.057037815 0.052969992 -0.009997529
-0.12049382 -0.085231915 0.060322165 0.06044192 -0.08992123 -0.099129066 0.09962879 -0.032585073
0.10766961 0.047037274 0.03266149 -0.020489175 -0.07853589 0.044713408 -0.11194265 -0.079635374
-0.12738931 -0.0016976993 -0.095676064 -0.06520035 -0.05877328 0.07785945 0.09794332 0.11784165
00000000: 52cd e2bc 311b c1bd 7d4d 92bd 0713 a8bd
00000010: ef1c 223e 8a76 58bc 15cc 0e3e 73ce f8bd
00000020: 0f12 aa3d a01e 21be 8d9f 64bd 92dc 98bd
00000030: 7213 2bbe 0667 04be 505a eebd 27f0 07bd
00000040: 2cd2 78bd 3f7f 29be 3b28 d73c 1df7 973d
00000050: a746 e53c d2f7 063e 2d03 57bc 7ed1 0d3e
00000060: a185 64bc 7bb6 7bbc 6a30 4ebc 304b 8cbd
00000070: 1586 86bd 6fb7 243d af1d c1bd 2836 703d
00000080: a45b 13be 1c5b c4bc 4e0f bdbc ed05 a7bd
00000090: 7fc7 033e 3419 15be 0ec1 a73d 49fd 24be
000000a0: 1fb9 d13d b897 2d3e 6d87 1fbd ee8e 7cbc
000000b0: f328 f8bb 8a1b cb3d 2b96 573c 9a90 29bd
000000c0: fb75 223e 808a 083e 95b4 18bc 4bc9 bdbd
000000d0: 9ac6 d43d 16a9 9bbd 5236 d2bd 9c43 dcbd
000000e0: 0dda 153c 1c18 9fbd 4e17 ee3d cdfd f73d
000000f0: 3569 9fbd 706f 8abd 22f2 003e 10ae bebd
00000100: bf55 e03d 1f3f 4dbc c4c1 ff3d 5cf5 b33d
00000110: ce2d 03be 9c08 04be b10c 9a3d 0d5b b4bd
00000120: cceb 473c f203 023d 9c53 12be 15ca 44bc
00000130: 6f77 f63d bfc7 aa3b b36f e6bd 41e2 1d3e
00000140: ae76 183e 9acb 233d f7b6 e0bd 3f4c 983d
00000150: d356 443d fa45 dbbd 7eaa 05be 7405 9bbd
00000160: 13ea 2a3e 42be 883c 7f81 32bb 1abc a23d
00000170: 3a68 cbbd 004f 6fbd 13a1 e63c ebd3 1d3e
00000180: 0062 4abc 82e3 173d e79c 16be d2c5 2bbe
00000190: bd91 0f3d 13ab 89bb 32e8 0b3e bf69 1b3d
000001a0: c92c 203e d4d9 13bd 39ae 4fbd 362a 8fbc
000001b0: 6d86 abbd 6617 163c 7ac6 17be e153 9d3c
000001c0: 20c5 45bc 7ba2 573d 8f0f 2d3e 287c 7b3d
000001d0: 9f1a dd3c a0fa efbd 7fe9 80bd a8f6 92bd
000001e0: 37fd 18be 06a8 bc3d bffb 2b3e 1a70 f03d
000001f0: 463d 0c3e 23dd c6bd 812e 99bd 3ea1 6cbd
00000200: a982 a6bd 7510 0dbe 1497 16be b5ae 24bc
00000210: 4605 dabd 40f4 09be 22ee 2e3e b7bc 27be
00000220: a9f9 69bd 5616 ed3d acef b5bd 7fae a43d
00000230: a836 03be 3a8d 13b8 b789 873d f3de 67bd
00000240: 6ea1 02be d236 073d 7076 ffbc 3f55 1c3e
00000250: 7ab9 ebbc 2328 0a3e 803a 96bd 3c6e 90bd
00000260: 83c6 95ba 2fa8 c73d d853 253e d3e1 ac3d
00000270: f567 9fbd 2f85 2b3c 56d3 f33d 44b8 0e3e
00000280: 7346 003e 708c 6d3d f1e2 a4bc 0a5b f43d
00000290: 9e77 793d b926 1ebe 1590 2f3e b4f7 6ebc
000002a0: fd7d 2b3e c3ee d93d e2a8 1bbc ae56 1cbe
000002b0: 0e09 2fbe 66fb b0bd fa2e 9a3d 4e4a 793c
000002c0: f75b 9b3c 603e 15be c6b0 ca3d 1e11 3abd
000002d0: e960 c13d 1fb4 11be f709 b63a bdb9 ba3d
000002e0: 54ef 4f3d 68be 35be 45a7 163e 7a6a 08be
000002f0: a979 28be 62a8 f7bd 5a32 2dbe 15d2 803d
00000300: fabd 063e f78f 113e 7f76 773d a045 42bd
00000310: 04d9 183d 7b90 593d 9d0c 35be 0010 8fba
00000320: 04ea 2f3d a8de 103e fae9 d93d 07ed 52bd
00000330: 3700 1bbc 5e9b e63d 2766 243e 5270 b9bd
00000340: 1774 333e c2a5 02bd 980a a5bd 8096 81ba
00000350: f7e4 0d3e 3b1c d2bd 0be8 943b 28b1 d3bd
00000360: c004 91bb f17e f93d 7e32 b3bd 46b1 a2bd
00000370: 94da 483d e503 a73d 5822 79bc 3cbb 26bd
00000380: b064 37bc f95f 553d d928 213e 0eda 9f3d
00000390: 88fe ea3c 7ca0 693d 10f7 583d adcc 23bc
000003a0: 77c5 f6bd 128e aebd 6014 773d f291 773d
000003b0: 9f28 b8bd 2e04 cbbd 2e0a cc3d ed77 05bd
000003c0: e281 dc3d 28aa 403d 0ec8 053d ead8 a7bc
000003d0: 6dd7 a0bd 6825 373d 3042 e5bd df17 a3bd
000003e0: 5872 02be 5685 deba d0f1 c3bd c387 85bd
000003f0: 40bc 70bd c674 9f3d 8296 c83d f756 f13d

encoder.post_mp.0.weight f4 [64, 192]
0.0066473433 -0.013221444 0.03570662 -0.0044182707 0.034815338 -0.026329935 -0.032356452 0.01944961
-0.0030915707 -0.060215957 0.052013908 -0.068936534 0.054478467 -0.055731364 -0.05934363 0.04228883
0.0327105 0.042458583 -0.03441143 -0.012849665 0.0032078926 0.025592156 -0.004068902 -0.07282716
-0.019157203 0.047168266 -0.0060964036 -7.8662575e-05 0.03222074 -0.012364468 0.04897193 -0.032470617
0.006538484 0.009619763 0.06241437 -0.0052292035 -0.040057346 -0.016312953 -0.0060052294 -0.016377615
-0.011515652 -0.01805928 0.034892563 -0.07097511 0.024436941 -0.048790887 0.06981464 0.0019976469
0.009047888 -0.05412191 -0.014613627 0.045015056 0.03740833 -0.04614201 0.05877724 -0.0055073504
0.05689208 0.0030376008 -0.029958198 0.008510159 0.03900144 -0.067073025 -0.037595794 0.04875741
0.004339802 -0.03855542 -0.007931211 0.036928058 0.0002956261 -0.060241137 -0.07276217 0.06166711
-0.02219412 -0.056065544 -0.012205473 0.02759939 0.053345967 -0.04610601 0.03867672 -0.03061269
0.013343653 -0.008272978 -0.055236947 -0.01520694 -0.06663125 -0.06480506 -0.032495037 -0.028486943
-0.042483374 0.022188444 -0.014352459 0.057326153 0.058184013 -0.009288332 -0.015220208 -0.0022799452
-0.0050761355 0.016273757 -0.0064685047 0.060845368 0.011180371 0.014416145 -0.060761865 -0.07036442
0.0016117396 0.045782827 -0.022838835 0.019313805 -0.068216786 0.01058512 -0.018231891 -0.029764201
-0.035146598 -0.006698572 0.036355525 0.06222852 -0.057147767 0.01653009 -0.06952511 0.018382246
0.04851328 0.007279986 0.041606475 -0.059606828 0.018788936 -0.03863186 0.011245658 0.0012675165
0.04420672 0.00085201475 0.030906558 0.04258082 -0.016417213 -0.055247106 -0.005867404 0.027484152
-0.06801053 -0.041835465 0.033522658 -0.05120584 0.062569834 -0.04851604 0.056252632 -0.05765035
0.004066206 -0.004610505 0.02585817 0.007890951 0.0605533 -0.0179 0.062785305 -0.020787168
-0.0603875 0.050966293 0.012579647 0.016468609 0.019658854 0.04201862 0.03414187 0.021824809
0.0084040165 0.0035565079 0.036054857 0.06398098 -0.022209672 -0.06600946 0.015219663 0.034791056
-0.05285572 -0.049758803 -0.058897913 -0.006284314 -0.04371452 0.020773083 0.033226103 -0.035473473
-0.047005285 -0.06951709 -0.0490211 0.012031254 -0.0055366913 -0.028756114 -0.0049925228 -0.029309127
-0.0734002 -0.057864927 -0.021050112 -0.06741445 0.0392054 -0.036848437 -0.05063574 -0.006925296
-0.062846765 0.054184645 0.042504206 0.013211055 -0.05218487 0.036720224 -0.05958461 0.05979546
-0.018190721 -0.006176516 -0.062909774 0.021520354 -0.016012127 -0.010741162 -0.0209254 -0.028930105
0.011321238 0.020061562 0.05328183 -0.012596149 0.040475953 -0.07227867 0.018665418 0.004849688
-0.02102209 0.02446806 -0.00015084544 -0.0053068358 0.06550637 -0.0662762 -0.042505533 -0.03002698
0.06088499 -0.024748899 0.012935753 -0.013537878 0.04950555 0.04796505 -0.05126403 0.00821324
-0.07133261 -0.030056639 -0.055777315 -0.019902755 0.001902177 -0.023213925 -0.02605058 -0.02525635
0.008718663 -0.06132372 0.05645347 -0.031303234 0.00067931233 -0.052140005 -0.06604382 -0.047037926
-0.058199305 -0.06888715 0.05115293 0.07162497 -0.041346926 0.06616888 0.010619858 0.07040502
00000000: f5d1 d93b c19e 58bc 1b41 123d 24c7 90bb
00000010: 879a 0e3d e0b1 d7bc 3388 04bd ca54 9f3c
00000020: f39b 4abb 02a5 76bd 890c 553d 992e 8dbd
00000030: d024 5f3d 9246 64bd 4e12 73bd 0d37 2d3d
00000040: 72fb 053d 0de9 2d3d 00f3 0cbd 6787 52bc
00000050: 823b 523b a4a6 d13c 6d54 85bb 6826 95bd
00000060: 91ef 9cbc 8333 413d 57c4 c7bb a6f7 a4b8
00000070: e5f9 033d 5694 4abc ca96 483d e9ff 04bd
00000080: c740 d63b 369c 1d3c 36a6 7f3d bd59 abbb
00000090: 2c13 24bd bea2 85bc 84c7 c4bb 592a 86bc
000000a0: 25ac 3cbc 0ef1 93bc 81eb 0e3d 665b 91bd
000000b0: fb2f c83c f4d8 47bd fafa 8e3d f4ea 023b
000000c0: 983d 143c f0ae 5dbd ff6d 6fbc b561 383d
000000d0: 7a39 193d 67ff 3cbd 67c0 703d 0177 b4bb
000000e0: ab07 693d 7c12 473b e56a f5bc 326e 0b3c
000000f0: f9bf 1f3d 955d 89bd 0cfe 19bd dab5 473d
00000100: e634 8e3b 4aec 1dbd e9f1 01bc e041 173d
00000110: 43fe 9a39 69bf 76bd 5504 95bd a796 7c3d
00000120: 71d0 b5bc fca4 65bd 77f9 47bc 1e18 e23c
00000130: 4d81 5a3d a8d9 3cbd 7b6b 1e3d 77c7 fabc
00000140: 569f 5a3c 628b 07bc 2340 62bd 8726 79bc
00000150: f775 88bd 84b8 84bd 8419 05bd 735d e9bc
00000160: 0c03 2ebd 8ac4 b53c 9426 6bbc d4ce 6a3d
00000170: 5c52 6e3d 172e 18bc 2e5e 79bc 226b 15bb
00000180: b655 a6bb 8b50 853c c0f5 d3bb fe38 793d
00000190: e02d 373c b231 6c3c 6fe1 78bd 391b 90bd
000001a0: 0241 d33a c686 3b3d 8218 bbbc fc37 9e3c
000001b0: 3eb5 8bbd 366d 2d3c 0c5b 95bc 0ed4 f3bc
000001c0: e1f5 0fbd b27f dbbb 88e9 143d 55e3 7e3d
000001d0: c713 6abd 1c6a 873c 2e63 8ebd 5d96 963c
000001e0: dcb5 463d f38c ee3b 8d6b 2a3d 4a26 74bd
000001f0: 41eb 993c 713c 1ebd b53f 383c cc22 a63a
00000200: 1b12 353d be59 5f3a c02f fd3c 3a69 2e3d
00000210: 647d 86bc ca4a 62bd 5a43 c0bb 7226 e13c
00000220: 1b49 8bbd aa5b 2bbd 0e4f 093d 37bd 51bd
00000230: 9d24 803d c1b8 46bd 2969 663d c622 6cbd
00000240: cf3d 853b b813 97bb 83d4 d33c 0c49 013c
00000250: bd06 783d 05a3 92bc 9595 803d da49 aabc
00000260: e258 77bd 08c2 503d dd1a 4e3c 2de9 863c
00000270: 9b0b a13c b71b 2c3d 58d8 0b3d f1c9 b23c
00000280: 00b1 093c 4d14 693b 42ae 133d 7608 833d
00000290: 0ff1 b5bc f82f 87bd e55b 793c 1181 0e3d
000002a0: 3d7f 58bd e3cf 4bbd f03e 71bd a6ec cdbb
000002b0: ff0d 33bd 502c aa3c 1818 083d a24c 11bd
000002c0: 9d88 40bd fa5e 8ebd 59ca 48bd bd1e 453c
000002d0: 226d b5bb f191 ebbc 5198 a3bb b219 f0bc
000002e0: d852 96bd c603 6dbd 4971 acbc 9610 8abd
000002f0: d795 203d 63ee 16bd 6c67 4fbd 98ed e2bb
00000300: ceb5 80bd b8f0 5d3d e418 2e3d 2e73 583c
00000310: cdbf 55bd f267 163d fe0e 74bd 16ec 743d
00000320: b504 95bc 5f64 cabb d7d6 80bd 744b b03c
00000330: dd2b 83bc b3fb 2fbc bf6b abbc d4fe ecbc
00000340: b77c 393c 2558 a43c 0c3e 5a3d 1460 4ebc
00000350: 1dca 253d d706 94bd 38e8 983c 22ea 9e3b
00000360: 8536 acbc 3e71 c83c 442c 1eb9 f7e4 adbb
00000370: 3428 863d d1bb 87bd 481a 2ebd 24fb f5bc
00000380: 8a62 793d 34be cabc 7bf0 533c facd 5dbc
00000390: 55c6 4a3d 0077 443d 3bfa 51bd d390 063c
000003a0: d516 92bd 5739 f6bc c176 64bd 1a0b a3bc
000003b0: 7852 f93a 212b bebc 0768 d5bc 68e6 cebc
000003c0: b9d8 0e3c 952e 7bbd c13b 673d d237 00bd
000003d0: e113 323a c290 55bd fb41 87bd d7aa 40bd
000003e0: 6562 6ebd b514 8dbd bc85 513d 1db0 923d
000003f0: 655b 29bd 8d83 873d eafe 2d3c 8230 903d

encoder.post_mp.0.bias f4 [64]
0.061304126 -0.028293978 -0.0485493 0.06362689 -0.05791397 -0.055902805 0.040197123 0.044626694
0.032316368 -0.00973401 -0.0068571377 -0.05544795 -0.023303099 -0.055283476 0.06795689 -0.00090288155
-0.001183891 0.02226822 0.012376507 -0.025738169 -0.025120277 -0.07021745 -0.022850094 -0.016682042
-0.0061070854 -0.004121744 0.02500769 -0.06818995 -0.068235956 -0.045861233 0.025211005 0.051093403
-0.06307263 -0.033485487 -0.013438662 -0.022893326 0.000396768 -0.02739737 -0.039568648 0.011234905
-0.02204535 0.057747357 0.045826018 -0.019822903 -0.042766154 0.063364185 0.0099396305 -0.031074038
0.028922178 -0.0017799723 0.040962458 0.013133842 0.0643805 0.029638171 -0.030327959 -0.012820169
0.039436046 -0.04584744 -0.03558093 -0.026984554 0.063526526 0.016669292 0.0195052 -0.05392555
00000000: 091a 7b3d c6c8 e7bc a1db 46bd d14e 823d
00000010: 3337 6dbd 57fa 64bd bda5 243d 7bca 363d
00000020: 2b5e 043d 667b 1fbc d7b1 e0bb 641d 63bd
00000030: 24e6 bebc ed70 62bd fb2c 8b3d 5baf 6cba
00000040: ca2c 9bba d86b b63c d5c6 4a3c dad8 d2bc
00000050: 0ac9 cdbc 2bce 8fbd 1f30 bbbc c7a8 88bc
00000060: f21d c8bb b20f 87bb eddc cc3c 2ca7 8bbd
00000070: 4bbf 8bbd fdd8 3bbd 4f87 ce3c 5147 513d
00000080: 392c 81bd 1428 09bd d52d 5cbc c98a bbbc
00000090: 4d05 d039 7370 e0bc bc12 22bd 9b12 383c
000000a0: 7398 b4bc 7e88 6c3d 10b4 3b3d a463 a2bc
000000b0: 902b 2fbd 15c5 813d d5d9 223c fb8e febc
000000c0: 34ee ec3c f64d e9ba 40c8 273d 532f 573c
000000d0: ecd9 833d c0cb f23c 5772 f8bc b00b 52bc
000000e0: b187 213d 86ca 3bbd 4fbd 11bd b60e ddbc
000000f0: 321a 823d 0a8e 883c 5fc9 9f3c 0ae1 5cbd

encoder.post_mp.3.weight f4 [64, 64]
-0.115740106 -0.06898947 -0.064368315 0.09158504 0.02310865 0.10318588 -0.07136436 -0.015599349
-0.06601137 0.053254467 -0.075266294 0.046848517 0.037978128 -0.110263556 -0.025120853 0.028835692
0.121731535 -0.12206208 -0.0824297 0.11621835 -0.105462134 -0.030290263 0.08656364 0.07256888
0.019435728 0.043449942 -0.043750044 -0.07695266 -0.0016237946 -0.1215376 0.087933935 0.05236544
0.107899405 -0.049897257 -0.061913643 0.014943639 -0.10499652 0.090055555 0.01593248 0.05084737
-0.07862615 0.07207775 -0.106113784 -0.09989442 -0.08396118 0.04167516 -0.034721408 0.06251849
0.014455702 -0.023416974 0.033579104 -0.05502535 -0.024930695 0.095954776 0.11419059 0.054020338
-0.014176697 -0.08084524 -0.004311345 -0.11900859 0.09723631 -0.019961888 0.025095582 -0.03055676
0.03707855 0.072857365 -0.03562663 0.08885331 -0.09978633 0.06100526 0.083028525 0.06364726
0.08272579 -0.10839957 -0.030230757 0.07278854 0.06653509 -0.122184075 -0.040245898 0.0012933835
-0.00073274504 -0.032567393 -0.106141575 0.037908953 0.11153578 0.018524766 0.067146696 -0.08908527
-0.12646891 -0.08436767 -0.008792094 -0.1110694 0.11718365 0.014561291 0.045463882 -0.015343995
0.12151558 -0.06344836 -0.05406489 0.050839163 0.007939453 -0.04826529 -0.12157168 0.07703771
-0.056163207 0.09298831 -0.11360159 0.05483976 0.11415708 0.1117091 -0.10656725 -0.08007254
0.08763408 -0.018795975 0.005865028 -0.000116900475 -0.044583876 0.03799845 -0.037140165 0.07851677
-0.10015102 0.09931953 -0.006598208 -0.028333373 0.11463801 0.055084754 0.07461449 0.1022491
0.07745647 0.044496242 -0.025149189 -0.0054491083 -0.043664906 -0.023132611 0.08479502 -0.12586118
-0.093346894 -0.022850566 0.073091015 0.053996917 0.022077875 -0.001964693 -0.10837184 -0.046442058
0.101539925 0.034025412 -0.021490782 0.009204727 0.10453186 -0.025739796 -0.019312145 0.07619486
-0.11138407 0.03892298 0.071540624 0.08755548 -0.051722385 -0.11238753 0.11337257 0.12144495
-0.10671972 0.11996867 -0.07629014 0.07142535 -0.002528721 -0.029131165 0.08023994 -0.009474564
-0.085335605 -0.09951991 0.073629014 0.030492151 -0.071905635 0.06306608 -0.096005395 0.11748548
0.02880454 0.088893756 -0.04735468 0.09238322 0.05536093 0.09581299 -0.07821838 -0.11418035
0.059867866 0.018005162 -0.013064742 -0.051229134 0.064009376 0.031209966 0.057882257 0.0046881554
0.057764363 0.09309726 -0.11396036 -0.0047283443 -0.10743093 0.08694411 -0.034238607 0.033408374
0.064511284 -0.06288224 0.08182509 -0.070267744 0.113303855 -0.046305515 -0.021349868 0.10578066
-0.0566423 -0.03784434 0.061456513 -0.06551928 0.10052016 0.050507236 0.021594621 0.011741279
-0.097997546 -0.020231776 0.035161488 -0.047638208 -0.052783176 -0.006187843 -0.09165836 0.047862224
-0.1008295 -0.08525358 0.011817903 -0.015823422 -0.078827724 0.049367275 -0.10631821 0.08180341
0.105751395 0.09298364 0.10350519 -0.016417991 0.056617886 -0.108213514 0.061197814 -0.08203926
-0.068336144 -0.103245705 0.0031194068 0.111131094 -0.009089262 0.022390384 -0.017750569 0.016369637
0.115873076 -0.0037916873 0.037930258 0.012400124 -0.035435036 -0.08434177 0.00963851 0.014370772
00000000: 2609 edbd 5a4a 8dbd 89d3 83bd f090 bb3d
00000010: 5a4e bd3c 1e53 d33d 7a27 92bd 6994 7fbc
00000020: f830 87bd 5b21 5a3d 3725 9abd 3be4 3f3d
00000030: f48e 1b3d dcd1 e1bd 3fca cdbc d438 ec3c
00000040: 624e f93d affb f9bd e7d0 a8bd e303 ee3d
00000050: 88fc d7bd 4923 f8bc 4748 b13d fe9e 943d
00000060: ad37 9f3c 91f8 313d 3f33 33bd 5b99 9dbd
00000070: 81d5 d4ba b5e8 f8bd b516 b43d 257d 563d
00000080: 5dfa dc3d 1161 4cbd 2999 7dbd 2ad6 743c
00000090: 6a08 d7bd 0c6f b83d d584 823c 5545 503d
000000a0: bf06 a1bd 809d 933d 2f52 d9bd 7295 ccbd
000000b0: d7f3 abbd 93b3 2a3d 0938 0ebd b209 803d
000000c0: 9cd7 6c3c f4d4 bfbc 3e8a 093d 4362 61bd
000000d0: 753b ccbc f083 c43d c2dc e93d 6e44 5d3d
000000e0: 6045 68bc 3092 a5bd 2f46 8dbb c7ba f3bd
000000f0: d523 c73d 1d87 a3bc 4095 cd3c 2c52 fabc
00000100: addf 173d 3e36 953d 3bed 11bd b9f8 b53d
00000110: c65c ccbd a7e0 793d dc0a aa3d 7f59 823d
00000120: 246c a93d 9800 debd 7ea6 f7bc 2812 953d
00000130: 8d43 883d a53b fabd e2d8 24bd c086 a93a
00000140: b015 40ba 6365 05bd c160 d9bd 6b46 1b3d
00000150: df6c e43d 40c1 973c 3584 893d 5772 b6bd
00000160: 1181 01be f5c8 acbd b70c 10bc 5b78 e3bd
00000170: fbfd ef3d 7b92 6e3c 5638 3a3d 6165 7bbc
00000180: 29dd f83d 37f1 81bd 2573 5dbd ba3c 503d
00000190: 7b14 023c d3b1 45bd 93fa f8bd f2c5 9d3d
000001a0: 640b 66bd a870 be3d f3a7 e8bd a89f 603d
000001b0: 30cb e93d bec7 e43d ee3f dabd 12fd a3bd
000001c0: 7f79 b33d 04fa 99bc 6c2f c03b 7728 f5b8
000001d0: 959d 36bd 43a4 1b3d 4920 18bd 66cd a03d
000001e0: fa1b cdbd 0a68 cb3d c835 d8bb 641b e8bc
000001f0: 55c7 ea3d 8da0 613d 7bcf 983d fa67 d13d
00000200: 7fa1 9e3d b141 363d ac05 cebc 6f8e b2bb
00000210: f9d9 32bd 9a80 bdbc 03a9 ad3d c1e1 00be
00000220: a82c bfbd 1c31 bbbc beb0 953d df2b 5d3d
00000230: a9dc b43c 14c2 00bb 0ef2 ddbd 073a 3ebd
00000240: 2af4 cf3d 3b5e 0b3d 700d b0bc 6ccf 163c
00000250: cd14 d63d 44dc d2bc 8134 9ebc 0d0c 9c3d
00000260: 551d e4bd b46d 1f3d e483 923d 4a50 b33d
00000270: dada 53bd 6f2b e6bd e12f e83d 21b8 f83d
00000280: de8f dabd 22b2 f53d 013e 9cbd 7447 923d
00000290: e6b8 25bb 7ba4 eebc d654 a43d 343b 1bbc
000002a0: 6fc4 aebd 18d1 cbbd cfca 963d adca f93c
000002b0: 4343 93bd ca28 813d 7a9e c4bd 3a9c f03d
000002c0: 80f7 eb3c ee0d b63d fbf6 41bd 6a33 bd3d
000002d0: 24c2 623d 9a39 c43d f530 a0bd 63d7 e9bd
000002e0: 0238 753d 907f 933c 800d 56bc a4d5 51bd
000002f0: 5917 833d 0bac ff3c f215 6d3d 199f 993b
00000300: 539a 6c3d c7a9 be3d 0d64 e9bd 3af0 9abb
00000310: bf04 dcbd c10f b23d c83d 0cbd 38d7 083d
00000320: 7e1e 843d 67c8 80bd ea93 a73d 89e8 8fbd
00000330: da0b e83d daaa 3dbd ebe5 aebc 88a3 d83d
00000340: c201 68bd ab02 1bbd d3b9 7b3d f92e 86bd
00000350: 83dd cd3d ade0 4e3d 34e7 b03c 7e5e 403c
00000360: f0b2 c8bd 1cbd a5bc 7e05 103d 4820 43bd
00000370: 2c33 58bd 64c3 cabb 61b7 bbbd 2e0b 443d
00000380: b27f cebd 6e99 aebd e19f 413c 1fa0 81bc
00000390: 6e70 a1bd 5735 4a3d 5dbd d9bd 8c88 a73d
000003a0: 3094 d83d 356e be3d 87fa d33d 067f 86bc
000003b0: 28e8 673d 0c9f ddbd 8faa 7a3d 3304 a8bd
000003c0: d2f3 8bbd 7c72 d3bd f66e 4c3b b398 e33d
000003d0: 21eb 14bc 0a6c b73c a469 91bc 9e19 863c
000003e0: dd4e ed3d f57d 78bb c25c 1b3d e429 4b3c
000003f0: 5424 11bd 61bb acbd d7ea 1d3c 6373 6b3c

encoder.post_mp.3.bias f4 [64]
0.09026929 -0.05836 0.09914197 -0.11574883 0.016398296 0.111839116 0.09688966 -0.08693131
0.036652975 0.10105632 -0.04845936 0.07438937 -0.09799084 -0.049325168 -0.1136468 0.016635917
0.028638124 0.09264392 0.07427632 0.037328348 0.075052075 -0.025483655 0.027762828 0.06959757
-0.037757933 0.11075452 0.045650613 -0.068099014 0.116130516 0.033921205 -0.08146224 0.061980132
0.016513044 -0.05013247 0.01406823 -0.0778122 -0.10177184 -0.061995447 0.09164952 0.040634543
-0.054111794 -0.108123526 -0.10172513 -0.12605387 -0.06760182 0.10004846 0.06300291 -0.12095998
-0.052113183 -0.08720785 0.07833486 -0.039360873 0.058283042 -0.07044195 0.002435172 0.11871082
-0.077159144 -0.12534341 0.005102929 0.054080274 0.12369321 -0.0327154 0.037785392 -0.08166651
00000000: 1bdf b83d e50a 6fbd f20a cb3d b90d edbd
00000010: b855 863c e80b e53d 166e c63d 0b09 b2bd
00000020: 6e21 163d 9ef6 ce3d 527d 46bd 7459 983d
00000030: 6caf c8bd 3009 4abd a7bf e8bd 0c48 883c
00000040: 809a ea3c 18bc bd3d 2f1e 983d 9ce5 183d
00000050: e7b4 993d 19c3 d0bc df6e e33c 2c89 8e3d
00000060: 10a8 1abd 44d3 e23d 23fc 3a3d 7f77 8bbd
00000070: d6d5 ed3d f6f0 0a3d add5 a6bd e1de 7d3d
00000080: 5d46 873c b457 4dbd 6f7e 663c 015c 9fbd
00000090: c16d d0bd f0ee 7dbd beb2 bb3d 6870 263d
000000a0: 54a4 5dbd de6f ddbd 4455 d0bd 4414 01be
000000b0: d372 8abd 35e6 cc3d ab07 813d deb9 f7bd
000000c0: a274 55bd 079a b2bd 076e a03d de38 21bd
000000d0: 33ba 6e3d de43 90bd 6897 1f3b a91e f33d
000000e0: 9d05 9ebd 065a 00be 7936 a73b 4783 5d3d
000000f0: de52 fd3d 9500 06bd dbc4 1a3d c540 a7bd

encoder.post_mp.5.weight f4 [256, 64]
0.04930235 -0.05176948 -0.07355159 -0.04904514 -0.101251505 0.096808925 -0.014759191 -0.032786895
0.0025544264 -0.018096838 0.07331137 -0.07941418 -0.08932159 0.014623495 -0.02282298 0.08955871
-0.011359753 0.09142978 -0.047654744 -0.058329888 -0.0018901888 -0.03913138 -0.1185944 -0.015250623
-0.09016243 -0.05520092 -0.111705154 0.072253615 -0.029141374 -0.009882875 -0.10389126 -0.045513872
-0.09928544 -0.05671837 -0.10422231 0.0026576368 -0.023887279 -0.053606812 -0.023274137 -0.08332677
0.11662031 -0.029620877 0.004367656 -0.04166607 -0.04323181 0.08609558 0.012163928 -0.06730427
-0.012270512 0.05819263 -0.01844873 -0.017252544 -0.04123991 -0.0458987 -0.059633024 0.07816911
0.042945407 0.03659113 0.07513408 0.0022088795 -0.027929127 0.045208752 0.008338415 0.12074451
-0.10434385 0.09886817 -0.009010649 -0.0067464835 0.011538768 0.02154403 9.787502e-06 0.0743994
0.027936436 -0.062240303 -0.019023268 0.06342405 -0.11749408 0.108285874 0.049165696 0.117323115
-0.10220757 0.018312192 0.09908898 0.02864784 -0.060182292 -0.11052572 0.0434319 0.089860365
0.07220428 0.018088248 0.11226907 0.05634861 0.053718142 0.035595875 -0.07814322 0.018163666
-0.057816308 0.07149472 -0.0012068478 -0.061452493 -0.093515575 0.084437855 0.03261084 -0.041952178
0.09224865 0.009092599 -0.10631172 0.11899692 0.06733714 -0.11132566 -0.047387376 -0.091036044
0.10482213 -0.038751557 0.109671034 -0.010195041 0.11813277 0.05790275 0.11881445 0.08601394
-0.10982404 0.05046586 -0.048784196 0.103407435 -0.09279676 -0.10565166 -0.046630032 -0.0424641
0.04717469 -0.042270493 0.031327464 0.11883588 0.026322935 0.110247105 -0.07769694 0.03659096
-0.09267933 0.047577504 0.09958003 -0.12629883 -0.06740867 -0.020702647 0.0719008 -0.073692165
-0.06142195 -0.06640612 0.00177935 0.005478079 0.026966373 0.031663205 -0.06369857 -0.039429057
-0.08634216 -0.054198384 -0.112987086 -0.039081063 0.10810695 0.11003008 -0.10569078 0.043753553
-0.11969625 0.119499095 0.07693564 -0.024796098 -0.052496035 0.03638199 -0.07916724 0.10519942
0.01836754 0.023102595 -0.112088375 -0.09369307 -0.03410011 0.037502605 0.07968807 0.0838004
0.10649618 0.014657279 0.045797274 0.06636401 0.0401171 -0.09275161 0.044715706 0.026752206
-0.05830279 0.014863993 0.026517922 -0.07029176 -0.014171318 0.024949713 0.043334775 0.048627004
-0.07346849 0.11942041 -0.014177128 -0.070089184 0.021123217 0.086902015 -0.1222233 0.02742076
0.119538754 -0.0011049632 0.08266279 -0.07638905 0.12767315 0.04978971 0.11317526 0.1266062
-0.02563984 -0.09299625 0.021450413 -0.10725015 -0.03625529 0.07142947 -0.046641033 -0.04655233
-0.06287783 -0.04364862 0.078509904 -0.04369624 0.02785933 0.013224362 -0.10046812 -0.019400096
0.12482987 0.08147028 -0.006453521 0.07320666 0.11323263 -0.0026968156 -0.028732063 0.054469906
-0.024626885 0.04136094 -0.019415123 0.049957253 -0.08071543 0.10646345 -0.09394416 0.0755642
0.009850518 0.11588433 -0.09857405 0.107853256 -0.053801935 -0.039867144 -0.07590617 -0.09760923
-0.073775075 0.11453999 0.055339087 -0.044804834 -0.10944351 -0.10731173 -0.111188665 0.02207353
00000000: 43f1 493d 3c0c 54bd 37a2 96bd 8fe3 48bd
00000010: f35c cfbd c243 c63d 89d0 71bc 8d4b 06bd
00000020: 2a68 273b d23f 94bc 4624 963d e7a3 a2bd
00000030: 3dee b6bd 6297 6f3c 42f7 babc 8f6a b73d
00000040: 421e 3abc 893f bb3d 9f31 43bd 52eb 6ebd
00000050: 36c0 f7ba 3a48 20bd 9fe1 f2bd c0dd 79bc
00000060: 15a7 b8bd 5c1a 62bd acc5 e4bd b4f9 933d
00000070: e4b9 eebc c8eb 21bc f1c4 d4bd c16c 3abd
00000080: 2a56 cbbd 8651 68bd 8272 d5bd bf2b 2e3b
00000090: 41af c3bc d192 5bbd 67a9 bebc 3aa7 aabd
000000a0: a1d6 ee3d 7ba7 f2bc 8e1e 8f3b 0baa 2abd
000000b0: d713 31bd e152 b03d 364b 473c d2d6 89bd
000000c0: 420a 49bc 655b 6e3d cb21 97bc 3555 8dbc
000000d0: 2eeb 28bd 4600 3cbd c241 74bd 2017 a03d
000000e0: 86e7 2f3d 95e0 153d e6df 993d d9c2 103b
000000f0: a0cb e4bc d02c 393d d99d 083c e648 f73d
00000100: 3ab2 d5bd 657b ca3d 67a1 13bc 9b11 ddbb
00000110: 1a0d 3d3c 1b7d b03c 0035 2437 b65e 983d
00000120: f4da e43c b0ef 7ebd afd6 9bbc 78e4 813d
00000130: bca0 f0bd fcc4 dd3d f861 493d 1a47 f03d
00000140: 3452 d1bd 7303 963c 2aef ca3d e0ae ea3c
00000150: b581 76bd 4f5b e2bd a6e5 313d b608 b83d
00000160: d6df 933d ce2d 943c 54ed e53d cdcd 663d
00000170: 8e07 5c3d fbcc 113d 8d09 a0bd f8cb 943c
00000180: cbd0 6cbd d36b 923d 182f 9eba 9cb5 7bbd
00000190: 1885 bfbd c1ed ac3d f292 053d 0cd6 2bbd
000001a0: dcec bc3d 20f9 143c f6b9 d9bd a8b4 f33d
000001b0: 0ee8 893d b5fe e3bd 4419 42bd 1b71 babd
000001c0: fcac d63d f4b9 1ebd 359b e03d 1a09 27bc
000001d0: 98ef f13d 6f2b 6d3d fe54 f33d 1428 b03d
000001e0: 6deb e0bd 4ab5 4e3d f0d1 47bd 47c7 d33d
000001f0: 3a0c bebd e65f d8bd 22ff 3ebd d6ee 2dbd
00000200: 3f3a 413d d323 2dbd 3a51 003d 3a60 f33d
00000210: 32a3 d73c 3cc9 e13d 931f 9fbd 67e0 153d
00000220: a9ce bdbd a1e0 423d 9df0 cb3d 7b54 01be
00000230: 8f0d 8abd 9998 a9bc ba40 933d ebeb 96bd
00000240: 9595 7bbd efff 87bd 1439 e93a 7581 b33b
00000250: 95e8 dc3c 47b1 013d 6574 82bd 5d80 21bd
00000260: 29d4 b0bd 20ff 5dbd c665 e7bd 7713 20bd
00000270: 2d67 dd3d 7357 e13d 6874 d8bd ed36 333d
00000280: 4f23 f5bd f1bb f43d 6f90 9d3d 3021 cbbc
00000290: 1506 57bd 4805 153d 6f22 a2bd cb72 d73d
000002a0: 8677 963c a741 bd3c 978e e5bd 27e2 bfbd
000002b0: 8fac 0bbd 559c 193d 8033 a33d 8b9f ab3d
000002c0: ab1a da3d 1525 703c ec95 3b3d dbe9 873d
000002d0: d451 243d 8ef4 bdbd d127 373d 7127 db3c
000002e0: e8ce 6ebd 1b88 733c 1d3c d93c 20f5 8fbd
000002f0: d12e 68bc 5763 cc3c ce7f 313d 1c2d 473d
00000300: a676 96bd b092 f43d 2f47 68bc eb8a 8fbd
00000310: 990a ad3c aff9 b13d 3650 fabd 80a1 e03c
00000320: bcd0 f43d 6ad4 90ba 1c4b a93d dd71 9cbd
00000330: c0bc 023e 4cf0 4b3d 6ec8 e73d 0ea5 013e
00000340: a40a d2bc d174 bebd c7b8 af3c f7a5 dbbd
00000350: 6d80 14bd 9d49 923d ab0a 3fbd a8ad 3ebd
00000360: 17c6 80bd e5c8 32bd cdc9 a03d d4fa 32bd
00000370: 4039 e43c ffaa 583c 3bc2 cdbd f3ec 9ebc
00000380: cea6 ff3d e4d9 a63d 0f78 d3bb 60ed 953d
00000390: 82e6 e73d 0fbd 30bb 815f ebbc d61b 5f3d
000003a0: 52be c9bc 176a 293d 770c 9fbc fa9f 4c3d
000003b0: 224e a5bd 8209 da3d cc65 c0bd 67c1 9a3d
000003c0: 1164 213c c354 ed3d 31e1 c9bd 2be2 dc3d
000003d0: 6b5f 5cbd bb4b 23bd b274 9bbd 59e7 c7bd
000003e0: 6317 97bd f193 ea3d 3dab 623d 4685 37bd
000003f0: eb23 e0bd 41c6 dbbd e2b6 e3bd 8cd3 b43c
