amazon/20230718-022105/commm.pt (torch, 253910 bytes, 15 tensors)

encoder.learnable_skip f4 [2, 2]
000000 e6 b4 7f 3f 00 00 80 3f 53 b6 7f 3f f9 b5 7f 3f
       0.99885404 1.0 0.9988758 0.99887043

encoder.pre_mp.0.weight f4 [64, 5]
000000 1f e3 93 bb 5a 74 74 3e d0 dd bb be 53 ee a7 be
       -0.004513159 0.2387251 -0.36692667 -0.32799014
000010 d1 35 2f be 66 cf f3 3d 7f 27 1a bc 47 0e b6 3e
       -0.17110373 0.119047925 -0.009408831 0.35557768
000020 d1 60 1e bd 29 69 f4 3d f8 11 0a be e8 0a b5 bd
       -0.03866655 0.1193412 -0.13483417 -0.08839971
000030 45 8b da be 3a 67 97 be 00 55 3c be a3 d3 80 3c
       -0.4268438 -0.29570943 -0.183918 0.015725916
000040 9d b1 34 3e b0 f0 88 3e 3d b2 9b be 6c 58 48 be
       0.17645879 0.2674613 -0.30409423 -0.1956498
000050 3c 98 27 3e 6e b8 be 3e 8d 9c be bd c2 d3 aa 3e
       0.16366667 0.37250084 -0.093072034 0.33364683
000060 74 b8 95 bd f4 25 3e 3d 48 fa ce 3e 63 50 d4 be
       -0.07310572 0.046422914 0.40425324 -0.4146758
000070 ff 05 90 be cd 77 e7 bd 32 95 33 be aa 4c c5 3e
       -0.28129575 -0.11302147 -0.17537382 0.38535053
000080 f9 db 93 be 12 b4 51 be 4c 6a 9f be 40 f1 d6 be
       -0.28878763 -0.20478848 -0.31135786 -0.41980934
000090 94 20 86 be 93 06 c5 3e c8 01 4d 3e 11 77 5e 3e
       -0.2619673 0.38481578 0.2002021 0.21725108
0000a0 b5 4f b7 3c 3d eb 6b be e0 51 9d 3d 77 35 d5 be
       0.022376874 -0.23038955 0.07681632 -0.41642353
0000b0 60 dc a4 be a9 03 6b be 23 0b 91 3e 55 ab 85 3e
       -0.32199383 -0.22950615 0.2832881 0.26107278
0000c0 a3 3c 4c be c2 71 8d bc 58 75 92 3e 0b 99 e3 3e
       -0.19945006 -0.017266158 0.2860515 0.444527
0000d0 4f fd 34 3e 6b 1f 74 3d 1c 20 99 3e 16 5e 87 be
       0.17674755 0.059600275 0.2990731 -0.2643897
0000e0 c9 8a a8 3d 2c e7 b0 be cf 14 9e be c3 53 6b be
       0.08229596 -0.3455137 -0.3087525 -0.22981171
0000f0 3b 71 50 3e 19 68 39 3e 1e 34 88 be e4 3a 09 3e
       0.20355694 0.18106116 -0.26602262 0.13401371
000100 d2 44 7a 3e b0 0c 62 bd 2d 47 96 3c 58 7f d1 3d
       0.24440315 -0.05518788 0.018344486 0.10229367
000110 34 5f 8d 3e fb 2d db 3e 9f f5 af be 06 9a 26 be
       0.27611697 0.42808518 -0.34367082 -0.16269693
000120 07 f5 32 3e 13 4d bd 3e a4 c3 c6 3e 85 60 c9 3e
       0.17476283 0.36972865 0.38821137 0.3933145
000130 8a 94 b3 3d 30 8b c6 be 2a 58 2d 3d bb aa 8e be
       0.08768566 -0.38778067 0.042320408 -0.27864632
000140 dd 44 d5 be 63 0b cb 3e 5e a7 ae 3e 67 d6 e3 be
       -0.416541 0.39657125 0.34112066 -0.44499514
000150 f9 ae ad 3d 11 c7 97 bd fa 3a 94 bd 26 cc 52 be
       0.08480639 -0.07411016 -0.072378114 -0.20585689
000160 25 f4 2e 3e db 33 88 be dd 1d 29 3e 99 c3 68 3e
       0.17085321 -0.26602063 0.16515298 0.22730865
000170 54 58 a3 3e 60 1c 2a 3e 6a 30 e3 be 81 ea 93 be
       0.31903327 0.16612387 -0.44372874 -0.2888985
000180 ef f8 65 3e f4 fa bf 3d 3a 92 b2 be 9d c7 83 be
       0.22458242 0.093740374 -0.34877187 -0.2573823
000190 5c 4c d7 3e 0a 2d 9a 3e 5d 84 46 be 4c 1d e4 bd
       0.42050445 0.30112487 -0.1938643 -0.111384004
0001a0 76 87 d9 be 6b b0 e4 bb 12 ec ab be b4 1e b1 be
       -0.4248616 -0.0069790385 -0.33578545 -0.34593737
0001b0 6d a1 d1 bc 63 89 87 3d cd 43 3a be af 80 88 3e
       -0.02558967 0.06618001 -0.18189926 0.26660678
0001c0 f3 f1 8b be 36 2b cf 3e 64 50 9c 3e 87 a1 c0 be
       -0.2733303 0.40462655 0.30530083 -0.37623236
0001d0 e9 57 e2 bd bd d0 9c 3c d2 88 83 3d 2e 1c d7 3d
       -0.11051924 0.019142503 0.06422581 0.10503422
0001e0 e9 c8 34 3e 02 81 e4 3c 00 97 60 be de 92 57 3e
       0.17654766 0.027893547 -0.21932602 0.21052119
0001f0 d2 35 dc be 9e 32 87 be 68 a1 e5 bd 52 f5 5d be
       -0.43009812 -0.26405805 -0.112124264 -0.21675614
000200 4b 0f 1f be 94 1a bb be 04 d8 c1 bd 32 90 c5 3d
       -0.15533178 -0.36543715 -0.0946503 0.09646644
000210 6d 08 95 be 20 ca b9 bc 6c 0c a4 3e 3f e6 36 bd
       -0.2910799 -0.022679389 0.32040727 -0.044653174
000220 5a 41 5f 3c 21 3c 22 bd d5 63 b7 3d d9 14 91 3e
       0.013626421 -0.039608125 0.08954588 0.28336218
000230 87 8a d9 3e 96 08 92 3e 8b db d8 3e aa 8e 08 bd
       0.424885 0.28522176 0.42354998 -0.03333918
000240 0e 37 ce be 52 f6 57 be 98 82 9c 3e 83 a0 86 bb
       -0.40276378 -0.21090057 0.30568385 -0.00410849
000250 84 d9 64 be 49 15 b0 be 7a 65 d6 be df e4 c0 be
       -0.223486 -0.3439124 -0.41874295 -0.37674615
000260 78 bb ba bd 3b ab 7a 3e e7 18 77 3e 4e 1c dc be
       -0.09117788 0.24479382 0.24130593 -0.42990345
000270 d3 81 8f 3e 31 16 b3 be ce f6 c0 bd 11 6d 39 be
       0.28028736 -0.34977868 -0.09422074 -0.18108012
000280 6b 88 b2 bd bb ee b5 bd 66 ff cc be 95 39 c5 be
       -0.08717426 -0.08883425 -0.40038604 -0.38520494
000290 3a 6d 8d bd 95 76 e8 3b 0e bc 4e be 74 5a 2b 3e
       -0.06905599 0.007094214 -0.20188925 0.16733724
0002a0 bb a3 ce be 29 24 00 bd b1 d5 c8 3e 16 e8 3b be
       -0.4035929 -0.031284485 0.39225534 -0.18350253
0002b0 c1 3e cf 3e c5 c9 26 3e be 29 ce be 2f 41 91 3e
       0.40477565 0.16287906 -0.40266222 0.28370044
0002c0 ec fc 4f bd 80 4d 4d be 29 ab b6 3e 14 77 b9 be
       -0.050778314 -0.20049095 0.3567746 -0.36223662
0002d0 0d ff 49 3d 30 26 bd bd 0d d0 a2 3e d6 e0 fc 3d
       0.0493155 -0.09235799 0.31799355 0.123475716
0002e0 b7 a5 5a 3e 01 eb 22 3e ac de d9 bd 59 c5 c2 bd
       0.21352278 0.1590996 -0.106381744 -0.09510297
0002f0 5f 37 bd be 5f 12 77 3e 16 43 b5 3e f1 2a 9c 3e
       -0.36956307 0.24128102 0.35402745 0.30501512
000300 af f2 a0 be 09 74 ac 3c 70 d8 a0 be 4c ec 7a be
       -0.31435153 0.021051424 -0.3141513 -0.24504203
000310 cd da 84 be 0a 36 1b 3e b2 14 89 be 5a 66 34 bc
       -0.25948182 0.15157333 -0.26773602 -0.011010731
000320 f0 bb 98 3c 69 8c 93 3e 20 f0 ac be 48 d9 9c be
       0.018644303 0.28818062 -0.3377695 -0.30634522
000330 5c c7 84 be 8e e6 a0 3e d5 5d 23 be 9c 8b c0 3e
       -0.2593335 0.314259 -0.15953763 0.37606514
000340 34 6f 24 3e f6 41 63 3d 36 d7 98 bb f4 bf b7 bd
       0.16058046 0.055482827 -0.004664327 -0.08972159
000350 47 1d 6a 3d 35 2f cf bd e2 25 0c bb b5 74 6f 3d
       0.057156827 -0.10116426 -0.0021384885 0.05846091
000360 10 8a b2 be 7f 52 6f be 2d 4e b9 3e 4f 71 b9 be
       -0.34870958 -0.23371314 0.36192456 -0.3621926
000370 19 7c 07 bd f9 e8 e1 3e f7 a8 26 3e f6 98 62 3c
       -0.033077333 0.44123057 0.16275392 0.013830414
000380 70 d1 c5 be 09 e2 63 3e 29 a4 a2 be e0 1c 03 be
       -0.3863635 0.22254194 -0.3176587 -0.12803984
000390 b6 c5 1a be ee dd 89 bd 68 76 80 3b 93 74 bd 3e
       -0.15114483 -0.06731783 0.003920365 0.37003002
0003a0 0b 58 60 3d 50 cd cc 3e a0 98 8b 3e e6 4e 91 be
       0.054771464 0.4000039 0.2726488 -0.28380507
0003b0 95 b2 4c 3e 55 4c a1 be e6 00 41 be ae cc 07 3e
       0.19989999 -0.3150355 -0.18847999 0.13261673
0003c0 6c 3a 16 3e c1 4b ab 3e c7 b8 12 be 75 d2 be 3a
       0.14670724 0.33456233 -0.143283 0.0014558571
0003d0 f6 7b 6c 3e 67 0a de be a4 f4 a4 3e f6 cf bc be
       0.23094162 -0.4336731 0.32217896 -0.36877412
0003e0 ec 2b eb 3b d2 9d 99 bd 58 84 72 be 59 ba 6c 3d
       0.0071768668 -0.07500805 -0.23683298 0.057794902
0003f0 c3 e3 bd 3e d3 e0 04 be 33 6a 87 be e4 9c 28 be
       0.3708783 -0.12976389 -0.2644821 -0.16466099

encoder.pre_mp.0.bias f4 [64]
000000 d2 14 1e 3d 72 07 67 3d f5 5f b4 be 1d bd 13 3d
       0.038594075 0.056403585 -0.3522946 0.036069024
000010 2a ea 9d 3e 3f c6 ce 3e bf 24 87 3e c1 28 75 3d
       0.30842716 0.40385625 0.26395223 0.05985332
000020 c9 1d 57 3e c0 fa 5f be a5 7f bd be 38 56 c4 be
       0.21007456 -0.21872997 -0.37011448 -0.3834703
000030 1e c7 e3 3e 9f b0 90 3e 1f e2 9e be 64 33 34 3e
       0.44487852 0.2825975 -0.31031892 0.17597729
000040 39 92 ac 3e be 3b e4 3e 3c 92 c7 3e 02 cc b0 3e
       0.3370531 0.4457683 0.38978755 0.34530646
000050 7b e6 d3 bd 55 dd 21 be 65 55 bb 3e c1 9e 7f 3e
       -0.10346695 -0.15807088 0.36588588 0.24962904
000060 0b 64 8a be b1 37 cd 3e 0f 9b 5c 3e d0 3b 78 3e
       -0.27029452 0.40081552 0.21543525 0.24241567
000070 f1 34 90 be fc 3d 02 3e c8 29 20 be e5 2c b2 3e
       -0.2816539 0.12718958 -0.15640938 0.34799877
000080 34 b9 a2 bd 42 e2 30 3e 40 f8 a4 3d 21 fb 41 3e
       -0.07945481 0.1727381 0.080551624 0.18943454
000090 14 00 1d be c2 04 5e 3e b1 67 9f be 98 5c cc 3d
       -0.15332061 0.21681502 -0.31133798 0.09978598
0000a0 84 c7 9a be f8 8c e2 be 37 2b b7 be b4 01 b4 3e
       -0.30230343 -0.44248176 -0.35775158 0.3515755
0000b0 80 ed 78 3e 4e 44 d6 3e c5 d7 b6 3e e0 da cb be
       0.24309349 0.41848987 0.35711494 -0.39815426
0000c0 ee d8 9b be 5f 7b 91 bd 96 00 94 be bd 57 9e 3e
       -0.30438942 -0.07103609 -0.28906697 0.30926314
0000d0 4a 60 ac be 4e 47 5f be e7 af dc be b2 6f 81 be
       -0.33667213 -0.21804544 -0.43102953 -0.2528053
0000e0 02 bb bb 3e 20 dd ba 3e cd 91 a4 3e 52 24 b0 3e
       0.36666113 0.3649683 0.32142487 0.3440271
0000f0 32 77 cb 3e be 49 ec bd 96 bd 4a 3e 32 9b cb 3e
       0.39739376 -0.11537503 0.19798884 0.39766842

encoder.convs.0.bias f4 [64]
000000 b0 de b2 ba 6d 15 7f 3a 76 25 bc 3a af be 98 ba
       -0.0013646688 0.0009730671 0.0014354426 -0.0011653508
000010 07 67 a2 3a 49 73 15 ba ba 1c b2 3a 5b 54 a1 3a
       0.0012390324 -0.0005701078 0.0013588883 0.0012308465
000020 75 1e ad 3a 99 a4 b8 ba 7f 6a 96 ba 60 07 ba ba
       0.001320793 -0.001408714 -0.001147583 -0.0014192872
000030 b2 4b b6 37 68 9c 09 ba f9 3c a4 ba f3 2f 8c ba
       2.1731339e-05 -0.00052494416 -0.0012530378 -0.0010695442
000040 91 b4 ab ba b1 c9 af ba ea 28 bb 3a d9 d2 8d ba
       -0.0013100078 -0.0013411549 0.0014279161 -0.0010820284
000050 90 4c 90 ba da 39 b5 ba 58 86 ba ba 3e ae c0 ba
       -0.0011009146 -0.0013826445 -0.0014230711 -0.0014700366
000060 ac 36 98 3a 47 c9 b6 ba 73 b5 8b 3a fa b7 83 ba
       0.0011612973 -0.0013945483 0.0010658934 -0.0010049336
000070 00 00 00 00 e8 d9 ba 3a a5 53 a5 3a e5 f2 84 ba
       0.0 0.0014255615 0.0012613429 -0.0010143189
000080 e3 df 25 3a 58 6b c3 ba d5 1c 97 ba 0b 53 c0 ba
       0.0006327612 -0.001490931 -0.0011528978 -0.0014673186
000090 d1 86 7b ba ed b3 b2 3a c7 a3 a5 3a a4 b5 2d 3a
       -0.00095949793 0.0013633944 0.001263731 0.0006626493
0000a0 c2 c3 c0 3a ca 43 b8 3a 20 7b 7b ba 11 94 a7 ba
       0.0014706778 0.0014058289 -0.0009593237 -0.0012785216
0000b0 54 99 f2 39 ef 74 48 ba 30 d3 8d 3a 4f fc fc b9
       0.00046272075 -0.0007646819 0.0010820385 -0.0004825317
0000c0 92 a4 88 ba bb 00 af 3a ae 48 93 ba e8 d9 a4 3a
       -0.0010425022 0.0013351658 -0.001123687 0.0012577148
0000d0 ed d2 93 3a b1 f3 a4 ba 89 bd 79 3a 74 4c c2 ba
       0.0011278071 -0.0012584833 0.0009526839 -0.001482381
0000e0 44 4c 77 3a 67 05 ad ba b8 1d 8a 3a c9 99 25 3a
       0.0009433667 -0.0013200463 0.0010537421 0.0006317166
0000f0 ea 3b be ba 1a 59 83 3a 7d 92 88 ba 9d db ae ba
       -0.0014513705 0.0010021061 -0.0010419633 -0.0013340596

encoder.convs.0.lin.weight f4 [64, 64]
000000 4e 98 92 3b ae 63 33 be 43 34 00 be 5e eb b0 bd
       0.0044737225 -0.17518494 -0.12519936 -0.08638643
000010 04 76 b2 3c b2 2e a9 3d 25 a5 27 bd 52 b0 b0 bd
       0.02178479 0.082608595 -0.04092898 -0.086273804
000020 e1 21 c1 3d 53 27 56 be 84 3f 1c 3e 5d fa c4 bc
       0.0943029 -0.20913438 0.15258604 -0.024045164
000030 8d e5 18 3e 93 6d 26 3e 5f 62 c2 3c d1 be 8b 3d
       0.14931317 0.16252737 0.023728548 0.06823505
000040 87 96 fd bd aa 6e 1d 3e c4 5e 00 3e 5f 0b 10 bd
       -0.123822264 0.15374246 0.1253615 -0.035167094
000050 45 b3 ae 3d f8 c9 33 bc 52 f7 2b 3e a5 e4 b3 3d
       0.08530287 -0.010973446 0.16793564 0.08783845
000060 39 db 22 3e 19 ad 4a be ba 9e 56 3e d8 ba a2 3d
       0.1590394 -0.19792594 0.20958987 0.07945794
000070 1e 59 da 3d 16 bd 45 3d 83 29 12 3e 6f 9e 4f 3e
       0.10661529 0.04827603 0.14273648 0.20275281
000080 72 97 90 bc 58 29 37 be 98 5a 4a 3e 5f 98 40 bd
       -0.01765034 -0.17886865 0.19761121 -0.047020312
000090 b7 a4 d5 bd b7 1d 07 3e 1c d9 f9 3d 36 99 e2 3c
       -0.104318075 0.13194929 0.121996135 0.027660947
0000a0 c1 03 4d bc a2 84 24 bd 72 aa 4c 3e ef a7 05 3e
       -0.012513102 -0.04016555 0.19986895 0.13052343
0000b0 e5 b5 02 3e b4 f8 0b 3e c9 5e ea bd cc 5d 3e 3d
       0.127647 0.13669091 -0.1144386 0.04647617
0000c0 8e 61 3e be cf cc 01 3e cb 5e 5a be 3d f5 5e be
       -0.18591902 0.12675785 -0.21325223 -0.21773238
0000d0 d4 1b 5a be 6d 61 09 3e c0 99 c2 3c 3c 0f e9 3a
       -0.21299678 0.13416071 0.023754954 0.001778103
0000e0 f1 8e 07 3d 63 98 aa bd f3 6d 89 bd c8 b8 16 be
       0.033095304 -0.08329847 -0.06710424 -0.14718926
0000f0 1e 30 5e bd 70 9a 07 be 08 79 90 3b b8 da 2c 3e
       -0.054245107 -0.13242507 0.0044089593 0.1688031
000100 fd 53 38 be b1 22 dc 3d a0 f1 25 be ea d9 b9 bd
       -0.18000789 0.10748804 -0.16205454 -0.09074767
000110 5f 92 31 3d 81 5e 14 3d c0 c2 34 3e 41 46 76 3a
       0.04335248 0.03622294 0.17652416 0.0009394624
000120 12 01 ab bd f6 59 b9 bd 83 ff f1 3b ad 47 27 be
       -0.083498135 -0.09050362 0.0073851957 -0.16335936
000130 3e cd 2c be 16 a1 bb bd 1e 0a d8 3b 8f c5 16 be
       -0.16875169 -0.09161584 0.006593003 -0.147238
000140 77 2c fb bd 3c 55 1d 3e 5a e2 4d 3e e2 06 8d bd
       -0.1226434 0.15364546 0.20105878 -0.068860784
000150 26 40 3f be a5 d5 ab bd c0 0c b5 3d 31 f7 91 3d
       -0.18676814 -0.08390359 0.088403225 0.07127226
000160 a7 85 8b bd 11 51 44 be ef 49 83 bd 96 21 42 bd
       -0.068126015 -0.1917155 -0.06410586 -0.04739531
000170 76 4c fd 3d 49 fb dd bd f7 1d 06 3e 02 99 ed 3c
       0.123680994 -0.108389445 0.13097368 0.029003624
000180 52 d1 18 bd a8 a9 46 be 15 ea 5b 3e 55 45 22 bd
       -0.037309 -0.19400656 0.21476014 -0.0396169
000190 6b 8b 0c 3e 8e 6d e7 bd ae ef 58 be c2 ac 31 be
       0.13725059 -0.11300193 -0.2118518 -0.17351058
0001a0 b3 52 e5 bd 5e 18 8b bd a9 49 01 bd 1e ee 37 3e
       -0.11197414 -0.06791757 -0.03156439 0.17961928
0001b0 05 84 4d be 63 4c db 3d 73 97 3b 3e 94 7d ca 39
       -0.20069893 0.10707929 0.18319492 0.00038622005
0001c0 ea 30 0b be cf b2 c1 3b 24 4a 4e 3d b2 18 c2 3d
       -0.13592878 0.005911208 0.050363675 0.094773665
0001d0 95 a8 84 bd 1e 0c 96 bd 38 40 d3 bd 7b 75 57 be
       -0.06477467 -0.0732653 -0.10314983 -0.21040909
0001e0 91 c9 9d 3d de 9d 26 be eb ff d2 bd 16 a7 54 bb
       0.07704461 -0.16271159 -0.10302719 -0.0032448224
0001f0 9b e7 2b 3e 0c 2e 46 3e 11 3c 20 be 17 4f 41 3e
       0.16787569 0.19353503 -0.15647914 0.18877827
000200 2c 18 48 3e 14 99 31 3e e6 e1 a5 3c 61 8b 33 3e
       0.19540471 0.17343551 0.020249318 0.17533638
000210 fc 5b da 3d 25 98 1d be f1 b8 e6 bd ea c6 2a 3b
       0.10662076 -0.1539007 -0.112657435 0.0026058503
000220 b4 a0 1b be 25 f8 94 bd 2b 42 31 3e 03 25 d1 3d
       -0.15198022 -0.07273892 0.17310397 0.102121376
000230 54 8b 42 3e 02 e4 5d 39 28 13 e5 bd bb 3a 14 3e
       0.18998462 0.00021161142 -0.111852944 0.14475529
000240 01 76 8e 3c a4 48 1b 3d 65 ed b8 bd 99 1b b9 3d
       0.017390253 0.037911072 -0.090296544 0.09038467
000250 a8 3c 22 be ae c2 30 3e 01 2e 43 3e 51 dd a2 3d
       -0.15843451 0.17261764 0.19060518 0.07952369
000260 53 93 2b 3e 26 0e 08 3e 10 66 a6 bd 8e 23 3f be
       0.16755418 0.13286647 -0.081249356 -0.18665907
000270 2c 9a dd 3c f6 b1 0c 3e 0e 59 c1 bc ab 28 a1 3c
       0.027051054 0.13739762 -0.023602035 0.019672712
000280 ae d2 25 3e b3 09 ba 3d 86 ea 26 3e 7e 32 08 3d
       0.16193649 0.09083881 0.16300401 0.033251278
000290 86 da ba 3c a0 34 4e bd 8f fc 15 bd f9 b3 e8 bd
       0.022809278 -0.050343156 -0.03661781 -0.11362452
0002a0 55 b3 15 3e 35 b7 48 3e 9c 9c a1 3d c0 28 f9 3b
       0.14619191 0.19601138 0.07891199 0.0076037347
0002b0 a7 66 8f bd 50 69 59 be 6e b8 29 bd ef ce 1e be
       -0.07002001 -0.2123158 -0.04143565 -0.15508626
0002c0 a3 26 25 be 9b 9c 29 bd 0d 5b 34 bd 21 d0 38 3d
       -0.1612802 -0.041409116 -0.044032145 0.045120362
0002d0 d1 2e 22 be cb d6 1d 3e 35 25 4b be b5 db d4 bd
       -0.15838172 0.15413968 -0.19838412 -0.10393468
0002e0 82 63 a5 bd 92 32 72 3c 67 3b ba 3d 9a be 63 bd
       -0.0807562 0.014782565 0.09093361 -0.055601694
0002f0 c4 50 10 3d a2 e5 57 bd a3 8c ab bd ac 75 ec bc
       0.035233274 -0.05270923 -0.08376434 -0.028864704
000300 72 39 37 3d 9f 86 58 be b1 23 19 be df 5b 2e 3e
       0.04473252 -0.21145104 -0.14955021 0.17027234
000310 78 24 c6 3d c2 b7 98 bb 5d 9c 02 3c 37 73 eb 3c
       0.096749246 -0.0046605775 0.00797185 0.028741462
000320 0c bd 52 3d 2a 2c 16 be 8b 4d 76 bd 4f 4c 4a be
       0.05144982 -0.14665285 -0.060132544 -0.19755672
000330 f5 7b 2f be 8b 8d 2b bd 1c 76 f3 bc e7 91 2e 3e
       -0.1713713 -0.041883033 -0.029719405 0.17047845
000340 17 f1 13 3d 03 00 0f bd f5 9f ea bb f8 e7 f9 3d
       0.036118593 -0.03491212 -0.0071601816 0.12202448
000350 5f f9 83 bd e3 10 21 bd 19 9a 36 bd 75 f4 33 be
       -0.06444048 -0.039322745 -0.044580553 -0.17573722
000360 da 71 ee bc 66 cc 4b be 4e b8 f0 bd 2e 4b 0e be
       -0.029107023 -0.1990219 -0.11753903 -0.13895866
000370 0d 57 26 3e af 10 4b be 92 76 54 3e 59 90 a8 3d
       0.16244145 -0.19830583 0.20748356 0.08230657
000380 98 a7 14 be 14 c6 38 3e f6 20 48 bd 2e 9e 3a be
       -0.14517057 0.18044311 -0.04885956 -0.18224403
000390 58 a0 ff bc eb ff dc 3d bc 61 56 be ae 67 80 bc
       -0.031204388 0.10791 -0.2093572 -0.015674438
0003a0 2e c3 b6 3d 54 16 af bd 70 09 ab 3c 44 d5 ac bd
       0.08923946 -0.085491806 0.020878524 -0.08439115
0003b0 0e a7 13 be a4 68 2e 3e 18 98 1e be 74 b3 b5 ba
       -0.14419195 0.17032105 -0.15487707 -0.0013862685
0003c0 72 14 96 3d d3 72 f5 bd 89 76 d8 3d 63 2b 37 be
       0.073281184 -0.119847916 0.10569484 -0.17887644
0003d0 1d 95 52 3e 0c 29 c3 3d d7 a8 f1 bc 86 3d 37 be
       0.20564695 0.095293134 -0.029499454 -0.17894563
0003e0 27 01 b5 3b 69 e5 9a 3d 33 34 f3 bd be 5c d6 bc
       0.005523819 0.07563288 -0.118751906 -0.02616727
0003f0 f7 22 5e be 2f cb 5e be d8 18 ca bc d2 53 38 3e
       -0.21693026 -0.21757196 -0.02467005 0.18000725

encoder.convs.1.bias f4 [64]
000000 5c 3d c1 ba 78 0d 9c ba 6d e0 8f 3a c7 7e 99 ba
       -0.0014743018 -0.001190587 0.0010976918 -0.0011710756
000010 83 dc 8d ba 87 ba 3b ba dd 09 c6 ba d1 31 71 ba
       -0.0010823164 -0.00071612786 -0.0015109141 -0.00092008436
000020 8b 15 98 ba 7a 51 9a 3a 73 2c be ba 20 90 f6 35
       -0.00116031 0.001177355 -0.0014509097 1.8370374e-06
000030 19 31 c3 ba 42 14 b7 3a 3b 82 b3 ba 80 9a a5 ba
       -0.0014891952 0.0013967829 -0.0013695428 -0.0012634546
000040 1e 68 75 3a 3c 0c 9f 3a 75 46 a2 3a 2c 48 a4 3a
       0.0009361523 0.0012134383 0.0012380617 0.0012533716
000050 33 67 4f 3a 07 ab b8 3a 47 eb 12 ba 0e 65 a6 ba
       0.0007911801 0.0014089056 -0.0005604517 -0.0012694912
000060 df 31 9a ba 72 bc b1 ba 5e 0c 93 3a b0 84 9b 3a
       -0.001176413 -0.0013560189 0.0011218896 0.0011865105
000070 3f 85 b1 3a 09 b6 9b ba f3 70 a8 3a 16 3c c6 3a
       0.0013543739 -0.0011879812 0.0012851044 0.0015124108
000080 a4 3c 51 ba 9d 04 96 ba b8 45 35 ba fc 73 b3 ba
       -0.00079817534 -0.0011445467 -0.0006914991 -0.0013691182
000090 65 97 c8 3a f7 c6 ae b8 52 38 a2 3a 18 5c 7a 3a
       0.0015303908 -8.334027e-05 0.0012376404 0.0009550466
0000a0 88 e9 9b 39 54 70 b6 3a c4 78 a4 ba 06 81 c4 3a
       0.00029737898 0.0013918974 -0.0012548198 0.0014992065
0000b0 2d f4 4e ba fe 05 98 ba 2f 59 92 3a f9 27 bc ba
       -0.00078946614 -0.0011598465 0.0011165495 -0.0014355174
0000c0 73 b9 9a 3a 87 d9 b7 39 f8 ad 95 ba 4c 9e 83 ba
       0.0011804536 0.0003506655 -0.0011419645 -0.0010041683
0000d0 1f fd 5a 3a 17 ff 78 ba 96 ac b8 ba 98 9d 71 37
       0.0008353758 -0.00094984606 -0.001408952 1.4401412e-05
0000e0 a2 00 92 3a 7a b2 95 ba d8 1c c1 3a 35 38 b3 3a
       0.0011139105 -0.0011420988 0.0014733328 0.0013673367
0000f0 b3 56 37 ba d6 20 96 ba 14 0f ac 3a 5e 49 07 ba
       -0.0006993815 -0.0011453878 0.0013127052 -0.0005160774

encoder.convs.1.lin.weight f4 [64, 128]
000000 dd 19 db bc b8 0c c3 bd 03 57 90 bd 86 26 a6 bd
       -0.026745731 -0.0952391 -0.07047846 -0.081128165
000010 45 fd 22 3e 39 33 49 bc b0 c0 0f 3e f7 bf fa bd
       0.15916927 -0.012280279 0.14038348 -0.12243646
000020 da f9 ab 3d 89 0c 22 be cc 68 68 bd 99 e2 96 bd
       0.08397265 -0.15825094 -0.056740567 -0.07367439
000030 46 29 2a be 41 62 05 be 21 43 f0 bd 9b 1d 04 bd
       -0.16617307 -0.13025762 -0.11731554 -0.032254796
000040 81 25 75 bd d7 8d 28 be 85 8b de 3c 06 dc 99 3d
       -0.05985022 -0.16460358 0.027166137 0.07512669
000050 b5 0b ed 3c 15 f7 07 3e 56 40 69 bc 9c a6 0e 3e
       0.028936246 0.13277848 -0.01423653 0.13930744
000060 a2 2d 54 bc a6 89 6c bc dc 61 3f bc d9 5b 8e bd
       -0.012950333 -0.014437115 -0.011681046 -0.06951112
000070 9f 5d 88 bd a8 8f 28 3d 97 08 c3 bd ba 04 74 3d
       -0.06658482 0.041152626 -0.09523123 0.05957482
000080 71 64 12 be 12 c4 bc bc 18 5e c5 bc 2a 1f a5 bd
       -0.14296128 -0.023042712 -0.024092719 -0.08062585
000090 ab d2 02 3e 31 27 14 be 75 c6 a9 3d d3 0a 24 be
       0.12775676 -0.14468075 0.08289806 -0.16019754
0000a0 32 b2 d3 3d 3a a5 2c 3e 34 38 23 bd 14 7a 6d bc
       0.103367224 0.16859904 -0.03984852 -0.014494438
0000b0 b6 ea d9 bb a3 fe cc 3d 20 cf 47 3c ba da 2b bd
       -0.006650294 0.100095056 0.012195379 -0.04195664
0000c0 8f 86 21 3e a7 83 09 3e ea 88 27 bc 36 e7 bb bd
       0.15773986 0.13429128 -0.010225514 -0.09174959
0000d0 cb de d2 3d 5e 92 9d bd 91 42 ce bd 1d dd dd bd
       0.10296401 -0.07693933 -0.1007129 -0.1083319
0000e0 ee 99 24 3c 48 3e 9d bd 92 ec ef 3d f6 e0 f9 3d
       0.010046465 -0.07677895 0.11715044 0.12201111
0000f0 fa 8b 9d bd ae 56 8c bd 2f c0 01 3e a4 ea bc bd
       -0.07692714 -0.0685247 0.12670968 -0.09224442
000100 9a 38 e2 3d 80 fa 47 bc c0 fa 00 3e 3f eb b4 3d
       0.11045952 -0.01220572 0.12595654 0.08833932
000110 3c 50 02 be e1 11 03 be bf fe 9b 3d bc 98 b2 bd
       -0.1272592 -0.12799789 0.07616948 -0.08720538
000120 cb 9d 54 3c 8c ba 05 3d 68 46 13 be 2d e8 35 bc
       0.012977074 0.032648608 -0.14382327 -0.011102718
000130 95 41 f7 3d d2 f5 c0 3b 94 15 e5 bd ae c2 1c 3e
       0.12073056 0.005888679 -0.11185756 0.1530864
000140 04 d0 18 3e a6 7c 27 3d 56 a0 de bd 76 b5 99 3d
       0.14923102 0.04089036 -0.108704254 0.07505314
000150 25 6c 47 3d 69 5f d9 bd d7 bc 04 be 6d 25 99 bd
       0.04868712 -0.10613901 -0.12962662 -0.074778415
000160 ab cd 29 3e b5 3d 90 3c c3 64 67 bb cd 46 a4 3d
       0.16582362 0.01760755 -0.0035307861 0.08021317
000170 3a 68 cb bd 6f 33 6b bd a1 4b ee 3c 1c c4 1c 3e
       -0.09931989 -0.057422098 0.029088797 0.15309185
000180 e4 1d 61 bc 79 a2 1b 3d 94 9a 17 be fa dc 2a be
       -0.013740037 0.037996743 -0.1480506 -0.16685858
000190 75 df 12 3d 0e be 54 bb 8a d3 0c 3e d0 59 1f 3d
       0.035857636 -0.0032461914 0.13752571 0.03890401
0001a0 62 2f 21 3e 7a f2 0f bd a4 e7 4b bd cb 16 88 bc
       0.15740731 -0.035143353 -0.049781457 -0.016612431
0001b0 f8 a6 a9 bd 75 9e 24 3c ae 8f 16 be 53 ff 98 3c
       -0.082838 0.010047545 -0.14703247 0.018676436
0001c0 87 99 54 bc 24 3a 5c 3d 1c 06 2e 3e b9 35 7d 3d
       -0.012976057 0.053766385 0.16994518 0.061818812
0001d0 66 d7 e4 3c 5c 3d ef bd ed ee 7e bd 29 17 91 bd
       0.027934741 -0.11681625 -0.062239576 -0.070844956
0001e0 37 fd 18 be 4b 87 be 3d 22 aa 2a 3e 6f 69 ee 3d
       -0.14940344 0.09303149 0.16666463 0.116412036
0001f0 e2 23 0d 3e 18 26 c9 bd 90 6f 97 bd 11 ea 68 bd
       0.1378322 -0.09821719 -0.07394326 -0.056863848
000200 84 8c a5 bd 9a 8b 0d be 0e 1b 16 be 82 ec 1c bc
       -0.08083442 -0.13822785 -0.14658758 -0.009577872
000210 48 1a d9 bd f7 79 09 be b0 68 2f 3e 93 38 28 be
       -0.10600716 -0.13425432 0.17129779 -0.16427831
000220 69 13 68 bd b8 2a ec 3d 8f e0 b6 bd 82 a8 a5 3d
       -0.056659136 0.115315855 -0.0892955 0.08088781
000230 33 c1 02 be 93 86 05 ba 4e 95 86 3d 77 f6 65 bd
       -0.12769012 -0.00050936005 0.06571446 -0.05614325
000240 76 27 02 be 6d 18 09 3d a7 b7 fb bc fc ce 1c 3e
       -0.12710366 0.03347056 -0.03072722 0.15313333
000250 e1 d8 e7 bc 94 a2 0a 3e b4 39 97 bd bd 1d 8f bd
       -0.028301658 0.13538581 -0.07384053 -0.06988094
000260 b0 c9 2c ba b1 9a c8 3d f1 ca 25 3e cd e2 ab 3d
       -0.0006591333 0.0979513 0.16190697 0.08392868
000270 9c 50 a0 bd f1 37 33 3c 9a db f2 3d 64 32 0f 3e
       -0.07827875 0.01093863 0.11858292 0.13984066
000280 43 c1 00 3e a3 6f 6f 3d e8 eb a8 bc fc 4c f5 3d
       0.12573723 0.058456074 -0.020620301 0.11977574
000290 94 8e 77 3d 24 ae 1d be 18 0f 30 3e 22 80 67 bc
       0.060438707 -0.1539846 0.17193258 -0.01412967
0002a0 3d fb 2b 3e e8 fb d8 3d 38 0f 23 bc c2 de 1b be
       0.16795059 0.10594922 -0.009952359 -0.15221694
0002b0 ff 8d 2e be 2f 0b b0 bd 76 37 99 3d fc 01 4e 3c
       -0.17046355 -0.08595883 0.074812815 0.012573715
0002c0 d2 a6 97 3c d6 c1 14 be 69 c5 c9 3d 6a 31 38 bd
       0.018512163 -0.14527068 0.09852106 -0.044969
0002d0 0c 6e c0 3d 6e 2e 12 be 5c dc f4 3a f1 83 b8 3d
       0.0939599 -0.14275524 0.0018681395 0.09009541
0002e0 f1 c0 51 3d 6c 48 35 be 67 1e 17 3e 06 f1 07 be
       0.051209394 -0.17703408 0.14757691 -0.13275537
0002f0 47 02 28 be 52 9b f8 bd 0e 69 2a be 86 ac 81 3d
       -0.16407119 -0.12139 -0.16641638 0.06331734
000300 f4 35 07 3e 94 cc 10 3e cd 7f 79 3d fd 8f 46 bd
       0.13204175 0.1414054 0.060912896 -0.04847716
000310 e6 64 16 3d e1 6c 5b 3d 3f 9e 34 be 00 10 8f ba
       0.036717318 0.053570632 -0.17638491 -0.0010914803
000320 56 a7 30 3d 0d 58 11 3e fa e9 d9 3d 5a 20 51 bd
       0.043128334 0.14193745 0.106403306 -0.051056243
000330 41 f9 14 bc fe 59 e7 3d 52 b7 23 3e 52 70 b9 bd
       -0.00909263 0.112964615 0.159879 -0.090546265
000340 2c 98 32 3e 8b ba 00 bd db 02 a4 bd 80 96 81 ba
       0.17440861 -0.0314279 -0.08008357 -0.0009886771
000350 3d d1 0c 3e f5 34 d1 bd 6a 07 a4 3b d6 bc d2 bd
       0.13751693 -0.10215179 0.0050057666 -0.10289924
000360 41 f3 84 bb 12 70 fa 3d 7e 32 b3 bd b2 52 a4 bd
       -0.0040573184 0.12228407 -0.08749865 -0.080235854
000370 94 da 48 3d bc fd a7 3d 4c 74 71 bc 3c bb 26 bd
       0.049036577 0.08202693 -0.0147372 -0.040705904
000380 b0 64 37 bc a8 4a 57 3d 12 8a 21 3e b9 d2 a0 3d
       -0.011193439 0.052561432 0.15775326 0.07852692
000390 41 17 ee 3c 20 8d 6b 3d 08 5b 55 3d ff 0c 1c bc
       0.029063823 0.057507634 0.052088767 -0.009524583
0003a0 0a c7 f5 bd 65 95 ad bd b3 dc 78 3d bb 64 79 3d
       -0.12000854 -0.0847576 0.06075735 0.06088708
0003b0 9b 66 b7 bd 74 18 ca bd 83 d0 cc 3d 7d 5a 07 bd
       -0.08955117 -0.09867945 0.10000708 -0.03304528
0003c0 e2 81 dc 3d 28 aa 40 3d 2a 8e 07 3d 7e 97 a3 bc
       0.10766961 0.047037274 0.033094563 -0.019969698
0003d0 8c ea 9f bd e7 81 37 3d 32 cf e2 bd 91 24 a2 bd
       -0.07808408 0.04480162 -0.110746756 -0.07917131
0003e0 58 72 02 be b4 94 a0 ba d0 f1 c3 bd f0 c5 84 bd
       -0.12738931 -0.0012251348 -0.095676064 -0.06483066
0003f0 16 c1 6e bd 0c 26 a0 3d 87 fe c8 3d 3d 4b f2 3d
       -0.05828961 0.07819757 0.09814172 0.11830757

encoder.post_mp.0.weight f4 [64, 192]
000000 39 1c f5 3b 0f 9d 66 bc 94 99 15 3d 90 e5 6a bb
       0.007480171 -0.014075532 0.036523417 -0.0035842396
000010 15 20 11 3d d8 3e d1 bc 1c 40 01 bd d9 4d 98 3c
       0.035430986 -0.025542662 -0.03155528 0.018591808
000020 7a 0a 17 bb 18 7c 79 bd a9 f4 51 3d cb 1e 8c bd
       -0.0023047016 -0.06090936 0.051258717 -0.06841811
000030 e5 d3 61 3d 00 bf 67 bd 88 54 76 bd eb 7d 30 3d
       0.05513372 -0.056578636 -0.06013921 0.043088835
000040 6f e4 08 3d 43 ec 30 3d 26 26 0a bd 8d e5 45 bc
       0.033420976 0.043194067 -0.033727787 -0.012078655
000050 e5 9b 85 3b 06 8e d6 3c 41 60 67 bb 13 1c 94 bd
       0.004077422 0.026190769 -0.0035305175 -0.07231917
000060 10 26 a6 bc c4 5b 44 3d 8b 40 b1 bb 9d 70 f5 3a
       -0.020281821 0.047939077 -0.0054093054 0.0018725578
000070 3c 3f 01 3d 73 38 3d bc 03 46 45 3d e1 cd 01 bd
       0.031554446 -0.011549103 0.04816247 -0.031690482
000080 8d e6 f1 3b 6d 0b 2a 3c 7a 6a 7e 3d c4 9b 92 bb
       0.00738222 0.010378701 0.062113263 -0.004474135
000090 30 5e 27 bd 1c 07 7f bc ea 3d cb bb 42 19 80 bc
       -0.04086131 -0.01556566 -0.006202449 -0.015637044
0000a0 8e 8e 2e bc 50 36 9a bc 89 2a 0c 3d 3b dd 8f bd
       -0.010654105 -0.018824726 0.034220252 -0.07024618
0000b0 6c 81 ce 3c 1a d4 44 bd e4 37 8e 3d d3 b1 d1 3a
       0.025208198 -0.04805384 0.06944254 0.001599843
0000c0 96 c0 08 3c 70 11 5a bd e4 67 7a bc 43 68 3b 3d
       0.008346697 -0.053239286 -0.0152835585 0.04575373
0000d0 ce 0a 16 3d 6b 40 40 bd c3 df 6e 3d 7c 90 c4 bb
       0.036631398 -0.046936434 0.058318865 -0.005998669
0000e0 02 b3 6b 3d 4b 5f 73 3b 45 d9 ef bc 5d ce 17 3c
       0.057543762 0.0037135656 -0.029278407 0.009265509
0000f0 b1 9d 22 3d e4 f8 8a bd 9e fa 17 bd 22 0a 4a 3d
       0.039701167 -0.06785753 -0.03710424 0.04932607
000100 b6 32 a6 3b ba 63 1b bd 46 6b e6 bb 00 10 1a 3d
       0.005071963 -0.037936904 -0.007031831 0.037612915
000110 e0 83 93 3a 01 d8 73 bd c6 65 93 bd 66 1a 80 3d
       0.0011254512 -0.05953217 -0.07197146 0.06255035
000120 bb 0e b0 bc dd 6e 62 bd 8f 9f 40 bc 43 1f e8 3c
       -0.021491399 -0.05528151 -0.011756792 0.02833522
000130 31 2e 5c 3d ba 0e 3a bd 76 64 21 3d 81 33 f6 bc
       0.05375499 -0.0454242 0.039402448 -0.030053856
000140 54 67 66 3c 16 01 f7 bb 47 ae 5e bd 7b 60 6f bc
       0.014062721 -0.0075379713 -0.054365423 -0.014610405
000150 96 fd 86 bd 60 53 83 bd 4e e9 01 bd 31 d2 e2 bc
       -0.065913364 -0.06412387 -0.031716637 -0.027688118
000160 db f3 31 bd fe 01 bc 3c 1c 19 5a bc 03 df 6d 3d
       -0.04344545 0.022950169 -0.013311651 0.05807401
000170 5c 52 6e 3d 0e 35 0a bc 32 16 6d bc 4a 2b e5 ba
       0.058184013 -0.008435501 -0.014470624 -0.0017484215
000180 35 73 77 bb b8 ad 8b 3c 86 2b f3 bb 13 6c 7c 3d
       -0.0037757878 0.017050609 -0.00742096 0.061626505
000190 00 b3 3d 3c 8f 5f 79 3c 67 75 75 bd 5c 7a 8e bd
       0.011578321 0.015220537 -0.059926417 -0.06956932
0001a0 78 9e 1f 3b 06 c6 3e 3d 56 56 b5 bc c1 c6 a3 3c
       0.002435593 0.04657557 -0.022135895 0.019992234
0001b0 52 19 8a bd 7f 60 39 3c 49 09 8b bc 28 3a f8 bc
       -0.06743111 0.01131451 -0.016972201 -0.030301169
0001c0 8b df 0f bd 2a 8a bd bb 2e a6 17 3d 5b 6c 80 3d
       -0.035125297 -0.0057842927 0.037023716 0.06270667
0001d0 de db 66 bd 43 56 8b 3c 44 e0 8c bd e4 0c 9d 3c
       -0.056362025 0.017008906 -0.06878713 0.019171186
0001e0 d5 58 44 3d c4 08 04 3c 4a 39 2d 3d ce 0b 78 bd
       0.04793628 0.0080587305 0.042290963 -0.060558133
0001f0 d8 56 a0 3c f6 6c 1b bd dd 1c 45 3c 58 d2 ff 3a
       0.01957266 -0.03794571 0.012030807 0.0019517643
000200 e4 24 38 3d 49 36 aa 3a fd b0 01 3d 26 9f 31 3d
       0.044957057 0.0012986149 0.03166293 0.043364666
000210 0e ba 7f bc 00 dc 5b bd 8c 45 a6 bb 30 f6 e6 3c
       -0.015608324 -0.053676605 -0.0050742086 0.028193563
000220 4b be 89 bd 0f db 27 bd 6f 71 0c 3d 20 bf 4f bd
       -0.06725749 -0.040980395 0.034287866 -0.05071938
000230 45 bd 81 3d e2 09 44 bd 6a a5 68 3d 03 79 69 bd
       0.063349284 -0.047860987 0.056798376 -0.05700017
000240 25 2a a6 3b e6 22 5a bb 09 fc d9 3c a9 31 10 3c
       0.005070942 -0.0033284961 0.026609438 0.008800902
000250 65 53 7b 3d 35 b1 8a bc c7 5a 82 3d 3c 69 a4 bc
       0.061358828 -0.016930202 0.06364971 -0.02006971
000260 79 d3 74 bd 42 cf 53 3d f4 df 5a 3c 17 35 90 3c
       -0.05977199 0.05171133 0.013359059 0.01760344
000270 f2 64 a7 3c 83 9f 2d 3d 8b 07 0f 3d 77 91 bb 3c
       0.020433877 0.04238845 0.034919303 0.022896511
000280 3b c6 15 3c c9 cf 81 3b 8f 80 1c 3d e1 5d 84 3d
       0.0091415 0.0039615375 0.03820854 0.064632185
000290 b3 cf ad bc 09 d1 86 bd a8 25 81 3c 37 57 15 3d
       -0.021217203 -0.06582839 0.015765026 0.036460128
0002a0 57 87 54 bd 1a 88 48 bd cb e1 6e bd 0e 1a a3 bb
       -0.051886883 -0.04895792 -0.0583208 -0.004977471
0002b0 95 a4 30 bd 6d 7d ad 3c a0 0f 0c 3d e0 5d 0e bd
       -0.043125708 0.021177972 0.03419459 -0.034757495
0002c0 c7 b4 3d bd da c5 8c bd 19 e5 45 bd 2d 97 56 3c
       -0.04631498 -0.06873675 -0.048314188 0.013097567
0002d0 dc fd 92 bb fc 33 e5 bc 07 96 8b bb 84 d0 e9 bc
       -0.004485829 -0.02797889 -0.004259828 -0.02854181
0002e0 a6 78 94 bd 72 4e 6b bd 54 32 a3 bc 76 2f 88 bd
       -0.07249574 -0.05744786 -0.01992146 -0.066496775
0002f0 5b c4 23 3d 27 54 14 bd 78 d7 4b bd 0f 61 c5 bb
       0.03998218 -0.036213066 -0.049766034 -0.006023533
000300 8c f6 7c bd 11 76 59 3d 20 93 32 3d a8 46 6a 3c
       -0.061758563 0.053091113 0.04359734 0.014299072
000310 54 38 5a bd 9b 9a 1a 3d ac b0 6f bd d6 6f 70 3d
       -0.053276375 0.0377451 -0.058518097 0.058700405
000320 5f 4c 8c bc 93 64 a7 bb a8 93 81 bd 64 41 b9 3c
       -0.01712626 -0.005108425 -0.06326991 0.022614188
000330 8c 12 8c bc 79 e7 41 bc 79 29 b4 bc 58 3a e4 bc
       -0.017098688 -0.011834973 -0.021992432 -0.027859852
000340 7f d0 27 3c d3 d4 91 3c 21 d0 55 3d a9 e4 42 bc
       0.01024258 0.017801678 0.05220044 -0.011895337
000350 0d 44 2a 3d 2a c8 91 bd db f1 8f 3c 98 38 76 3b
       0.041568805 -0.071182564 0.01757138 0.0037570354
000360 98 3c a3 bc 2f 55 d0 3c 9d f5 a0 ba 63 b3 d1 bb
       -0.019926354 0.025431244 -0.001228023 -0.0063995584
000370 14 62 88 3d 57 82 85 bd 5a 83 32 bd 63 f7 ed bc
       0.06659332 -0.06519001 -0.043582298 -0.029048627
000380 ed da 7d 3d f9 08 c6 bc 1f f0 41 3c 32 68 7e bc
       0.061976362 -0.0241742 0.0118370345 -0.015527772
000390 8c 5e 46 3d 7a 6f 39 3d c2 7f 4d bd 96 0b ba 3b
       0.04843001 0.045272328 -0.050170667 0.0056776507
0003a0 9a d8 8f bd a9 58 f8 bc 25 07 60 bd 31 13 b7 bc
       -0.07023735 -0.030315714 -0.054694314 -0.022348018
0003b0 49 4f 77 ba f6 ea d3 bc 25 5e de bc b0 f3 c5 bc
       -0.00094341167 -0.025868874 -0.027144501 -0.02416405
0003c0 14 39 20 3c be b7 76 bd 26 aa 6b 3d a1 98 0b bd
       0.0097792335 -0.060233824 0.057535313 -0.034081105
0003d0 45 63 bb b9 2f f4 59 bd 1c 05 85 bd da 32 3c bd
       -0.0003574138 -0.053211387 -0.06495115 -0.045946933
0003e0 6b d5 72 bd db 4a 8f bd 4f 13 4d 3d 64 d1 8c 3d
       -0.059285562 -0.069966994 0.050067242 0.068758756
0003f0 46 c2 2d bd a3 59 85 3d 8b 24 1c 3c 66 f4 8d 3d
       -0.0424216 0.065112375 0.009530197 0.06931381

encoder.post_mp.0.bias f4 [64]
000000 95 a3 7f 3d 94 ea f3 bc c1 4b 4e bd 0a da 83 3d
       0.062411863 -0.029774942 -0.050365213 0.06438072
000010 99 7b 70 bd 1d 87 62 bd 0d bd 21 3d 0e 58 3b 3d
       -0.058711622 -0.055304635 0.039486933 0.045738272
000020 65 20 07 3d b1 2c 41 bc cb 0d b0 bb 6f f4 5d bd
       0.03298988 -0.01179044 -0.005372738 -0.05418819
000030 f5 d5 b5 bc 01 7f 67 bd 0d ca 8c 3d 34 1c 3b 3a
       -0.02219675 -0.056517605 0.06874476 0.00071376865
000040 03 21 c7 38 10 74 ad 3c df ca 41 3c 0c f1 cb bc
       9.495208e-05 0.021173507 0.011828153 -0.024895214
000050 6c c2 db bc 81 f9 8c bd 20 17 c2 bc d0 e6 8e bc
       -0.026826106 -0.068835266 -0.023692667 -0.017444044
000060 c1 67 a6 bb 27 3c 2e bb 5a 29 c9 3c 17 ec 8f bd
       -0.0050782864 -0.0026586147 0.02455585 -0.070274524
000070 a1 a2 88 bd 57 1c 36 bd e3 76 bf 3c 95 62 4d 3d
       -0.06671644 -0.04446062 0.02337212 0.050142843
000080 5f aa 7d bd 9d e5 07 bd 7f 51 5e bc 9d 9d c1 bc
       -0.061930057 -0.03317796 -0.013569235 -0.023634726
000090 45 6a d4 3a b8 b8 d4 bc 1d 28 1d bd d5 29 28 3c
       0.0016205987 -0.025966987 -0.038368333 0.01026388
0000a0 e3 c2 aa bc 3e 8b 70 3d 71 47 38 3d a9 c2 a4 bc
       -0.020844882 0.05872654 0.044990007 -0.020112352
0000b0 8d 43 31 bd 5e d2 7f 3d 3a 18 33 3c ff 57 f3 bc
       -0.043277312 0.06245648 0.010931069 -0.029705046
0000c0 96 63 e9 3c f9 6c 9b b9 57 0f 29 3d 0d fe 32 3c
       0.02848987 -0.00029645095 0.041274395 0.010924828
0000d0 b7 ba 84 3d 15 5c e9 3c e5 76 eb bc c9 65 57 bc
       0.064809255 0.028486291 -0.028743217 -0.013146826
0000e0 6e 80 24 3d f2 0f 39 bd 36 da 15 bd cc c7 d6 bc
       0.040161543 -0.045181222 -0.036585055 -0.026218317
0000f0 ea d5 7f 3d c1 0b 80 3c 1b 21 ab 3c 27 51 56 bd
       0.062459864 0.015630605 0.02088981 -0.052323487

encoder.post_mp.3.weight f4 [64, 64]
000000 b0 8f ee bd b0 cf 8b bd c3 19 82 bd 7e 3c ba 3d
       -0.116485 -0.068267226 -0.0635257 0.09093569
000010 b7 c5 b5 3c 24 2f d3 3d 65 36 94 bd 7e 69 76 bc
       0.022189004 0.10311726 -0.072369374 -0.0150398
000020 b6 6f 88 bd 45 8e 5c 3d c5 b9 99 bd 50 ba 42 3d
       -0.06661932 0.053846616 -0.07506136 0.047540963
000030 3f e8 1d 3d 3a e4 dd bd 15 02 c5 bc 08 16 f1 3c
       0.038551565 -0.108345464 -0.024048844 0.02942945
000040 25 4d fa 3d 7c 60 f9 bd 43 8f a8 bd 50 ec ec 3d
       0.122217454 -0.12176606 -0.0823045 0.115685105
000050 6d e5 d6 bd 48 95 f3 bc 16 e3 af 3d f0 15 93 3d
       -0.10492978 -0.029734269 0.08588235 0.071819186
000060 8a 1d a3 3c 40 64 34 3d b6 ed 31 bd be d6 9c bd
       0.019911546 0.04404092 -0.04343959 -0.07658146
000070 4b 40 97 ba e1 68 f7 bd 85 68 b4 3d 7a 75 51 3d
       -0.0011539547 -0.12080551 0.08808998 0.051137425
000080 39 22 de 3d fd 0b 4c bd 76 0b 80 bd 3b 5b 80 3c
       0.10846371 -0.04981612 -0.06252186 0.015668502
000090 c4 85 db bd b5 57 b7 3d 31 1b 88 3c fd 35 52 3d
       -0.10718873 0.08952276 0.016614528 0.05132102
0000a0 d0 69 a4 bd fc 81 92 3d e1 7c d8 bd 7f 41 d0 bd
       -0.08027995 0.07153699 -0.10570694 -0.101687424
0000b0 e8 c3 aa bd b4 5c 2c 3d 1a 7b 0c bd b9 34 81 3d
       -0.083381474 0.042080596 -0.034297086 0.06308884
0000c0 89 f1 61 3c cc 15 bd bc 73 2b 0c 3d c4 4f 5e bd
       0.013790497 -0.023081683 0.034221124 -0.05427529
0000d0 3d 79 cf bc 2f 64 c3 3d 3e 1d eb 3d 5d f3 58 3d
       -0.025326366 0.09540593 0.11480187 0.052966464
0000e0 94 4e 73 bc d1 75 a6 bd 39 ce a4 bb 7d f0 f4 bd
       -0.014850277 -0.081279404 -0.0050294665 -0.11959932
0000f0 04 4b c6 3d 8e c4 a9 bc bf b6 d1 3c 99 70 fe bc
       0.09682277 -0.020723607 0.025599835 -0.03105955
000100 db 3c 11 3d 04 38 97 3d 0b 83 0f bd c2 91 b4 3d
       0.035458427 0.07383731 -0.03503708 0.088168636
000110 26 b4 ce bd fc e7 79 3d b2 a7 ab 3d aa bf 83 3d
       -0.10092954 0.061012253 0.08381595 0.064330414
000120 10 d1 a7 3d a1 09 dd bd 44 c1 f2 bc a1 d6 96 3d
       0.081941724 -0.10792852 -0.029633172 0.07365156
000130 80 9a 89 3d 3a 5e f8 bd 77 1c 22 bd 3d 6f f1 3a
       0.06718922 -0.12127347 -0.039577927 0.0018419992
000140 31 64 ba b9 73 eb 04 bd 0c e3 d7 bd c6 a1 17 3d
       -0.00035551333 -0.032451104 -0.10541353 0.037019514
000150 23 4c e6 3d 11 72 9c 3c a4 ac 87 3d 86 2f b8 bd
       0.11244991 0.01909736 0.066247255 -0.089934394
000160 06 d5 00 be a2 6b ab bd f0 d6 06 bc bf 3b e2 bd
       -0.12581262 -0.08370139 -0.008229956 -0.11046552
000170 57 67 f1 3d 43 0e 7c 3c 3b b7 3a 3d c4 ec 88 bc
       0.11787289 0.01538426 0.0455849 -0.016714461
000180 44 fb f9 3d 15 cc 81 bd e9 e4 60 bd 00 7c 54 3d
       0.12206128 -0.06337754 -0.054905806 0.051876068
000190 96 19 d2 3b cc 72 48 bd 00 98 f7 bd 5c 06 9f 3d
       0.0064117415 -0.048937604 -0.120895386 0.07764885
0001a0 1a bf 63 bd 83 55 c0 3d 73 2b e7 bd 41 4b 5d 3d
       -0.05560217 0.0939131 -0.11287584 0.054026846
0001b0 3b 41 eb 3d 8d 62 e5 3d a4 8d d9 bd d9 f8 a2 bd
       0.11487051 0.11200438 -0.10622719 -0.0795762
0001c0 51 22 b2 3d a8 79 93 bc 46 d9 d6 3b ed 5e b1 39
       0.086979516 -0.018002346 0.0065566627 0.00033830796
0001d0 02 d9 38 bd c5 16 19 3d 26 e8 14 bd 88 64 9e 3d
       -0.04512883 0.03737523 -0.036354207 0.077340186
0001e0 6b 0c cf bd 8b 6a cc 3d 3a 57 ef bb c5 ed f1 bc
       -0.101097904 0.09981259 -0.0073040994 -0.029532323
0001f0 cf 9e e9 3d fe ae 5e 3d 50 3c 9a 3d 73 26 d0 3d
       0.114072435 0.054366104 0.07531035 0.101635836
000200 32 1c 9e 3d e5 0e 3b 3d 46 99 c8 bc bf 1e d4 bb
       0.077202216 0.0456685 -0.024487149 -0.006473392
000210 06 74 35 bd 19 8f bd bc 6c 4e af 3d ef 3e 00 be
       -0.0443001 -0.023139523 0.0855988 -0.12524007
000220 b3 01 c1 bd c7 76 b5 bc 31 34 97 3d 2b ab 60 3d
       -0.09424152 -0.022151364 0.073830016 0.05485074
000230 89 59 ba 3c 7e 30 8d ba 3e d0 dc bd e5 46 3b bd
       0.022747772 -0.0010771898 -0.107819065 -0.045721907
000240 2e f6 d0 3d d2 22 0d 3d 94 93 ab bc b8 24 04 3c
       0.10203205 0.034457035 -0.020944394 0.008065395
000250 73 b3 d8 3d 10 df ca bc 96 bd a6 bc 37 eb 99 3d
       0.10581102 -0.024764568 -0.020354073 0.07515567
000260 60 30 e2 bd 94 b4 22 3d 94 f3 93 3d 1d bb b4 3d
       -0.11044383 0.039722994 0.07224193 0.088247515
000270 c3 14 51 bd 66 a1 e4 bd 23 80 e8 3d 9f 56 f8 3d
       -0.05104519 -0.11163597 0.11352565 0.12125897
000280 69 db d8 bd 1a 25 f6 3d fd 69 9e bd 1e 01 94 3d
       -0.10588724 0.12018795 -0.077350594 0.072267756
000290 0a 0d 55 bb 4a ea f3 bc ca 93 a5 3d 71 91 12 bc
       -0.0032508993 -0.029774804 0.08084829 -0.008945809
0002a0 be 8c ad bd 50 10 ca bd 06 3e 98 3d 43 a8 f3 3c
       -0.0847411 -0.098663926 0.07433705 0.02974332
0002b0 be 53 91 bd 26 70 82 3d 06 11 c3 bd 20 48 f2 3d
       -0.07096051 0.06369047 -0.09524731 0.11830163
0002c0 c9 c6 e4 3c 6f 7e b8 3d 01 85 3f bd a7 d8 be 3d
       0.02792682 0.0900849 -0.0467577 0.09318667
0002d0 a3 4d 60 3d be c6 c2 3d f2 69 9e bd 60 7c ec bd
       0.05476154 0.09510563 -0.07735051 -0.1154716
0002e0 26 58 70 3d 35 c1 97 3c 3b 2d 60 bc 4c 18 52 bd
       0.058677815 0.018524745 -0.013682659 -0.051292703
0002f0 43 83 81 3d 76 53 f8 3c f4 10 70 3d 65 69 85 3b
       0.06323864 0.030313235 0.058609918 0.004071402
000300 90 cc 6f 3d 24 f5 ba 3d 11 e6 ec bd 29 fc 2c bb
       0.058544695 0.09128788 -0.11567319 -0.0026395416
000310 1c ae d9 bd ed 13 b1 3d 99 c3 08 bd 21 e3 00 3d
       -0.10628912 0.08646379 -0.03338966 0.031466607
000320 11 12 87 3d c7 73 84 bd cd 11 a3 3d cd 58 90 bd
       0.06595243 -0.06467395 0.079623796 -0.070481874
000330 41 91 e2 3d 60 24 3e bd 7f 5a a9 bc d3 b9 d4 3d
       0.11062861 -0.04642141 -0.020673035 0.10387006
000340 14 c9 6d bd 96 ed 1f bd 7d c1 75 3d 1d 3a 84 bd
       -0.05805309 -0.03904494 0.059998978 -0.06456397
000350 0e 6c c9 3d 0b 69 47 3d 09 b7 c4 3c 36 76 52 3c
       0.09835063 0.04868416 0.02401306 0.0128455665
000360 76 1c cc bd 6b d8 b5 bc 8c 1e 09 3d 87 f7 4e bd
       -0.09966366 -0.022197923 0.033476397 -0.05052903
000370 62 e2 64 bd a2 b6 ff bb 08 02 bb bd 71 a5 48 3d
       -0.055879958 -0.007803754 -0.09131247 0.048985902
000380 45 5f d1 bd b7 93 ae bd 20 7c 61 3c e3 88 8d bc
       -0.10223249 -0.08524268 0.013762504 -0.017277187
000390 56 56 9c bd ba eb 53 3d 07 8d e0 bd 1d 2b a3 3d
       -0.07633655 0.05173848 -0.10964399 0.079672076
0003a0 b9 84 da 3d 92 4b bd 3d e8 5a d0 3d 14 bf 63 bc
       0.10669846 0.092429295 0.10173589 -0.013900537
0003b0 d3 ce 5f 3d cd 81 e0 bd 6d 10 80 3d 25 87 ab bd
       0.054640602 -0.109622575 0.06253133 -0.08375386
0003c0 aa e3 85 bd dd ac d2 bd 9f ba a9 3a 63 63 e0 3d
       -0.06537564 -0.10286877 0.0012949294 0.109564565
0003d0 24 d9 e5 bb 83 ab cf 3c a2 30 a5 bc ef 2c 8f 3c
       -0.0070144106 0.025350338 -0.020164791 0.01747748
0003e0 73 46 f0 3d 60 4d 42 bb 8f 45 20 3d 03 14 5c 3c
       0.11732187 -0.002964817 0.039128836 0.013432506
0003f0 e2 c4 11 bd 73 2b aa bd df 4a 05 3c 74 2f 85 3c
       -0.035588153 -0.083090685 0.008135526 0.016257979

encoder.post_mp.3.bias f4 [64]
000000 a4 f5 b6 3d 70 bc 69 bd d2 bc c8 3d 30 de f1 bd
       0.08933571 -0.057064474 0.098016396 -0.11809957
000010 3b 41 76 3c 83 b0 e5 3d 94 56 c9 3d 8d 3e b0 bd
       0.015030201 0.112153076 0.098309666 -0.086056806
000020 a1 ed 15 3d f2 ae d1 3d 03 67 3f bd dc 26 9a 3d
       0.036603574 0.10238446 -0.0467291 0.07526943
000030 ba dc c6 bd 82 de 4f bd df 90 ea bd dc 93 8f 3c
       -0.09710069 -0.05074931 -0.11453413 0.01752656
000040 61 ae f7 3c b9 1d c0 3d 5e 61 95 3d a4 e4 20 3d
       0.030234518 0.09380669 0.07293962 0.03928055
000050 7c 83 9a 3d ff 70 c5 bc ea a5 de 3c 19 fd 8b 3d
       0.0754461 -0.024101732 0.027178723 0.06835384
000060 39 71 16 bd 6c bb e0 3d f7 d2 36 3d 01 da 88 bd
       -0.03672907 0.10973248 0.044634786 -0.06682206
000070 9d 72 eb 3d 9d c6 05 3d f7 97 a6 bd 4e 7d 7e 3d
       0.1149647 0.032660116 -0.08134454 0.06213122
000080 bc 27 91 3c 8d 7b 44 bd 3e b4 58 3c ef 6e a4 bd
       0.017719142 -0.04796939 0.013226567 -0.080289714
000090 30 63 ce bd 7d 3f 7a bd fa 3e bd 3d b8 01 23 3d
       -0.10077512 -0.061095703 0.092405275 0.03979656
0000a0 20 d1 62 bd 98 d7 de bd e5 54 ce bd 50 75 00 be
       -0.05537522 -0.10880965 -0.10074786 -0.12544751
0000b0 5d 6e 89 bd 61 bf ca 3d 3b 80 83 3d 94 2e f6 bd
       -0.06710503 0.09899784 0.064209424 -0.12020603
0000c0 a1 ac 4f bd 9f db b5 bd 54 4f 9e 3d 57 37 26 bd
       -0.05070174 -0.0887978 0.077299744 -0.04058012
0000d0 79 6e 74 3d 2a 2b 8d bd b7 d9 a9 3a c2 ea f4 3d
       0.059675667 -0.068929985 0.0012958561 0.11958839
0000e0 43 4e a0 bd 5c 4c fe bd cc b7 b6 3b 80 c3 5c 3d
       -0.07827427 -0.12416908 0.0055761095 0.05389738
0000f0 7b c8 fa 3d dc ef 0a bd b6 4e 1e 3d b6 ec a4 bd
       0.1224527 -0.033920154 0.038649283 -0.080529615
