amazon/20230719-151753/commm.pt (torch, 253910 bytes, 15 tensors)

encoder.learnable_skip f4 [2, 2]
000000 b6 74 7f 3f 00 00 80 3f 9f 78 7f 3f f3 7d 7f 3f
       0.9978746 1.0 0.9979343 0.9980156

encoder.pre_mp.0.weight f4 [64, 5]
000000 29 c0 c3 bb 91 fb 72 3e a9 00 bb be ac 14 a7 be
       -0.005973835 0.23728777 -0.3652394 -0.3263296
000010 97 7d 2d be 2a d0 fa 3d 8b fb 0d bc 10 30 b6 3e
       -0.1694244 0.122467354 -0.00866593 0.35583544
000020 5c 3f 1d bd 8c d0 f4 3d d8 a0 08 be a7 8a b6 bd
       -0.038390502 0.1195384 -0.13342607 -0.089131646
000030 88 66 d9 be 9d 58 96 be ef 1d 3a be 2a 58 87 3c
       -0.42461038 -0.29364482 -0.18175481 0.016521532
000040 57 02 37 3e 6b 12 88 3e 69 a0 9c be f0 3a 4a be
       0.17871986 0.26576552 -0.30591133 -0.19749045
000050 e0 d5 28 3e 6c f1 bc 3e 2f da b9 bd 28 57 ac 3e
       0.16487837 0.3690294 -0.09074818 0.33660245
000060 ab 16 90 bd a1 22 3a 3d eb 25 cf 3e 52 21 d4 be
       -0.070355736 0.04544318 0.40458617 -0.4143167
000070 64 91 8f be bc 67 e6 bd 59 8b 35 be 42 73 c5 3e
       -0.28040612 -0.112502545 -0.17728938 0.38564497
000080 da 73 93 be 45 00 51 be e7 0a 9f be bb c3 d5 be
       -0.28799325 -0.20410259 -0.31063005 -0.41750893
000090 df b0 86 be 79 3d c6 3e 81 09 4f 3e 83 ca 60 3e
       -0.26306817 0.38718775 0.20218469 0.21952252
0000a0 74 a0 a8 3c 2b c9 6b be 7f 77 9f 3d 64 b5 d4 be
       0.020584323 -0.23025958 0.07786464 -0.4154464
0000b0 6f 58 a4 be 55 c1 68 be e6 cc 91 3e 44 c7 84 3e
       -0.3209872 -0.2273 0.28476638 0.25933278
0000c0 fc 05 4e be 17 a0 9b bc a6 e0 90 3e ce 95 e3 3e
       -0.2011947 -0.018997235 0.28296393 0.4445023
0000d0 10 ae 34 3e dc 16 72 3d bd f3 98 3e 44 70 87 be
       0.17644525 0.05910383 0.29873458 -0.2645284
0000e0 ac f3 a0 3d c8 53 af be 46 87 9c be 92 26 68 be
       0.07858977 -0.34243608 -0.30571955 -0.22670963
0000f0 40 17 52 3e 63 10 35 3e ed dd 88 be e5 a1 08 3e
       0.20516682 0.17682032 -0.26731816 0.13343008
000100 c0 22 79 3e be 1b 5f bd 90 25 a2 3c 3a 7d cf 3d
       0.24329662 -0.054469816 0.019793302 0.10131307
000110 1a d7 8c 3e 0f aa da 3e 9e bb af be 9e d6 24 be
       0.2750786 0.4270787 -0.34322828 -0.16097495
000120 94 b5 31 3e a8 86 bc 3e 11 18 c6 3e df 60 c8 3e
       0.17354423 0.36821485 0.38690236 0.39136407
000130 80 09 b1 3d d0 8b c5 be f8 46 34 3d 0d b8 8d be
       0.0864439 -0.3858323 0.044012994 -0.27679482
000140 86 94 d3 be c3 eb c9 3e 7e cd ac 3e 12 aa e4 be
       -0.41324252 0.39437684 0.33750528 -0.44661003
000150 d6 18 a8 3d 43 1e 95 bd bd 8b 9a bd e9 20 54 be
       0.08207862 -0.072811626 -0.07546184 -0.20715679
000160 a1 ac 2d 3e 2f db 88 be a4 29 2a 3e 06 ec 64 3e
       0.16960384 -0.26729724 0.16617447 0.22355661
000170 e8 1f a5 3e e6 25 2e 3e dd 37 e1 be 16 ea 92 be
       0.32250905 0.17006645 -0.43987933 -0.28694218
000180 2c 46 66 3e b9 93 c4 3d 29 c9 b1 be 63 b2 82 be
       0.22487706 0.09598488 -0.34723786 -0.25526723
000190 54 96 d8 3e 97 03 99 3e 41 29 45 be 83 80 e1 bd
       0.4230219 0.2988555 -0.19254018 -0.1101084
0001a0 23 dc d8 be 91 d9 ad bb fe ac ad be bb 52 af be
       -0.4235545 -0.005305477 -0.33921045 -0.34242806
0001b0 16 aa b4 bc 21 bd 8e 3d 8c 44 39 be 8d 06 87 3e
       -0.02205376 0.06969667 -0.18092555 0.26372185
0001c0 36 9c 8c be ac 7e ce 3e 1b a5 9b 3e c9 e1 c0 be
       -0.2746293 0.40331018 0.30399403 -0.3767226
0001d0 d1 e4 e8 bd 63 55 ab 3c 90 80 8a 3d 93 5e dd 3d
       -0.11371768 0.020914739 0.067628026 0.10809054
0001e0 32 7a 37 3e b3 ef d9 3c 5a a1 61 be 6d ae 56 3e
       0.17917708 0.026603555 -0.22034207 0.20964976
0001f0 a9 b1 dc be bd f9 86 be 0c e7 e9 bd c0 b2 5c be
       -0.43104294 -0.2636241 -0.11421022 -0.21552563
000200 b4 c1 1d be 20 78 ba be c1 98 bb bd 6c 2d bb 3d
       -0.15405923 -0.36419773 -0.09159995 0.09139523
000210 9b 04 95 be c0 3e b4 bc 2e 68 a4 3e 26 e2 31 bd
       -0.29105076 -0.022002578 0.32110733 -0.043428563
000220 04 82 25 3c fd e1 21 bd 08 38 bb 3d 55 9d 91 3e
       0.010101799 -0.03952216 0.091415465 0.28440347
000230 79 6f da 3e 6d 42 90 3e a9 10 d9 3e 0e 7f 04 bd
       0.42663172 0.2817568 0.42395523 -0.03234773
000240 8f d4 cd be d6 13 56 be 9e c8 9c 3e 5d bb b1 bb
       -0.40201232 -0.20906004 0.3062181 -0.005423947
000250 9c 18 66 be 25 b8 b0 be b8 1a d5 be 69 1d c0 be
       -0.22470325 -0.3451549 -0.41621947 -0.37522438
000260 ba 20 bc bd ad 29 78 3e 34 d3 74 3e f5 a6 db be
       -0.091859296 0.24234648 0.23908693 -0.42900816
000270 a8 71 8d 3e a4 23 b2 be cc da bb bd ce e5 36 be
       0.27625775 -0.34792817 -0.091725916 -0.17861101
000280 6b d1 b3 bd 99 2d af bd ea 98 cd be 74 e8 c5 be
       -0.08780178 -0.08553619 -0.40155727 -0.3865391
000290 37 17 90 bd 0e 4f 0a 3c f2 7f 52 be 39 0e 2c 3e
       -0.07035678 0.0084417 -0.2055662 0.168023
0002a0 fb 34 cd be ba 72 ee bc 81 f5 c7 3e 8e ce 38 be
       -0.40079483 -0.02910744 0.39054492 -0.18047544
0002b0 00 09 d0 3e a5 b8 26 3e db c1 cd be ca e9 90 3e
       0.40631866 0.16281374 -0.40186962 0.28303367
0002c0 8c 50 46 bd 81 3c 4f be 4b ab b5 3e 01 76 ba be
       -0.04841666 -0.20237924 0.3548225 -0.36418155
0002d0 61 4e 4e 3d a0 1f bb bd e3 2a a2 3e 45 42 fa 3d
       0.050367717 -0.09136891 0.31673345 0.12219671
0002e0 c5 57 59 3e 3c 5d 24 3e 2f 01 e2 bd 3d eb c4 bd
       0.21224888 0.16051191 -0.11035382 -0.09615181
0002f0 b5 b5 bd be 2a 12 76 3e 5f 3f b4 3e 8c 95 9b 3e
       -0.37052694 0.24030367 0.35204598 0.30387533
000300 6d 22 a0 be 96 86 b8 3c c2 0e a0 be 16 9a 79 be
       -0.31276265 0.022525113 -0.3126126 -0.24375185
000310 b1 a3 84 be 23 5e 1a 3e 72 84 89 be 95 da 41 bc
       -0.25906137 0.15074973 -0.2685886 -0.011831899
000320 de 3a 8a 3c 40 7b 94 3e 14 58 ab be 35 43 9b be
       0.016873773 0.29000282 -0.33465636 -0.30324712
000330 86 15 83 be 64 98 a1 3e 28 94 26 be 8a d2 bf 3e
       -0.2560236 0.31561577 -0.16267455 0.37465316
000340 75 fc 22 3e 8c 75 5d 3d 40 1e ba bb 6a b7 af bd
       0.15916617 0.05406718 -0.0056798756 -0.08579905
000350 58 f6 6c 3d b1 4d ce bd a7 e3 cb ba 30 84 71 3d
       0.05785212 -0.10073412 -0.0015555517 0.058963954
000360 f6 3c b4 be fb c4 6d be b6 fa b9 3e aa b1 b8 be
       -0.3520276 -0.23219673 0.3632409 -0.36073047
000370 1f 2f 0a bd 27 7b e1 3e e4 ef 27 3e 00 ac 76 3c
       -0.033736344 0.4403927 0.16400105 0.015055656
000380 80 31 c5 be d4 6b 65 3e 5c 0e a2 be 18 c9 04 be
       -0.38514328 0.22404414 -0.3165158 -0.12967336
000390 e7 62 1c be 79 26 8d bd 9c b4 24 ba 13 b3 bd 3e
       -0.15272103 -0.06892104 -0.00062830164 0.37050685
0003a0 86 79 65 3d bf de cd 3e 3c 3e 8c 3e 60 39 92 be
       0.056024097 0.40209004 0.2739123 -0.285594
0003b0 14 91 4f 3e d7 23 a0 be 5c 76 3e be 98 3b 0a 3e
       0.20270187 -0.31277344 -0.18599838 0.13499296
0003c0 b9 ec 17 3e aa 3d aa 3e 81 99 16 be fe ff 0a ba
       0.14836396 0.3325017 -0.14706995 -0.0005302428
0003d0 87 01 69 3e 56 a5 de be 66 c4 a6 3e 1c b5 bc be
       0.22754489 -0.43485516 0.32571715 -0.36856925
0003e0 01 b7 a7 3b 63 04 9c bd 51 96 73 be 17 84 79 3d
       0.0051182513 -0.07618024 -0.2378781 0.060916986
0003f0 f3 a3 be 3e 30 4e 03 be 9c a3 86 be 03 09 27 be
       0.37234458 -0.12822795 -0.262967 -0.16312031

encoder.pre_mp.0.bias f4 [64]
000000 b3 c8 23 3d 9d 64 5a 3d 55 e1 b4 be de 24 11 3d
       0.039986324 0.05331861 -0.35328165 0.03543555
000010 6a 4e 9d 3e 0a 50 cf 3e 4a 22 88 3e 01 85 6e 3d
       0.30723888 0.40490752 0.2658866 0.05823231
000020 7d f3 58 3e 6a 16 62 be 40 30 bc be 17 6c c4 be
       0.21186633 -0.22078863 -0.36755562 -0.38363716
000030 74 fc e2 3e 62 5a 90 3e 95 e3 9e be 53 8e 36 3e
       0.4433323 0.28193957 -0.31033006 0.1782773
000040 f6 1a ab 3e 42 97 e3 3e 01 0e c7 3e 19 be af 3e
       0.33419007 0.44451338 0.38877872 0.3432472
000050 d8 ba d6 bd 90 78 23 be 29 dc ba 3e 7d 76 7f 3e
       -0.10484856 -0.1596396 0.36496094 0.24947543
000060 c3 b4 8b be 33 10 cd 3e ba 93 59 3e 6d 0a 77 3e
       -0.27286348 0.40051422 0.2124776 0.24125071
000070 af 0c 91 be 2a 40 00 3e a4 6b 22 be 4b b8 b1 3e
       -0.2832999 0.12524477 -0.15861374 0.34710917
000080 39 5c a1 bd f4 93 2f 3e 01 36 a8 3d 70 4b 43 3e
       -0.07878918 0.17146283 0.082134254 0.19071746
000090 78 0b 1e be 9e a3 5c 3e c7 9a 9e be 5f d9 c9 3d
       -0.15434062 0.2154679 -0.3097746 0.09855913
0000a0 fb eb 99 be 1c 38 e3 be a6 ab b6 be 69 c8 b3 3e
       -0.3006285 -0.44378746 -0.35677832 0.35113838
0000b0 72 11 79 3e c3 89 d5 3e fe 59 ba 3e 18 07 cb be
       0.24323061 0.41706666 0.36396784 -0.3965385
0000c0 3f ca 9c be e6 26 8f bd b3 80 93 be eb cb 9d 3e
       -0.30623052 -0.06989841 -0.28809127 0.3081964
0000d0 d3 dd ab be 00 45 5d be 28 2b dc be 81 79 80 be
       -0.33567676 -0.21608353 -0.43001676 -0.250927
0000e0 58 61 bb 3e 1e fc b9 3e ed 89 a5 3e df a7 af 3e
       0.36597705 0.36325163 0.32331792 0.34307763
0000f0 0b 75 ca 3e 12 b1 e5 bd e0 3f 4b 3e e2 94 cb 3e
       0.39542422 -0.11215414 0.19848585 0.39762026

encoder.convs.0.bias f4 [64]
000000 8a e7 0e bb 05 80 8f ba 72 c5 0c 3a 08 63 f3 ba
       -0.0021805489 -0.0010948187 0.0005369998 -0.0018568942
000010 47 b7 2c 3b f4 92 91 3b 34 90 39 3b 38 e3 20 3b
       0.002635436 0.004442567 0.0028314712 0.0024549495
000020 e0 8f 1e 3b 7b 35 fc ba 00 00 00 00 e9 c1 0d bb
       0.0024194643 -0.0019242013 0.0 -0.0021630472
000030 e3 dc 4c bb 7c 89 32 3c 37 09 23 bb 00 00 00 00
       -0.0031259588 0.010897037 -0.0024877319 0.0
000040 ba 9f 2b bb 6f c4 33 bb e5 22 67 3b 00 00 00 00
       -0.0026187734 -0.0027430316 0.0035268601 0.0
000050 a5 95 0a bb 8f fb 47 bb 69 5a 0e bb 90 08 1c bb
       -0.0021146324 -0.003051493 -0.002172137 -0.0023808815
000060 13 21 09 bb ed 1d 2b bb 00 00 00 00 05 d2 83 ba
       -0.0020924255 -0.0026110366 0.0 -0.0010057098
000070 00 00 00 00 d2 d7 3f 3b 04 d2 44 3a 00 00 00 00
       0.0 0.0029272926 0.00075081014 0.0
000080 00 00 00 00 47 e3 d5 ba 9e 4c 01 3b 0d eb 89 3a
       0.0 -0.0016318344 0.0019729505 0.0010522321
000090 69 e1 ed ba b7 f3 b6 3a 29 15 fa 3b b9 06 0b bb
       -0.0018148843 0.0013958131 0.007631917 -0.0021213724
0000a0 db b3 5b 3b d7 d6 0c 3b 9f bd 0f bb b7 b4 8c ba
       0.003352395 0.002149036 -0.0021933091 -0.001073501
0000b0 28 3c bd b9 d0 db 31 bb 85 a9 50 3b 63 a2 cc 3a
       -0.0003609371 -0.0027139075 0.0031839323 0.001561236
0000c0 00 00 00 00 74 f8 2c 3b c8 41 1f bb c0 73 13 3b
       0.0 0.0026393207 -0.0024300683 0.0022499412
0000d0 87 20 15 3b 0d 3f 2c bb d1 8c e1 3a de be 23 bb
       0.0022754984 -0.0026282698 0.0017208104 -0.0024985592
0000e0 00 00 00 00 51 2a b2 ba 00 00 00 00 8e c1 2b 3b
       0.0 -0.0013592934 0.0 0.0026207897
0000f0 af 07 2d bb b2 f2 03 3a b0 ea 4f bb 3e bb 0c bb
       -0.0026402285 0.0005033418 -0.0031725578 -0.002147391

encoder.convs.0.lin.weight f4 [64, 64]
000000 36 9d e9 3a 33 ba 33 be 5c 60 fe bd 25 d5 b5 bd
       0.0017823342 -0.17551498 -0.12420723 -0.08878545
000010 11 85 ab 3c e5 9f a6 3d 48 7f 2e bd 55 11 af bd
       0.020937474 0.08135966 -0.042601854 -0.08548228
000020 40 f8 bd 3d f1 45 55 be b8 36 1d 3e 3d 11 bd bc
       0.092758656 -0.20827462 0.15352905 -0.023079509
000030 6f 0b 18 3e 80 66 25 3e d0 85 cf 3c c9 af 87 3d
       0.14848112 0.16152382 0.025332361 0.06625325
000040 58 31 ff bd da 96 1c 3e b6 16 ff 3d 29 38 14 bd
       -0.124605834 0.1529192 0.12455504 -0.03618637
000050 b1 9f af 3d 19 25 24 bc 47 03 2b 3e 57 15 b2 3d
       0.085753806 -0.01001861 0.16700469 0.086954765
000060 ab cf 23 3e 5c cb 4b be 34 c9 55 3e b2 d3 a0 3d
       0.15997188 -0.19901794 0.20877534 0.07852878
000070 78 18 dc 3d e8 ba 3c 3d d6 cc 13 3e 3e 78 4e 3e
       0.107468545 0.046076685 0.14433607 0.20163056
000080 d8 78 8f bc 69 2c 38 be db 65 4a 3e 97 36 44 bd
       -0.017513677 -0.17985691 0.19765417 -0.047903623
000090 f0 4a d1 bd cc 39 06 3e 8e c7 fb 3d b1 41 db 3c
       -0.10219371 0.13107985 0.122939214 0.026764723
0000a0 46 a8 3d bc 73 a2 20 bd 0c 82 4d 3e 65 cb 04 3e
       -0.011575764 -0.039217424 0.2006914 0.12968214
0000b0 66 d2 01 3e d9 1a 0b 3e 97 67 ec bd 93 fd 41 3d
       0.12677917 0.1358446 -0.11543196 0.047360968
0000c0 44 88 3d be 3e ef fd 3d a6 82 59 be ca d8 5f be
       -0.18509012 0.123991475 -0.21241245 -0.21860042
0000d0 fd db 58 be c2 f6 0a 3e 79 04 ca 3c d8 e4 2c 3b
       -0.21177669 0.13570693 0.024660336 0.0026381519
0000e0 12 0a 04 3d 53 46 ac bd 2c 18 8b bd 26 93 17 be
       0.032236166 -0.08411851 -0.0679172 -0.14802226
0000f0 8b 85 61 bd 1d 20 06 be d1 8c 67 3b 27 f7 2b 3e
       -0.055058997 -0.13098188 0.0035331736 0.167935
000100 30 97 3a be d1 df e0 3d b9 d9 26 be ea 9b be bd
       -0.18221736 0.109801896 -0.16293992 -0.09307082
000110 04 d2 2c 3d 86 9c 0f 3d f9 49 33 3e 17 fc 3c 3b
       0.042192474 0.03506138 0.17508687 0.002883678
000120 ec a7 ad bd 09 7f b4 bd be 4f 06 3c e0 6a 27 be
       -0.08479294 -0.088132925 0.008197723 -0.16349363
000130 ce a6 2e be a9 12 ba bd 12 1a 04 3c 8f 6c 18 be
       -0.17055818 -0.090855904 0.008062856 -0.14885162
000140 34 d2 fe bd 97 b3 1c 3e c5 01 4c 3e 8f c6 8e bd
       -0.12442437 0.15302883 0.1992255 -0.06971466
000150 23 67 40 be b6 ba af bd 75 4f b3 3d 66 91 8e 3d
       -0.18789344 -0.08580534 0.087553896 0.06961326
000160 ab 51 8a bd b1 4f 45 be 21 6e 87 bd 38 a0 45 bd
       -0.06753858 -0.19268681 -0.06612802 -0.0482485
000170 be e9 00 3e b1 85 e1 bd 66 14 08 3e 36 a4 e5 3c
       0.12589166 -0.11011828 0.13289031 0.028032403
000180 09 33 22 bd e3 87 47 be bf 7e 5b 3e 94 b8 25 bd
       -0.039599452 -0.1948543 0.21435069 -0.04045923
000190 a5 26 0e 3e bf f6 e8 bd 5e 13 58 be 1b 7c 32 be
       0.13881929 -0.11375188 -0.21101138 -0.17430155
0001a0 a6 8f e5 bd 3c 73 89 bd ce 9a f2 bc 2e 45 37 3e
       -0.112090394 -0.06711432 -0.029614832 0.17897484
0001b0 42 12 4e be ed e5 d9 3d 0b 58 3c 3e 38 7c ea 3a
       -0.20124152 0.10639558 0.1839296 0.0017889803
0001c0 4e da 08 be 7e 58 85 3b 04 ea 56 3d 7c b7 c0 3d
       -0.13364527 0.004069387 0.05246927 0.09409997
0001d0 84 57 82 bd 86 21 93 bd 47 82 d2 bd d8 b1 55 be
       -0.063643485 -0.071841285 -0.10278755 -0.20868623
0001e0 da 69 99 3d 03 c4 28 be c4 e0 d6 bd d5 a7 7a bb
       0.07490893 -0.16481023 -0.104920894 -0.0038247008
0001f0 b4 b7 29 3e 23 9e 47 3e 36 d2 21 be 3d 7d 3f 3e
       0.16573983 0.19493918 -0.15802845 0.18700118
000200 7e 4c 47 3e 79 59 32 3e a1 6c ae 3c 6c c1 32 3e
       0.19462773 0.17416944 0.021292033 0.17456597
000210 d9 5a d8 3d c6 75 1e be 6f 6f e8 bd 81 3b 5c 3b
       0.10564203 -0.15474615 -0.11349379 0.0033604803
000220 21 62 1c be 76 66 92 bd 59 16 32 3e 90 51 d1 3d
       -0.15271808 -0.07148449 0.17391337 0.10220635
000230 5e 90 41 3e 0c d4 a0 39 5c 6f e3 bd 86 62 13 3e
       0.18902728 0.00030675565 -0.111052245 0.14393052
000240 1e 8c 87 3c 9b 9a 17 3d 1f c7 ba bd 9b 68 b7 3d
       0.016546305 0.037012678 -0.091200106 0.08955499
000250 1b fa 22 be fe 77 30 3e ba 36 42 3e 3a bb a0 3d
       -0.1591572 0.17233273 0.18966189 0.07848211
000260 ec 58 2c 3e 11 36 07 3e 2e 4e a8 bd 4a 2d 40 be
       0.16830796 0.13204218 -0.082180366 -0.18767276
000270 e2 57 e6 3c ff da 0b 3e 7c a6 ba bc 89 24 9a 3c
       0.028118078 0.13657759 -0.022784464 0.01881625
000280 70 2a 25 3e a4 95 b8 3d 07 15 25 3e 4c 3a 04 3d
       0.1612947 0.09012917 0.16121303 0.03228216
000290 01 82 c1 3c 35 6c 51 bd 9f cd 10 bd b6 f0 e9 bd
       0.023621561 -0.051128585 -0.035352346 -0.11422865
0002a0 a3 1c 15 3e ea 98 49 3e 23 87 a3 3d 49 a0 da 3b
       0.14561705 0.19687238 0.0798476 0.0066719395
0002b0 30 30 91 bd 89 44 5a be a8 15 24 bd 70 97 1d be
       -0.07089269 -0.21315207 -0.040059716 -0.153898
0002c0 09 44 24 be 74 0d 2d bd fd 30 30 bd 30 bd 35 3d
       -0.16041578 -0.042249158 -0.04301547 0.044369876
0002d0 b4 63 21 be b3 a8 1e 3e 8c 45 4a be 9f 60 d0 bd
       -0.1576069 0.15494041 -0.19753093 -0.10174679
0002e0 ab dc a7 bd 2a fa 63 3c 5d 61 b8 3d 53 73 67 bd
       -0.08196386 0.013914624 0.090029456 -0.056506466
0002f0 34 79 0c 3d 27 df 54 bd d2 6c ad bd d8 9c f5 bc
       0.034295276 -0.051970627 -0.084680215 -0.029982015
000300 59 2e 3a 3d f8 40 59 be aa 68 18 be 31 21 2f 3e
       0.045454357 -0.2121619 -0.14883676 0.17102505
000310 38 b0 c4 3d 1f 89 f9 bb 75 be 0e 3c f8 8f e5 3c
       0.096039236 -0.007615223 0.008712401 0.028022751
000320 2d b6 46 3d cf 74 15 be 16 24 6a bd 94 91 49 be
       0.04851358 -0.1459534 -0.05716332 -0.1968444
000330 b2 33 30 be b7 7a 2e bd 80 b6 f9 bc 19 4f 2f 3e
       -0.1720722 -0.0425975 -0.03048253 0.17120017
000340 7e 2b 11 3d 1f 64 17 bd 08 b1 00 bc ec dd f3 3d
       0.035441868 -0.036960717 -0.007854708 0.119075626
000350 33 81 82 bd b2 2b 1e bd 6e 86 39 bd 39 ae 34 be
       -0.06372299 -0.03861589 -0.045294218 -0.17644586
000360 92 a4 e8 bc 42 d8 4e be 58 24 f2 bd 58 05 0f be
       -0.028398786 -0.20199683 -0.11823338 -0.13966882
000370 f1 0e 27 3e 53 4c 4a be 48 b2 53 3e 6d 77 a2 3d
       0.16314293 -0.19755678 0.20673478 0.07932935
000380 c7 ea 13 be 10 cb 35 3e a7 07 4b bd 5a ad 3d be
       -0.14445029 0.17753243 -0.049567845 -0.1852316
000390 e7 cb 02 bd 15 5c d7 3d e4 a7 55 be d3 02 94 bc
       -0.031932738 0.1051561 -0.20864826 -0.018067753
0003a0 42 39 b8 3d 57 01 a9 bd 43 bf b0 3c 62 96 b1 bd
       0.08995296 -0.08252209 0.021575576 -0.08671261
0003b0 0e a3 16 be 7c ba 2b 3e e9 53 1f be 7f 8f 32 ba
       -0.14710638 0.16770357 -0.15559353 -0.0006811544
0003c0 3b 7b 97 3d 4d fe f3 bd 33 e6 d9 3d fb 02 3a be
       0.07396551 -0.119137384 0.1063961 -0.181652
0003d0 4b 9e 55 3e d3 6c c1 3d 81 e3 eb bc 95 85 36 be
       0.20861165 0.09444585 -0.028795006 -0.17824395
0003e0 cf d0 9d 3b a1 7b 99 3d 60 a0 f4 bd 93 97 ee bc
       0.0048161517 0.074942835 -0.119446516 -0.02912501
0003f0 5e d8 5e be c6 e9 5f be 8e d6 cf bc 22 9b 37 3e
       -0.21762225 -0.21866521 -0.025370862 0.17930272

encoder.convs.1.bias f4 [64]
000000 7d 7a 46 bb 9c 8a ec 39 b9 34 f8 b9 c7 52 19 bb
       -0.003028541 0.000451167 -0.00047341528 -0.0023395286
000010 06 d8 eb ba a8 53 52 3b 7f f5 24 bb bf 4a 37 bb
       -0.0017993457 0.003209332 -0.002517074 -0.0027968136
000020 a5 e8 82 ba cc 53 2e 3b 05 67 15 bb 25 c1 1a bb
       -0.0009987546 0.002660024 -0.0022797 -0.0023613658
000030 1c a6 d5 ba 8b df 1c 3b 31 21 e0 ba 92 26 18 bb
       -0.0016300115 0.0023936953 -0.0017099736 -0.002321635
000040 1f 87 93 3b 54 3a 13 3b 36 c4 f3 3a ea 93 5b 3b
       0.0045021917 0.0022465186 0.0018597904 0.0033504912
000050 18 34 5f b7 58 43 25 3b 00 00 00 00 4a ff 02 bb
       -1.3303965e-05 0.0025217142 0.0 -0.001998859
000060 59 51 1a bb 16 26 03 bb 9f f4 98 39 b0 4f 20 3b
       -0.0023547022 -0.0020011715 0.00029173956 0.002446156
000070 57 2c 17 3b a6 3f 13 bb e8 44 1b 3b b0 e1 1c 3b
       0.00230672 -0.0022468357 0.0023692194 0.0023938231
000080 98 e7 5d 3a 3b 2c fe ba 38 e5 a5 3a 64 47 fb ba
       0.0008464991 -0.0019391844 0.0012656813 -0.0019171056
000090 13 93 8c 3b 6a e3 16 39 c9 30 32 3b f2 a5 35 3b
       0.0042899936 0.00014389833 0.0027189723 0.002771732
0000a0 35 e8 ad ba 8b 9b 30 3b 9e e9 26 bb 00 00 00 00
       -0.0013268056 0.002694818 -0.0025468837 0.0
0000b0 6b 7c 69 3b fb 04 02 bb 4f be fc 3a 8a e9 16 bb
       0.0035627137 -0.0019839394 0.0019282791 -0.0023027384
0000c0 91 63 15 3b 7d 22 2c 3b 13 2c 06 bb 16 66 ec ba
       0.0022794942 0.0026265674 -0.0020473048 -0.0018035795
0000d0 7f 5b 10 3b fa 0d c2 ba 90 88 29 bb fc c6 52 bb
       0.0022027192 -0.0014805191 -0.002586875 -0.003216206
0000e0 e8 7a 29 3b 58 fe 11 bb 75 5b 25 3b 2f d6 c7 3a
       0.0025860611 -0.0022276845 0.0025231515 0.0015246327
0000f0 83 06 bc 3a cc 04 d5 ba 4d de af ba 8e f8 26 bb
       0.0014345202 -0.001625204 -0.0013417691 -0.002547774

encoder.convs.1.lin.weight f4 [64, 128]
000000 7c f8 e9 bc a2 48 bf bd de 25 88 bd 56 e1 a9 bd
       -0.02856087 -0.093400255 -0.066478476 -0.082949325
000010 0e 53 21 3e e2 63 65 bc 0d f9 0d 3e b7 e4 f6 bd
       0.15754339 -0.014000865 0.13864537 -0.12055343
000020 a1 62 a8 3d df 12 27 be b7 57 7b bd 9c 10 9b bd
       0.08221937 -0.16315793 -0.06136295 -0.07571527
000030 27 c2 2b be f9 68 06 be a6 ab ec bd 29 31 0b bd
       -0.16773282 -0.13125981 -0.11556177 -0.03398243
000040 27 2b 7c bd 47 19 2a be d1 33 d1 3c 23 57 96 3d
       -0.06156459 -0.16611205 0.025537403 0.07340839
000050 3c c7 dd 3c dc bf 0c 3e 19 ac 95 bc 8b bd 0e 3e
       0.027072541 0.13745064 -0.01827054 0.13939492
000060 ca 76 0d bc ec c1 83 bc 08 f6 58 bc 82 ad 96 bd
       -0.008634279 -0.01608368 -0.013242252 -0.07357313
000070 df bb 92 bd 6c 52 21 3d cd 6f bf bd fe 19 6d 3d
       -0.0716474 0.039385244 -0.09347496 0.057886116
000080 29 76 14 be 4a 5e c9 bc 1d 84 b6 bc 04 7d a7 bd
       -0.144982 -0.024581093 -0.022279793 -0.08178142
000090 ee 9d 04 3e a0 d8 15 be 74 6f a5 3d b7 4f 1f be
       0.1295087 -0.14633417 0.080778986 -0.15557753
0000a0 51 80 cf 3d c7 5c 2e 3e cf d9 1c bd d0 66 1a bc
       0.10131896 0.17027579 -0.038293656 -0.0094239265
0000b0 ed f4 08 bc 2e 64 cb 3d 40 da fc 3b fd cc 41 bd
       -0.008359176 0.09931217 0.007716447 -0.047314633
0000c0 7c 62 1c 3e e6 ab 07 3e d5 04 17 bc 6a 25 b2 bd
       0.15271944 0.13249168 -0.009217461 -0.086985424
0000d0 ce 28 d6 3d 7a f4 99 bd 5f e0 c6 bd c3 aa e7 bd
       0.104570016 -0.07517333 -0.09710764 -0.11311867
0000e0 46 9e 79 3c 09 0d a0 bd 1c 92 ec 3d 68 83 f6 3d
       0.015235489 -0.07814986 0.11551306 0.120367825
0000f0 37 bf a0 bd eb ea 88 bd 93 37 00 3e c7 e2 af bd
       -0.07848971 -0.06685432 0.125212 -0.08588176
000100 f7 90 df 3d 46 7e 58 bc 4a 2d fd 3d 56 04 b2 3d
       0.10916322 -0.0132137 0.12362154 0.08692233
000110 6f c1 03 be 2c 28 04 be 09 55 98 3d f3 4f b6 bd
       -0.12866758 -0.1290595 0.07438094 -0.08901968
000120 1d 4a 27 3c e8 7a fd 3c 9c 53 12 be 70 7f 4e bc
       0.010210541 0.030942395 -0.14289707 -0.012603626
000130 c0 49 f5 3d 67 7f 3d bc b6 bd e2 bd 41 e2 1d 3e
       0.11976957 -0.01156602 -0.11071341 0.1541834
000140 b3 07 1a 3e 62 cf 20 3d 92 2c eb bd aa dc 9b 3d
       0.15042 0.039260276 -0.114831105 0.07610448
000150 ba 3c 43 3d 38 df db bd 46 e2 05 be 65 cd 9c bd
       0.047665335 -0.10735935 -0.13074598 -0.076563634
000160 59 be 28 3e b0 8d 82 3c 80 4f 28 bb f0 b0 a2 3d
       0.16478862 0.015936702 -0.0025682151 0.079439044
000170 3a 68 cb bd 73 d1 70 bd 50 af e2 3c eb d3 1d 3e
       -0.09931989 -0.058793496 0.027671486 0.15412872
000180 00 62 4a bc 44 8c 14 3d 09 3b 1c be bd 02 2d be
       -0.012352467 0.03626658 -0.15256895 -0.16895576
000190 07 b8 0b 3d 77 a9 a6 bb 29 69 ff 3d ae 89 18 3d
       0.03411105 -0.0050861198 0.124712296 0.037240677
0001a0 4e 58 1f 3e 41 57 17 bd 56 b0 50 bd dc 93 92 bc
       0.1556103 -0.036948446 -0.050949417 -0.01789277
0001b0 de 4f ad bd 38 81 08 3c 48 04 19 be f1 f9 78 3c
       -0.08462499 0.008331589 -0.1494304 0.015196309
0001c0 20 c5 45 bc 80 a4 60 3d 85 75 2c 3e 10 d6 75 3d
       -0.012070924 0.05484438 0.16841705 0.0600186
0001d0 7d 06 d7 3c 4d 16 f2 bd fe 4e 83 bd 14 c6 93 bd
       0.026248211 -0.1182066 -0.06411551 -0.07215515
0001e0 37 fd 18 be 7d e1 ba 3d bf fb 2b 3e 09 d4 e4 3d
       -0.14940344 0.0912504 0.16795252 0.11173255
0001f0 46 3f 0b 3e 8f f8 cb bd 9b 4d 99 bd 8b 98 6f bd
       0.13598356 -0.09959518 -0.07485505 -0.058495086
000200 d5 63 a2 bd fb 1a 0f be 41 51 14 be 36 88 03 bc
       -0.07929198 -0.13975136 -0.14484121 -0.008028081
000210 3d 06 d6 bd 69 e4 07 be 40 fc 30 3e 0a ca 29 be
       -0.104504086 -0.13270725 0.17283726 -0.16580978
000220 ef c8 5f bd d3 6a ea 3d 49 c7 b8 bd de c2 a8 3d
       -0.054634985 0.11446156 -0.090223856 0.08240293
000230 74 2c 01 be 2e 7c 07 bb 82 60 83 3d d9 aa 5f bd
       -0.12614614 -0.0020673382 0.06414892 -0.054606292
000240 34 92 00 be 3d 3e 10 3d d4 2c ef bc 5a 69 1e 3e
       -0.12555772 0.035215605 -0.02919618 0.15469876
000250 2f 7b db bc 0b 7f 0b 3e fe 0a 99 bd d2 b3 8d bd
       -0.026792137 0.13622682 -0.074728 -0.06919064
000260 2d 9e ad 39 65 0b cc 3d b4 5e 27 3e 43 c2 a8 3d
       0.00033114981 0.09963111 0.1634472 0.082401775
000270 99 23 a2 bd 31 79 4c 3c dc ba ef 3d fe c6 10 3e
       -0.07916946 0.012480066 0.117055625 0.1413841
000280 bc 84 02 3e 03 04 75 3d 0a 33 b5 bc 5f eb f6 3d
       0.12745947 0.05981828 -0.022119064 0.12056612
000290 57 2e 71 3d 84 2b 1b be 03 90 31 3e 96 c8 57 bc
       0.058882084 -0.15153319 0.17340092 -0.013170382
0002a0 c1 88 2d 3e 06 c3 d5 3d ec a3 3c bc 44 fe 1a be
       0.16946699 0.104375884 -0.011513691 -0.15136057
0002b0 84 00 2d be bf fb ad bd ff 66 97 3d 2b 7e 64 3c
       -0.16894728 -0.084952824 0.07392692 0.013946096
0002c0 5d 21 90 3c aa 37 13 be e4 f5 c7 3d b5 60 34 bd
       0.017594034 -0.14376703 0.09763697 -0.04403754
0002d0 be 5e bc 3d 6b cc 13 be 55 6a 2e 3b ca 00 b8 3d
       0.09197758 -0.14433448 0.0026613672 0.089845255
0002e0 17 46 55 3d 0c 17 34 be 9e b7 18 3e 8b 62 06 be
       0.052068796 -0.17586917 0.14913794 -0.13123529
0002f0 28 62 26 be 98 40 fc bd fe 60 2b be 9c 89 83 3d
       -0.16248381 -0.12317008 -0.16736218 0.06422731
000300 78 ca 08 3e f7 8f 11 3e 45 4c 80 3d a0 45 42 bd
       0.13358486 0.14215074 0.06264547 -0.04742968
000310 04 d9 18 3d e8 54 60 3d 92 56 32 be 00 10 8f ba
       0.037316337 0.054768473 -0.17415836 -0.0010914803
000320 e6 e3 39 3d 5e db 12 3e fa e9 d9 3d d7 17 4a bd
       0.045383357 0.14341494 0.106403306 -0.04933914
000330 40 84 03 bc 7b ac ea 3d 27 66 24 3e 52 70 b9 bd
       -0.008027136 0.11458679 0.16054593 -0.090546265
000340 17 74 33 3e d3 1e f2 bc e7 85 9f bd 80 96 81 ba
       0.17524754 -0.029555714 -0.07789212 -0.0009886771
000350 f7 e4 0d 3e 8d bd ce bd 60 5f ca 3b 02 46 d0 bd
       0.13856874 -0.10094748 0.0061759204 -0.10169603
000360 be 76 9c bb b9 8f fe 3d 7e 32 b3 bd 46 b1 a2 bd
       -0.0047748974 0.12429757 -0.08749865 -0.079439685
000370 94 da 48 3d aa 71 aa 3d 20 e6 5d bc 3c bb 26 bd
       0.049036577 0.08322461 -0.013543636 -0.040705904
000380 b0 64 37 bc b8 3a 5e 3d 91 89 21 3e 89 c2 a3 3d
       -0.011193439 0.054255217 0.15775134 0.07996089
000390 29 40 ec 3c 43 9d 71 3d 10 f7 58 3d 55 14 02 bc
       0.028839188 0.058987867 0.052969992 -0.007939418
0003a0 87 21 f1 bd 14 5e aa bd 24 c7 7d 3d 50 0f 83 3d
       -0.11773973 -0.08318725 0.061957493 0.06399405
0003b0 6e 80 b7 bd 70 8c c7 bd e8 92 cd 3d 00 f1 02 bd
       -0.08960043 -0.09743583 0.10037786 -0.031968117
0003c0 e2 81 dc 3d 28 aa 40 3d 01 72 0e 3d 10 8c 9d bc
       0.10766961 0.047037274 0.03477669 -0.019231826
0003d0 55 ef 9d bd f8 98 36 3d 9a fc de bd 85 c3 9f bd
       -0.077116646 0.044579476 -0.10888024 -0.07800964
0003e0 58 72 02 be b8 33 a9 39 d0 f1 c3 bd d1 e6 83 bd
       -0.12738931 0.00032272725 -0.095676064 -0.06440509
0003f0 84 24 69 bd c6 74 9f 3d 82 96 c8 3d 0e 80 f5 3d
       -0.05691959 0.07785945 0.09794332 0.11987315

encoder.post_mp.0.weight f4 [64, 192]
000000 5f 67 e6 3b 4a e2 5f bc 58 da 24 3d e4 cd 84 bb
       0.0070313658 -0.013664791 0.04024729 -0.0040528644
000010 d1 db 0e 3d 72 2f d5 bc 0c 32 03 bd c9 bf 9b 3c
       0.034877602 -0.0260236 -0.03203015 0.019012349
000020 25 b8 36 bb 15 a5 76 bd de 15 54 3d fe cf 8a bd
       -0.0027880755 -0.06021603 0.051778667 -0.067779526
000030 08 a9 5f 3d f2 47 69 bd 30 65 74 bd d8 92 2e 3d
       0.05460456 -0.056953378 -0.059666812 0.04262051
000040 44 c4 06 3d 4c d4 2e 3d ee 45 0c bd 57 e5 4d bc
       0.032902017 0.04268293 -0.034246378 -0.012566886
000050 89 c4 70 3b 98 6f f0 3c 99 55 99 bb 67 59 95 bd
       0.0036738238 0.029350087 -0.0046793935 -0.07292443
000060 7e e8 89 bc 3b 58 42 3d 6c 4a c2 bb 19 e8 a2 ba
       -0.016834494 0.047447424 -0.005929282 -0.001242879
000070 98 bf 03 3d 1c eb 44 bc ee 35 47 3d 0f cb 03 bd
       0.03216514 -0.012018945 0.048635416 -0.032176074
000080 c9 7a e4 3b c9 ca 21 3c a1 60 80 3d 3d 41 a3 bb
       0.006972645 0.009875008 0.062684305 -0.0049821422
000090 ba 71 25 bd 2c a3 83 bc fa 0f c0 bb a5 02 85 bc
       -0.04039166 -0.016069017 -0.0058612796 -0.016236613
0000a0 ae b4 33 bc 62 2c 96 bc b7 51 0e 3d 92 fd 90 bd
       -0.01096837 -0.01833171 0.034745898 -0.07079615
0000b0 f0 6f ca 3c 19 f9 46 bd 1f 2b 87 3d 04 2d 16 3b
       0.02471158 -0.0485774 0.066000216 0.0022915015
0000c0 88 19 12 3c 67 e9 5b bd 4e 81 71 bc 7c 2f 39 3d
       0.00891722 -0.053689387 -0.014740301 0.0452113
0000d0 8f 0b 18 3d 39 4f 3e bd 39 6d 75 3d ff 06 11 bc
       0.037120398 -0.04646227 0.059918616 -0.008851766
0000e0 f0 2c 69 3d 2c f6 4f 3b fd 24 f4 bc 42 af 0f 3c
       0.05692762 0.0031732423 -0.029802794 0.008769812
0000f0 af 7c 20 3d 1f 00 8a bd 50 72 1a bd 1a 78 47 3d
       0.039181408 -0.06738304 -0.037706673 0.048698522
000100 07 bb 95 3b 08 b1 1f bd 38 3a fa bb 28 e5 17 3d
       0.0045694145 -0.03898719 -0.0076363347 0.037083775
000110 02 e5 1b ba 75 13 76 bd d4 63 94 bd 44 1b 79 3d
       -0.00059469056 -0.06007715 -0.07245603 0.06081702
000120 34 87 b5 bc cc 3e 64 bd 84 ef 32 bc 66 15 e4 3c
       -0.022159196 -0.05572395 -0.010921363 0.027842235
000130 ac 07 5a 3d c2 f8 5d bd f6 52 1c 3d 34 5e ef bc
       0.053229973 -0.054192312 0.038165055 -0.029219724
000140 2e 94 53 3c 2d 3f 03 bc fb e1 61 bd e0 50 60 bc
       0.012913747 -0.008010668 -0.055147152 -0.013691157
000150 8a b4 89 bd 99 57 84 bd 6d db 03 bd fa 62 e6 bc
       -0.06723888 -0.064620204 -0.032191683 -0.028123368
000160 fc f6 34 bd 8a 1b b8 3c 28 76 4b bc 87 52 68 3d
       -0.044180855 0.02247407 -0.012418307 0.05671933
000170 5c 52 6e 3d d9 ea 12 bc 41 c4 75 bc 80 cc 5d ba
       0.058184013 -0.008967125 -0.015000404 -0.0008460954
000180 60 28 2e bb d7 a5 87 3c fc 75 0f bc b3 69 7a 3d
       -0.0026574358 0.01655857 -0.008756157 0.06113596
000190 e1 e0 2e 3c 68 6c 71 3c 16 21 8d bd 73 6a 8f bd
       0.0106737325 0.014735319 -0.06891076 -0.070027255
0001a0 2a 36 00 3b 1e c9 3c 3d 47 9a b9 bc f7 a6 9f 3c
       0.0019563534 0.046090238 -0.022656573 0.019488795
0001b0 28 dc 8b bd ee 56 31 3c b6 74 93 bc f5 55 fe bc
       -0.06829101 0.010823948 -0.017999988 -0.031046847
0001c0 2e e3 0c bd bc 75 05 bc 0c 98 15 3d f5 08 7e 3d
       -0.034396343 -0.008145746 0.036521956 0.06202026
0001d0 30 d9 68 bd 10 b8 85 3c 53 45 8e bd 57 f8 98 3c
       -0.05684775 0.01632312 -0.06946816 0.018673105
0001e0 dc b5 46 3d 48 7c f8 3b b0 e2 30 3d a3 5e 7d bd
       0.04851328 0.007583175 0.043184936 -0.06185783
0001f0 0a 2e 9c 3c a8 bb 1f bd 77 19 32 3c c4 21 bd 3a
       0.019064922 -0.038997322 0.010870329 0.0014429619
000200 09 35 36 3d be 5e 06 3b 13 4c fe 3c fa 2a 2c 3d
       0.044484172 0.0020503248 0.031042134 0.042033173
000210 62 1f 8b bc d1 ae 5e bd 83 cc b5 bb 85 fd e2 3c
       -0.016982738 -0.054365937 -0.0055480613 0.027708778
000220 99 c1 8a bd 2b c0 2f bd 47 8a 0a 3d ca f4 51 bd
       -0.06775207 -0.042907875 0.033823278 -0.05125884
000230 2c c1 80 3d 9b 9d 46 bd ba ba 66 3d dd 64 6b bd
       0.062868446 -0.048490148 0.05633042 -0.057469238
000240 62 86 88 3b 74 75 82 bb 54 95 d4 3c f6 b8 01 3c
       0.0041664103 -0.0039812867 0.025950111 0.007917633
000250 09 56 79 3d 3f d9 8e bc 3a 3f 84 3d 7f fb a7 bc
       0.060873065 -0.017437575 0.06457372 -0.020505665
000260 17 a9 78 bd 62 d1 51 3d 30 cf 52 3c 9c ff 72 3c
       -0.06070813 0.051225074 0.01286678 0.01483145
000270 56 07 a3 3c 6b 00 2b 3d 02 e3 0c 3d 2f 6e b7 3c
       0.019900959 0.041748445 0.03439618 0.022391407
000280 6f 0a 0e 3c 07 a5 59 3b aa 55 18 3d 93 36 83 3d
       0.00866948 0.0033209936 0.03719107 0.064068936
000290 6b 08 b3 bc b3 b9 82 bd 76 d2 73 3c 1b c8 11 3d
       -0.0218546 -0.063830756 0.014881721 0.035591226
0002a0 5a fa 56 bd 0b a4 4a bd e3 1a 72 bd c0 d7 68 bb
       -0.052484848 -0.04947285 -0.059107672 -0.0035528988
0002b0 d7 f9 32 bd c3 99 a8 3c 20 6f 08 3d e2 a4 10 bd
       -0.043695297 0.020581132 0.033309102 -0.035313495
0002c0 e2 8f 42 bd 83 4d 8e bd 8a 46 49 bd 79 bd 48 3c
       -0.0475005 -0.06948378 -0.049139537 0.012252205
0002d0 f4 1d a3 bb b6 e0 eb bc e4 b6 9b bb 0e b2 ed bc
       -0.004977936 -0.028793674 -0.004752027 -0.029015567
0002e0 73 9b 9b bd 75 c5 6d bd 7c 2e a8 bc 39 2d 89 bd
       -0.07598009 -0.058049638 -0.020529978 -0.06698079
0002f0 0e cb 21 3d df 51 16 bd ae da 4d bd a8 07 e1 bb
       0.03950029 -0.036699172 -0.050257377 -0.006867368
000300 4d 16 80 bd 6f 94 5e 3d 17 a2 2c 3d ef f8 70 3c
       -0.062542535 0.054340776 0.04214677 0.014707788
000310 e8 33 53 bd 19 5f 2c 3d 46 73 5b bd f7 30 75 3d
       -0.051563174 0.04208288 -0.05357673 0.05986115
000320 55 e5 4e bc ca 59 d6 bb f2 eb 88 bd 66 a3 ad 3c
       -0.012627919 -0.0065414654 -0.06685628 0.021196079
000330 90 2b 7d bc f7 b2 2a bc 6e e8 d9 bc 67 5e d9 bc
       -0.015452281 -0.010418645 -0.026600089 -0.026534272
000340 02 14 45 3c a0 8f a9 3c 52 cd 5c 3d 61 3e 02 bc
       0.012028696 0.020698369 0.053906746 -0.007949443
000350 00 47 25 3d 56 3b 95 bd 5d e4 9c 3c 24 f3 ac 3b
       0.040350914 -0.07286708 0.01915186 0.005278008
000360 e9 81 af bc 36 41 f0 3c f6 cc e0 39 2d 71 a0 bb
       -0.02142425 0.02932797 0.00042877317 -0.004896304
000370 97 50 85 3d bf 25 7e bd 49 c6 42 bd 8f cf cc bc
       0.06509512 -0.062047716 -0.04755238 -0.025001315
000380 28 b4 78 3d f1 3d a8 bc bc fd 54 3c 25 90 41 bc
       0.060718685 -0.020537348 0.012999948 -0.011814152
000390 f4 2c 3d 3d ac d4 47 3d a6 3c 53 bd 98 4d 11 3c
       0.04618545 0.048786804 -0.05157151 0.008868597
0003a0 6b 95 92 bd ff ee 0b bd ea c2 66 bd 5b ef 9e bc
       -0.071574055 -0.03416347 -0.05633823 -0.019401243
0003b0 e3 dd 44 3b d9 3a b9 bc e3 a6 d1 bc c3 16 d2 bc
       0.0030039481 -0.022611069 -0.025592273 -0.02564562
0003c0 75 60 07 3c e0 8c 7a bd f2 39 65 3d c2 d7 fb bc
       0.008262743 -0.061169505 0.055963464 -0.03074253
0003d0 60 1c 90 bb 39 bb 6d bd c9 37 88 bd fc bf 41 bd
       -0.004397914 -0.058039878 -0.06651265 -0.04730223
0003e0 47 b8 6c bd bb 10 8c bd e6 fb 53 3d 91 7e 94 3d
       -0.057792928 -0.068391286 0.0517539 0.07250703
0003f0 40 fb 26 bd 63 28 7c 3d 84 62 35 3c 61 05 91 3d
       -0.040766954 0.061561953 0.011070851 0.07081104

encoder.post_mp.0.bias f4 [64]
000000 79 db 78 3d 21 01 de bc 77 c5 3f bd a3 e4 80 3d
       0.06075618 -0.027100148 -0.046819177 0.06293609
000010 8d 7c 6c bd a5 9c 66 bd 0f 57 2b 3d 4a ec 30 3d
       -0.05773597 -0.05630173 0.041831072 0.043194093
000020 23 d0 f9 3c 9a 79 0f bc d3 91 1d bc 96 f1 64 bd
       0.030494755 -0.008757019 -0.009617287 -0.055894457
000030 bb 1d cd bc 48 dc 71 bd 91 32 8a 3d 3e b9 d9 ba
       -0.02503859 -0.059047967 0.06747926 -0.0016610993
000040 ea 64 8b 3a 11 b4 ba 3c 83 99 34 3c cf 9c de bc
       0.0010634933 0.02279094 0.011022928 -0.027174382
000050 5d 61 cc bc 48 69 91 bd 6e 26 ad bc e9 91 71 bc
       -0.02494877 -0.07100159 -0.021136489 -0.01474426
000060 b7 ed fd bb 49 ac b8 bb 7b d0 d5 3c 98 5b 95 bd
       -0.007749285 -0.0056357724 0.026100388 -0.07292861
000070 bb 30 8c bd 0c c9 3e bd d4 3e bd 3c 39 40 51 3d
       -0.06845232 -0.046578452 0.023101248 0.051086638
000080 07 cb 82 bd 58 3e 08 bd 43 7b 87 bc 9f 00 c8 bc
       -0.06386381 -0.03326258 -0.016538268 -0.024414359
000090 6f 65 01 bb ef 56 ea bc 1d 4b 2c bd 57 f5 16 3c
       -0.0019744297 -0.028605906 -0.04206382 0.009213767
0000a0 9a bb b9 bc cb 30 69 3d ca f0 31 3d 6b a4 9a bc
       -0.022672463 0.0569313 0.043442525 -0.018877229
0000b0 0f 8f 31 bd 9e 13 86 3d 63 15 29 3c 90 3d 02 bd
       -0.043349322 0.065467104 0.01032004 -0.03179699
0000c0 83 0d de 3c e3 3f 86 bb d7 67 22 3d c4 f2 49 3c
       0.027106052 -0.0040969714 0.03964981 0.012325946
0000d0 eb 7a 89 3d 1e 4b ff 3c ab b2 03 bd cf 65 64 bc
       0.06712898 0.031163748 -0.032152813 -0.013940289
0000e0 1a 90 1d 3d 1a f2 3a bd 8b bf 13 bd 18 e1 dd bc
       0.038467504 -0.045641042 -0.03607134 -0.027084872
0000f0 78 d9 83 3d 6f 5e 7e 3c 17 ab 99 3c ec a1 66 bd
       0.06437963 0.015525444 0.01875834 -0.056306764

encoder.post_mp.3.weight f4 [64, 64]
000000 a9 fb eb bd 06 e2 8f bd 56 39 86 bd ca d9 bc 3d
       -0.1152261 -0.070255324 -0.06553905 0.092212275
000010 b7 73 b1 3c b1 a9 d2 3d 5a 50 94 bd 53 5d 86 bc
       0.021661622 0.10286272 -0.07241888 -0.016401922
000020 c5 0c 86 bd ba 54 66 3d 8f 46 9b bd d7 ca 3a 3d
       -0.06545404 0.056233145 -0.07581817 0.0456036
000030 e3 ed 18 3d 63 09 e4 bd 0c f1 d1 bc 62 bd e5 3c
       0.03733624 -0.11134603 -0.025627635 0.028044406
000040 7d 33 f8 3d dc c7 f8 bd 54 22 ab bd 7a 26 ee 3d
       0.121191956 -0.12147495 -0.08356157 0.116284326
000050 eb 39 d1 bd be a5 fb bc ff 67 b1 3d 7b ae 95 3d
       -0.10216125 -0.03071868 0.08662414 0.0730867
000060 2a 7b 9c 3c b4 d9 2f 3d 35 81 34 bd 7a f7 9d bd
       0.019101698 0.042932227 -0.044068534 -0.07713218
000070 56 ca 1e bb a7 6f fb bd d9 83 b5 3d 7a a8 53 3d
       -0.0024229488 -0.12277155 0.088630386 0.051674344
000080 93 a7 db 3d 1d 86 47 bd 4c ef 7a bd 29 8c 6a 3c
       0.107253216 -0.048711885 -0.061263368 0.014315643
000090 50 ab d5 bd 5b c5 b7 3d a3 bb 7f 3c 97 9d 4e 3d
       -0.10433066 0.089731894 0.015608701 0.050443258
0000a0 a4 ae 9f bd f4 2d 8f 3d 98 a0 da bd 9d cd ca bd
       -0.07796982 0.06991187 -0.10675162 -0.09902499
0000b0 ce 24 ac bd cd 37 32 3d 12 ab 03 bd da d5 7d 3d
       -0.084054574 0.043510247 -0.032145567 0.061971523
0000c0 54 a0 78 3c 60 04 a9 bc ca 9d 07 3d 76 bc 62 bd
       0.015174944 -0.020631969 0.033109464 -0.05535551
0000d0 9a e9 c6 bc f2 68 c5 3d 99 00 e8 3d 50 95 5d 3d
       -0.024281312 0.09639157 0.11328239 0.054097474
0000e0 7e 80 6c bc b6 51 aa bd 98 71 cf bb bc a8 f2 bd
       -0.014434932 -0.083163664 -0.00633068 -0.1184859
0000f0 c0 01 c7 3d d0 97 a0 bc 65 f1 c6 3c 4f 0d f6 bc
       0.09717131 -0.01960364 0.024285028 -0.030035643
000100 d4 ab 17 3d cc ec 91 3d 67 86 16 bd 82 90 b9 3d
       0.037029102 0.071252435 -0.03674927 0.09060766
000110 18 6a d0 bd 68 74 7c 3d b2 6e a8 3d c0 18 80 3d
       -0.10176486 0.06163445 0.082242385 0.06254721
000120 78 76 aa 3d a7 5f d4 bd ea cd 00 bd 2c c8 93 3d
       0.08323377 -0.10369807 -0.031446375 0.07215914
000130 fe c5 85 3d 44 a2 f8 bd 6c dc 28 bd ab ee 3f 3a
       0.06531905 -0.12140325 -0.041225836 0.0007321636
000140 91 d2 c9 ba 6c f2 f8 bc fe 48 da bd 23 e0 0b 3d
       -0.0015397837 -0.030389033 -0.106584534 0.0341493
000150 07 f0 ef 3d ba 18 9d 3c e1 25 8c 3d 40 52 b3 bd
       0.117157035 0.01917683 0.06843162 -0.08755922
000160 6a 97 01 be c3 fa ad bd cb 7e 0e bc af 27 e4 bd
       -0.12655416 -0.084950946 -0.008697222 -0.111403815
000170 58 4d ed 3d df 07 61 3c 1f ef 3d 3d 27 1d 94 bc
       0.11587018 0.013734787 0.04637062 -0.018080307
000180 d1 b8 f7 3d b5 8f 7a bd 67 e7 56 bd 2f 90 4a 3d
       0.12095798 -0.061172206 -0.052466776 0.04945391
000190 a4 00 1c 3c a7 44 4f bd 70 b2 fa bd c7 b3 9c 3d
       0.009521637 -0.05060258 -0.122410655 0.07651477
0001a0 48 92 5d bd f9 5c bc 3d ef 41 e9 bd 99 94 65 3d
       -0.054094583 0.091974206 -0.11389529 0.056049917
0001b0 6b 4b e6 3d 86 b7 ed 3d 58 2b d2 bd 4b bc a6 bd
       0.112448536 0.1160727 -0.102621734 -0.08141383
0001c0 80 dc b5 3d 4c e9 5d bc 89 c2 ab 3b c4 87 0b ba
       0.08879948 -0.013544392 0.0052416963 -0.000532266
0001d0 35 5c 32 bd 70 b1 21 3d af 8f 20 bd 95 1e a1 3d
       -0.043544967 0.03947586 -0.039199527 0.07867161
0001e0 18 5b d0 bd 59 60 ca 3d f3 fa 10 bc 01 49 e7 bc
       -0.10173625 0.09881658 -0.008848893 -0.028233053
0001f0 c0 cc ec 3d 3f 9b 66 3d 27 51 96 3d 8e 19 d3 3d
       0.115624905 0.056300398 0.07339697 0.103076085
000200 6a 8b 9d 3d a8 85 27 3d 69 d3 dd bc a3 96 91 bb
       0.07692607 0.04089895 -0.027078347 -0.004443006
000210 38 b6 43 bd f9 45 af bc 33 c1 ac 3d ac 49 01 be
       -0.0477812 -0.02139567 0.08435287 -0.1262576
000220 80 c8 be bd cc 82 9b bc a6 b9 94 3d 11 f6 5c 3d
       -0.09315586 -0.018983267 0.07261972 0.053945605
000230 0c b0 b0 3c 59 d6 16 bb 61 a3 de bd d6 a3 3f bd
       0.02156832 -0.0023015945 -0.10871006 -0.046787106
000240 e8 68 cf 3d 8a 68 1b 3d 31 be b1 bc 95 82 9d 3b
       0.10127431 0.037941493 -0.021697136 0.0048068264
000250 30 3f e0 3d 99 00 ab bc ba 0b 99 bc e4 5f 9e 3d
       0.10949552 -0.020874308 -0.01868235 0.077331334
000260 87 50 e1 bd e2 1e 1d 3d cf 11 96 3d 85 14 b2 3d
       -0.110016875 0.03835953 0.073276155 0.0869532
000270 a0 7e 56 bd 55 63 e2 bd 61 ac e7 3d 20 19 f1 3d
       -0.052366853 -0.11054102 0.113121755 0.1177237
000280 34 17 d9 bd 4e c2 f6 3d 2a 04 9a bd cb e1 90 3d
       -0.10600129 0.120487794 -0.075203255 0.070743166
000290 bd 58 eb ba d0 f9 0a bd 61 94 a3 3d b3 9d 1b bc
       -0.0017955523 -0.033929646 0.079872854 -0.009498048
0002a0 0c 7d af bd c1 6e cc bd c3 3b 97 3d 29 6b fe 3c
       -0.08568773 -0.09982062 0.073844455 0.031056957
0002b0 2f 31 95 bd c5 e5 88 3d 70 0f c2 bd 23 4a ef 3d
       -0.07284772 0.0668445 -0.09475601 0.11684062
0002c0 43 78 f2 3c ef 11 be 3d d1 25 42 bd 43 d4 bd 3d
       0.02959836 0.09280764 -0.047399346 0.09269001
0002d0 32 bd 64 3d eb b1 c5 3d f7 f3 a1 bd 40 d2 ef bd
       0.055844493 0.09653076 -0.07907861 -0.11710024
0002e0 83 8f 6c 3d a3 92 91 3c 52 1b 8b bc 81 6f 55 bd
       0.05775405 0.017770117 -0.0169808 -0.05210829
0002f0 7b 23 84 3d e2 30 05 3d fe 50 6b 3d 0e 45 a3 3b
       0.0645208 0.03251732 0.057450287 0.004982597
000300 3e 12 6d 3d 8f d5 c5 3d 2a 35 e3 bd 0b f8 0a bb
       0.057878725 0.09659874 -0.110941246 -0.0021204974
000310 8f 9a dc bd 2d 83 b2 3d c0 65 09 bd b5 c7 fe 3c
       -0.10771667 0.08716426 -0.033544302 0.031101087
000320 f0 27 86 3d a0 65 82 bd 1c d2 a0 3d 19 56 90 bd
       0.06550586 -0.0636704 0.07852575 -0.07047672
000330 38 35 e2 3d ca 4e 3f bd ba 5e ac bc 68 85 d4 3d
       0.11045307 -0.046706 -0.021041263 0.10377008
000340 56 bf 70 bd 21 83 1b bd c9 2e 73 3d 56 fd 85 bd
       -0.058776222 -0.03796685 0.05937079 -0.065424606
000350 b5 cb ca 3d 14 ed 4d 3d 77 49 cc 3c 17 dc 53 3c
       0.09902135 0.050274923 0.024937375 0.0129308915
000360 7f 28 c9 bd ff 98 bd bc be 71 10 3d c1 81 4e bd
       -0.09822177 -0.023144243 0.035264723 -0.05041671
000370 1a d3 5d bd f4 78 8f bb 7f 92 be bd 2b bf 44 3d
       -0.0541564 -0.0043784324 -0.09305286 0.048033874
000380 8a b4 cc bd 88 0c b1 bd 14 e9 62 3c f5 74 85 bc
       -0.099953726 -0.08644968 0.0138495155 -0.016291121
000390 6c 2c 9e bd 78 af 43 3d 34 d5 df bd 82 89 a4 3d
       -0.077233166 0.047774762 -0.10929337 0.0803404
0003a0 09 c4 d8 3d 71 1e c0 3d ac cb d3 3d 72 5a 75 bc
       0.10584266 0.09380806 0.10341582 -0.014975177
0003b0 c1 13 62 3d 06 92 dd bd 4c 95 7b 3d f1 06 ab bd
       0.05519462 -0.108188674 0.061421677 -0.08350933
0003c0 93 54 87 bd 9d bd d5 bd ed 10 56 3b 0e ab e3 3d
       -0.06607928 -0.104365565 0.0032663897 0.111166105
0003d0 d2 26 e0 bb c5 af cd 3c 9f 2e a0 bc 38 ac 85 3c
       -0.0068405652 0.025108228 -0.01955348 0.016317472
0003e0 cb 27 ee 3d f5 a9 67 bb a4 92 1b 3d c6 39 4e 3c
       0.11628684 -0.0035349105 0.037981644 0.012587016
0003f0 45 ff 0c bd 9a dd b1 bd cb 56 e5 3b 9a 0a 73 3c
       -0.03442313 -0.08684845 0.006998872 0.014834071

encoder.post_mp.3.bias f4 [64]
000000 75 26 b9 3d 58 a2 63 bd 0e 79 c9 3d 98 7f f1 bd
       0.09040538 -0.055574745 0.098375425 -0.11791915
000010 0e b0 74 3c 8e ea e5 3d 3e 3c c5 3d f9 2d b4 bd
       0.014934553 0.112263784 0.09630631 -0.08797831
000020 d6 7f 1a 3d 58 be cb 3d 93 79 50 bd b0 92 95 3d
       0.03771957 0.099484146 -0.050897192 0.07303369
000030 ee 95 c8 bd cf 10 42 bd 6d fa f0 bd be ab 87 3c
       -0.09794222 -0.04737931 -0.11766515 0.016561385
000040 c8 2a db 3c 08 be bb 3d 6a 82 9b 3d 12 89 12 3d
       0.026753798 0.09167105 0.07593234 0.03577525
000050 29 54 9a 3d e2 ae dc bc 3e 5a ca 3c 0a 89 90 3d
       0.075355835 -0.02693886 0.024701234 0.07057388
000060 af 85 1c bd 8c 86 e6 3d dc 75 38 3d fc 0f 8e bd
       -0.038213428 0.112561315 0.045034274 -0.069366425
000070 83 43 e4 3d 22 37 02 3d 87 47 ab bd f5 90 7d 3d
       0.11145689 0.03179086 -0.08363252 0.06190582
000080 ab a9 84 3c ba bc 4a bd a9 7b 5c 3c 99 56 9d bd
       0.016194185 -0.04949639 0.013457217 -0.07682533
000090 a4 20 d1 bd 8c 9e 74 bd 4b 2f ba 3d 98 a3 26 3d
       -0.10211304 -0.059721515 0.09091052 0.04068336
0000a0 0c 2f 55 bd 16 a8 e0 bd b5 49 cf bd 46 f2 01 be
       -0.05204682 -0.1096956 -0.101214804 -0.12690076
0000b0 b9 6c 8d bd d1 4f ce 3d 3e 52 7b 3d f0 bc f7 bd
       -0.06905503 0.100738175 0.06135773 -0.12096584
0000c0 ed 0e 56 bd d7 5c b0 bd 63 79 a2 3d 29 0e 1c bd
       -0.052260328 -0.08611458 0.07933309 -0.03809944
0000d0 a3 21 68 3d 00 9f 8f bd 6b 62 32 3b 01 38 f4 3d
       0.056672703 -0.07012749 0.0027219306 0.119247444
0000e0 7b 9a 99 bd 19 b3 00 be 80 c2 13 3c 3b 9e 4e 3d
       -0.07500168 -0.1256832 0.00901854 0.05044387
0000f0 31 5f 00 3e 7f 5e 06 bd 31 7c 10 3d 2a ae a8 bd
       0.12536313 -0.032804962 0.03527469 -0.08236344
